Radiomics_local_global_framework/models/lasso_feature_selection/Neural_Network/global_flair_t1ce___local_t2/model.pt (torch, 256436 bytes, 5 tensors)

fc1.weight f4 [100, 583]
0	0x3c914a2e	0.017735567
1	0x3cb3103d	0.021858329
2	0x3be61794	0.0070218537
3	0x3d5e1fde	0.05422961
4	0x3d56890c	0.05237679
5	0x3d175df0	0.03695482
6	0x3c114940	0.008867562
7	0x3a9fb2f4	0.001218407
8	0xbd895044	-0.067047626
9	0xbd5549b1	-0.05207223
10	0x3d574eb5	0.052565295
11	0x3c3658a5	0.011129533
12	0xbc917258	-0.017754719
13	0xbc45031f	-0.01202467
14	0x3cd64f7d	0.02616095
15	0xbcf001c8	-0.029297724
16	0xbb4c1b25	-0.003114411
17	0xbbacd387	-0.0052742395
18	0xbcfbb0ed	-0.030724013
19	0xbd0fb318	-0.035082906
20	0x3cc0add3	0.023520386
21	0x3c582a0c	0.0131936185
22	0xbcbe2f35	-0.02321587
23	0x3c032d25	0.008006369
24	0xbb87674c	-0.004132187
25	0x3d547a57	0.051874485
26	0x3bbc02be	0.0057376316
27	0x3ce4d42c	0.027933203
28	0xbdd7d28e	-0.10538207
29	0x3b7f716d	0.003897752
30	0x3bca3faa	0.00617214
31	0xbcb83d55	-0.022490183
32	0x3d3d852f	0.046269592
33	0xbcc3531d	-0.023843342
34	0xbc381482	-0.011235358
35	0xbc378909	-0.011202105
36	0x3d206d13	0.03916652
37	0xbd0bbc2c	-0.034115
38	0x3cd847db	0.02640145
39	0xbcaa00a8	-0.020752266
40	0x3d7bcdf5	0.061475713
41	0xbe05b020	-0.13055468
42	0x3d87fab8	0.06639618
43	0xbcc0dd59	-0.023543047
44	0xbcc4cd16	-0.024023574
45	0x3d1c2a4c	0.038126275
46	0x3d1b8d0e	0.037976317
47	0xbd042670	-0.03226322
48	0x3d081a87	0.033228423
49	0xbd833ec9	-0.0640846
50	0x3cd1146f	0.025522439
51	0xbcb5ba6e	-0.022183623
52	0x3d6a0180	0.057130337
53	0xbd9580a9	-0.072999306
54	0x3cd3d6f9	0.025859343
55	0x3be2e1f8	0.00692391
56	0x3c3171fd	0.0108304
57	0xbcbdd842	-0.023174409
58	0xbcaef44a	-0.02135672
59	0x3ce173ac	0.027520977
60	0xbc31eb7b	-0.010859366
61	0xbd379b48	-0.044825822
62	0x3d312e5d	0.043257106
63	0xbb362aba	-0.0027796463
64	0x3d811cd1	0.063043244
65	0xbc9659dc	-0.018353395
66	0xbc17bfe3	-0.009262058
67	0xbc65747c	-0.014004823
68	0xbd834c34	-0.06411019
69	0x3ce515f4	0.02796457
70	0xbcbc65a1	-0.02299768
71	0xbdad9447	-0.08475547
72	0x3d1e6c7a	0.03867767
73	0xbccae3f5	-0.024766902
74	0x3d128148	0.035767823
75	0xbd2744b0	-0.04083699
76	0xbbd94a5c	-0.006631179
77	0xbd645135	-0.055741508
78	0x3b9e73ba	0.004835573
79	0x3ceeac0f	0.029134778
80	0x3cb2fae0	0.021848142
81	0x3dad205c	0.08453438
82	0xbd024606	-0.03180506
83	0xbaea430f	-0.0017872768
84	0x3ca2da51	0.019879492
85	0x3c3c859c	0.011506464
86	0x3cc0e9e4	0.023549028
87	0xbdb4f097	-0.08834951
88	0x3b12ee41	0.0022419842
89	0xbd07f952	-0.033196755
90	0x3c00aa45	0.007853095
91	0xba503b08	-0.00079433667
92	0x3d3d0305	0.046145458
93	0x3e236e3f	0.15960024
94	0x3b56c8ca	0.0032773488
95	0xbd9eb302	-0.07748987
96	0x3bf93ee6	0.007606375
97	0xbcb54feb	-0.022132834
98	0x3bbfa595	0.0058485963
99	0x3d693e44	0.056944147
100	0xb9b84a41	-0.00035150538
101	0x3e09aa6a	0.13443914
102	0xbd0cbbc0	-0.03435874
103	0xbc2ab3fb	-0.010418887
104	0x3cde58b5	0.027141908
105	0x3d3d4fbe	0.046218626
106	0x3d326cd3	0.043560814
107	0xbd6a3bc4	-0.057185903
108	0xbd84ebe8	-0.06490308
109	0xbcf7039c	-0.030153088
110	0x3d9124f2	0.07087125
111	0xbd809864	-0.06279066
112	0xbd73b88d	-0.059502173
113	0x3b03e79f	0.002012707
114	0x3c3cfbcb	0.0115346415
115	0xbd39ad77	-0.045331445
116	0x3ce3f513	0.027826821
117	0xbc958e7c	-0.018256418
118	0xbb02c7a5	-0.0019955423
119	0xbcce3d41	-0.025175693
120	0xbbd9e655	-0.006649772
121	0xbdd471e7	-0.10373288
122	0x3c377dfe	0.0111994725
123	0x3d3d9387	0.04628327
124	0x3cf05df3	0.029341673
125	0x3d2008b8	0.039070815
126	0xbd160382	-0.03662444
127	0xbb8ceeb6	-0.0043009175
128	0x3d68cf32	0.05683822
129	0xbca6352e	-0.02028903
130	0x3ddc4ec1	0.107572086
131	0xbdd74f88	-0.10513216
132	0x3d001457	0.031269398
133	0xbd136173	-0.035981607
134	0xbd8c42b2	-0.068486586
135	0xbd0b2394	-0.033969477
136	0xbda1387d	-0.078721024
137	0xbc344327	-0.0110023385
138	0x3d6c544d	0.057697583
139	0x3c5a63ea	0.013329485
140	0xbcad1271	-0.021126958
141	0xbd313029	-0.04325882
142	0x3d5123fd	0.05105971
143	0xbd0cdfcb	-0.034393113
144	0xbd3ad9ff	-0.045618054
145	0xbb0d5359	-0.0021564572
146	0xbcff77aa	-0.03118499
147	0x3daef102	0.08542062
148	0x3c2385f9	0.009980672
149	0x3c4e7633	0.012601423
150	0xbd92c966	-0.0716732
151	0x3c397c40	0.011321127
152	0x3c71d601	0.014760495
153	0xbd2b0307	-0.041750934
154	0xbd49b846	-0.049248002
155	0x3d09c569	0.03363553
156	0xbd160bdc	-0.036632404
157	0xbcab7496	-0.020929616
158	0x3d64756b	0.05577604
159	0xbbc52117	-0.0060159075
160	0x3b9baf7f	0.0047511454
161	0x3ceb7afa	0.028745163
162	0x3c343084	0.010997895
163	0xbcbd0253	-0.023072397
164	0x3cd50ca3	0.026007002
165	0xbc8e8cfb	-0.01740121
166	0x3da74ba5	0.08168725
167	0xba806213	-0.0009794853
168	0x3d4fcdff	0.050733563
169	0x3d512662	0.051061995
170	0xbd02f5a0	-0.031972528
171	0x3d1013f9	0.035175297
172	0xbcc1011c	-0.0235601
173	0xba86225b	-0.0010233627
174	0xbe085429	-0.13313355
175	0xbc6a079e	-0.014284043
176	0xbd582cab	-0.052776974
177	0xbdb6bb35	-0.08922426
178	0xbca9d774	-0.020732619
179	0x3d0bcc2a	0.034130253
180	0x38faf1e8	0.000119659875
181	0x3d342877	0.043983903
182	0xbc8448ab	-0.016147932
183	0x3c819e44	0.015822537
184	0xbc7b3c36	-0.01533418
185	0xbe1fe5bd	-0.15614982
186	0xbcb2c7a7	-0.021823717
187	0xbc804ca1	-0.01566154
188	0x3d0d019b	0.03442536
189	0xbb2aa8c4	-0.0026040534
190	0xbcbc968f	-0.02302101
191	0x3d7b4d66	0.06135311
192	0x3cce150e	0.025156524
193	0xbd931bf1	-0.07183064
194	0x3bb1b096	0.005422662
195	0xbbd3bd62	-0.006461785
196	0xbc370936	-0.01117163
197	0xbd61c63f	-0.055120703
198	0x3d16c5e0	0.036809802
199	0xbd244c68	-0.04011193
200	0xbc46b67c	-0.012128469
201	0x3c3f3597	0.011670492
202	0x3b74b0fb	0.0037336934
203	0x3ab3cec8	0.0013718242
204	0xbd1ec6d2	-0.03876383
205	0xbc532025	-0.012886082
206	0x3bbd71c6	0.005781385
207	0x3ac42ef0	0.0014967602
208	0x3d25b68a	0.040457286
209	0xbd175475	-0.03694578
210	0xbc593afd	-0.013258693
211	0x3ca0e2d6	0.019639414
212	0x3d637f16	0.05554112
213	0x3d2f9629	0.042867813
214	0xbd689dbe	-0.05679106
215	0x3d9c2afa	0.07625385
216	0x3e69d0ce	0.22833559
217	0x3ceb9fe5	0.028762767
218	0xbd2d0685	-0.042242546
219	0xbdb3bf82	-0.087767616
220	0xbca40578	-0.020022139
221	0x3b4ec024	0.003154763
222	0xbc44e2b2	-0.012016939
223	0x3d79e37a	0.061007954
224	0x3d2a925d	0.04164349
225	0x3df566c9	0.11982495
226	0xbd4b59bc	-0.049646124
227	0x3d28d359	0.04121718
228	0x3980c753	0.0002456257
229	0xbdee61dd	-0.1163976
230	0x3e29cb15	0.16581376
231	0xbc18580f	-0.009298339
232	0x3d8dd2c2	0.069249645
233	0xbdbf08b4	-0.09327832
234	0x3c1cfaff	0.0095813265
235	0x3ca47a51	0.020077856
236	0xbda17d79	-0.0788526
237	0xbd695d45	-0.056973714
238	0x3e8ab585	0.27091613
239	0x3cf7531b	0.030190995
240	0xbcffd111	-0.03122762
241	0x3da7fe33	0.082027815
242	0xbe05eb07	-0.13077937
243	0xbc19ad80	-0.0093797445
244	0xbda74503	-0.0816746
245	0x3d2ce29e	0.042208306
246	0x3e61d6f3	0.22054653
247	0xbc588045	-0.013214176
248	0xbdbf4bb7	-0.09340613
249	0x3d8cc940	0.06874323
250	0x3d0ceb70	0.03440422
251	0xbb3e1397	-0.0029003376
252	0xbf0ea7a9	-0.5572458
253	0x3d25e328	0.040499836
254	0x3cc258be	0.023723956
255	0x3e047d63	0.12938456

fc1.bias f4 [100]
0	0xbe83c6a2	-0.25737482
1	0xbea37d09	-0.31931332
2	0xbe7157a0	-0.23568583
3	0xbe9b95b9	-0.30387667
4	0xbe959092	-0.2921186
5	0xbe84fc99	-0.25973967
6	0xbe7ab4c7	-0.24483024
7	0xbea46c16	-0.32113713
8	0xbe2861c0	-0.16443539
9	0xbe11248e	-0.14174101
10	0xbef65265	-0.48109737
11	0xbe3bac3e	-0.18327424
12	0xbe85c2a5	-0.26125064
13	0xbe85ffde	-0.26171774
14	0xbe8fd461	-0.2809172
15	0xbe6bb96e	-0.23019955
16	0xbe619fb2	-0.22033575
17	0xbe35c195	-0.17749627
18	0xbe8d6c07	-0.2762148
19	0xbe900201	-0.2812653
20	0xbe804186	-0.2504999
21	0xbe3df764	-0.18551403
22	0xbe8ad411	-0.2711492
23	0xbe549f3d	-0.2076387
24	0xbecef4b0	-0.40421057
25	0xbe655e50	-0.22399259
26	0xbe5cad0d	-0.21550389
27	0xbe86b2a5	-0.2630817
28	0xbe9660cb	-0.29370722
29	0xbef99fe1	-0.4875479
30	0xbe789095	-0.24273904
31	0xbe651fcd	-0.22375412
32	0xbeff6f2f	-0.49889514
33	0xbeb42f40	-0.351923
34	0xbeb4ace5	-0.35288158
35	0xbe5e25e2	-0.21694139
36	0xbec29621	-0.38005164
37	0xbe8be208	-0.27320886
38	0xbe9f6d7f	-0.31138226
39	0xbed78df6	-0.42100495
40	0xbe957800	-0.29193115
41	0xbeda614e	-0.42652363
42	0xbeb1c0ef	-0.3471751
43	0xbedb454f	-0.42826316
44	0xbea35f8a	-0.31908828
45	0xbef5438a	-0.4790309
46	0xbe5b2400	-0.21400452
47	0xbe972c84	-0.2952615
48	0xbe90a33e	-0.28249544
49	0xbe7bcb4a	-0.24589267
50	0xbe8ab1da	-0.27088815
51	0xbefa2229	-0.48854187
52	0xbe979935	-0.29609075
53	0xbe7ce1f5	-0.24695571
54	0xbee1bc9b	-0.44089207
55	0xbe9dfd98	-0.3085754
56	0xbf0767ae	-0.5289258
57	0xbedd873e	-0.43267244
58	0xbee1af26	-0.4407894
59	0xbe715b77	-0.23570047
60	0xbebe2beb	-0.37142882
61	0xbeb65342	-0.35610396
62	0xbec5992a	-0.38593417
63	0xbecfb977	-0.40571186
64	0xbe2c1708	-0.1680566
65	0xbf065567	-0.52474064
66	0xbef4a069	-0.47778633
67	0xbedbe96a	-0.42951518
68	0xbe2e8f98	-0.17046964
69	0xbf03d017	-0.51489395
70	0xbead5b67	-0.33858797
71	0xbe92621a	-0.2859047
72	0xbe436ac5	-0.19083698
73	0xbeb03ecc	-0.3442291
74	0xbeb35bbc	-0.35030925
75	0xbeb36db7	-0.35044643
76	0xbea94548	-0.3306067
77	0xbf0ef003	-0.5583498
78	0xbe1fa87f	-0.1559162
79	0xbecc160f	-0.3986058
80	0xbeb79d2e	-0.35862106
81	0xbea6e62e	-0.32597488
82	0xbdfb3366	-0.12265663
83	0xbea56df5	-0.32310453
84	0xbea298dd	-0.3175725
85	0xbea4e6b6	-0.32207268
86	0xbeaab1a4	-0.33338654
87	0xbe81b1b3	-0.25330886
88	0xbf1e2b2e	-0.61784637
89	0xbe6ce260	-0.2313323
90	0xbe73413f	-0.23755358
91	0xbefcd092	-0.49377877
92	0xbe517688	-0.20455372
93	0xbe3163f5	-0.17323287
94	0xbe359a8a	-0.17734733
95	0xbe8d4fd7	-0.27599975
96	0xbe9a59d0	-0.30146646
97	0xbe153027	-0.1456915
98	0xbede8e22	-0.43467814
99	0xbf0e32a6	-0.55546033

fc2.weight f4 [50, 100]
0	0x3e6077b3	0.21920662
1	0x3e844c89	0.25839642
2	0x3e9d41dc	0.3071431
3	0x3dda039b	0.10645219
4	0x3e984f67	0.2974808
5	0x3e8773b9	0.26455477
6	0x3e918617	0.28422615
7	0x3eb1fd3b	0.34763512
8	0x3dc32abb	0.095296346
9	0x3e9a39d6	0.3012225
10	0x3ec786ef	0.38970134
11	0x3e60a9d6	0.21939787
12	0x3e3f5816	0.18685946
13	0x3ed0415f	0.40674874
14	0x3e616d67	0.2201439
15	0x3e8e8910	0.27838945
16	0x3e8217f5	0.25408903
17	0x3e84322d	0.2581953
18	0x3e5286fa	0.20559302
19	0x3e472d6a	0.19450918
20	0x3e8ba606	0.27275103
21	0x3ede3609	0.434006
22	0x3e816d45	0.2527868
23	0x3e4c8093	0.19970922
24	0x3ed2ff39	0.41210344
25	0x3e9fe961	0.3123274
26	0x3e3095cb	0.17244641
27	0x3ecc41c5	0.39893928
28	0x3e8e66d4	0.27812827
29	0x3e6c60cb	0.23083799
30	0x3ece5973	0.4030262
31	0x3e475bc0	0.19468594
32	0x3eda8ea8	0.42686963
33	0x3e8b6925	0.27228656
34	0x3edff1d8	0.437392
35	0x3e8d5dcf	0.27610633
36	0x3e6a4a92	0.22880009
37	0x3e6b66ee	0.22988483
38	0x3e238050	0.15966916
39	0x3e8afdf6	0.27146882
40	0x3ea45eee	0.32103676
41	0x3e37bc47	0.17942916
42	0x3e70877b	0.23489182
43	0x3f1acd4c	0.6046951
44	0x3e97624f	0.2956719
45	0x3ea49139	0.32142046
46	0x3e0fd2fe	0.14045331
47	0x3efafe27	0.49022028
48	0x3e0a3021	0.13494922
49	0x3e0bb8d1	0.1364472
50	0x3ecc3450	0.3988366
51	0x3e9b5e20	0.3034525
52	0x3e22377b	0.15841477
53	0x3eaf005d	0.34179965
54	0x3e9a9d19	0.3019798
55	0x3eb582cb	0.3545135
56	0x3ef93d49	0.4867957
57	0x3e871dbd	0.26389876
58	0x3de9471b	0.113905154
59	0x3e68e706	0.22744378
60	0x3ebb7136	0.3660981
61	0x3e3fa7df	0.18716381
62	0x3ddd873c	0.108168095
63	0x3e8edb9e	0.2790193
64	0x3e97e974	0.29670298
65	0x3e48c12d	0.1960494
66	0x3ec7a250	0.38991022
67	0x3e2a227f	0.16614722
68	0x3e65d24c	0.22443503
69	0x3eb604c4	0.3555051
70	0x3e245683	0.16048627
71	0x3e0f3358	0.1398443
72	0x3e509734	0.2037018
73	0x3e53e9ed	0.20694704
74	0x3ecef3f2	0.4042049
75	0x3e8f98ac	0.28046167
76	0x3e72d0ae	0.23712417
77	0x3eeba85a	0.4602688
78	0x3e6636dd	0.22481866
79	0x3e4b6968	0.19864428
80	0x3e368519	0.1782421
81	0x3e8ab521	0.27091315
82	0x3e915ae3	0.28389654
83	0x3e873df5	0.26414457
84	0x3e4720c4	0.19446093
85	0x3ebc6a7a	0.36799985
86	0x3ed6b8a4	0.41937745
87	0x3e845969	0.25849465
88	0x3ed01f86	0.4064905
89	0x3e90865f	0.28227517
90	0x3e81e5a1	0.25370505
91	0x3e82b384	0.25527585
92	0x3e25824c	0.16162986
93	0x3e6ab2e1	0.229198
94	0x3e9ca080	0.30591202
95	0x3e1f71b0	0.15570712
96	0x3e8d5a0c	0.27607763
97	0x3e492255	0.19642003
98	0x3ecbb643	0.39787492
99	0x3ec4e488	0.38455606
100	0x3e2b95d3	0.16756372
101	0x3e437289	0.1908666
102	0x3ea024bc	0.31278026
103	0x3e710e61	0.23540641
104	0x3e36c3ae	0.17848083
105	0x3eaac9f0	0.3335719
106	0x3e9a6b1d	0.30159846
107	0x3e9a6294	0.30153334
108	0x3e2428af	0.16031145
109	0x3e8e4b83	0.27791986
110	0x3ea41739	0.32048967
111	0x3e797356	0.24360403
112	0x3e470411	0.19435145
113	0x3e8d6187	0.2761347
114	0x3e40e861	0.18838646
115	0x3e87d598	0.26530147
116	0x3e513ceb	0.20433395
117	0x3e96a562	0.29423052
118	0x3e9d84fa	0.30765516
119	0x3ea736c3	0.32658967
120	0x3e81dd74	0.25364268
121	0x3eb66323	0.3562251
122	0x3e8e4c0f	0.27792403
123	0x3e315d92	0.1732085
124	0x3ec97d9e	0.3935365
125	0x3e4e8f8e	0.2017195
126	0x3e906672	0.2820316
127	0x3ec0e755	0.37676492
128	0x3e4320f4	0.1905554
129	0x3e62fb7f	0.2216625
130	0x3e87106b	0.26379713
131	0x3e885800	0.2662964
132	0x3ee5244e	0.4475426
133	0x3e1b9545	0.1519366
134	0x3ecf4bb6	0.4048745
135	0x3e421a98	0.18955457
136	0x3e93b468	0.28848577
137	0x3e586e2c	0.21135777
138	0x3debe778	0.115187585
139	0x3e8218ce	0.2540955
140	0x3e45b5fe	0.19307706
141	0x3e18add7	0.14910065
142	0x3e434c0d	0.1907198
143	0x3ef8555c	0.48502624
144	0x3eb6da26	0.3571331
145	0x3e5aa080	0.21350288
146	0x3e519b84	0.20469481
147	0x3ec841f8	0.3911283
148	0x3e406907	0.18790065
149	0x3e726274	0.2367037
150	0x3ec25b90	0.37960482
151	0x3e819e53	0.25316104
152	0x3e5d9fc9	0.21642984
153	0x3e83e918	0.25763774
154	0x3e967e51	0.29393247
155	0x3ea2ae0a	0.31773406
156	0x3eae6555	0.34061685
157	0x3e2bc184	0.16773039
158	0x3e88bbd0	0.2670579
159	0x3e97fbd5	0.2968432
160	0x3e9c9fa3	0.30590543
161	0x3e1ba210	0.1519854
162	0x3e891a51	0.2677789
163	0x3e3a15d4	0.1817239
164	0x3e116d02	0.1420174
165	0x3e55001d	0.20800824
166	0x3ebbea94	0.36702406
167	0x3e4e8e5f	0.20171498
168	0x3df5103e	0.119659886
169	0x3ed8aa4b	0.42317423
170	0x3ea10031	0.3144546
171	0x3e81c378	0.25344443
172	0x3ddd2bbb	0.107993565
173	0x3e5f61c5	0.2181464
174	0x3e4c4433	0.19947891
175	0x3ead4975	0.33845106
176	0x3ea18a38	0.31550765
177	0x3ea9a8e2	0.3313666
178	0x3e6ef4e1	0.23335601
179	0x3e467e73	0.19384174
180	0x3e322741	0.17397787
181	0x3e7b7ec8	0.24560082
182	0x3e5baa33	0.21451645
183	0x3e7cc351	0.24683882
184	0x3e047ee9	0.12939037
185	0x3ea80237	0.3281419
186	0x3e691d19	0.22765006
187	0x3e78a542	0.24281791
188	0x3e713d2a	0.23558488
189	0x3e8ae44d	0.27127305
190	0x3e55f223	0.20893149
191	0x3e21dc4e	0.15806696
192	0x3e5e6fdd	0.2172236
193	0x3e49bc9e	0.19700858
194	0x3e352ab4	0.17692071
195	0x3ea20ee3	0.31651983
196	0x3e4be5ab	0.1991183
197	0x3eabcfd5	0.33557
198	0x3e80a74f	0.25127646
199	0x3e56aee9	0.2096516
200	0x3dfcb8a9	0.12339909
201	0x3e77bb18	0.24192464
202	0x3e32b5a6	0.17452106
203	0x3e206547	0.15663634
204	0x3e500caf	0.20317338
205	0x3e247f72	0.16064242
206	0x3e3351b6	0.17511639
207	0x3efec5ae	0.49760193
208	0x3e009d92	0.12560108
209	0x3e45f4ee	0.19331715
210	0x3eda3dea	0.42625362
211	0x3e951023	0.29113874
212	0x3e5f717e	0.21820638
213	0x3ebc30c1	0.36755946
214	0x3e858148	0.26075196
215	0x3e557e86	0.20849046
216	0x3e6fe878	0.23428524
217	0x3e4e9632	0.20174482
218	0x3e7fd502	0.249836
219	0x3eb20687	0.34770605
220	0x3e8da8fe	0.27667993
221	0x3ebf8ae4	0.37410653
222	0x3e3a428e	0.18189451
223	0x3e7a2e43	0.2443171
224	0x3ebeb945	0.37250724
225	0x3e3954d7	0.1809877
226	0x3e58463f	0.21120547
227	0x3e790af6	0.24320588
228	0x3e5aa35a	0.21351376
229	0x3e7f44f9	0.24928655
230	0x3e989aac	0.29805505
231	0x3e8fd228	0.28090024
232	0x3ec86516	0.39139622
233	0x3e92dad4	0.28682578
234	0x3ed62f72	0.41833073
235	0x3e99a6d1	0.30010083
236	0x3e80af17	0.25133583
237	0x3ea14cdb	0.3150395
238	0x3e5dd191	0.21661974
239	0x3eb4789d	0.3524827
240	0x3e9a087e	0.30084604
241	0x3e3a2ba4	0.1818071
242	0x3e884af7	0.26619694
243	0x3f17a6ec	0.5923908
244	0x3e5c4ead	0.21514387
245	0x3e9df31c	0.3084954
246	0x3e924a2c	0.28572214
247	0x3ea57c4e	0.323214
248	0x3e78ba3a	0.2428979
249	0x3e2e6d40	0.17033863
250	0x3e9919ba	0.2990244
251	0x3ead348e	0.3382916
252	0x3e70ff55	0.23534901
253	0x3ebbdfba	0.36694127
254	0x3e76264c	0.24038047
255	0x3e4cd89e	0.20004508

fc2.bias f4 [50]
0	0xbec934f3	-0.3929821
1	0xbea47475	-0.321201
2	0xbed272d2	-0.41103226
3	0x3f079cdd	0.5297373
4	0xbeb4818f	-0.35255095
5	0xbe8af97f	-0.27143475
6	0x3f15aff1	0.5847159
7	0x3f8c9454	1.0982766
8	0x3f3dc4df	0.74128526
9	0xbed3890a	-0.4131549
10	0xbea1bb65	-0.31588283
11	0xbeb46085	-0.3522989
12	0xbe80aeed	-0.25133458
13	0xbeb6dae2	-0.3571387
14	0xbec9bc67	-0.39401552
15	0xbebfd083	-0.3746377
16	0xbf234aac	-0.63785815
17	0x3ec994e2	0.393714
18	0x3f338583	0.701256
19	0xbe7eb5cb	-0.24874036
20	0xbf099b47	-0.5375256
21	0xbebc5b9d	-0.36788645
22	0x3f5f596e	0.87245834
23	0xbe8385ec	-0.25688112
24	0xbe5bf06b	-0.21478431
25	0x3ee1843a	0.44046193
26	0xbe839c71	-0.25705293
27	0xbe9e0dc1	-0.30869868
28	0x3f233678	0.6375499
29	0x3f4c51de	0.7981242
30	0x3f5fabbd	0.87371427
31	0xbe8b5931	-0.27216485
32	0x3f8b4a4f	1.0882052
33	0x3f3781c2	0.7168237
34	0xbe90cba3	-0.28280362
35	0xbeac38cb	-0.3363708
36	0xbe3d86f6	-0.18508515
37	0xbebc39a4	-0.36762726
38	0xbd8a32b0	-0.06747949
39	0x3f1d3fb3	0.6142532
40	0xbe7772b0	-0.24164844
41	0xbec0c82d	-0.37652722
42	0xbe5a41bd	-0.2131414
43	0x3f3c9453	0.73663825
44	0x3f3f1a82	0.7464982
45	0x3f5fe51a	0.87458956
46	0xbe8852ef	-0.26625773
47	0xbe9e85e1	-0.30961516
48	0x3f7b807e	0.9824294
49	0x3f59ec61	0.8512631

fc3.weight f4 [1, 50]
0	0x3eb51bd1	0.35372785
1	0x3ecf114c	0.40442884
2	0x3ebec052	0.37256104
3	0xbf8680ec	-1.0508094
4	0x3ed3189b	0.4122971
5	0x3eb2b434	0.3490311
6	0xbfa457ae	-1.2839258
7	0xbfc70036	-1.5546939
8	0xbfb053b8	-1.3775549
9	0x3eacacdb	0.33725628
10	0x3eacc057	0.33740494
11	0x3eaf629c	0.3425492
12	0x3eebedc9	0.46079853
13	0x3ec752e7	0.38930437
14	0x3ec9da06	0.3942415
15	0x3ec5e658	0.386523
16	0x3eedb494	0.46426833
17	0xbf6d807b	-0.9277417
18	0xbfa00300	-1.2500916
19	0x3ecb2a2e	0.39680618
20	0x3ec0e93d	0.37677947
21	0x3ec79365	0.3897964
22	0xbf2d1bc2	-0.6762048
23	0x3eeb2891	0.45929387
24	0x3ec57b75	0.38570753
25	0xbf8382ee	-1.0274332
26	0x3ed1041c	0.40823448
27	0x3ec8e1c9	0.3923476
28	0xbf999b2d	-1.2000481
29	0xbf968095	-1.175799
30	0xbfc967ad	-1.5734764
31	0x3ebd30d8	0.36951327
32	0xbfaa592d	-1.3308464
33	0xbfb6a029	-1.4267627
34	0x3ece36dd	0.40276232
35	0x3ee1c188	0.44092965
36	0x3ec70ab5	0.38875356
37	0x3eca9f68	0.39574742
38	0x3e9e0cbc	0.3086909
39	0xbf5d2aaf	-0.86393255
40	0x3ede0f6a	0.43371135
41	0x3ed45ded	0.4147791
42	0x3ec828a8	0.39093518
43	0xbf758a99	-0.9591461
44	0xbf62c2a4	-0.8857825
45	0xbfc280ce	-1.5195558
46	0x3ed06a14	0.4070593
47	0x3ec1f26a	0.3788026
48	0xbfa10b14	-1.2581506
49	0xbfab36b8	-1.3376074
