Radiomics_local_global_framework/models/Stochastic Gates_feature_selection/Neural_Network_256_dim/global_flair_t1ce___local_flair_t1ce/Intersection_mask_1_2/model.pt (torch, 569960 bytes, 7 tensors)

fc1.weight f4 [256, 392]
00000000: 2cad f63c 2f91 b3bd 229f 883d 7d13 a6bd
00000010: cc7d 283e fa79 c93a 75f3 c5bd a231 87bd
00000020: 043b efbc 23a8 203d 7bac 2e3e 1054 f03d
00000030: 11c6 fdbb bc32 093d a845 4bbd e4c4 4b3c
00000040: 7764 0f3e 0c3a f43b ee84 74bd 038a 04be
00000050: 259d 343d f8c4 69bd 177c 1b3e 14e3 92bd
00000060: 60bb adbd 6b4e 73bd 0fc7 2fbd 2c39 09be
00000070: 3922 b53c 4653 713d 1118 3a3d d63d 90bd
00000080: d13b 103d 44ee da3d 84d4 a13d a9d4 4a3d
00000090: addf a53c e1ed b6bd 6c36 3b3d 05ca 4ebc
000000a0: 750a 53bd 7ec0 fb3c 88fb c0bd 6168 2b3d
000000b0: 2d7b 32bd 3c92 763d 72c0 ff3c b680 dfbd
000000c0: 818e df3d 4b0c a53d 3372 313d 4817 5c3d
000000d0: 58b4 433d 2fe4 053d d5e8 343d 7210 2ebe
000000e0: 4700 d1bd 866a 1fbd c600 f7bc c2da 0a3b
000000f0: f423 62be 304f 44bd 2e6b 353d 3b49 00bc
00000100: 3dab 8c3b 210c 123e b8aa 9b3d 03b6 de3d
00000110: 10d6 04be 15bc 133e 9137 eb3d 6b6f c4bc
00000120: 8ae8 7bbc c8c7 5cbc 1b79 1d3e 86b5 623e
00000130: baba 9a3d ea18 8f3d d518 cabc 17c7 6c3d
00000140: 6cad ed3c 3ac5 1cbd 1040 3d3d 3dc1 2dbd
00000150: 5151 a73d 438f d93d 1262 46be 435d 9ebd
00000160: 2ef0 c4bb 4119 543d 026c e2bc 93c9 0dbe
00000170: 929f 193d 5c55 e4bc 32e9 69bd 5e2f 7b3d
00000180: 11df d43d fe6b 9ebc 1ace 8ebc 61c8 81bd
00000190: dbdb bf3c ec9a 9bbd 2054 ac3d f1c5 17bc
000001a0: d8b3 66bd 2b3e 923d a9cf dabb 703f 753c
000001b0: d012 59be 8d25 8a3c af1d 7f3d 39da 04bc
000001c0: af04 e0bc b9bb 01be 30d3 323d 5fba c83c
000001d0: b0eb a53c cc9d 6abc dc34 1e3d 8f96 913d
000001e0: aad9 a73b 4d17 8a3c 9828 8abd d121 773c
000001f0: 2102 453d e2b5 6d3d 8da7 64bd 7e92 943d
00000200: 0b67 fc3c 8cc5 a03d b9fb e43c 0c2d a03d
00000210: 3d2d 54bd d311 4a3d 0499 613d 4e31 6f3c
00000220: f1b9 193d 03f2 28bc d0fc bf3d 9185 343d
00000230: af3f 7a3d 0f4d 033d 361c 1dbd 61dc b1bc
00000240: 6854 7d3d d663 e4be 1da2 043e 488d d3bd
00000250: abc2 9cbc b4ef e9bd 72f9 7dbd ad25 08bd
00000260: ecdd 81bb 5307 9bbd dca4 963d eef7 173e
00000270: 8ae3 d43d 576e 08be 2f72 773a 55fd 70be
00000280: 33b0 af3d 82e7 2fbc 15f9 15be 00b9 60bc
00000290: 656c 0c3e 5dc7 163e cd29 c83c f781 f0bc
000002a0: 993d 1d3e 62fe 98bc a3a1 c7bd fc60 8bbd
000002b0: 1569 09bd 3b0d b4bd 5408 6c3e 656a 70be
000002c0: 8c68 8f3c 097a ca3d 6445 183e 492f 0d3e
000002d0: f23b 75be 6da4 f03d 2401 553d b35d 1bbe
000002e0: 1529 b5bd f9f7 d8bc 40ea 8abb be07 3d3e
000002f0: edd9 033d cf5c c4bd 4e4f 593d 15cc 113e
00000300: 3022 70bd 880d acbd 981a 1fbc 677e 6c3e
00000310: 87b3 13be 219b 3b3d 3aef abbd 5556 83bd
00000320: 2e7d 6fbd 2dad 36bd 2dc7 02bd d1cb 00bd
00000330: 559e 593e 0e14 16be d295 09be bf04 f63d
00000340: 1843 93be d173 cdbe 4e0f a3bd 3ff8 77be
00000350: 9405 893d 9445 ef3d 6dfe 95bc 60d8 f4bc
00000360: 1da4 a43d a99a a2bd a7fb 14be 2af2 673d
00000370: 1591 abbb 48b2 d53d 36ad 9bbc 6ceb 84bd
00000380: 8566 8eba 1ecb c93c c07b 08be 7823 1abd
00000390: df0e 5cbe 925e 9b3d 8209 563d 9ecd 4ebb
000003a0: 7966 633d 48c5 373d 8772 eebd 531f 02bc
000003b0: 0194 78bd 1253 b33d 5fd3 4d3c d510 c7bc
000003c0: 32e8 7bbc 7b39 8ebc 4331 5a3d 6818 843c
000003d0: 4ce7 cb3d 2d13 22bd 6bcc 8a3d d8c5 56bd
000003e0: ca85 013d a7ae 77bd 6667 163e c97d ef3d
000003f0: 26af 44bd 5949 293d 6f11 103c 1535 c43c
0.030111872 -0.08767926 0.06670977 -0.08109186 0.16454238 0.0015371435 -0.09665576 -0.066012636
-0.029202946 0.039222848 0.17057984 0.11734784 -0.0077445586 0.03349565 -0.049626976 0.012437079
0.14003168 0.007453209 -0.059697084 -0.12943272 0.044095177 -0.05707261 0.15184055 -0.07172218
-0.084830046 -0.059400957 -0.042914446 -0.13400716 0.022111045 0.058917306 0.045433108 -0.07043044
0.035213295 0.10689977 0.07901862 0.049519215 0.020248258 -0.089320906 0.045706198 -0.012621407
-0.051523644 0.030731436 -0.09422976 0.04184759 -0.0435745 0.060198054 0.031219695 -0.109132215
0.10915852 0.08058985 0.0433218 0.05373314 0.04777941 0.032688316 0.04416736 -0.16998461
-0.10205131 -0.038919948 -0.030151736 0.0021187519 -0.22084028 -0.04792708 0.044291668 -0.0078299595
0.004292874 0.1426244 0.076009214 0.1087456 -0.12972283 0.14427216 0.11485208 -0.02397891
-0.015375266 -0.013475366 0.1537823 0.22139558 0.075551465 0.06987174 -0.024670044 0.057807054
0.029013358 -0.038274027 0.046203673 -0.042420615 0.08169807 0.10623028 -0.19373348 -0.07732632
-0.006010077 0.051781897 -0.027639393 -0.13846426 0.037505694 -0.027872734 -0.057107158 0.06132447
0.10394109 -0.019338604 -0.017432261 -0.06337047 0.023420265 -0.075979084 0.08414483 -0.0092635015
-0.056323856 0.07140764 -0.006677587 0.014968738 -0.21198583 0.016863609 0.062284168 -0.008108669
-0.027345983 -0.12669267 0.043658435 0.024502931 0.020253986 -0.014319848 0.03862463 0.07108795
0.005122383 0.016856814 -0.06746024 0.015083746 0.048097733 0.058034785 -0.05582385 0.07254504
0.030810853 0.07850179 0.027952062 0.07821092 -0.051800955 0.049333405 0.055077568 0.0145991575
0.037530843 -0.010311606 0.09374392 0.04407269 0.06109589 0.03205591 -0.038356982 -0.02171153
0.061848074 -0.4460742 0.12952466 -0.10329682 -0.019135794 -0.11422673 -0.062005468 -0.033239055
-0.0039632227 -0.07569756 0.07355663 0.14840671 0.10394962 -0.13323341 0.0009439317 -0.23534139
0.08578529 -0.010736348 -0.14645799 -0.013715982 0.13713224 0.14724489 0.024433995 -0.029358847
0.15355529 -0.018675987 -0.09747627 -0.06805608 -0.03354748 -0.08791586 0.23050052 -0.23478086
0.017505907 0.098865576 0.1487022 0.13787569 -0.23948649 0.11750112 0.05200304 -0.15172462
-0.088457264 -0.02648543 -0.0042393506 0.18459985 0.032190252 -0.09588014 0.053054146 0.14238007
-0.058626354 -0.084010184 -0.00971093 0.23095094 -0.14423953 0.04580224 -0.08395238 -0.06412951
-0.05846899 -0.044598747 -0.03192823 -0.031444374 0.21251805 -0.14656088 -0.13436058 0.12012624
-0.28762126 -0.40127423 -0.079619035 -0.24215792 0.06690517 0.11683193 -0.018309796 -0.029888332
0.080391146 -0.07939655 -0.14549123 0.05662743 -0.005235801 0.10434395 -0.019003492 -0.06490216
-0.0010864293 0.024632987 -0.13328457 -0.037631482 -0.21490048 0.07586397 0.05225516 -0.0031555663
0.055517647 0.044865876 -0.11642938 -0.007942039 -0.060688023 0.08756079 0.012562602 -0.024300018
-0.015375184 -0.017361393 0.053269636 0.016124919 0.09956226 -0.03956907 0.06777271 -0.052434772
0.03162173 -0.060469296 0.14687881 0.116939135 -0.048018597 0.041329715 0.008793219 0.023951093

fc1.bias f4 [256]
00000000: f0eb 69be c2c1 babe e217 42be 4f11 2abe
00000010: 12c4 43bf cde3 d0be c633 dcbd 1a88 11be
00000020: d006 0dbe e7d4 a0be b2c8 ecbd abd4 83be
00000030: 14ff 6dbe c6d9 72be c564 2abe 20d1 46be
00000040: 0c4c e1bd 0e9b 04be fa6b 42bf ea77 48be
00000050: e22b 3bbe b38c a5be f31c 4cbe d494 47be
00000060: be82 8cbe 8fcb 78be cf27 82be 782a 33bf
00000070: fc4a 25be 07b0 c2be b2ca 93be 2627 51be
00000080: 01f1 2dbf 1438 1bbe e89e 16be 37de 57be
00000090: 9f5b e0be 9434 9cbe 61f2 0bbe 2ce0 2ebe
000000a0: ec7f 73be f881 63be bd5f 84be 0226 87be
000000b0: 54c7 22be f03f 5bbe 4253 c3be cdad 6bbe
000000c0: 7c7b 39be 6c20 59be f83b 2cbe 7bba e2be
000000d0: c938 88be f817 35be ce29 1abe 2a08 c8be
000000e0: 9fe6 3ebe 97a3 63be 6b9d cebe 9fd4 8abe
000000f0: 65e4 2abe e8c1 0cbf ba93 32be 2954 eebe
00000100: 4aa0 91be a714 86be a94c a5be c26e 6dbe
00000110: bbcb 04be fea5 40be c183 3abe 6122 17be
00000120: 48ac a7be 63c7 97be af1d 8abe 9237 2fbe
00000130: fa3f d8be 5da0 b4be cc58 5fbe cefb 61be
00000140: a7fe 8fbe 45de 88be c750 50be 6860 2abe
00000150: 74d5 aebe 60b8 9dbe 20f1 5dbe 2828 c1be
00000160: 5c48 8fbe 3799 a0be a6e8 6bbd a1a8 91be
00000170: aa13 86be 32d7 4abe 48aa 1cbe bef8 1cbe
00000180: 35fb 78be ef59 04be cdec 48be f75f 23be
00000190: 7c3d 29be 3702 59be ad88 64be fa58 79be
000001a0: 991f 4dbe d7e1 19bf 7718 43be f2eb d1be
000001b0: 5875 b7be 3611 70be 9a3a 1dbf bad4 19be
000001c0: bfb2 a4be f24c 75be 11e4 6bbe 25f9 e2bd
000001d0: a290 53be 92a1 c8bd a31a 0bbe 87fd 74be
000001e0: 96d9 4dbe 035b 48be a5b9 84be cb32 05be
000001f0: b3cb a6bd 4efb 5fbe cba7 1dbe 85cd 19be
00000200: c632 73be 38bd 08be 868f 53be ce06 47be
00000210: e68f b3be a39f abbe c8dc bcbe 222b 16be
00000220: 8b31 5dbe 5b3a 6abe 80a1 88be 23f3 b2bd
00000230: 2e88 33be 2219 11be d949 24be 3ae6 81be
00000240: 3921 f6be a815 9dbe 5880 65be c9f8 8bbe
00000250: 53bc 9ebe f52f 87be e5d9 3dbe 1903 2bbe
00000260: 90e2 42be d50a 55be 3b4a 4bbe 0257 fbbd
00000270: 7fae babe 5b13 7ebe 7ade 7dbe f8a3 82be
00000280: 0b2e a9be 6d6f 57be 2569 42be b7be 0fbf
00000290: c36c 67be ede0 8abe 4f10 3ebe a161 8abe
000002a0: a67a a7be c6e8 04bf 5206 2bbe 2e30 5dbe
000002b0: 5716 81be 957e 4fbe bae7 1ebe b989 aabe
000002c0: d48c 16be 0e49 85be 6d12 c6be 391b 90be
000002d0: a555 89be 4658 99be 1443 1fbe 1d60 e6bd
000002e0: 5dac 36be 088d d2be 0c69 8abe c28b b1be
000002f0: 010a 91be 564f 19be ffeb 75be 2c7c 31be
00000300: 6786 2fbe 30a6 a7be 4185 20be 7615 6fbe
00000310: 79f0 6bbe 5902 61be 3e15 2cbe ce07 9ebd
00000320: 1b1e 54be 1dad 05be bdbe cebe 768b 09bf
00000330: 02a6 21be 0659 33be e37d bfbe 80ce 48be
00000340: c3eb dcbe 0bbf 38be 45c0 d7bd 79bc 11be
00000350: 4d3c 48be 60ae 33bf e387 44be 119d 38be
00000360: e002 2bbe bf5d 33be 4ad5 6cbe f431 75be
00000370: 8451 08be 4587 4dbe d6a6 76be 5ed2 60be
00000380: ffed 86be 7f54 eabe df59 e2bd 632c 83be
00000390: ea4a 0ebf 96ac 2bbe d64d babe 6907 a3be
000003a0: bc0e 65be b610 1fbf c5b0 8fbe 9750 95be
000003b0: 7854 d1be aeb6 4cbe ed0b 9fbe 662f 22be
000003c0: f580 1cbe 3221 87be 31d6 87be 20bf 6ebe
000003d0: 01bb 9fbe 3140 48be 6f17 16be be25 26be
000003e0: 329e eabe f038 e5be abd9 a8be 4fe0 61bf
000003f0: 19a9 1dbe f25e 7fbe 0d8b 25be ade3 8cbe
-0.2284391 -0.3647595 -0.18954423 -0.16608165 -0.76471055 -0.40798798 -0.107520625 -0.14212075
-0.1377213 -0.31412432 -0.11561717 -0.2574819 -0.23241836 -0.23715886 -0.16640003 -0.19415712
-0.11000833 -0.12949774 -0.7594601 -0.19576994 -0.18278459 -0.32333907 -0.19932918 -0.19490367
-0.27443498 -0.24296401 -0.25420997 -0.6998668 -0.16141886 -0.38024923 -0.28865582 -0.2042509
-0.6794587 -0.15158111 -0.14709055 -0.21080862 -0.438199 -0.30508864 -0.13666679 -0.17077702
-0.23779267 -0.22217548 -0.25854293 -0.26396185 -0.1589635 -0.21411109 -0.38149458 -0.23015518
-0.18113512 -0.21203774 -0.16819751 -0.44282898 -0.26605824 -0.17684925 -0.1505501 -0.3906873
-0.18642662 -0.22230373 -0.40354475 -0.27115342 -0.16688688 -0.5498338 -0.17439166 -0.46548584
-0.28442603 -0.2618763 -0.3228505 -0.23186782 -0.12968342 -0.18813321 -0.18214323 -0.14759208
-0.32748628 -0.29644307 -0.26975772 -0.17111042 -0.4223631 -0.35278597 -0.21811217 -0.22068712
-0.28123972 -0.26732078 -0.20343314 -0.16638339 -0.34147227 -0.3080473 -0.21674013 -0.3772595
-0.27984893 -0.31366894 -0.057594918 -0.28448966 -0.26186877 -0.19808653 -0.15299332 -0.15329263
-0.24314578 -0.12924932 -0.19621582 -0.15954576 -0.1652736 -0.21192251 -0.22317763 -0.24350348
-0.20031585 -0.6011023 -0.19052301 -0.41000324 -0.35831714 -0.23444065 -0.61417544 -0.15022555
-0.32167622 -0.23955134 -0.23036219 -0.11082677 -0.20660642 -0.09796442 -0.1358438 -0.23924838
-0.20102534 -0.19565968 -0.25922886 -0.13007657 -0.08144321 -0.21873209 -0.15396039 -0.15019806
-0.23749837 -0.13353431 -0.20660219 -0.1943619 -0.35070723 -0.3352023 -0.36887193 -0.14664891
-0.2160093 -0.22873823 -0.26685715 -0.08737781 -0.17532417 -0.14169744 -0.16043796 -0.2537096
-0.48072222 -0.30680585 -0.2241224 -0.27338246 -0.31003055 -0.26403776 -0.18540151 -0.167004
-0.19031739 -0.20804913 -0.19852535 -0.12272455 -0.36461255 -0.24812071 -0.247919 -0.25515723
-0.3304294 -0.210386 -0.18985422 -0.5615038 -0.22600083 -0.2712473 -0.18560909 -0.2702761
-0.3271076 -0.51917684 -0.1670163 -0.2160041 -0.25212356 -0.20263131 -0.15518084 -0.333082
-0.14702159 -0.260323 -0.38685933 -0.2814577 -0.26823154 -0.2995016 -0.15552932 -0.11248801
-0.17839189 -0.41123223 -0.2703327 -0.3467694 -0.28327945 -0.1497167 -0.24015807 -0.17332524
-0.17141114 -0.32743979 -0.15675832 -0.2334803 -0.23040952 -0.21973552 -0.16804978 -0.077163324
-0.2071461 -0.13054319 -0.40379897 -0.53728426 -0.15785983 -0.17514428 -0.3740073 -0.19610023
-0.43148622 -0.18041627 -0.105347194 -0.14232053 -0.19554253 -0.7018795 -0.19192462 -0.18028666
-0.16700315 -0.1751623 -0.23128238 -0.23944837 -0.13312346 -0.20071132 -0.2408708 -0.21955249
-0.26353452 -0.4576759 -0.11052298 -0.25619802 -0.5558306 -0.16765055 -0.3638751 -0.3184159
-0.22368902 -0.62134874 -0.28064552 -0.29163048 -0.40884757 -0.19991562 -0.31063786 -0.15838394
-0.15283568 -0.26392514 -0.26530603 -0.23315096 -0.3119736 -0.19555737 -0.14657377 -0.16225335
-0.45823818 -0.44770002 -0.32978567 -0.8823289 -0.15396537 -0.24938563 -0.16166325 -0.27517453

fc2.weight f4 [128, 256]
00000000: c570 3bbc af31 8c3e bc85 693e 95c2 e13d
00000010: 8eb3 193d 2d5a d93c 5584 43bc c0f7 933d
00000020: 6012 ec3c 5b68 6b3c eb59 853d 9d93 1db9
00000030: 0bef 053d de83 bb3d 1dcc 713d ddff 963d
00000040: 548e b93d b122 dbbc 2054 97bc f943 b23d
00000050: b979 d03d d257 04bd 38eb 44bd bab7 5f3d
00000060: 1b29 723d 7d0b 0abd 2ac6 423d c7e4 c93b
00000070: e1d1 3e3d 6452 5bbc d60d 223e 2504 d0bc
00000080: fb89 36bd 3f66 d23d ade4 fd3c 467f 7a3d
00000090: e97f 623d 4d51 6f3e 181a cd38 9533 d73d
000000a0: 8d5c 743c 9b8a 8b3d ddb0 193e a8e6 8b3d
000000b0: 1c33 a43d be3f 3d3d 6666 733d 9542 753d
000000c0: 49d7 05bd db25 593d db3b f83c fe1c 253c
000000d0: da12 d93d ba8a 313d b86f 813c d5c8 423e
000000e0: 7e6e ee3d e326 3e3c 7661 ae3d fa27 503e
000000f0: e50a 913d 15cb 50bd 2909 923b 0ea9 973c
00000100: 991b e1bc 37b7 52bd dd73 fe3d be10 333d
00000110: 81d5 9f3d 223d 843d fd30 89bc 6e9c 1abc
00000120: d45d 1b3e 5186 b1b9 ae6b f63d 7353 023e
00000130: 4de4 0a3d 0a51 393e f3e6 40bd 29bb 3b3e
00000140: 0fed 3a3d 7ea9 cd3c 3213 503d 9d71 a33d
00000150: 148b 1e3e 21c5 ca3c 3771 aa3b 6716 6cbd
00000160: 9163 e83c 23e1 ae3c 1e62 e33c 12f3 013d
00000170: 5ff1 293e a8cc 0e3e e7fa 1b3d 3c7a ec3d
00000180: dc4b 113e 2ae5 f63d 7846 cc3d 8f33 173d
00000190: 765d ba3d 1101 1c3d 7bd1 25bc 4b87 853d
000001a0: 668f b73d c286 103c dadd 38bd e30a 113d
000001b0: 9e8f 5e3d 8335 3e3d 0376 0fbc 3e34 3c3d
000001c0: 9a62 a03d ab0d b43d fbfb 4c3e f522 fc3d
000001d0: 50a6 8e3d 0893 0e3e 50f0 573d ecf4 02bd
000001e0: 9b85 063e 7f26 493d 6009 b83d ab9c 5e3d
000001f0: c7bb 833d 9acb bf3d 6281 fc3c 57d8 fbbc
00000200: f541 cb3d e87b a83d 61af 3f3d 5e23 04bd
00000210: 67df 2dbd 619f 04bd 13f6 103e 2dd7 7f3d
00000220: 4d7e aa3c 85c9 6c3d 08c0 e33d 8cc9 19bc
00000230: 34c4 213d e725 de3c 9946 f93d 22d0 113c
00000240: 6c0a 23bd a2f0 543c 3c49 5e3d 6e4e d53d
00000250: 7782 923c ed0f 23bb 2b77 1a3e a3c1 603d
00000260: bb1f 793d 2e2e 563c 62d5 123d b601 3a3d
00000270: 3fac b2bc 6f3c 203e e7d2 c0bc 91eb f53d
00000280: 9e05 8a3d d3ea 4f3d f5a5 233e bb59 35bb
00000290: afff 05bd ff36 f23c 99ba 123e ba0e eb3d
000002a0: 27da dd3d 2342 583d 6b10 a33d 94ed e33c
000002b0: df0d d53c b988 993d 8244 59bd deb2 413d
000002c0: 712d ecbc 3ece b23d 62e0 bf3c bbff 37bd
000002d0: 3921 8e3d 068c 103d 52ca a63d ed3e aa3d
000002e0: f058 a43d cc35 203d 790b a43d fb14 a03d
000002f0: e70f 40bd 32b7 cf3c d991 873d 8dc4 5c3d
00000300: e036 853d 043b c3bc 5415 463e cd69 c43c
00000310: 38b9 993d a1b6 313d ec15 733d e508 bd3d
00000320: 5a12 43bc b815 d93d 1b1c 7abd aab0 9c3b
00000330: a9db 443c 1af1 db3c c849 1e3d f1e3 0a3e
00000340: 46b6 5b3b 275f 6dbb 6858 2a3d fa7f 7d3d
00000350: 134a c23d 76a8 0ebd 73d8 ecbb 6ada 273d
00000360: 0692 483d 2c0b c83c 82b6 f4bc 2c04 7d3d
00000370: 1bdf d33c 5491 493d e2f6 e5bc ee53 1abd
00000380: 2806 cc3d 0148 06bd ba81 183e fc85 0d3e
00000390: fe8b 26bd ed00 3a3d 31e1 3a3e 573b 9e3c
000003a0: 57e3 803d 659c 61bd 0352 d63c 8522 d1bc
000003b0: 3669 173e 0a8d c03d 072f 0d3d 7861 b4bc
000003c0: 5c03 0a3b 1655 c13c 9813 9e3d 2b3f d83b
000003d0: a2b8 4f3c ed42 33bd 0250 4c3e 488b cebc
000003e0: 766d 4eba 39bb e0bc da5e 6d3d a958 89bd
000003f0: ff7e 1e3c fffe cfbc eee7 f1bc 4565 cd3b
-0.011440461 0.27381656 0.22804922 0.11023442 0.037524752 0.026532257 -0.011933406 0.07224989
0.028817356 0.014368142 0.06511291 -0.00015027677 0.032698672 0.09156011 0.05903255 0.07373021
0.0906035 -0.02674994 -0.018472731 0.08704371 0.10179467 -0.032310314 -0.048075885 0.054618575
0.059121232 -0.033702362 0.047552265 0.0061613056 0.046586875 -0.013386343 0.1582559 -0.025392601
-0.044565182 0.10273408 0.03099283 0.061156534 0.055297766 0.23370858 9.780022e-05 0.10507885
0.014914644 0.06813546 0.15008874 0.068311036 0.08017561 0.046203367 0.059423827 0.05987795
-0.032676015 0.053014617 0.030301979 0.010077713 0.10599299 0.04334519 0.015800342 0.19021924
0.116421685 0.011605951 0.08514683 0.2032775 0.07082156 -0.050974924 0.0044566584 0.018513229
-0.02747898 -0.05144426 0.12424443 0.04371714 0.078043945 0.06456973 -0.016746992 -0.00943671
0.15172511 -0.00033860144 0.12032257 0.12727146 0.03390913 0.1809732 -0.04709525 0.18333115
0.045636233 0.025105234 0.050799556 0.079806544 0.15482742 0.024752202 0.0052014845 -0.057638552
0.02836779 0.021347588 0.027756747 0.03172595 0.16595982 0.13945258 0.038081076 0.11546752
0.14189094 0.12055428 0.09974378 0.036914404 0.090998575 0.038086955 -0.010120745 0.06519946
0.08962898 0.008821191 -0.04513345 0.035410773 0.054336183 0.04643775 -0.0087561635 0.04594826
0.07831307 0.087916695 0.20017998 0.12311355 0.06965315 0.13923275 0.052719414 -0.031971857
0.13136904 0.04910898 0.08986163 0.05434863 0.064323 0.09365006 0.030823413 -0.030742807
0.0992469 0.08226758 0.046798114 -0.03226029 -0.04244938 -0.032378558 0.1415637 0.062461067
0.020812178 0.05780937 0.111206114 -0.009386431 0.039493755 0.027117683 0.121716686 0.00889972
-0.03980486 0.012996824 0.05426906 0.1041535 0.017884476 -0.0024881319 0.15084521 0.054872166
0.060821276 0.0130725335 0.03584803 0.045411788 -0.021810649 0.15648054 -0.023538066 0.12007821
0.06739353 0.050761055 0.15981276 -0.0027671892 -0.032714542 0.02956724 0.14328994 0.11477418
0.10832625 0.052797448 0.07962116 0.027823247 0.02600759 0.07496781 -0.05304385 0.04728972
-0.028830262 0.08730744 0.023422424 -0.044921618 0.069399305 0.035289787 0.08144058 0.083127834
0.08024776 0.039113805 0.08010001 0.07816502 -0.046890166 0.025355909 0.06619615 0.053898383
0.06504607 -0.023831852 0.19344074 0.023976231 0.07506031 0.04338706 0.05934708 0.09230212
-0.011906231 0.10599846 -0.06106196 0.004781802 0.012015262 0.026848365 0.038644582 0.13563515
0.0033525391 -0.0036220045 0.041588217 0.061889626 0.09486785 -0.034828626 -0.007227951 0.04097978
0.048967384 0.02441939 -0.029872183 0.061771557 0.02586322 0.04921086 -0.028071824 -0.037677698
0.09962112 -0.032783512 0.14893237 0.13820642 -0.04066085 0.04541104 0.18249966 0.019315405
0.06293362 -0.05508079 0.026162153 -0.025529156 0.14786229 0.09401901 0.034468677 -0.022019133
0.0021059131 0.023600142 0.07718581 0.006599327 0.012678297 -0.043764997 0.19952396 -0.025212899
-0.00078745873 -0.027433025 0.057951786 -0.06706364 0.009673833 -0.025390146 -0.029529538 0.006268176

fc2.bias f4 [128]
00000000: c124 21be 9074 c0bd a50c a9bd c326 ee3c
00000010: 85d9 4cbc bf46 f8bc 9c61 98bd c4fd 04bd
00000020: f615 14bd 1454 833e 183d 123f c0f1 6c3c
00000030: e444 f03b 3c6f 6f3e aa79 9bbd 89a0 88bd
00000040: 8ab4 77bd 0502 e6bc be04 a2bd 5c57 8fbb
00000050: 8e05 debc ca95 ec3c 806e c63c b7da 7a3e
00000060: ff3e adbb 3bbc 9e3e 10dd c63c 381c 593d
00000070: ab3a a43e cabe 9abd d57a 6abe 310d f9bb
00000080: da5c c5bd 268c a73e b7ca 9cbd c702 0bbd
00000090: ca21 65bd 9220 643c 20b4 95bd f528 81bd
000000a0: c82e 3b3e a6b2 9fbd e2f9 d43b 6d6d dc3e
000000b0: 948a 763c 7615 983c e281 22bd 56d7 d33c
000000c0: 141e 40bd 103a 7cbd 9dee 9abd 843f c2bd
000000d0: b8b2 b13e d772 573d 41a3 32bc 3aca 7abd
000000e0: 58e3 b83d 2306 ab3c c528 883e c987 b5bd
000000f0: aa7d d23c 6d63 853e 0af5 62bd 14c6 943e
00000100: 4cae 4d3c 59b1 eb3c 6d12 89bc 0069 623e
00000110: 2a2b 293d a2e8 72bd a21c d6ba c007 58bd
00000120: 9b44 e9bc 8c7a a73c 2d7a 0c3d 2f59 fdbc
00000130: 103e 0bbd 8175 42bb 6678 213d 4283 d1bd
00000140: 8ab3 ef3b 0a26 87bd 8d9f c7bd 660d 41bd
00000150: 2170 833c b21a bdbc c5bf 2b3d 3157 5d3b
00000160: 0ffb d93c 8b84 9bbd b940 81be a26f 73bb
00000170: 06f5 06be 5db7 b8be cd34 ab3e 9192 4dbe
00000180: 8e2d e03c 7fdf 94bd 8736 6cbd 0067 30bd
00000190: 1b38 233d eede e1bd 09ce 91bc fc1b dcbd
000001a0: 087a e6bc 95ae 97bd b74a a0bd a168 5abd
000001b0: 7b95 60bd 455e c9bd 651b 2ebd 3b99 f43e
000001c0: 59a2 a3bd 187a 3fbc 644e b0bd 6f1d d0bc
000001d0: f37c a3bc 8c26 0d3a 7d38 65bc e15d b43c
000001e0: 4fd2 de3d 32ed 8fbd 8f75 13bd 90b5 153c
000001f0: e4cd bfbc 847f 36bd 852e 50bd 03ae 87bd
-0.15736677 -0.093972325 -0.08254365 0.029071217 -0.012503033 -0.030307172 -0.074404925 -0.032468572
-0.036153756 0.25650084 0.5712447 0.014461935 0.007332431 0.23382276 -0.07591565 -0.06671245
-0.06047491 -0.028077135 -0.07911061 -0.0043744277 -0.027102258 0.028880019 0.024222612 0.24497496
-0.0052870507 0.31002983 0.024275333 0.053005427 0.3207601 -0.075559214 -0.22898419 -0.0076004495
-0.09636851 0.32724112 -0.07655852 -0.033938196 -0.055940427 0.013923781 -0.07309747 -0.0630664
0.18279564 -0.07797746 0.006499515 0.43052235 0.015047688 0.01856492 -0.039674647 0.025859516
-0.046903685 -0.06157881 -0.07565043 -0.09484771 0.34706664 0.052599754 -0.010903181 -0.061228015
0.090277374 0.02087695 0.26593605 -0.088637896 0.025694687 0.26052418 -0.05540947 0.29057372
0.012553763 0.02877109 -0.016732419 0.22110367 0.04130093 -0.059303887 -0.0016335438 -0.052741766
-0.028475096 0.020444177 0.034296203 -0.030926315 -0.033994734 -0.0029672089 0.03942146 -0.102301136
0.007315104 -0.06599052 -0.09747229 -0.04713192 0.016044678 -0.023084018 0.041930933 0.0033773894
0.026608972 -0.0759364 -0.25244692 -0.0037145396 -0.13179407 -0.36077395 0.3343872 -0.20075442
0.027365472 -0.07269191 -0.05766919 -0.04306698 0.03984843 -0.110288486 -0.01779844 -0.10747525
-0.02813436 -0.07406346 -0.07826751 -0.05332244 -0.054830056 -0.098324336 -0.042506594 0.47773156
-0.0798995 -0.011686824 -0.08608702 -0.02540466 -0.019957041 0.0005384467 -0.013990519 0.022017421
0.10879957 -0.07027663 -0.036000784 0.009137526 -0.023413606 -0.044555202 -0.050825614 -0.06624987

fc3.weight f4 [64, 128]
00000000: 01f2 153e 0bc0 9d3c b06d f73d 08d6 183e
00000010: a9d5 233e 260d 243e 6402 503d 9b27 ae3d
00000020: 2993 d33d cb15 b1be a5ad 24bf 706f 573d
00000030: 8b95 943d efd0 adbe 870e 603c 746d d33d
00000040: 2bc6 293d 70c7 7d3c e9d8 de3c 6c00 e53d
00000050: ad83 f43c d991 16bd c1ab 143e 084a c2be
00000060: 56c5 0d3d a455 eebe ff1c e73a 07c4 d33d
00000070: bdca fabe fd45 6dbd 0118 063e dfcc a43d
00000080: 3854 ed3d a78b f2be b562 c7bc 4109 b4bb
00000090: 71f9 1d3e 6a00 98bd 16ff 073e 5246 7abd
000000a0: 0696 57be 8180 7b3d 4e65 fd3d 6681 a7be
000000b0: dc1b f73d a117 b63d 7a48 a13d c5c0 10bd
000000c0: df6b f23b a095 cd3d 506c ba3d 7f57 323c
000000d0: ac25 d8be ca06 be3d 993d ea3d 99c7 af3d
000000e0: ffe6 90be e019 863d 5b4a b4be 8e4f 073e
000000f0: 848c 003d ab15 c8be d95b a43d 2046 eabe
00000100: daec 47bd ec47 cf3c 0a71 c9bd 57f2 8b3e
00000110: 5732 123e fa24 0e3d b072 b0bd b834 0b3e
00000120: 3ec1 b63b 56cb 8bbc 01c7 ef3d c8f6 e63c
00000130: db54 113e 308f 093e d4b2 fc3d bb25 bc3d
00000140: 7b1f e73d 298f 8bbc 174c 6e3d b51e 1e3e
00000150: b687 2ebd 0678 ce3d 968a 673d b4e0 6bbd
00000160: f2b4 2f3c 1356 cf3d 65d2 423e da5d f93c
00000170: c599 c23d c6b7 8a3d 5d9a b1be ac10 193d
00000180: ac2b eabb a550 fb3d b414 51bd 58b2 863c
00000190: 281d 1d3d 12ed 493c d0df 1e3e 2b3e eb3b
000001a0: 4e56 883d 9de8 b03d 2d7e b4bc a7f9 df3d
000001b0: aed2 9f3d ec7c c23d 459e 043e 33a4 05bf
000001c0: bab8 e63d 4b48 503d 2318 d03d 5dc3 e23d
000001d0: 6893 11bb 3cd7 fb3d befc 8fbd 6354 cc3d
000001e0: a012 98be 43f0 433d e660 da3d 22d4 463d
000001f0: 25d6 d63d 56e4 ef3d 88c1 0f3c 1c42 023e
00000200: 7e72 50bd 4759 253d 3ba8 8dbd 0206 62bd
00000210: 54bd 88bd 3dbe 873d b6dd 90bd 3e8c 8d3d
00000220: c4d9 d4bc 5d2e abbd a442 d43c f809 02bd
00000230: d57c 80bd 2015 5fbd d385 783d c9ec a2bd
00000240: cfd8 2cbd 1471 6bbc f4e4 e43c 732b f1bc
00000250: 10f6 08bd 1ed2 ad3c 75c9 2abd a518 223d
00000260: a2ee 8c3d ecf4 993d 3e63 c63c 7b2f 9c3c
00000270: 5aa3 a9bb ba6c 803d 5521 58bd 3ca6 323d
00000280: a616 80bd 4f79 1bbc 9ca1 90bd b389 3cbd
00000290: 269f c1bc 007b b63c bc27 c1bd 100b 303d
000002a0: af95 93bd e0e8 11bd 0d13 38bd ac0e a4bb
000002b0: f550 b53c 2f7c 87bc b2c8 0abd 1599 b3bd
000002c0: 4d7b 453c 8306 9f3d cff1 d7bb 0c03 a6bd
000002d0: bafc 94bc c8f0 c23c 3e8f 56bc aecd 3bbd
000002e0: 6f7f 04bd 9c3f bfbc c86c f8bc 2f2e 1b3c
000002f0: c407 8d3d eeb2 34bd 240b 25bc d226 17bd
00000300: 20b3 87bc 50e9 373d e229 923d 76cd a23d
00000310: 6974 a4bd 8ddd 8ebd 570e 8c3c fcd2 5e3d
00000320: 71d2 6cba 95f6 963d b8b4 853c fd86 16bd
00000330: ab2d 2ebd e9ac a83c b863 2c3c 94d1 893d
00000340: 9ad9 843d 8ad9 bf3c 1b0d 743d 0d59 6abd
00000350: 72a9 c2bd 6eb9 5abc 6742 bbbd 02ef 87bd
00000360: eaa6 febc 2516 2b3c ad1b 2abd 9041 58bc
00000370: b969 9f3c f78f cb3b 5b81 45bc 053c 443d
00000380: 1e9a 9b3d acad c1bd 1307 d33c 73a7 b5bd
00000390: 8364 55bc f8c1 173d 30de aa3a 25d0 af3c
000003a0: dedc 7cbd 58d2 13bd 2294 083d a7de c0bc
000003b0: cb91 b9bd 2ec3 29bd 66dc 003d e9fa 3d3d
000003c0: 5cce 2cbd 01f4 143d 9f63 723d 39a0 adbd
000003d0: 0738 f33c 1cf7 3bbd 4d65 9038 7623 f1bc
000003e0: f67b 25bc 5143 893d 8267 5ebd a189 853c
000003f0: 9338 41b8 91b8 09bb a120 4cbd b4e4 6ebd
0.14643098 0.019256612 0.12081468 0.14925396 0.15999474 0.1602064 0.05078353 0.08503648
0.10330803 -0.3458694 -0.6432746 0.05259651 0.072550856 -0.33948466 0.013675339 0.10323611
0.041448753 0.015489444 0.02720304 0.11181721 0.029847944 -0.036760185 0.14518644 -0.37947106
0.034612022 -0.46549714 0.0017632543 0.103401236 -0.48982802 -0.057928074 0.13095094 0.080468886
0.11588329 -0.4737217 -0.02433906 -0.005494267 0.15427186 -0.07421954 0.13280901 -0.06110222
-0.21053323 0.061401848 0.12372838 -0.3271591 0.12065861 0.088912256 0.07875152 -0.03534009
0.007398113 0.10038304 0.0910269 0.0108851185 -0.4221624 0.09278639 0.1143753 0.08582992
-0.28301236 0.06547904 -0.3521298 0.13213941 0.031384006 -0.3907903 0.08025331 -0.45756626
-0.048809864 0.02530285 -0.098360136 0.27333328 0.14277016 0.034703232 -0.08615625 0.1359433
0.0055772355 -0.017064732 0.11707879 0.028193846 0.14192526 0.13433528 0.12338796 0.09186884
0.11285301 -0.017036038 0.058178034 0.15441401 -0.042609893 0.100814864 0.05652865 -0.05758734
0.010724293 0.10123839 0.19025572 0.03044026 0.095019855 0.06773333 -0.34688082 0.037369415
-0.0071463194 0.12271241 -0.051045135 0.016442463 0.038357884 0.012324588 0.15515065 0.007179042
0.06657086 0.086381175 -0.022032822 0.10936289 0.07803856 0.09496483 0.12951 -0.52203673
0.112657025 0.050850194 0.10160854 0.11072419 -0.0022213105 0.12296912 -0.070306286 0.09977033
-0.2970171 0.047836553 0.10663013 0.04854215 0.104900636 0.117134735 0.008774169 0.12720531
-0.05089044 0.040368345 -0.06916853 -0.05518151 -0.066767365 0.06628082 -0.07073538 0.06911515
-0.025982745 -0.083584525 0.025910683 -0.03174779 -0.0627381 -0.054463506 0.0606745 -0.079553194
-0.042198952 -0.014370222 0.027941205 -0.029439664 -0.03343779 0.021218356 -0.04169603 0.039574284
0.06881453 0.07517418 0.024217244 0.01906561 -0.0051769437 0.06270738 -0.052766163 0.043615565
-0.0625432 -0.009489371 -0.070620745 -0.046029758 -0.023635458 0.022275448 -0.09431407 0.0429793
-0.07206284 -0.035622478 -0.044940043 -0.005006632 0.02213333 -0.016538708 -0.033882804 -0.087694325
0.012053323 0.07764914 -0.006590105 -0.0810605 -0.018186916 0.023796454 -0.013095675 -0.04585045
-0.032348093 -0.023345761 -0.030325308 0.00947146 0.06886247 -0.044115953 -0.010073457 -0.036902256
-0.016564906 0.04490024 0.07136895 0.07949345 -0.08030016 -0.06975851 0.017096682 0.05440043
-0.0009034044 0.073712505 0.016321525 -0.03674983 -0.04252402 0.020590262 0.010521822 0.06729427
0.06486817 0.02341916 0.05958281 -0.05721383 -0.095049754 -0.013349874 -0.091435246 -0.06637384
-0.03108545 0.010442291 -0.0415303 -0.013199225 0.019459592 0.0062122303 -0.0120547665 0.0479088
0.07597755 -0.094569534 0.02576021 -0.08869829 -0.013024452 0.037050217 0.0013036188 0.021461556
-0.061734073 -0.03608927 0.033344395 -0.023543669 -0.09061011 -0.041445903 0.03146019 0.046381865
-0.042188987 0.036365513 0.059177037 -0.08477826 0.029689802 -0.04588996 6.885324e-05 -0.029435854
-0.010100355 0.06702293 -0.05429793 0.016300978 -4.6067475e-05 -0.0021014551 -0.049835805 -0.058323577

fc3.bias f4 [64]
00000000: 40e8 373e a2e3 1a3d 9d17 903d a0da c3bd
00000010: b78a 2bbd 9c84 253e 6c02 c4bd d9bf 853d
00000020: a951 81bd 185b 2e3e 6a40 48bd 3b5b 9fbd
00000030: 20a0 803d 4b01 e13d a4ff 113e c4a7 2c3d
00000040: 3ea0 84bd e138 0a3e 416f 2e3e 61c5 233e
00000050: c177 103b 7c6f d9bc 9d9e 90bd dbd1 7fbd
00000060: 29a6 963d 0d12 993c a1d7 f63d ffd0 64bc
00000070: 308c 88bd 219d f03d e1c3 623c d0d3 ab3d
00000080: 8fd1 dcbd c8f6 833b 70b9 7f3d 12de 863d
00000090: ee6d a0bd 982d febc 250a 4eb9 7cbc e03d
000000a0: a911 c53c ed09 bf3c 92fc d33d 9d6f 7a3d
000000b0: 9996 d73d f15e 8d3d 965d 1c3e 08ec 58bd
000000c0: a655 8f3d c6b4 b3bd eb71 ad3d ebe9 2fbd
000000d0: 12f2 e83d 1fa3 dfbd 7408 de3d bba3 733d
000000e0: eecb 2c3e 4b6e 143e 29fc b4bd 3328 933d
000000f0: 35eb 5bbc ddf6 3ebd 6591 11bc a038 5f3d
0.1795969 0.037814744 0.07035754 -0.09563184 -0.041880336 0.16163868 -0.095707744 0.06530733
-0.063144036 0.17026937 -0.048889555 -0.07781073 0.062805414 0.10986575 0.14257675 0.04215218
-0.06475876 0.1349826 0.17034627 0.15993263 0.0022044035 -0.026542418 -0.07061503 -0.062455993
0.07355911 0.018685365 0.12052847 -0.013965844 -0.06667364 0.1174872 0.0138406465 0.083900094
-0.10782158 0.0040272214 0.062432706 0.06585325 -0.078334674 -0.0310276 -0.0001964947 0.109734505
0.024056273 0.023320163 0.10350908 0.0611416 0.10526771 0.06902874 0.15270075 -0.052959472
0.06998758 -0.08774714 0.08468994 -0.04294769 0.11374296 -0.10919785 0.10841456 0.059482317
0.16874668 0.14495198 -0.08837158 0.07185402 -0.013422777 -0.046622146 -0.008884762 0.05449736

fc4.weight f4 [1, 64]
00000000: 14c1 113e 8e79 d2bd 66eb 86bd d4ca 67bd
00000010: e0f9 bbbd f77b f43d 4e4d 68bc 5785 93bd
00000020: c103 71bc 19b5 0c3e c7c9 623d 3672 21bd
00000030: d8fb 093e 87cb 3c3e a946 293e f3de dc3d
00000040: d161 9bbc 1259 ad3d f28f 2c3e d5a8 353e
00000050: 8fb9 63bd 9d64 15bc 54c1 93bd 045a e2bc
00000060: 04cf c93d 08d4 203e bad6 143e 2b05 7bbd
00000070: fc20 d43d a428 c23d ff17 1d3e c441 2a3e
00000080: a17d 593d d525 833d 32ab f4bc dfca 4abd
00000090: 5df9 c3bd 6b46 993d a0fb c53d 6ce3 2d3e
000000a0: 67dd bb3d 9c18 3abd d1ba 903d 0b73 b2bd
000000b0: 552d 013e d624 c73d aefa 063e a5a0 53bd
000000c0: c6e0 cdbd af87 17bb 63e2 a53d 69df 063b
000000d0: c1e7 123e 82fb 4a3d bf00 063e e887 0f3e
000000e0: 4384 293e 077f 303e 1181 96bd 476e 04bd
000000f0: 6e89 d93b 400c 853d 85c5 573d 6685 1f3e
0.1423381 -0.10277091 -0.065878674 -0.056589916 -0.09178519 0.11937707 -0.014178587 -0.07203167
-0.014710368 0.13740958 0.05536821 -0.03941556 0.13474977 0.18437015 0.16530861 0.10784712
-0.018967541 0.084642544 0.16851786 0.17740186 -0.055596884 -0.009118226 -0.07214609 -0.027630813
0.09853938 0.15705884 0.14535037 -0.061284225 0.10357854 0.09480408 0.15341185 0.1662665
0.053098325 0.064037 -0.029866789 -0.04950988 -0.09569047 0.07484134 0.09667134 0.16981286
0.091730885 -0.045433626 0.070668824 -0.08713349 0.12614949 0.09723823 0.13181564 -0.051666874
-0.10052638 -0.0023121645 0.080998205 0.002057994 0.1434622 0.049556263 0.13086222 0.14016688
0.1655436 0.17235957 -0.07348836 -0.03233173 0.0066386973 0.06496477 0.052678604 0.15578231
