Radiomics_local_global_framework/model_og/models/Stochastic Gates_feature_selection/Neural_Network/global_flair_t1ce_t2___local_flair_t1ce/model.pt (torch, 449204 bytes, 5 tensors)

fc1.weight f4 [200, 507]
000000 39 e4 af 3c 89 9b c4 bd 2c 77 31 be 45 8b d6 3d
       0.02147113 -0.095999785 -0.17330617 0.10475782
000010 ba d3 09 bd b1 67 dd bc 6e 28 09 bd 0a ae d4 bd
       -0.033649184 -0.027026983 -0.033485822 -0.10384758
000020 13 0e cd ba 15 fc a6 bd f6 61 6e 3d 51 45 99 3b
       -0.0015644453 -0.081535496 0.05819889 0.0046774526
000030 d4 16 1a bc 7e 9d e2 3c 61 05 9e 3d 0c 27 99 bd
       -0.009404857 0.027662989 0.0771587 -0.07478151
000040 ec 89 1e bc 52 99 8a 3c 43 76 89 bd fb 69 f2 3c
       -0.009676438 0.016918812 -0.0671201 0.029591551
000050 f0 47 7d bd be ba cb 3c c7 e4 72 bc 5e 17 0b be
       -0.061836183 0.024869319 -0.014825053 -0.13583133
000060 bb bd 37 3b 2c d7 9e ba 9c d4 b3 bc c3 e5 b5 3d
       0.0028036672 -0.001211857 -0.021951966 0.08881714
000070 fd 06 45 3d 0d 50 76 3c 00 31 e7 3c f1 e8 85 bb
       0.048102368 0.015033734 0.028221607 -0.0040866067
000080 87 eb 87 bb 37 f5 e5 3d cf 98 56 be 15 0b e5 bb
       -0.00414795 0.11228412 -0.2095673 -0.0069898465
000090 b2 9b 00 be 94 54 ab 3c 6d 9c 30 bd 40 bc d2 bd
       -0.12559393 0.020914353 -0.04311793 -0.10289812
0000a0 17 67 04 bd 8c 12 fe bd f3 fd e4 bd 94 20 d3 bd
       -0.032324877 -0.12405881 -0.111812495 -0.10308948
0000b0 95 1b e2 3d 26 7b a8 bd 2c b0 b4 3d ff 94 f9 bd
       0.11040417 -0.08226614 0.088226646 -0.12186622
0000c0 ce 7c cf 3d 4f 90 b8 bb 8f 09 43 be e8 16 25 be
       0.101312265 -0.0056324373 -0.19046615 -0.1612202
0000d0 09 c8 7a 3d 9e 0b a6 3e 0e d8 4a be 9a 5e 9e bd
       0.061225925 0.32430738 -0.19808981 -0.077328876
0000e0 08 8d c9 bd b6 f4 5c bd f3 88 67 3e f3 ee 4c 3d
       -0.09841353 -0.053944312 0.22610836 0.050032567
0000f0 e3 76 f5 bd 77 7d d1 3e df 36 e0 bc fb 00 a6 3d
       -0.119855665 0.40916035 -0.027369915 0.08105656
000100 d9 12 09 be ad a7 cc bd d0 83 30 be 88 99 6d bd
       -0.13386096 -0.09992919 -0.17237782 -0.058007747
000110 7c ba 6c 3e 11 97 9f be 1f ef 93 3e 41 f1 5e bd
       0.23118013 -0.31169942 0.28893372 -0.054429296
000120 3a b8 10 be 75 55 97 bd 1c db 3d 3d 18 5f e0 3c
       -0.14132777 -0.073893465 0.046351537 0.027389094
000130 bf 35 32 3e 8d 54 7f bb 96 1c 0a 3e 34 86 0c bb
       0.17403315 -0.0038960308 0.13487467 -0.0021442296
000140 ec 18 43 3d 66 7b 9a bd 63 64 92 3e b4 43 18 be
       0.04763119 -0.07543068 0.28592214 -0.14869577
000150 bf 37 67 bc 2a ac c4 bd b9 a4 cb bd ff 05 fa 3b
       -0.014112412 -0.0960315 -0.09943528 0.0076301093
000160 77 d6 42 3c 67 1e 01 bd f5 fb 9c 3e 95 e4 b3 bd
       0.011891953 -0.031523135 0.30660978 -0.08783833
000170 f7 13 a1 3d de 85 7a 3e ab 91 8a 3d d3 ea 09 bd
       0.07865136 0.24465129 0.06766065 -0.03367121
000180 e0 9f 36 3d a7 fa 6b bd 55 91 46 bd dc 98 61 bb
       0.044586062 -0.057612088 -0.048478443 -0.0034423387
000190 a9 e4 75 3d 07 f1 0f bd 65 32 8f 3d bf 2c 09 3d
       0.06003252 -0.03514197 0.06992034 0.03348994
0001a0 20 6b 21 bd 3b 8d 1b 3d 07 b0 47 3d f4 63 cd 3d
       -0.039408803 0.037976485 0.048751857 0.1002883
0001b0 da 17 6a bd 31 79 9c 3d 77 60 84 3d 27 96 a9 be
       -0.057151653 0.07640303 0.06463712 -0.3312237
0001c0 5d 80 96 3d fb 29 ae 3c 0e a0 f8 3a 89 8a 84 bc
       0.07348702 0.021260252 0.0018968598 -0.01617934
0001d0 94 e4 c6 3c 36 41 07 3e 34 b2 1b 3d 43 a0 c1 3d
       0.024278916 0.1320847 0.038011745 0.094543956
0001e0 08 00 21 3e 94 7d 2f bd bb 0b be bd 73 d7 8e 3d
       0.15722668 -0.04284437 -0.09279581 0.069746874
0001f0 d9 95 6b bd 8a cd ff bc 0a 41 62 ba 2f 4a 8a 3c
       -0.057515953 -0.031225938 -0.00086309074 0.016881077
000200 d4 43 cb 3d f9 c1 b9 bc b1 24 b2 3d af 07 0c 3d
       0.099250466 -0.022675501 0.086984046 0.034187015
000210 bb 91 45 3c d6 f2 3f 3d 33 03 a3 3d 9d 3e f3 3b
       0.012058671 0.046862446 0.079595946 0.0074232356
000220 b1 03 81 bd 54 7f 38 bc b5 8b 2c bb 9a 9f 4f 3d
       -0.06299532 -0.011260826 -0.002632839 0.050689317
000230 2d 71 19 3d 80 d7 55 3d 11 9b 47 bb 82 ee 89 3c
       0.03746145 0.05220747 -0.0030457417 0.016837362
000240 21 1a 9d bc 6d b7 bb bd 9f a3 8f bc 08 20 df ba
       -0.019177498 -0.09165845 -0.017534075 -0.0017023096
000250 25 8b 8d 3d c3 60 a2 bc 4d 22 30 3d a0 68 4a 3d
       0.06911305 -0.01982153 0.04300146 0.049416184
000260 5e e1 5f bd 0f 5c cd 3d 07 de 2b 3d ee 33 e2 bd
       -0.054658286 0.100273244 0.04195979 -0.11045061
000270 1c 50 9a 3d 8f 6e 8a bd 7f c9 34 bb 98 7d 41 bd
       0.07534811 -0.06759369 -0.0027585921 -0.047238916
000280 2d 0e c6 bd 60 8b 9c 3c 01 72 e0 3a f6 e0 bd 3d
       -0.096706726 0.019109428 0.001712382 0.092714235
000290 9c 6e d2 3d 5c 64 c2 3c e1 cc 0c 3b c8 81 b2 bb
       0.10275003 0.023729496 0.0021484422 -0.0054476
0002a0 e9 44 01 bd 91 69 6d 3d c1 c5 ac 3d 43 6e ed bc
       -0.03155986 0.057962004 0.08436156 -0.028983241
0002b0 c4 66 7e 3c ac 51 4b 3e 17 c0 b3 bd 24 79 2a bd
       0.015527431 0.19855374 -0.087768726 -0.041619435
0002c0 85 64 85 3d 88 9c bf 3d 86 76 be 3c f0 bf da 3c
       0.06513313 0.09356028 0.023249876 0.026702851
0002d0 12 4d 1c 3d a4 cb 63 3d e5 62 95 3c 83 4c 94 be
       0.038159437 0.05561413 0.018235633 -0.28964624
0002e0 9c 4c d7 3b 2f c2 0a bd e5 57 92 bd 8c 33 1f 3d
       0.006570412 -0.033876594 -0.07145671 0.03886752
0002f0 35 2e 28 3d 75 b3 8f bc 2e 65 3b 3d 7d 09 85 3d
       0.04105969 -0.017541626 0.04575079 0.0649595
000300 a6 5a a5 bd 7a 21 c5 bd c4 f0 67 3d eb 74 27 bf
       -0.080739304 -0.09625526 0.056626096 -0.6541278
000310 b3 96 2a bd 1e df 09 3d ba aa 70 bb ae d5 8d bc
       -0.041647624 0.033660047 -0.0036722855 -0.017313804
000320 72 a6 0a be db 29 4f be 1c 99 19 be de f2 c0 bd
       -0.13540056 -0.2023081 -0.14999813 -0.09421323
000330 ae 7d 12 bd ee ad 77 3d 3c b0 95 be f2 f8 90 bd
       -0.03576439 0.060468607 -0.2923602 -0.070787326
000340 ea ac db bd 16 45 5c be fa d9 23 3d 9c e0 d0 bc
       -0.1072634 -0.21510729 0.0400028 -0.025497727
000350 5a bc 8e be 61 72 33 3c a2 1b 61 be 50 6e 4e 3e
       -0.27878076 0.010952563 -0.21983197 0.20159268
000360 48 3d 08 3d b2 41 6f bd 1e 70 03 bc a4 92 b4 bc
       0.033261567 -0.05841226 -0.008022336 -0.02204258
000370 67 c1 85 be 81 f2 5b bd 94 af bc be 83 01 37 3d
       -0.26124117 -0.053698067 -0.36852705 0.044679176
000380 c0 5e 64 bd b6 0d 65 be 9e 27 df bd 48 e9 73 3d
       -0.055754423 -0.22368512 -0.10896228 0.059548646
000390 91 b6 10 3e 8c 91 62 be f1 6b d7 bb 31 25 9a bb
       0.14132144 -0.22125834 -0.006574147 -0.0047041406
0003a0 f0 42 d9 bc 87 9f 95 3e 3a c9 62 be af cd db 3c
       -0.026521176 0.29223272 -0.22147074 0.026831476
0003b0 08 85 d0 3d 3a f9 d4 3d e7 60 4f 3c 4f 88 e0 bc
       0.10181624 0.10399099 0.012657381 -0.027408747
0003c0 ec 3b 17 3d 57 4a 36 3d b6 4c 4c be aa c0 51 be
       0.03692238 0.04450449 -0.19951138 -0.20483652
0003d0 c7 75 bf bc 1a ad 9b bc e0 a1 7c 3e 92 87 d5 bd
       -0.02337159 -0.01900344 0.24671125 -0.104262486
0003e0 15 8f fb bd 1e 57 ae bc 1d 28 38 bd 5e 4d 95 3c
       -0.1228315 -0.021281775 -0.04496013 0.018225368
0003f0 17 30 9c bc 66 ee 22 bd aa db cc 3c 14 5b 0b 3d
       -0.0190659 -0.039778136 0.025007088 0.034022406

fc1.bias f4 [200]
000000 50 18 fd be 30 19 01 bf 3f 85 9b bd 73 cb 23 bf
       -0.4943261 -0.5042906 -0.07593774 -0.63982314
000010 63 3d d4 bd ff cf c0 be 89 bb 90 3d 8e bb 0c be
       -0.10363271 -0.37658688 0.070670195 -0.13743421
000020 18 d0 c4 be ac 29 eb be 68 87 f9 be d8 e5 07 bf
       -0.38440013 -0.4593023 -0.4873612 -0.5308509
000030 9b 0b 1c be de ff 24 be 93 13 19 be eb a0 9a be
       -0.15238802 -0.1611323 -0.14948873 -0.30200896
000040 0d 13 2b be 77 e0 65 be c4 64 2e be 2c f8 b5 be
       -0.16706486 -0.22448908 -0.17030627 -0.35540903
000050 b3 0d 77 3d a4 40 92 bd 68 7c 2c be 32 16 55 bd
       0.0603158 -0.071412355 -0.16844332 -0.05202312
000060 a7 f8 26 bd 41 8e f7 bd 0c 2e 97 be fa 37 47 bd
       -0.040764477 -0.1208768 -0.29527318 -0.048637368
000070 8b 15 da bd 49 56 b1 be 94 57 14 bf b5 6b 7f be
       -0.1064864 -0.34636143 -0.57946134 -0.2494343
000080 e0 85 93 be 7b 19 94 bf 3c d8 3c bf 64 ab 3e bd
       -0.28813076 -1.1570276 -0.7376745 -0.04655017
000090 57 90 d4 bd 15 e5 80 be 26 bf 11 3d b4 43 b0 bd
       -0.10379093 -0.25174776 0.035582684 -0.08606663
0000a0 88 29 a5 be 60 4f b5 be d9 58 df 3c 67 94 08 3b
       -0.32258248 -0.3541212 0.027264046 0.0020840408
0000b0 ad a2 7c be 67 ad 54 be f4 d0 11 bc f2 1a c7 3d
       -0.24671431 -0.20769273 -0.008899916 0.09721936
0000c0 14 5e 48 be d3 f0 37 be d8 0a 2c bf d1 10 ee be
       -0.19567138 -0.17962961 -0.67204046 -0.46497205
0000d0 06 66 29 be 35 bf bd bd 8e 3b b4 ba 50 8e 02 be
       -0.16542825 -0.092649855 -0.0013750659 -0.127496
0000e0 37 89 06 be 63 5b 89 be e1 9f 8f be d5 2e 54 be
       -0.13138281 -0.26827535 -0.28051665 -0.2072099
0000f0 9d ea 0f bf c9 ca d4 be 1b 89 00 be 22 31 11 bf
       -0.56217366 -0.41560963 -0.12552302 -0.56715596
000100 51 f2 cd 3b 91 40 df be 91 14 1d bc 18 55 c2 be
       0.00628499 -0.43603948 -0.009587423 -0.37955546
000110 23 6c 07 3d 1c 6b 3d be c1 50 46 bf 6b da dd bd
       0.03306211 -0.1849789 -0.7746697 -0.108326755
000120 38 af b8 bf ae 04 43 be 0d ea 25 be 51 7a 22 bf
       -1.4428473 -0.19044754 -0.16202565 -0.6346789
000130 3c da 5c be 26 79 a7 be 26 bf 85 be 43 ee 5f 3c
       -0.21567625 -0.32709616 -0.26122397 0.013667646
000140 18 e7 a5 bc fb 39 fc bd 40 d3 10 be 2e 8e 8f be
       -0.020251796 -0.123157464 -0.14143085 -0.28038162
000150 df 02 a2 bd 48 40 97 be 8b 7b e1 bd 04 5a 8c 3b
       -0.07910704 -0.2954123 -0.11009892 0.0042831916
000160 bd 1e 3f bd 80 43 86 bd b9 1d be be 60 ac 38 bd
       -0.046660174 -0.06555843 -0.37132052 -0.045086265
000170 4b bd 56 be 15 fd d2 bd b0 a6 d9 bd 04 26 f1 bd
       -0.20970647 -0.10302178 -0.10627496 -0.11774829
000180 50 9f 89 be 74 21 b0 be 17 3f 4d be e6 0d ac bd
       -0.26879358 -0.34400523 -0.20043598 -0.084010884
000190 86 22 e4 3b 78 2d d5 bd 6c eb 64 3b 1b 6d ec 3d
       0.0069621233 -0.10409063 0.0034930361 0.11544248
0001a0 22 c4 90 be 54 5b ef bd b4 50 1b 39 70 27 a9 be
       -0.28274637 -0.11687341 0.00014812016 -0.330379
0001b0 b3 e5 bf bd 6c e7 16 be 34 04 d7 be 22 61 82 bf
       -0.093699835 -0.14736718 -0.41995394 -1.0185893
0001c0 d5 0e 25 3d dd 16 9a be 6d 44 6a be 4c 0d 13 be
       0.040297348 -0.30095568 -0.22877665 -0.14360541
0001d0 98 b2 22 be a1 2c 97 be 87 1d c6 be 92 69 e5 be
       -0.1588844 -0.29526237 -0.38694403 -0.44807106
0001e0 39 1c 92 be 2d d1 27 be 7a f1 5e bf 10 6e 9f be
       -0.28537157 -0.16388388 -0.87087214 -0.3113866
0001f0 19 98 02 bf ad 5a c9 be ed 8b 8b 3a 80 11 b6 bc
       -0.5101333 -0.39326993 0.001064656 -0.022225142
000200 ec 9f 19 be 9c 87 b6 bd 63 a5 6c bf 44 f3 42 bf
       -0.15002412 -0.08912584 -0.9243986 -0.76152444
000210 ea 29 9f bd 94 3d 5d 3d 7c 91 d6 be da 79 0c bf
       -0.07771666 0.054013804 -0.4190787 -0.5487343
000220 36 29 e6 be 37 45 e7 bd 7c cd 80 3d 56 d9 b0 bd
       -0.44953316 -0.112924986 0.06289193 -0.086352035
000230 73 ac 08 be c0 76 00 bf 42 f8 28 3d 62 14 08 bd
       -0.13347034 -0.501812 0.041252382 -0.033222564
000240 41 e0 19 bf 44 db 1f 3c 98 ce 86 bd ac c7 e3 bd
       -0.6010781 0.009756867 -0.065823734 -0.11122069
000250 04 95 c2 bd 28 4c 4f be a8 79 cb be be 36 1f bd
       -0.09501079 -0.20243895 -0.39741254 -0.038870566
000260 6f 19 fc be da 93 00 be 13 7a 8b be aa e8 b8 be
       -0.49238154 -0.12556401 -0.27241573 -0.3611501
000270 2a 3b 32 bd 41 55 c2 be 1b 94 61 3d f3 68 82 be
       -0.043513454 -0.3795567 0.055072885 -0.25470695
000280 ef 04 a9 bd c6 d7 99 bd 57 14 12 3c 5d f2 86 3b
       -0.08252894 -0.07511859 0.008915982 0.0041182474
000290 e7 e1 14 be 6f 69 59 be ba ef 35 bf 00 70 62 be
       -0.145393 -0.21231626 -0.7106892 -0.22113037
0002a0 84 f1 88 be b8 2d 84 be d4 ed dd bc 19 b8 06 be
       -0.26746762 -0.2581613 -0.027090944 -0.13156165
0002b0 2f 8e 56 be ec d9 24 be e2 ee d7 be 96 61 2d be
       -0.20952676 -0.16098756 -0.4217444 -0.16931757
0002c0 65 10 41 be 7b 53 45 bd bc ce 83 be 20 fa 6b bd
       -0.1885391 -0.048175316 -0.25743663 -0.057611585
0002d0 75 ff 3a be be df 30 3c d4 8b 4e be dc f4 27 be
       -0.18261512 0.010795532 -0.20170528 -0.16402
0002e0 6c 8e ac bd cc 76 dc bc 98 94 14 be 3d 6f 34 be
       -0.08425602 -0.026912116 -0.14509809 -0.17620559
0002f0 31 aa 83 be 09 0d 37 be 95 ea 11 be 78 f8 00 be
       -0.25715783 -0.17876066 -0.14249642 -0.12594783
000300 9c 03 fe bd e1 e0 91 bd 25 44 46 bf b7 ff 74 3d
       -0.12403032 -0.0712297 -0.7744773 0.05981418
000310 80 1d ba bd 13 93 41 bf 4b 00 1d bf 71 39 7c bd
       -0.09087658 -0.7561504 -0.6132857 -0.061578218

fc2.weight f4 [50, 200]
000000 b7 24 7b bd 2e 45 db 3e 9f 59 61 be cc 1c 6c 3e
       -0.06131431 0.42826217 -0.22006844 0.2305786
000010 bc 84 81 bd 12 14 8d bf c3 fa d2 be f9 b5 24 be
       -0.06324145 -1.102175 -0.4120694 -0.16085042
000020 13 dc fd bd f2 c3 0c 3f fb 46 84 3c 7c 36 ab 3e
       -0.123954915 0.5498649 0.016147127 0.33440006
000030 2c 23 fe be 95 a1 cf bd 09 63 bc be 60 6f 9e 3e
       -0.4963621 -0.10138241 -0.36794308 0.30944347
000040 f1 0a 9a be b8 07 7a bf 25 c1 81 3b 8d 02 de be
       -0.30086473 -0.9766803 0.003959792 -0.4336132
000050 b7 9d 3f 3e 8d 72 05 be d8 35 4f be 44 bc a5 be
       0.18712507 -0.13031979 -0.20235384 -0.32370198
000060 3c cc c6 be 1e 58 ab be 62 4b 9b 3d 33 f0 1d 3e
       -0.38827693 -0.33465666 0.075827375 0.1542366
000070 82 e3 b5 bd d1 b2 ce 3e 9f 88 8e be 94 fc 36 3e
       -0.08881284 0.403708 -0.2783861 0.17869788
000080 eb 36 58 bd 48 c8 41 be 49 a4 d5 3d d9 5b 05 bf
       -0.05278675 -0.18924057 0.104317255 -0.52093273
000090 be fc e2 be af 73 bc 3e 80 98 19 be f4 c3 29 be
       -0.44333452 0.3680701 -0.1499958 -0.16578656
0000a0 1d 84 c8 be 00 a2 54 bd 50 05 f8 bd b0 6d ad bd
       -0.39163294 -0.051912308 -0.12110388 -0.08468187
0000b0 ae 2d 95 3d 3e 33 75 be a4 61 3f 3e b1 ba 92 3e
       0.07284103 -0.23945329 0.1868959 0.2865806
0000c0 29 9c 78 be f5 49 b8 bd 9f 7d b0 3e eb 45 0d 3c
       -0.2427832 -0.08998481 0.3447084 0.008622627
0000d0 e6 20 9d be 11 9d 59 be 54 cb 16 bf 67 88 5f be
       -0.30689162 -0.21251322 -0.58904004 -0.21829377
0000e0 d0 fd 10 3c b8 b7 71 be 41 82 a7 3d ae 96 87 bf
       0.008849576 -0.2360524 0.08179141 -1.0592859
0000f0 ff f3 a5 3d 16 43 b9 bd 73 c4 85 be 23 8a 46 3d
       0.08103179 -0.09045999 -0.2612644 0.04847158
000100 30 df e9 bb 1e 0e 46 be 0c cb ca be 07 57 3f be
       -0.0071372017 -0.19341323 -0.39608037 -0.18685542
000110 ab f2 aa 3e 29 11 d4 3d 12 1b e3 3d 4d 2c 9b 3e
       0.33388266 0.103548355 0.110891476 0.30307236
000120 e9 fb a6 3e 67 b4 ca 3e 0a aa 05 be 0d 02 f3 3e
       0.32614067 0.3959076 -0.13053146 0.47462502
000130 af be e3 3e 93 29 07 be 0e a2 06 bf af 1b b9 be
       0.44481418 -0.13199453 -0.52591026 -0.36153933
000140 27 fb f0 be 03 fa 4f 3d 4a f7 7c be b8 0c 3f 3e
       -0.47066614 0.05077554 -0.24703708 0.18657196
000150 fe 48 d9 be 91 e7 0f bf ab 33 82 3e 3a 7d e1 bd
       -0.424385 -0.5621272 0.25430045 -0.11010213
000160 0f 34 6b 3e a8 17 c6 3e 80 ef 6b bd bc 3b 84 3e
       0.22969078 0.38689923 -0.057601452 0.25826824
000170 70 c6 f9 3e ff 0c d4 3e d4 b3 95 3e 48 ee be be
       0.48784208 0.41416165 0.2923876 -0.3729117
000180 21 21 0b bd 0c 08 36 3e 75 4b 10 be 9e 2a 20 be
       -0.03396714 0.17776507 -0.14091285 -0.15641257
000190 82 1e 8b 3e fc e1 d3 be 76 23 02 3e 63 05 cb 3e
       0.27171713 -0.4138335 0.1270884 0.39652547
0001a0 c0 65 1f 3d fd 71 26 be 79 d8 02 be bf 3f ba 3e
       0.038915396 -0.1625442 -0.1277789 0.3637676
0001b0 39 e4 8d 3e 07 28 4b bf 23 61 86 3e f6 6a 86 be
       0.27713183 -0.7935795 0.26245984 -0.2625348
0001c0 cc ca 2d bf 6a 38 a1 3e 1b ae 7a bc bc 0e 1f c0
       -0.6788757 0.31488353 -0.015300299 -2.4852743
0001d0 ae 7f 6d be f0 2b b3 be f2 72 eb be 91 2d 3f bf
       -0.23193237 -0.3499446 -0.45986134 -0.74678904
0001e0 25 38 b3 be d5 ea 3f be c0 44 82 bd 32 8f a7 be
       -0.35003772 -0.18741925 -0.06360769 -0.32726437
0001f0 63 48 c5 3e fe 76 53 3e a8 ce 5b 3e 58 d3 b9 bd
       0.3853179 0.2065086 0.21465552 -0.09073514
000200 e2 14 9b 3d ea 94 42 be 81 24 b7 3e de a9 92 be
       0.075723425 -0.19002119 0.35770038 -0.28645223
000210 62 85 fc be 12 e6 11 bf 48 21 95 bd d1 32 7b 3e
       -0.49320513 -0.56991684 -0.072817385 0.24531104
000220 81 09 74 bf ad 20 da bd 73 27 1a be 62 d5 56 3e
       -0.95327 -0.10650764 -0.15054111 0.20979837
000230 08 6d 10 3d 36 ec 7d 3d d4 88 98 bd 5c 13 42 be
       0.03526023 0.061992846 -0.07447973 -0.18952698
000240 65 95 c6 3e 97 77 e0 3e cd 91 9d 3e 26 c1 0e be
       0.38785854 0.4384124 0.307753 -0.13940868
000250 c6 97 9a 3e 17 44 15 3e 81 23 c6 3e f7 b1 d5 bc
       0.3019392 0.14576755 0.38698962 -0.026085837
000260 8a 3b a8 3e 40 ab 38 be d8 9a 96 3e aa 5c 5a bf
       0.32857925 -0.18034077 0.2941501 -0.85297644
000270 42 3e 8e be 00 59 bb bc 2a 5f 22 be 96 d8 7a 3e
       -0.27781874 -0.022869587 -0.15856615 0.24496683
000280 d7 19 65 3e ba 41 04 bf c2 3a ca bc 50 c6 a2 bd
       0.22373138 -0.5166279 -0.024686221 -0.07947981
000290 7a 72 54 bc 92 63 7a bd f1 5a df 3e df 25 07 be
       -0.012966746 -0.061130114 0.4362407 -0.1319804
0002a0 f6 1f bd 3b b8 0c 5d be 18 b3 70 bf f2 75 bf bd
       0.0057716323 -0.21586883 -0.94023275 -0.09348668
0002b0 dd 06 92 bc cf 7c cd bd 80 15 ff be 0e 41 a0 bf
       -0.017825538 -0.10033571 -0.4982109 -1.2519853
0002c0 2f bf 22 bf b5 f5 eb bd 75 8c 3c bf 46 c5 b7 3e
       -0.63572973 -0.11521474 -0.7365182 0.35892695
0002d0 ee 08 99 be 23 af 5b 3e d5 c6 1c 3e 44 3f 0d bf
       -0.29889625 0.21453528 0.15310223 -0.5517466
0002e0 71 eb d6 be 0e 76 b8 3c ab d5 dc 3e 1d 40 02 be
       -0.41976503 0.02251723 0.43131766 -0.1271977
0002f0 56 1c 6c 3e 7f 51 7e 3d df 9f 1b 3e 96 6e ea 3d
       0.23057684 0.06208944 0.15197705 0.11446874
000300 19 95 78 3e 1c 7b a4 3e c9 2d ad be 91 94 b0 be
       0.24275626 0.32125175 -0.33823994 -0.34488347
000310 5e 26 a3 bc 33 80 7c bf 99 cd 05 3e 2a 89 29 3e
       -0.019915756 -0.98633116 0.1306671 0.1655623
000320 6f 5e f0 38 17 a4 ea bc 39 42 9b bd 2e 40 1a bc
       0.000114616814 -0.028642697 -0.0758099 -0.009414716
000330 87 f4 6d bd 7d bf 4c bd b7 1d ef 3c 0e be dc 3b
       -0.058094528 -0.049987305 0.029188974 0.0067365235
000340 ef a2 a8 bc 4c 66 52 3c 8b e7 29 3d c5 95 73 bd
       -0.020585505 0.012841772 0.041480582 -0.059469003
000350 6f 5a 9f bd a4 46 d3 bc d4 ef 99 bc de 75 91 bd
       -0.07780921 -0.02579052 -0.018791117 -0.071025595
000360 e1 c4 36 bb db 76 cd bb 56 49 6b 3a 3f 8c 83 3c
       -0.0027888345 -0.006270272 0.00089754665 0.016058085
000370 ab 83 96 3a 19 38 54 bd e7 16 47 bd 66 b0 4e 3d
       0.0011483332 -0.05181131 -0.048605826 0.050461195
000380 9c df 5b 3c 19 0a 02 3c 2a b9 0a bb c5 21 58 3c
       0.013420012 0.007936978 -0.0021167495 0.013191645
000390 0c 9d 75 bd 09 92 01 bd b5 00 4c bd 99 18 c6 3b
       -0.059964225 -0.03163341 -0.04980536 0.0060454127
0003a0 79 94 15 bc fc 7b 82 bd 11 ec 03 bd 26 36 83 bd
       -0.009129637 -0.063713044 -0.032207552 -0.06406812
0003b0 93 5a a9 bd 7f eb f9 3b b5 8b a1 bc 0d 96 c4 3b
       -0.08269229 0.0076269503 -0.019719938 0.0059993328
0003c0 e5 8f 24 3c 15 05 85 bd bb b7 c1 3c a6 34 5d 3b
       0.010044073 -0.0649511 0.02364718 0.0033753305
0003d0 09 9c 82 bd 81 67 d4 3c e9 99 aa bd 20 46 09 bd
       -0.063774176 0.02592826 -0.08330137 -0.033514142
0003e0 c0 36 2c 3d bb 7c d0 3c ab b6 8d bd 2e a1 14 3c
       0.0420444 0.025450101 -0.06919607 0.009071631
0003f0 8a 65 25 3d d2 33 df 3c b1 1a 3c 3d 34 9f 1b bd
       0.04038004 0.02724639 0.045923892 -0.037993625

fc2.bias f4 [50]
000000 82 b3 27 3e 8a f1 45 3d e8 dd 96 3e 53 dd c3 3d
       0.1637707 0.048326053 0.29466176 0.095636986
000010 e0 05 1c 3e 45 60 d3 3d be 06 88 3e 44 f4 f0 bd
       0.15236616 0.10321096 0.26567644 -0.1176534
000020 aa f7 d1 3d 34 77 a4 3e ad 67 0c 3e 2a 64 bb bd
       0.10252316 0.32122195 0.13711424 -0.09149964
000030 9a e8 e0 3c 90 76 19 3f 7e b6 a9 3e 1d 10 14 3f
       0.027454663 0.59946537 0.33147043 0.57837087
000040 fa 20 ee 3e 9f 1f cb 3e 68 1b 00 3d ca 92 15 bd
       0.46509534 0.39672562 0.031276137 -0.036516942
000050 99 c6 97 3e 60 b5 d7 3e 4f b2 e6 3e 9c f6 c7 3c
       0.29643705 0.42130566 0.45057914 0.024409585
000060 1f 4b d0 bd 64 48 a2 bd fe e7 59 bd 48 83 64 3e
       -0.10170578 -0.07923964 -0.05319976 0.22315705
000070 88 b2 01 3d 28 05 21 3f f4 6e 5a 3e c7 fb 39 3e
       0.0316644 0.6289849 0.21331388 0.18162452
000080 43 d2 19 3f 02 0f 8c 3e 05 58 f8 3d 4d ef 78 3d
       0.6008646 0.273552 0.121261634 0.06077509
000090 a6 48 88 3d c1 45 48 3e f8 37 ca 3d b1 e2 1b 3e
       0.066544816 0.19557859 0.098739564 0.15223195
0000a0 89 5d f8 3d 6c 6b fa 3c b6 39 9e 3c 12 33 88 3e
       0.121272154 0.0305688 0.019314628 0.26601464
0000b0 30 ec 35 3e 4b cd c3 3d 3c 88 a9 3d 66 22 1c 3e
       0.1776588 0.09560641 0.08277938 0.15247497
0000c0 2d 7a 4a be d4 f2 a0 3e
       -0.19773169 0.31435263

fc3.weight f4 [1, 50]
000000 87 a0 38 bf 27 2d 80 3a f5 63 25 bf 83 f8 78 3e
       -0.72119945 0.0009779081 -0.6460565 0.2431355
000010 28 ec 73 3e be 6a 58 3e d5 71 9f be f9 59 44 bf
       0.23820555 0.21134469 -0.31141534 -0.7669979
000020 ba 29 9a 3e 46 31 39 bf 13 1d 92 3e 4a 19 b9 3c
       0.3010996 -0.7234081 0.28537807 0.022595067
000030 52 41 7e bd 76 95 0b bf 91 f0 f8 be 00 fa 30 bf
       -0.062074013 -0.54524934 -0.48621038 -0.6913147
000040 9f 46 f4 be ba 26 f3 be 18 5a 4d bb 57 a7 34 bf
       -0.4771013 -0.47490484 -0.0031334218 -0.7056784
000050 b1 27 38 bf 2f b0 18 bf c0 b5 04 bf b4 aa f1 be
       -0.71935564 -0.59643835 -0.5183983 -0.4720055
000060 cd ba 98 bd d5 c9 05 bb 09 76 b7 bd b8 9b 2d bf
       -0.074575044 -0.002041449 -0.0895806 -0.6781573
000070 53 2f 61 3e 9a 2d 26 bf 3f e0 aa 3e 63 36 9c 3e
       0.21990709 -0.6491333 0.3337421 0.30510244
000080 a2 37 14 bf 04 8a 1d bf 2c 97 12 bf 49 f2 6b 3e
       -0.5789739 -0.6153872 -0.5726192 0.23041643
000090 2e 17 90 3e df a6 1a bf 7a 8e 8d 3e 16 fe 9e 3e
       0.28142685 -0.60410875 0.27647763 0.31053227
0000a0 23 f2 6b 3e fb a3 6f 3e ce 64 60 3e 37 d2 3d bf
       0.23041587 0.23402397 0.21913454 -0.7414889
0000b0 de ae a1 3e eb 48 82 3e 82 97 70 3e d1 47 9e be
       0.31578726 0.25446257 0.23495296 -0.30914167
0000c0 3f 68 27 be 7e 6d d4 be
       -0.1634836 -0.41489786
