Radiomics_local_global_framework/models/lasso_feature_selection/CoxPH/global_flair_t1ce_t2___local_flair_t1ce/model.pt (torch, 96446 bytes, 13 tensors)

weight f4 [32, 651]
0	0x3dad7353	0.08469262
1	0xbd10c8d3	-0.03534777
2	0x3d2c9eac	0.04214351
3	0xbcc4a3d7	-0.024003906
4	0xbd47346a	-0.04863397
5	0xbd1292ff	-0.035784718
6	0x3c710d19	0.014712595
7	0x3cfd1c0d	0.030897165
8	0x3d4dd56f	0.050252374
9	0xbc812116	-0.015762847
10	0xbd441de7	-0.04788008
11	0x3d79751d	0.060902704
12	0xbc900057	-0.017578287
13	0xbd25a9e1	-0.040445212
14	0x3cbc5592	0.022990022
15	0x3c52c5db	0.012864555
16	0x3bef64b0	0.007305704
17	0x3c96f5dd	0.018427784
18	0xbd62c2fd	-0.055361737
19	0xbb19015c	-0.0023346758
20	0x3d01aa08	0.031656295
21	0xbdba7847	-0.09104972
22	0xbd015b5b	-0.031581264
23	0x3d76d830	0.060264766
24	0x3e17673d	0.14785476
25	0xbcda877b	-0.02667593
26	0x3dff1a9e	0.12456249
27	0x3d8d85b7	0.0691027
28	0xbd43ae6d	-0.047773767
29	0x3c5b18c7	0.013372607
30	0x3c106102	0.008812191
31	0x3c27a7ff	0.0102329245
32	0xbd46c30a	-0.048525847
33	0xbd38ea82	-0.04514552
34	0xbcb6b363	-0.022302335
35	0x3ce9da4f	0.02854648
36	0x3d3761bb	0.044770937
37	0x3d3a6b54	0.045512512
38	0x3d0d678b	0.034522574
39	0xbdbca801	-0.09211732
40	0x3d8a266c	0.0674561
41	0xbe1ee9e3	-0.15518908
42	0x3db12432	0.08649482
43	0xbd4d981a	-0.050193883
44	0x3d02076f	0.03174537
45	0x3c9aeb91	0.018911155
46	0x3db99d51	0.09063209
47	0xbcb7958e	-0.02241018
48	0xbca140aa	-0.019684155
49	0x3d79fd89	0.061032806
50	0x3ccf9191	0.025337966
51	0x3c74597e	0.014913915
52	0x3d55c783	0.052192222
53	0xbb64712f	-0.0034857502
54	0x3be71749	0.0070523364
55	0x3d0874e8	0.033314615
56	0x3d36496a	0.044503607
57	0xbd7b9bd9	-0.061427925
58	0x3af0493d	0.0018332374
59	0x3b7e93ec	0.0038845493
60	0x3df0b0ef	0.117524974
61	0xbc7d66c6	-0.015466398
62	0x3d925fb2	0.07147159
63	0x3d867056	0.06564395
64	0x3d352ec8	0.044234067
65	0x3d8a94cb	0.06766661
66	0x3bbd581c	0.0057783257
67	0xbd5444ad	-0.051823307
68	0x3b329d86	0.0027254536
69	0xbdaf715e	-0.08566545
70	0xbd7c13b0	-0.061542213
71	0x3d812f86	0.063078925
72	0xbc9d1f32	-0.019179914
73	0x3d8a7421	0.06760431
74	0xbd6c722a	-0.057726063
75	0x3d46d41b	0.048542123
76	0x3d9175e5	0.07102565
77	0xbcaf50da	-0.021400858
78	0x3aee8497	0.0018197474
79	0xbdc8f9b0	-0.09813249
80	0x3bab8f86	0.005235615
81	0xbd0c22a5	-0.034212727
82	0xbd99bbd7	-0.07506531
83	0x3cfc4119	0.03079276
84	0xbd9bef16	-0.076139614
85	0x3dce9829	0.10087616
86	0xbcfd3e9f	-0.03091365
87	0x3d34bf9f	0.044128057
88	0x3d58732d	0.052844215
89	0xbbb7838e	-0.0056003993
90	0x3db8e083	0.09027197
91	0x3c7b86be	0.015351949
92	0x3c8e5d3e	0.017378446
93	0x3c2472d1	0.01003714
94	0xbd6664ed	-0.056248594
95	0x3d10eeb9	0.035383914
96	0x3cc8b7da	0.02450173
97	0x3dbef4b6	0.09324019
98	0xbcaffbec	-0.02148243
99	0xbdbcbe98	-0.092160404
100	0x3d861e79	0.06548781
101	0x3cbb6112	0.022873435
102	0xbcc59a23	-0.02412135
103	0xbd14514b	-0.03621034
104	0xbd4b80f1	-0.049683515
105	0xbd3d3e1b	-0.046201807
106	0x3d8b9f69	0.068175144
107	0x3d390b7b	0.045176964
108	0xbd0cd1e5	-0.03437986
109	0x3cf9e839	0.03050624
110	0xbc8f4c01	-0.017492296
111	0x3dbbb37e	0.09165095
112	0xbbbf1ed1	-0.005832531
113	0x3cec2b17	0.02882914
114	0xbdbc47c0	-0.09193373
115	0xbd3815de	-0.04494273
116	0xbbcb9bae	-0.006213627
117	0xbd593064	-0.053024665
118	0xbd86fd1e	-0.06591247
119	0xbd12e2cf	-0.035860833
120	0xbcde200d	-0.027114892
121	0x3e1eee83	0.15520673
122	0xbd82388d	-0.063584425
123	0xbbde4cad	-0.006784043
124	0xba6aa0c2	-0.00089503464
125	0xbdca0e75	-0.09866039
126	0xbd3a7865	-0.045524973
127	0x3d236bf7	0.039897885
128	0x3cd6e44e	0.026231911
129	0xbb9804b6	-0.0046392335
130	0xbd0589f4	-0.032602265
131	0x3cbeb476	0.02327941
132	0x3d641d73	0.055692147
133	0xbd540ca6	-0.051769875
134	0xbda6e47e	-0.0814905
135	0x3c86df46	0.016463887
136	0x3b3252ae	0.0027209925
137	0xbceb9cb8	-0.028761253
138	0x3d674787	0.0564647
139	0xbe0fe9ed	-0.1405408
140	0xbdd63df4	-0.10461035
141	0xb88249d8	-6.2126375e-05
142	0xbd264d1d	-0.040600885
143	0x3d5a61b6	0.05331584
144	0xbdacd8d1	-0.08439792
145	0x3c84235b	0.01613014
146	0x3ce4b2ae	0.027917232
147	0xbc826c19	-0.015920686
148	0x3d8227f2	0.06355275
149	0x3dcbad71	0.09945191
150	0x3d7f79aa	0.062371887
151	0x3cf80c93	0.030279433
152	0x3c1a4e9e	0.009418158
153	0xb9f4723d	-0.0004662442
154	0xbdaab635	-0.083355345
155	0xbe0551f9	-0.13019551
156	0x3d86b661	0.06577755
157	0x3d8796d5	0.06620566
158	0xbcd055fc	-0.025431626
159	0xbd12b519	-0.03581724
160	0x3ddef520	0.10886598
161	0x3cfa81d2	0.030579481
162	0x3cc5a384	0.024125822
163	0xbd5f99e3	-0.054590117
164	0xbda08614	-0.078380734
165	0x3cb6f2f2	0.022332642
166	0x3cb5fce1	0.022215309
167	0x3d1a00c9	0.037598405
168	0xbdc6c1c6	-0.09704928
169	0x3d3b5a65	0.045740504
170	0xbd5b7b4e	-0.05358439
171	0x3b19614b	0.0023403938
172	0xbdb1e552	-0.086863175
173	0xbd944abd	-0.07240818
174	0xbcce98e5	-0.02521939
175	0xbda8dfaf	-0.08245789
176	0x3d8bd39a	0.06827469
177	0x3d860748	0.065443575
178	0xbe24519f	-0.16046761
179	0x3d62e3fd	0.055393208
180	0x3d60d9e8	0.05489531
181	0x3e16d0b7	0.14728056
182	0xbd4a19eb	-0.049341124
183	0x3c65d44b	0.014027665
184	0x3d30b5d1	0.043142144
185	0xbba6da6e	-0.005091957
186	0x3ce257fd	0.027629847
187	0x3d2b9488	0.041889697
188	0x3c22e7a0	0.009942919
189	0x3d812bc4	0.06307176
190	0xbd236fd5	-0.039901573
191	0xbd9fc6b7	-0.07801574
192	0x3c8ec633	0.017428493
193	0xbdc0a7f6	-0.09407036
194	0x3d633291	0.055468146
195	0xbda107b4	-0.078627974
196	0x3d56cf32	0.05244369
197	0x3cf86873	0.030323243
198	0x3d0f36f4	0.034964517
199	0x3c3bac27	0.011454619
200	0xbd10bff7	-0.035339322
201	0x3b8c135f	0.00427477
202	0x3d5802f9	0.05273721
203	0x3d99e6a4	0.07514694
204	0xbcfc7c21	-0.030820908
205	0xbd2569ab	-0.040383976
206	0x3e30e592	0.17275074
207	0xb974229b	-0.00023282545
208	0x3d54d138	0.05195734
209	0xbe0c6883	-0.13711743
210	0x3d352de8	0.044233233
211	0xbc906266	-0.017625045
212	0x3a0b4190	0.0005312199
213	0xbc8bbaf7	-0.017056925
214	0x3dde519e	0.10855411
215	0xbb9ee34c	-0.0048488732
216	0x3d50ff2b	0.051024597
217	0xbcdb9dcd	-0.026808644
218	0x3d445cee	0.047940187
219	0xbcd3b1b7	-0.025841577
220	0x384c744c	4.87457e-05
221	0xbae8ea86	-0.0017770089
222	0x3deef4da	0.116677955
223	0x3cdd294f	0.026997237
224	0x3d10d128	0.035355717
225	0xbc22f106	-0.00994516
226	0x3a3f6581	0.0007301197
227	0xbcd89bda	-0.026441503
228	0xbcd724a3	-0.026262587
229	0xbdd5a349	-0.10431535
230	0xbc33e198	-0.010979079
231	0xbd905454	-0.07047334
232	0x3cc29f8d	0.02375772
233	0x3c41a2cc	0.011818599
234	0xbc98c354	-0.018647827
235	0x395c51c6	0.00021011298
236	0x3c0035f1	0.007825361
237	0x3cc433b0	0.023950428
238	0x3d25fcc9	0.040524278
239	0x3a9da15d	0.001202624
240	0x3d9dd9f1	0.07707585
241	0xbbfee27e	-0.007778465
242	0x3dbc4e10	0.09194577
243	0xbc364fd8	-0.011127435
244	0x3da979fd	0.082752205
245	0xbd88bae0	-0.066762686
246	0x3d542a8f	0.0517984
247	0xbc89e5b8	-0.016833171
248	0xbd9e966a	-0.07743533
249	0x3d4a40a5	0.049378056
250	0x3d6ed434	0.05830784
251	0x3d855f7a	0.06512351
252	0xbd71a538	-0.058995456
253	0x3d058bb0	0.03260392
254	0xbda53907	-0.08067518
255	0xbe221611	-0.1582873

bias f4 [32]
0	0x3d0a6a35	0.033792693
1	0x3c6d1cd4	0.014472205
2	0x3d156951	0.03647739
3	0x3c10deda	0.008842194
4	0xbd1bbe63	-0.038023364
5	0x3d12da69	0.035852823
6	0xbd0c252e	-0.034215145
7	0xbd0c71fa	-0.034288384
8	0xbce1032c	-0.027467333
9	0x3c062cd3	0.008189398
10	0xbd0bc7f1	-0.034126226
11	0xbba1aa10	-0.004933603
12	0xbd04936e	-0.032367162
13	0x3c67bdc2	0.014144363
14	0x3d19d32a	0.037554897
15	0x3c12c1b1	0.008957312
16	0xbb86d301	-0.004114509
17	0x3cbfb432	0.023401354
18	0xbcdff26b	-0.027337274
19	0x3c55de6a	0.013053516
20	0x3ca31f90	0.019912511
21	0x3ce89078	0.0283892
22	0xbb179347	-0.0023128556
23	0x3ca89a7f	0.020581482
24	0x3d0f5346	0.034991525
25	0x3d0d2b87	0.03446534
26	0xbc55cc81	-0.013049246
27	0xbd12ece6	-0.035870455
28	0x3c8301fd	0.015992159
29	0x3b8d0cb6	0.004304494
30	0x3c4ef06b	0.012630562
31	0xbceae103	-0.028671747

weight f4 [32]
0	0x3f800000	1.0
1	0x3f800000	1.0
2	0x3f800000	1.0
3	0x3f800000	1.0
4	0x3f800000	1.0
5	0x3f800000	1.0
6	0x3f800000	1.0
7	0x3f800000	1.0
8	0x3f800000	1.0
9	0x3f800000	1.0
10	0x3f800000	1.0
11	0x3f800000	1.0
12	0x3f800000	1.0
13	0x3f800000	1.0
14	0x3f800000	1.0
15	0x3f800000	1.0
16	0x3f800000	1.0
17	0x3f800000	1.0
18	0x3f800000	1.0
19	0x3f800000	1.0
20	0x3f800000	1.0
21	0x3f800000	1.0
22	0x3f800000	1.0
23	0x3f800000	1.0
24	0x3f800000	1.0
25	0x3f800000	1.0
26	0x3f800000	1.0
27	0x3f800000	1.0
28	0x3f800000	1.0
29	0x3f800000	1.0
30	0x3f800000	1.0
31	0x3f800000	1.0

bias f4 [32]
0	0x00000000	0.0
1	0x00000000	0.0
2	0x00000000	0.0
3	0x00000000	0.0
4	0x00000000	0.0
5	0x00000000	0.0
6	0x00000000	0.0
7	0x00000000	0.0
8	0x00000000	0.0
9	0x00000000	0.0
10	0x00000000	0.0
11	0x00000000	0.0
12	0x00000000	0.0
13	0x00000000	0.0
14	0x00000000	0.0
15	0x00000000	0.0
16	0x00000000	0.0
17	0x00000000	0.0
18	0x00000000	0.0
19	0x00000000	0.0
20	0x00000000	0.0
21	0x00000000	0.0
22	0x00000000	0.0
23	0x00000000	0.0
24	0x00000000	0.0
25	0x00000000	0.0
26	0x00000000	0.0
27	0x00000000	0.0
28	0x00000000	0.0
29	0x00000000	0.0
30	0x00000000	0.0
31	0x00000000	0.0

running_mean f4 [32]
0	0x00000000	0.0
1	0x00000000	0.0
2	0x00000000	0.0
3	0x00000000	0.0
4	0x00000000	0.0
5	0x00000000	0.0
6	0x00000000	0.0
7	0x00000000	0.0
8	0x00000000	0.0
9	0x00000000	0.0
10	0x00000000	0.0
11	0x00000000	0.0
12	0x00000000	0.0
13	0x00000000	0.0
14	0x00000000	0.0
15	0x00000000	0.0
16	0x00000000	0.0
17	0x00000000	0.0
18	0x00000000	0.0
19	0x00000000	0.0
20	0x00000000	0.0
21	0x00000000	0.0
22	0x00000000	0.0
23	0x00000000	0.0
24	0x00000000	0.0
25	0x00000000	0.0
26	0x00000000	0.0
27	0x00000000	0.0
28	0x00000000	0.0
29	0x00000000	0.0
30	0x00000000	0.0
31	0x00000000	0.0

running_var f4 [32]
0	0x3f800000	1.0
1	0x3f800000	1.0
2	0x3f800000	1.0
3	0x3f800000	1.0
4	0x3f800000	1.0
5	0x3f800000	1.0
6	0x3f800000	1.0
7	0x3f800000	1.0
8	0x3f800000	1.0
9	0x3f800000	1.0
10	0x3f800000	1.0
11	0x3f800000	1.0
12	0x3f800000	1.0
13	0x3f800000	1.0
14	0x3f800000	1.0
15	0x3f800000	1.0
16	0x3f800000	1.0
17	0x3f800000	1.0
18	0x3f800000	1.0
19	0x3f800000	1.0
20	0x3f800000	1.0
21	0x3f800000	1.0
22	0x3f800000	1.0
23	0x3f800000	1.0
24	0x3f800000	1.0
25	0x3f800000	1.0
26	0x3f800000	1.0
27	0x3f800000	1.0
28	0x3f800000	1.0
29	0x3f800000	1.0
30	0x3f800000	1.0
31	0x3f800000	1.0

weight f4 [32, 32]
0	0xbdb61a8e	-0.08891784
1	0x3eb24884	0.3482095
2	0x3dcc21a1	0.09967352
3	0x3e8bca14	0.2730261
4	0xbde42bb4	-0.11141148
5	0x3db997db	0.09062167
6	0xbeadae15	-0.33921877
7	0xbdbad17c	-0.09121987
8	0x3ea18770	0.31548643
9	0xbf11ba1c	-0.56924605
10	0xbe0c4f5b	-0.13702147
11	0xbe8a1f9e	-0.26977247
12	0x3e4f8c9c	0.20268482
13	0xbe699ee1	-0.22814514
14	0xbd657a0e	-0.056024604
15	0xbecc12aa	-0.3985799
16	0xbeb2d6ed	-0.349296
17	0xbe70bb53	-0.23508959
18	0xbed8c570	-0.42338133
19	0x3c9a06dc	0.018802099
20	0xbeaaba1c	-0.33345115
21	0x3ec22b67	0.37923738
22	0xbe3f4c4e	-0.18681452
23	0xbd542e2e	-0.051801853
24	0x3efbbf50	0.49169397
25	0xbe0637f8	-0.13107288
26	0x3d4fee42	0.05076433
27	0xbdbb0dd6	-0.09133498
28	0x3c655fbf	0.013999878
29	0xbcd1290e	-0.025532272
30	0xbed3d296	-0.41371602
31	0xbefac62d	-0.4897932
32	0xbeb66657	-0.35624954
33	0xbe5191da	-0.20465794
34	0x3e7c8a8a	0.24662223
35	0x3e8cc994	0.27497542
36	0x3db8e89f	0.09028744
37	0xbe9c9c01	-0.30587772
38	0xbe81e1b8	-0.25367522
39	0xbc02979d	-0.007970718
40	0xbdc84b36	-0.0977997
41	0xbdd47f71	-0.1037587
42	0x3ea92cec	0.33042085
43	0x3d08b504	0.033375755
44	0x3e555518	0.20833242
45	0x3e536c34	0.20646745
46	0x3ea042e2	0.31301028
47	0xbc69f891	-0.014280454
48	0xbd533714	-0.0515662
49	0xbe9aee64	-0.30260003
50	0x3e61fbc5	0.22068699
51	0xbe4b3746	-0.19845304
52	0xbe225029	-0.15850891
53	0x3c5b5b25	0.01338843
54	0x3ce27ece	0.027648356
55	0xbe2d5144	-0.16925532
56	0xbdb26af4	-0.08711806
57	0x3d925a39	0.07146115
58	0x3f1ae2e6	0.6050247
59	0xbbf54e9d	-0.007486178
60	0x3e63a060	0.22229147
61	0xbeb8becc	-0.36083066
62	0x3a4059a6	0.00073375774
63	0xbd27c964	-0.040963545
64	0xbf035627	-0.51303333
65	0xbea8573a	-0.3287905
66	0xbe911bb9	-0.28341463
67	0x3d76b5ba	0.0602319
68	0xbe6ed847	-0.23324691
69	0x3ed27716	0.4110648
70	0xbdc5d875	-0.096604265
71	0xbebafaa2	-0.36519343
72	0x3e4b7129	0.19867386
73	0x3eda8597	0.42680046
74	0x3df517ee	0.11967455
75	0xbb5c97b2	-0.0033659753
76	0xbcdeb4cd	-0.027185822
77	0xbe63fadf	-0.22263668
78	0xbe04f299	-0.12983169
79	0xbdec8671	-0.1154908
80	0xbea763b6	-0.3269326
81	0x3d030da6	0.031995438
82	0xbd139ff9	-0.036041234
83	0x3e64b861	0.2233596
84	0x3e47c919	0.19510306
85	0x3dd32ef1	0.10311688
86	0x3e2e9daa	0.17052332
87	0x3d268e61	0.040663127
88	0x3d98b614	0.07456604
89	0xbe45c897	-0.193148
90	0xbdc7cfa6	-0.09756403
91	0xbc8b2205	-0.016983995
92	0xbe18babf	-0.14914988
93	0xbb96e244	-0.0046046097
94	0x3e755853	0.23959474
95	0xbd39e3a6	-0.045383118
96	0x3f085d62	0.5326749
97	0xbdc5aa88	-0.09651667
98	0xbef3f043	-0.47644243
99	0x3c6a98d0	0.01431866
100	0xbdae478b	-0.085097395
101	0xbea9fd1b	-0.33200917
102	0x3e81b56d	0.2533373
103	0xbc67ee9e	-0.014156012
104	0xbec6239d	-0.38699046
105	0x3eb8dc22	0.36105448
106	0xbd9b1fac	-0.075744
107	0xbe3ed892	-0.18637303
108	0xbe9279ac	-0.28608453
109	0xbe186de4	-0.1488567
110	0xbdf934c1	-0.12168265
111	0xbe05d23c	-0.1306848
112	0x3c8b7ce8	0.017027333
113	0xbc894ee0	-0.016761243
114	0xbd86125c	-0.065464705
115	0xbeeb3f14	-0.45946562
116	0xbef3e2f2	-0.47634083
117	0xbe752ba1	-0.23942424
118	0x3d6cc473	0.057804536
119	0xbe608f1a	-0.21929589
120	0xbd43ecf7	-0.04783341
121	0xbe7acc81	-0.24492075
122	0xbe29df36	-0.16589054
123	0xbe9600e0	-0.29297543
124	0xbeb50824	-0.35357773
125	0x3e61bebd	0.22045417
126	0xbf217ad9	-0.63078076
127	0x3d04ad19	0.03239164
128	0xbe846c14	-0.25863707
129	0x3ec3bc80	0.38229752
130	0x3ebe086e	0.37115806
131	0xb90b798a	-0.0001330135
132	0xbe0c59f3	-0.13706188
133	0xbefff383	-0.49990472
134	0x3dbb33f0	0.09140766
135	0x3f1c858f	0.61141294
136	0x3de21b05	0.1104031
137	0x3ccde900	0.025135517
138	0xbd4afb09	-0.049555812
139	0xbe306f6d	-0.17230006
140	0xbee04d54	-0.43808997
141	0x3ca6ece9	0.02037664
142	0xbd93ac52	-0.07210602
143	0xbdcc116e	-0.09964262
144	0x3e991b28	0.2990353
145	0xbe958d0d	-0.29209176
146	0xbcbf6f58	-0.023368523
147	0x3e6af48e	0.22944853
148	0xbd9cebb2	-0.07662143
149	0x3da28af0	0.079366565
150	0xbd03f1b0	-0.032212913
151	0xbe54834c	-0.20753211
152	0x3f0e9f02	0.55711377
153	0xbe8db3c1	-0.27676204
154	0x3e054e13	0.13018064
155	0xbe9f0e3a	-0.31065542
156	0xbdb3afb8	-0.0877375
157	0x3e6da313	0.23206739
158	0x3e600ad2	0.21879128
159	0xbe96cbcb	-0.29452357
160	0xbd46f562	-0.04857386
161	0xbb42821c	-0.0029679602
162	0xbd567fca	-0.052367963
163	0xbdc8e863	-0.09809949
164	0xbdc103bc	-0.094245404
165	0xbda94725	-0.08265523
166	0x3e8342bc	0.25636852
167	0x3eb8fda8	0.36131024
168	0x3d9f80d7	0.07788246
169	0xbefc8a03	-0.49324045
170	0x3e09dca8	0.1346308
171	0xbe55ea7a	-0.20890227
172	0x3e984d5e	0.29746526
173	0xbed898db	-0.4230412
174	0xbef76af7	-0.48323795
175	0x3e77a89d	0.24185415
176	0xbe0afa30	-0.13572001
177	0x3e345162	0.1760917
178	0xbf29e9bb	-0.6637227
179	0xbe56e7e1	-0.20986892
180	0xbd67e235	-0.056612212
181	0x3e485461	0.19563438
182	0x3ef9d9cf	0.48798987
183	0x3ebd26cc	0.36943662
184	0xbb401651	-0.0029310177
185	0xbc0407f0	-0.008058533
186	0xbdfbcd54	-0.122950226
187	0x3e308c20	0.17240953
188	0x3ef32be3	0.4749442
189	0x3e3f9d10	0.18712258
190	0xbeb574ff	-0.35440823
191	0xbd0f7c9d	-0.03503095
192	0x3dfba9a7	0.12288218
193	0x3f29260f	0.660737
194	0x3c8d5b64	0.017255493
195	0x3cd341ab	0.025788149
196	0x3eb481de	0.3525533
197	0x3f0b73bd	0.5447348
198	0xbe6553ea	-0.22395292
199	0x3d212932	0.039345928
200	0xbe0e0d76	-0.13872322
201	0xbd94336a	-0.07236369
202	0x3d4f3850	0.050590813
203	0x3e3750a3	0.17901854
204	0x3e7c4b5c	0.24638122
205	0xbe991064	-0.29895318
206	0x3d2d4fed	0.04231255
207	0x3e86b8b6	0.26312798
208	0xbeb47bb2	-0.35250622
209	0xbe4e1307	-0.20124446
210	0xbd2fc24a	-0.042909898
211	0xbe9dde5f	-0.30833718
212	0x3e81f99d	0.25385752
213	0xbe49bbea	-0.1970059
214	0xbeb2e087	-0.34936926
215	0xbe6692bb	-0.2251691
216	0x3e1f9b1b	0.15586512
217	0xbe6cee10	-0.23137689
218	0x3e267c05	0.16258247
219	0x3dcbb858	0.0994727
220	0x3eb2a7ed	0.34893742
221	0x3b6d02e3	0.003616505
222	0xbe5bf0b4	-0.2147854
223	0xbef740ac	-0.48291528
224	0xbebb5cd3	-0.36594257
225	0x3dfc6d0d	0.12325487
226	0xbe4a869e	-0.19777915
227	0x3eb0f7a1	0.34563926
228	0xbd0b44b6	-0.034001075
229	0xbe24a72a	-0.16079393
230	0xbd280b8a	-0.04102663
231	0x3f26bbeb	0.6513049
232	0x3e0de2de	0.13856074
233	0xbdf551ac	-0.11978468
234	0x3cc6f063	0.024284547
235	0x3d1b9d34	0.037991717
236	0xbca49a5e	-0.02009314
237	0x3da6a705	0.08137325
238	0xbdcbf2ab	-0.099583946
239	0x3c24477c	0.010026809
240	0x3ee8c8ce	0.45465702
241	0xbd8b7384	-0.06809142
242	0xbde2c579	-0.11072821
243	0xbf194538	-0.59871244
244	0xbefbe77e	-0.49200052
245	0xbed0656c	-0.4070238
246	0x3dcf6198	0.101260364
247	0xbe7dee21	-0.2479787
248	0x3e04ba00	0.12961578
249	0xbe4445ac	-0.19167203
250	0x3dc1c25e	0.09460901
251	0x3e3f641b	0.18690531
252	0xbda6d078	-0.08145231
253	0x3db8810b	0.09008988
254	0xbdd82214	-0.10553375
255	0xbe0ed675	-0.13948996

bias f4 [32]
0	0xbdeab63b	-0.11460539
1	0xbdf54720	-0.11976457
2	0x3d92172a	0.071333244
3	0x3db0302a	0.086029366
4	0x3cdbdf61	0.026839914
5	0x3d0ea5cd	0.03482609
6	0x3d899796	0.06718366
7	0x3d8d7a3b	0.06908079
8	0x3e258981	0.16165735
9	0xbe135bc4	-0.14390475
10	0xbd288227	-0.041139748
11	0x3bce0444	0.0062871296
12	0x3e276be8	0.16349757
13	0xbccabb57	-0.024747534
14	0xbe0733e2	-0.13203385
15	0x3e1838e6	0.14865455
16	0x3b77b8df	0.00377994
17	0x3e2a31cf	0.16620563
18	0xbc0a82d7	-0.008454046
19	0x3d5b7f42	0.05358816
20	0xbe1b6090	-0.15173554
21	0xbd503982	-0.050836094
22	0xbd78e104	-0.060761467
23	0xbd8c8710	-0.06861699
24	0x3ddac8bf	0.106828205
25	0x3d476a26	0.048685215
26	0xbde61df0	-0.11236179
27	0x3de33c1b	0.110954486
28	0xbd9601be	-0.07324551
29	0xbd867d89	-0.06566913
30	0x3da52e82	0.08065511
31	0xbc85df91	-0.016341956

weight f4 [32]
0	0x3f800000	1.0
1	0x3f800000	1.0
2	0x3f800000	1.0
3	0x3f800000	1.0
4	0x3f800000	1.0
5	0x3f800000	1.0
6	0x3f800000	1.0
7	0x3f800000	1.0
8	0x3f800000	1.0
9	0x3f800000	1.0
10	0x3f800000	1.0
11	0x3f800000	1.0
12	0x3f800000	1.0
13	0x3f800000	1.0
14	0x3f800000	1.0
15	0x3f800000	1.0
16	0x3f800000	1.0
17	0x3f800000	1.0
18	0x3f800000	1.0
19	0x3f800000	1.0
20	0x3f800000	1.0
21	0x3f800000	1.0
22	0x3f800000	1.0
23	0x3f800000	1.0
24	0x3f800000	1.0
25	0x3f800000	1.0
26	0x3f800000	1.0
27	0x3f800000	1.0
28	0x3f800000	1.0
29	0x3f800000	1.0
30	0x3f800000	1.0
31	0x3f800000	1.0

bias f4 [32]
0	0x00000000	0.0
1	0x00000000	0.0
2	0x00000000	0.0
3	0x00000000	0.0
4	0x00000000	0.0
5	0x00000000	0.0
6	0x00000000	0.0
7	0x00000000	0.0
8	0x00000000	0.0
9	0x00000000	0.0
10	0x00000000	0.0
11	0x00000000	0.0
12	0x00000000	0.0
13	0x00000000	0.0
14	0x00000000	0.0
15	0x00000000	0.0
16	0x00000000	0.0
17	0x00000000	0.0
18	0x00000000	0.0
19	0x00000000	0.0
20	0x00000000	0.0
21	0x00000000	0.0
22	0x00000000	0.0
23	0x00000000	0.0
24	0x00000000	0.0
25	0x00000000	0.0
26	0x00000000	0.0
27	0x00000000	0.0
28	0x00000000	0.0
29	0x00000000	0.0
30	0x00000000	0.0
31	0x00000000	0.0

running_mean f4 [32]
0	0x00000000	0.0
1	0x00000000	0.0
2	0x00000000	0.0
3	0x00000000	0.0
4	0x00000000	0.0
5	0x00000000	0.0
6	0x00000000	0.0
7	0x00000000	0.0
8	0x00000000	0.0
9	0x00000000	0.0
10	0x00000000	0.0
11	0x00000000	0.0
12	0x00000000	0.0
13	0x00000000	0.0
14	0x00000000	0.0
15	0x00000000	0.0
16	0x00000000	0.0
17	0x00000000	0.0
18	0x00000000	0.0
19	0x00000000	0.0
20	0x00000000	0.0
21	0x00000000	0.0
22	0x00000000	0.0
23	0x00000000	0.0
24	0x00000000	0.0
25	0x00000000	0.0
26	0x00000000	0.0
27	0x00000000	0.0
28	0x00000000	0.0
29	0x00000000	0.0
30	0x00000000	0.0
31	0x00000000	0.0

running_var f4 [32]
0	0x3f800000	1.0
1	0x3f800000	1.0
2	0x3f800000	1.0
3	0x3f800000	1.0
4	0x3f800000	1.0
5	0x3f800000	1.0
6	0x3f800000	1.0
7	0x3f800000	1.0
8	0x3f800000	1.0
9	0x3f800000	1.0
10	0x3f800000	1.0
11	0x3f800000	1.0
12	0x3f800000	1.0
13	0x3f800000	1.0
14	0x3f800000	1.0
15	0x3f800000	1.0
16	0x3f800000	1.0
17	0x3f800000	1.0
18	0x3f800000	1.0
19	0x3f800000	1.0
20	0x3f800000	1.0
21	0x3f800000	1.0
22	0x3f800000	1.0
23	0x3f800000	1.0
24	0x3f800000	1.0
25	0x3f800000	1.0
26	0x3f800000	1.0
27	0x3f800000	1.0
28	0x3f800000	1.0
29	0x3f800000	1.0
30	0x3f800000	1.0
31	0x3f800000	1.0

weight f4 [1, 32]
0	0x3d2c4cec	0.042065546
1	0xbe059823	-0.13046317
2	0x3e1244c0	0.14284039
3	0xbe0b34fb	-0.13594429
4	0xbe11c4b7	-0.14235197
5	0xbd009673	-0.03139348
6	0x3da60285	0.08105949
7	0xbd82fa27	-0.06395369
8	0xbdff30e9	-0.12460501
9	0xbe27e73b	-0.16396801
10	0xbca275ae	-0.019831505
11	0x3e2dec42	0.16984656
12	0xbe270b5f	-0.16312931
13	0x3c41ee96	0.0118366685
14	0xbdf95468	-0.12174302
15	0x3d8202ff	0.06348228
16	0x3dd25155	0.10269419
17	0x3c8539c0	0.016262889
18	0x3d9f0e8e	0.07766448
19	0x3d06443d	0.03277992
20	0x3d3f8b83	0.046763908
21	0x3c83093c	0.015995614
22	0x3defb635	0.11704675
23	0xbdb847b9	-0.08998055
24	0xbe1b3d58	-0.1516012
25	0xbdb1f577	-0.08689397
26	0xbe255979	-0.16147412
27	0x3b0dbcd5	0.0021627445
28	0x3e25f46b	0.1620652
29	0xbd3a5ee7	-0.045500662
30	0xbe294c68	-0.16533053
31	0xbd853d68	-0.06505853
