Radiomics_local_global_framework/models/lasso_feature_selection/CoxPH/global_flair_t1ce___local_t2/model.pt (torch, 87742 bytes, 13 tensors)

weight f4 [32, 583]
000000 8b 2b a9 bc 38 c5 d8 bd 1d 64 03 3d 2d b5 15 3d
       -0.020650646 -0.105844915 0.032077897 0.036549736
000010 1a 93 e1 3d d4 5b 11 bd 62 c4 32 bc 8a 57 d3 3b
       0.110143855 -0.035487965 -0.010911079 0.0064496445
000020 42 08 23 be fb 4f 00 bd 88 45 a1 3d 70 21 33 3c
       -0.15921119 -0.031326275 0.0787459 0.010933265
000030 b6 0c 36 3c d5 ea 08 be f4 86 ed bc 26 88 9f 3c
       0.011111429 -0.13370831 -0.028995015 0.0194741
000040 f9 40 a7 bd 4f 82 84 3d 72 b8 5f bd 07 0a 5d bd
       -0.081666894 0.06470167 -0.05461926 -0.05396464
000050 34 02 07 3d ca b0 b4 3c 63 19 aa 3d 72 86 20 3c
       0.032961085 0.022056956 0.083056234 0.009797679
000060 ad 76 c8 bd cf ce df bc d2 f8 3e 3c de 83 18 3d
       -0.097882606 -0.027320294 0.011656003 0.037235133
000070 00 22 a0 bb 4a bf bb 3c 30 dc 85 3d 05 ed f4 3d
       -0.0048868656 0.022918362 0.06536138 0.119592704
000080 db 94 ac 3c 0e 8c df 3d 9f bf 3f 3c 83 6c 01 3d
       0.021067074 0.10915385 0.011703401 0.031597625
000090 89 bf a1 3d 79 e6 3a bd 81 a6 a9 bc e5 5c 8a 3c
       0.078978606 -0.045629952 -0.020709278 0.016889999
0000a0 8e 21 fe 3c 10 27 08 bd 9a b0 0e 3a 52 f3 85 3c
       0.03102186 -0.033240378 0.0005443186 0.016351376
0000b0 15 4c cb 3b 6b 3b bb 3c c7 2d 63 bd 13 b7 b6 3d
       0.006204138 0.022855481 -0.05546358 0.089216374
0000c0 dc 16 4a 3d ca 5b cd bd 9b 5a 2b bc 0b ab a1 3c
       0.049338207 -0.10027273 -0.010458614 0.01973488
0000d0 86 f2 85 3d 47 bc 46 3d f9 1e 12 bc 6c 73 20 bd
       0.06540398 0.0485194 -0.008918517 -0.039172575
0000e0 df 08 93 3c b9 ba 99 bc 5f cf 52 bb 97 83 0d bd
       0.017948566 -0.018765794 -0.003216706 -0.034549322
0000f0 4a 53 24 bd 7c d1 a5 3d ae 36 a2 3a 25 f7 e9 3c
       -0.040118493 0.080965966 0.0012375915 0.02856023
000100 49 83 0c 3c fe 31 4b 3d d5 21 9d bc 62 33 b0 bc
       0.008576223 0.049608223 -0.019181171 -0.021508876
000110 0f bd 90 bc 6a 02 2a 3d 02 c5 14 3d 85 70 78 bd
       -0.017668275 0.04150621 0.036320694 -0.060654182
000120 9f 1e 5f 3c 9b 08 7e 3d 5d 79 8d bd 48 da 92 3b
       0.0136181405 0.062019926 -0.06907914 0.0044815876
000130 e9 a9 5f bc 88 25 b8 bd d3 31 ca 3d 0d fc 13 3b
       -0.01365135 -0.089915335 0.098727845 0.0022580654
000140 33 a6 80 3d d1 e2 2f bd 3a 41 df bd de 93 50 bd
       0.062817 -0.04294092 -0.10901113 -0.050922267
000150 2d 7b 77 bd c5 ec 17 bd 72 9b 78 3c 53 3c 06 3c
       -0.060420204 -0.037091035 0.01517378 0.008193093
000160 6d 13 a6 bc bc c0 99 bd 3a da 85 bd ae 51 1e 3d
       -0.020272935 -0.07507464 -0.06535764 0.038652115
000170 62 c4 be 3d 7e 98 9e 3c bc 1e 7c bc 39 1d be 3c
       0.09314801 0.019359823 -0.015388187 0.023207294
000180 8a ee 8b 3d 30 ae af 3d 63 0e d8 3d c0 8f d1 bc
       0.06832607 0.085781455 0.10549619 -0.02558124
000190 82 ed 85 3d c3 01 ba bd 4e 69 22 3d 57 6d a4 3d
       0.06539442 -0.09082367 0.039651208 0.080286674
0001a0 45 ee b0 bd ca ed 35 3c f7 6d d7 bd 65 16 0e 3d
       -0.08639196 0.011104057 -0.10519021 0.034689326
0001b0 e3 8a 55 bd fc 32 8e bd be 4f c5 ba c9 04 11 3d
       -0.052134406 -0.06943318 -0.0015053672 0.035404954
0001c0 fa 88 22 bd 06 d6 6e 3d 36 22 71 3c 60 95 ed 3c
       -0.039681412 0.058309577 0.014717629 0.029001892
0001d0 32 45 22 3d 5c 96 20 3d c8 0a 31 bd 1e 2a f8 bb
       0.03961677 0.039205894 -0.043223172 -0.00757338
0001e0 59 c5 90 bd 22 c5 b3 3d 3b 9d 90 3b ed a2 cf bc
       -0.07068891 0.087778345 0.0044132746 -0.025346244
0001f0 06 f1 d7 bc 7b 19 9f bb 29 b9 fa ba c2 eb 7d 3c
       -0.026360046 -0.0048553324 -0.0019128668 0.015498104
000200 0e fc c7 bc cd 0b 33 bd a3 36 20 3c 79 05 92 3c
       -0.024412181 -0.043712426 0.009778651 0.017824875
000210 86 40 a3 3c 7d b5 11 b9 c2 61 08 3d cd 25 bc bb
       0.019928228 -0.00013895887 0.033296354 -0.005741811
000220 92 64 8d 3d 13 72 6f bd da e6 cd 3c 23 75 99 3d
       0.06903948 -0.0584584 0.025134493 0.07493045
000230 d2 6a 76 bc dc 60 c0 3d 79 29 09 be 01 2d 8d 3d
       -0.015040116 0.093934745 -0.13394727 0.068933494
000240 c3 f6 0a 3d 12 10 9a 3c da 6b 85 bd c3 da 36 3d
       0.033926737 0.018806491 -0.06514712 0.04464222
000250 93 81 91 3d 18 f9 e9 3c 62 3b dc bd cc 8d 92 bc
       0.071047924 0.02856116 -0.10753514 -0.01788988
000260 f2 20 aa 3c 81 27 81 bc f8 2c 07 bd 89 09 71 3b
       0.020767663 -0.015765907 -0.03300187 0.0036779365
000270 fa 9d b1 3d fe 9d 33 bd 00 76 83 3d 6c d9 20 3d
       0.0867271 -0.043851845 0.06418991 0.03926985
000280 3f 9f a0 bd 5e 75 62 bd c3 25 96 bc e9 56 10 be
       -0.07842874 -0.05528771 -0.018328553 -0.14095654
000290 7f 40 16 be 7b 1a 29 bd 93 0d 7a 3b 14 9f e3 3c
       -0.14673041 -0.04128502 0.0038155064 0.027785815
0002a0 81 78 17 bd 51 c7 05 3d 98 48 25 3e 3e b8 9e 3d
       -0.036980156 0.032660786 0.16140974 0.07749985
0002b0 d1 f1 0c bc db 4c d0 bb 04 84 11 bd 03 a1 11 bd
       -0.008602575 -0.006356818 -0.03552629 -0.035553943
0002c0 d0 97 8b bd d7 f1 a9 3c de 66 03 bd 71 17 38 3c
       -0.06816065 0.020745201 -0.032080524 0.011236058
0002d0 0e ce c5 3c db 96 c2 3c 94 76 84 bc 67 04 79 3d
       0.024146106 0.023753574 -0.016169824 0.060795214
0002e0 08 73 05 be 33 8b 08 3d 4e da ed 3b b8 4b eb bd
       -0.13032162 0.033335876 0.00725869 -0.114890516
0002f0 6e 9a 06 3e 2c 95 37 3d d5 68 1a 3d 76 5f 3b 3d
       0.13144848 0.044819996 0.037697632 0.045745336
000300 76 68 98 3d 96 98 ba bd 1e c5 87 bd e1 48 5a bc
       0.07441799 -0.09111135 -0.06629394 -0.01332304
000310 e4 13 53 bd 60 49 d3 3b 65 d4 39 3d 36 4b 24 bd
       -0.05153264 0.006447956 0.04536857 -0.04011079
000320 70 8d 57 bc f9 2a 4f 3d 94 f3 71 3d 2a 55 2d 3d
       -0.01315628 0.05057809 0.059070185 0.042317547
000330 01 c3 fb bc 20 ad 65 3d 6e f7 32 3d 6a 1a 36 3d
       -0.030732634 0.056073308 0.043693 0.044458784
000340 45 76 80 bc 23 46 8f 3d f8 73 08 bd 1b 3f 7d bb
       -0.015681395 0.069957994 -0.03331372 -0.003864235
000350 12 0a 6e 3c 06 75 9e 3d e4 7e 22 3d b2 73 c0 3d
       0.014528768 0.07737164 0.039671794 0.09397067
000360 99 6d a0 bd 04 ca ec 3c df 06 47 3b fc 79 8e bc
       -0.07833404 0.028904922 0.0030369086 -0.017392151
000370 08 b4 b9 bd ce 81 6f 3b cf ba 4c bd f5 70 05 bd
       -0.09067541 0.0036545875 -0.049982842 -0.032578427
000380 d4 ad b1 3a 6a 66 0c 3e 94 dd dc 3d dd 98 d4 3b
       0.0013555833 0.13710943 0.1078445 0.0064879493
000390 5f bb c2 3d 1f ce 67 bd 96 25 83 bd d3 82 ba 3c
       0.095083944 -0.056593057 -0.06403653 0.02276746
0003a0 37 98 07 bc eb 4a b7 3c 96 80 81 3c 35 82 33 bc
       -0.008276037 0.02237459 0.015808385 -0.010956337
0003b0 ad 01 1b 3d de 99 e2 3c 26 b8 a4 3d f6 31 49 3d
       0.037843395 0.02766126 0.08042936 0.049119912
0003c0 e4 d9 21 3d b4 e9 2b bd 0b 49 44 be 86 a3 05 3c
       0.039514437 -0.041970924 -0.19168489 0.008156663
0003d0 25 b9 e7 3c d8 41 5b bd db 66 02 bd 05 a4 e9 3c
       0.028286526 -0.05352959 -0.031836372 0.028520593
0003e0 78 c7 91 ba 03 39 d7 3c 9a a8 82 3c 38 24 ea 3d
       -0.0011122068 0.026272302 0.015949536 0.114326894
0003f0 80 63 03 bd ad ec 77 3b 26 44 7b bb 12 e7 89 3c
       -0.032077312 0.0037830279 -0.003834018 0.016833816

bias f4 [32]
000000 b1 2f 00 3d df 6a af 3c a9 ac b1 3c 2e 82 b1 3c
       0.031295482 0.021413265 0.021688776 0.02166852
000010 3e 59 6d 3b bf 63 0d bc 00 4e ef bc 0b a4 02 bc
       0.0036216523 -0.008629738 -0.029211998 -0.007973681
000020 1e 68 e3 3c 8d e6 d2 3b 83 0a cd bc c9 81 ea bc
       0.027759608 0.006436175 -0.025029426 -0.02862634
000030 06 09 25 3d 75 e0 1b bd ea 76 b8 3c 0f 1a 02 3d
       0.04029181 -0.038055856 0.02251764 0.031763133
000040 f7 bd 27 3d 0f 03 9a bc c0 eb fd 3c bf 83 ab 3c
       0.04095265 -0.018800287 0.030996203 0.020936845
000050 16 6d 73 bc 4a fa ef bb e8 2b 15 bc 41 a0 ae bc
       -0.014857551 -0.007323538 -0.009104706 -0.02131665
000060 73 15 d0 3c 0f d9 06 3d 91 92 bf 3a d5 9c 20 bd
       0.025400853 0.032921847 0.0014615824 -0.039212067
000070 9a a6 cf 3c 9e 5a 28 3c 17 a8 ce bc ab 61 20 bd
       0.025347997 0.010275511 -0.025226636 -0.039155643

weight f4 [32]
000000 00 00 80 3f 00 00 80 3f 00 00 80 3f 00 00 80 3f
       1.0 1.0 1.0 1.0
000010 00 00 80 3f 00 00 80 3f 00 00 80 3f 00 00 80 3f
       1.0 1.0 1.0 1.0
000020 00 00 80 3f 00 00 80 3f 00 00 80 3f 00 00 80 3f
       1.0 1.0 1.0 1.0
000030 00 00 80 3f 00 00 80 3f 00 00 80 3f 00 00 80 3f
       1.0 1.0 1.0 1.0
000040 00 00 80 3f 00 00 80 3f 00 00 80 3f 00 00 80 3f
       1.0 1.0 1.0 1.0
000050 00 00 80 3f 00 00 80 3f 00 00 80 3f 00 00 80 3f
       1.0 1.0 1.0 1.0
000060 00 00 80 3f 00 00 80 3f 00 00 80 3f 00 00 80 3f
       1.0 1.0 1.0 1.0
000070 00 00 80 3f 00 00 80 3f 00 00 80 3f 00 00 80 3f
       1.0 1.0 1.0 1.0

bias f4 [32]
000000 00 00 00 00 00 00 00 00 00 00 00 00 00 00 00 00
       0.0 0.0 0.0 0.0
000010 00 00 00 00 00 00 00 00 00 00 00 00 00 00 00 00
       0.0 0.0 0.0 0.0
000020 00 00 00 00 00 00 00 00 00 00 00 00 00 00 00 00
       0.0 0.0 0.0 0.0
000030 00 00 00 00 00 00 00 00 00 00 00 00 00 00 00 00
       0.0 0.0 0.0 0.0
000040 00 00 00 00 00 00 00 00 00 00 00 00 00 00 00 00
       0.0 0.0 0.0 0.0
000050 00 00 00 00 00 00 00 00 00 00 00 00 00 00 00 00
       0.0 0.0 0.0 0.0
000060 00 00 00 00 00 00 00 00 00 00 00 00 00 00 00 00
       0.0 0.0 0.0 0.0
000070 00 00 00 00 00 00 00 00 00 00 00 00 00 00 00 00
       0.0 0.0 0.0 0.0

running_mean f4 [32]
000000 00 00 00 00 00 00 00 00 00 00 00 00 00 00 00 00
       0.0 0.0 0.0 0.0
000010 00 00 00 00 00 00 00 00 00 00 00 00 00 00 00 00
       0.0 0.0 0.0 0.0
000020 00 00 00 00 00 00 00 00 00 00 00 00 00 00 00 00
       0.0 0.0 0.0 0.0
000030 00 00 00 00 00 00 00 00 00 00 00 00 00 00 00 00
       0.0 0.0 0.0 0.0
000040 00 00 00 00 00 00 00 00 00 00 00 00 00 00 00 00
       0.0 0.0 0.0 0.0
000050 00 00 00 00 00 00 00 00 00 00 00 00 00 00 00 00
       0.0 0.0 0.0 0.0
000060 00 00 00 00 00 00 00 00 00 00 00 00 00 00 00 00
       0.0 0.0 0.0 0.0
000070 00 00 00 00 00 00 00 00 00 00 00 00 00 00 00 00
       0.0 0.0 0.0 0.0

running_var f4 [32]
000000 00 00 80 3f 00 00 80 3f 00 00 80 3f 00 00 80 3f
       1.0 1.0 1.0 1.0
000010 00 00 80 3f 00 00 80 3f 00 00 80 3f 00 00 80 3f
       1.0 1.0 1.0 1.0
000020 00 00 80 3f 00 00 80 3f 00 00 80 3f 00 00 80 3f
       1.0 1.0 1.0 1.0
000030 00 00 80 3f 00 00 80 3f 00 00 80 3f 00 00 80 3f
       1.0 1.0 1.0 1.0
000040 00 00 80 3f 00 00 80 3f 00 00 80 3f 00 00 80 3f
       1.0 1.0 1.0 1.0
000050 00 00 80 3f 00 00 80 3f 00 00 80 3f 00 00 80 3f
       1.0 1.0 1.0 1.0
000060 00 00 80 3f 00 00 80 3f 00 00 80 3f 00 00 80 3f
       1.0 1.0 1.0 1.0
000070 00 00 80 3f 00 00 80 3f 00 00 80 3f 00 00 80 3f
       1.0 1.0 1.0 1.0

weight f4 [32, 32]
000000 d7 7b dc bc 63 ea e5 bd b1 9c d1 be f4 a5 28 be
       -0.02691452 -0.11226346 -0.4093986 -0.16469556
000010 05 2c ef 3e fc d8 9c 3e 09 44 6a bb e8 de a8 be
       0.46713272 0.30634296 -0.0035746119 -0.32982564
000020 d1 76 3c 3d 6c 27 2d be e9 5b 82 3e 02 8b eb be
       0.04601175 -0.1690957 0.25460747 -0.46004492
000030 2e 06 5c be 71 5b 20 bc 6b cc 1c 3e 89 86 e6 3e
       -0.21486732 -0.009787426 0.15312354 0.45024517
000040 ba 51 d7 3e 04 b6 26 be b7 9e 78 3e ad e4 b3 3e
       0.4205454 -0.16280371 0.24279295 0.35135403
000050 7c c6 42 be 2f 64 7a be 35 21 f1 be 65 cf fe bd
       -0.19021028 -0.2445228 -0.47095647 -0.12441901
000060 4d 95 75 3c 23 88 25 bc 11 b4 e9 bd cc da 41 3d
       0.014989209 -0.010103258 -0.11411298 0.0473278
000070 85 f1 30 3e 9b 5f 84 3d 4a 0e c1 3e e9 53 86 bc
       0.17279632 0.06463548 0.37706214 -0.016397433
000080 5d 51 94 3e af 03 88 3e 9b 95 95 3e 88 3d b0 3e
       0.28968325 0.2656531 0.29215702 0.34421945
000090 9b 2a da bd b8 22 b1 3e fc 9b 82 3e 73 da 9b be
       -0.106526576 0.345968 0.25509632 -0.304401
0000a0 b4 6f 3d 3e 42 9c d0 3d db d8 5c 3e ce ef 37 be
       0.18499643 0.10186054 0.21567099 -0.17962572
0000b0 a4 d6 87 be 92 63 ab 3d 07 87 20 bd 74 2e b0 bd
       -0.26530945 0.08368601 -0.039191272 -0.0860261
0000c0 ad fd 86 be 04 bd cc be 1d ff 7a be 48 1d de 3e
       -0.26365414 -0.39987957 -0.2451138 0.43381715
0000d0 eb ff c0 be ff d1 b8 bd 6c 88 ba 3e 96 cb fe 3d
       -0.3769525 -0.090244286 0.36432207 0.12441175
0000e0 cf 4e 27 3f da 4f 38 bd 14 d3 ff bc 69 71 a3 3e
       0.6535463 -0.044998027 -0.03122858 0.31922463
0000f0 82 79 11 3e e5 28 cc 3e 6f ed 6a be 93 72 a1 3e
       0.14206508 0.3987495 -0.22942136 0.31532726
000100 1d 00 5b 3d 8f 40 73 be 11 20 87 3d 43 0a 3c bd
       0.053466905 -0.23755096 0.06597913 -0.045908224
000110 4b 76 13 be 47 33 db bd 88 66 67 bd 05 04 9c bd
       -0.14400594 -0.1070314 -0.056494266 -0.07617954
000120 3a 07 5d be 60 34 e0 3e 9b 09 36 be c4 f0 f5 be
       -0.21584788 0.4378996 -0.17777102 -0.48035252
000130 3f 17 db 3e d1 d0 81 be 01 81 a2 be d5 4b 85 bd
       0.42791173 -0.25354627 -0.31739047 -0.065086044
000140 ab a2 3f 3e 36 dd 26 3e c3 b2 1d 3e 26 5e c3 3d
       0.18714397 0.16295323 0.15400223 0.09539442
000150 d1 a4 a5 bd 5b 40 9c be d0 84 4f be 87 cc 89 be
       -0.08088077 -0.3051785 -0.20265508 -0.26913854
000160 52 29 5e bc c3 97 0b 3e 2b 17 8c be ea b7 d7 3d
       -0.013559656 0.13632111 -0.27361426 0.10533126
000170 31 b6 cf 3d ec 5a e9 3d 11 e2 3e be 99 bb 0a 3e
       0.10142172 0.11394295 -0.18640925 0.13548125
000180 e3 31 97 be 05 f8 55 3e 3b ce 14 3e 09 cb af bc
       -0.29530248 0.20895393 0.14531796 -0.02145912
000190 b0 f0 a3 ba 40 ec 69 3e f6 3c 8e bd ec 86 c3 3e
       -0.0012507644 0.22844028 -0.06945221 0.38188875
0001a0 7d ba 94 3d a9 c7 49 be 8e 20 87 3e 55 2d 7e 3d
       0.07262132 -0.1970507 0.26392025 0.06205495
0001b0 76 63 e8 3e aa b0 42 3a 9d 54 5b be 0b 6e 8b bd
       0.45388383 0.00074268377 -0.21418996 -0.068080984
0001c0 da 1c da bd ff bc 79 3e 4f 4d 00 3e e2 56 92 3d
       -0.10650034 0.24388503 0.12529491 0.07145478
0001d0 85 22 c0 be 96 a6 13 3f 93 c1 af 3e 40 40 a7 be
       -0.37526336 0.57676065 0.34327373 -0.32666206
0001e0 af f9 2d bd b2 9a 4b 3e c4 e5 be be ed 15 e2 3e
       -0.042474445 0.1988323 -0.37284672 0.44157353
0001f0 5a 0f 00 3f ec af bb be 0b 65 13 3e 02 63 e7 3c
       0.50023425 -0.36657655 0.14394014 0.028245453
000200 a6 92 c3 3c 3a ca a6 3e c5 48 3c 3d 9b 0b 93 be
       0.023873638 0.32576162 0.045967836 -0.28719792
000210 06 8c cb 3e 8e 03 76 bd a3 50 56 3e 5f 07 38 be
       0.39755267 -0.060061984 0.20929198 -0.17971562
000220 62 b3 8b bd c0 fb f7 3e c5 e7 20 bf cc aa 53 3e
       -0.06821324 0.48434258 -0.6285365 0.20670623
000230 9f 63 9a 3e 4e a3 2e be b6 2a 13 3e d0 0d 49 be
       0.3015413 -0.17054483 0.14371762 -0.19634175
000240 ae 76 6a bd 68 29 23 3e ea 97 2f 3e 69 4a fd 3c
       -0.057242088 0.15933764 0.17147794 0.03091927
000250 58 fb 4c 3e 61 3e df bd 52 f0 b3 bd 7f 32 b5 3e
       0.20017755 -0.1090057 -0.08786072 0.35390088
000260 1f 0f e7 3e 92 0a a9 bd 96 a9 e9 bc 98 d1 c3 3e
       0.45128724 -0.08253969 -0.028523248 0.38245845
000270 fc af d8 3d d1 2c 10 bd 05 b6 bb bc 86 ca bf bd
       0.10580441 -0.03519899 -0.022913942 -0.093648
000280 50 f9 f3 3d d2 b0 ea bd ad 8a 1d 3f 55 1a df 3e
       0.11912787 -0.11459507 0.6153973 0.43574777
000290 1b 0c 75 3e 57 c2 e3 3d 0f f0 da 3d 4a d2 a7 3d
       0.23930399 0.11121052 0.10690319 0.08194406
0002a0 ed d6 a4 3d cb 2e ce bd 28 4f 92 bd d4 6e 50 bd
       0.08048806 -0.10067519 -0.07144004 -0.050886944
0002b0 b7 64 9f 3e a8 4c 4b be 29 bc c0 3e 5a eb 14 be
       0.31131527 -0.19853461 0.37643555 -0.14542904
0002c0 7b 04 5e 3e 28 d7 52 3e 23 dd f4 be 46 21 89 3d
       0.21681397 0.20589888 -0.47824964 0.066957995
0002d0 81 39 a6 bd 59 9d b0 3e 90 b0 7a bd c0 73 b3 be
       -0.08116437 0.34495047 -0.06120354 -0.35049248
0002e0 ea b8 09 3f 67 0a 48 bd d2 6b c8 3e f1 e4 df 3e
       0.5379778 -0.048838045 0.3914476 0.43729356
0002f0 7a 42 8a be 7e a8 d6 3d d1 83 82 3e 7e 6a 6a bd
       -0.27003843 0.10481356 0.25491193 -0.057230465
000300 6b 5e e4 3e 0a ba a6 bd 42 cf 04 3e 0b 11 0c be
       0.44603285 -0.08140953 0.12969688 -0.13678376
000310 b7 00 6f bc 73 eb bc bd 33 79 a8 3e 94 84 bc 3d
       -0.014587573 -0.09224596 0.32904968 0.09204975
000320 0a ab 8e be 9b 41 08 bd f5 e7 f0 be 75 97 08 be
       -0.27864867 -0.03326569 -0.4705197 -0.13339026
000330 44 b9 90 be 42 7e 6a 3e 7d 91 fd 3d 8e 9d 11 3f
       -0.28266346 0.22899726 0.12381265 0.56881034
000340 ff 1f 1c be 2d 93 3d 3d 01 d2 3c 3e da 18 88 3e
       -0.1524658 0.046282936 0.18439485 0.2658146
000350 e3 ce 42 be 8d 9e 8c be 43 43 6f be 30 25 8e 3e
       -0.19024234 -0.27464715 -0.23365502 0.27762747
000360 33 90 51 bc 75 b6 e6 be a4 71 db bd 2b e2 5a be
       -0.012790727 -0.4506108 -0.107150346 -0.21375339
000370 07 8d e2 bd aa c9 b0 be cc cf e8 3d 2f cb 05 3d
       -0.11062055 -0.34528857 0.11367759 0.032664474
000380 50 d8 9e 3e d6 1b 66 bc b7 d4 6a be f7 c1 76 bd
       0.31024408 -0.014044723 -0.22932707 -0.060243573
000390 b0 05 38 be 4d 5b 61 3e 7c 0e b0 be f1 d0 cc 3e
       -0.1797092 0.22007485 -0.3438605 0.4000316
0003a0 52 6f 56 be 72 a0 97 be c2 2b d6 3c 42 0b c8 bd
       -0.20940903 -0.29614598 0.026143912 -0.09767772
0003b0 db 25 0b bf 16 4c 11 bf 01 9a b5 be 44 be 36 3d
       -0.5435464 -0.5675672 -0.35469058 0.044615045
0003c0 5a 2e e0 be 7d 5b f4 bd 2e f8 5a be aa a7 4b 3e
       -0.43785363 -0.119315125 -0.21383736 0.19888178
0003d0 0e 52 02 3e ef d1 2f 3d 5b 74 c1 3e e7 4c 52 3d
       0.12726614 0.042924818 0.37784085 0.05134287
0003e0 26 d4 82 be d2 98 81 bb 3e 66 94 bd e9 fd 64 3e
       -0.2555248 -0.003954985 -0.07246064 0.22362484
0003f0 59 9e c3 3b 79 7f f7 3d 56 4a c2 3e 6e f2 cd 3d
       0.0059698042 0.1208486 0.3794734 0.100560054

bias f4 [32]
000000 46 e0 df 3d 83 7f dd 3d a4 dc 04 be 0f 58 27 be
       0.10931449 0.108153366 -0.12974793 -0.16342185
000010 0b 47 18 3e 36 c8 fa 3d b7 b1 32 be 20 ab d8 3d
       0.1487085 0.122452185 -0.17450605 0.105795145
000020 06 d2 9b bd 4c 0e 1c bd 33 cf e6 bd f4 9d 84 bd
       -0.07608418 -0.038099572 -0.11269989 -0.0647544
000030 00 a4 90 bd bf 13 2e be ac a9 59 3d 04 e2 11 be
       -0.070625305 -0.1699972 0.053140327 -0.14246374
000040 e3 6e fc bd d6 4f 31 bd 80 4e 61 3d 4f d5 9f 3c
       -0.123258375 -0.043289028 0.055006504 0.019510893
000050 5e 44 c2 bc 0c 51 ba 3d ac 7a 8d bd 03 ca a0 3c
       -0.02371424 0.0909749 -0.069081634 0.019627577
000060 17 0c 82 3d 13 53 00 3e 39 dd 29 be e1 5b 07 be
       0.06349962 0.1253169 -0.16588296 -0.13218643
000070 1e 47 96 3c ed 03 f3 bd c2 55 31 be 36 e0 02 be
       0.018344458 -0.11865983 -0.1731787 -0.12780842

weight f4 [32]
000000 00 00 80 3f 00 00 80 3f 00 00 80 3f 00 00 80 3f
       1.0 1.0 1.0 1.0
000010 00 00 80 3f 00 00 80 3f 00 00 80 3f 00 00 80 3f
       1.0 1.0 1.0 1.0
000020 00 00 80 3f 00 00 80 3f 00 00 80 3f 00 00 80 3f
       1.0 1.0 1.0 1.0
000030 00 00 80 3f 00 00 80 3f 00 00 80 3f 00 00 80 3f
       1.0 1.0 1.0 1.0
000040 00 00 80 3f 00 00 80 3f 00 00 80 3f 00 00 80 3f
       1.0 1.0 1.0 1.0
000050 00 00 80 3f 00 00 80 3f 00 00 80 3f 00 00 80 3f
       1.0 1.0 1.0 1.0
000060 00 00 80 3f 00 00 80 3f 00 00 80 3f 00 00 80 3f
       1.0 1.0 1.0 1.0
000070 00 00 80 3f 00 00 80 3f 00 00 80 3f 00 00 80 3f
       1.0 1.0 1.0 1.0

bias f4 [32]
000000 00 00 00 00 00 00 00 00 00 00 00 00 00 00 00 00
       0.0 0.0 0.0 0.0
000010 00 00 00 00 00 00 00 00 00 00 00 00 00 00 00 00
       0.0 0.0 0.0 0.0
000020 00 00 00 00 00 00 00 00 00 00 00 00 00 00 00 00
       0.0 0.0 0.0 0.0
000030 00 00 00 00 00 00 00 00 00 00 00 00 00 00 00 00
       0.0 0.0 0.0 0.0
000040 00 00 00 00 00 00 00 00 00 00 00 00 00 00 00 00
       0.0 0.0 0.0 0.0
000050 00 00 00 00 00 00 00 00 00 00 00 00 00 00 00 00
       0.0 0.0 0.0 0.0
000060 00 00 00 00 00 00 00 00 00 00 00 00 00 00 00 00
       0.0 0.0 0.0 0.0
000070 00 00 00 00 00 00 00 00 00 00 00 00 00 00 00 00
       0.0 0.0 0.0 0.0

running_mean f4 [32]
000000 00 00 00 00 00 00 00 00 00 00 00 00 00 00 00 00
       0.0 0.0 0.0 0.0
000010 00 00 00 00 00 00 00 00 00 00 00 00 00 00 00 00
       0.0 0.0 0.0 0.0
000020 00 00 00 00 00 00 00 00 00 00 00 00 00 00 00 00
       0.0 0.0 0.0 0.0
000030 00 00 00 00 00 00 00 00 00 00 00 00 00 00 00 00
       0.0 0.0 0.0 0.0
000040 00 00 00 00 00 00 00 00 00 00 00 00 00 00 00 00
       0.0 0.0 0.0 0.0
000050 00 00 00 00 00 00 00 00 00 00 00 00 00 00 00 00
       0.0 0.0 0.0 0.0
000060 00 00 00 00 00 00 00 00 00 00 00 00 00 00 00 00
       0.0 0.0 0.0 0.0
000070 00 00 00 00 00 00 00 00 00 00 00 00 00 00 00 00
       0.0 0.0 0.0 0.0

running_var f4 [32]
000000 00 00 80 3f 00 00 80 3f 00 00 80 3f 00 00 80 3f
       1.0 1.0 1.0 1.0
000010 00 00 80 3f 00 00 80 3f 00 00 80 3f 00 00 80 3f
       1.0 1.0 1.0 1.0
000020 00 00 80 3f 00 00 80 3f 00 00 80 3f 00 00 80 3f
       1.0 1.0 1.0 1.0
000030 00 00 80 3f 00 00 80 3f 00 00 80 3f 00 00 80 3f
       1.0 1.0 1.0 1.0
000040 00 00 80 3f 00 00 80 3f 00 00 80 3f 00 00 80 3f
       1.0 1.0 1.0 1.0
000050 00 00 80 3f 00 00 80 3f 00 00 80 3f 00 00 80 3f
       1.0 1.0 1.0 1.0
000060 00 00 80 3f 00 00 80 3f 00 00 80 3f 00 00 80 3f
       1.0 1.0 1.0 1.0
000070 00 00 80 3f 00 00 80 3f 00 00 80 3f 00 00 80 3f
       1.0 1.0 1.0 1.0

weight f4 [1, 32]
000000 bd 5f d8 bd e9 cd 48 bd 72 88 e4 bd 72 13 b5 bb
       -0.10565136 -0.049024496 -0.111588374 -0.0055259997
000010 23 42 ce 3b e8 5f e2 3d f8 39 89 bd c0 ea 14 be
       0.006294505 0.11053449 -0.0670051 -0.14542675
000020 f0 c1 ce 3d a1 a5 dd bd e6 47 b2 3c 8f 58 1a 3e
       0.100955844 -0.10822607 0.0217628 0.15072845
000030 5d 03 0a bd dc b8 4f 3d 86 af e6 3d 62 86 0b be
       -0.033694614 0.050713405 0.11263947 -0.13625482
000040 aa 9f b7 bd cc 14 e7 bd 4d e5 b7 bd d3 da 10 3e
       -0.089660004 -0.112832636 -0.089792825 0.14145975
000050 1f b2 2c 3e 8a 0e d7 3c a2 af 13 be 71 06 b7 3d
       0.16864823 0.02625205 -0.14422467 0.089367755
000060 af de b3 3d 12 0a e4 3c 57 72 db bd dc 75 2f be
       0.08782708 0.027836833 -0.10715168 -0.17134804
000070 95 1d da bd 59 e7 11 be a4 ab 16 be 7c 22 16 be
       -0.106501736 -0.14248408 -0.14713913 -0.14661592
