Radiomics_local_global_framework/models/lasso_feature_selection/CoxPH/global_flair_t1ce_t2___local_flair_t1ce_t2/model.pt (torch, 98878 bytes, 13 tensors)

weight f4 [32, 670]
000000 4d 49 a3 3d 9b ca 61 3c 67 71 8c 3d d4 04 b6 3c
       0.079729654 0.013781215 0.06857567 0.0222191
000010 76 bf ec bc 7d af bc 3b 65 49 25 bd 57 4c 19 bc
       -0.02889989 0.0057582245 -0.040353198 -0.00935658
000020 ea 53 62 bc a2 e8 4f bc 80 e9 24 3d 74 16 6f 3d
       -0.013813952 -0.012689741 0.040261745 0.058371022
000030 69 c4 67 bd 93 80 30 3d 88 85 c4 bd 4a 4a 8f 3d
       -0.056583796 0.043091368 -0.095957816 0.069965914
000040 29 44 c7 bc 1e 12 ca bc 6f 24 68 3d 50 55 64 3c
       -0.024324493 -0.024666842 0.05667537 0.013936356
000050 16 c7 8d bd 35 cb a4 3d 17 73 7d bc 3c 92 85 3d
       -0.06922738 0.08046571 -0.015469334 0.065220326
000060 3a 3c 40 3d c6 7b c6 bc b0 b4 df bc 24 6e 27 bd
       0.046932437 -0.024228942 -0.027307838 -0.040876523
000070 0a 07 01 bd ce b7 5f 3c c3 f1 cf 3d d1 e9 af bd
       -0.031500854 0.013654662 0.10153534 -0.08589519
000080 2f 78 ef bc 99 91 01 bd eb ee e7 3c 58 95 17 3b
       -0.029232113 -0.031632993 0.028312167 0.0023129787
000090 88 3d bc bd a3 3c ce bd 8a 39 a3 3c 94 4b d2 bb
       -0.09191424 -0.10070159 0.019924898 -0.006417701
0000a0 42 9f b7 bd 73 35 a3 3d be 23 97 3c df 71 3e bd
       -0.08965923 0.07969179 0.01844966 -0.046495315
0000b0 02 49 3e bd dc 6b 7b bd 72 b3 3b bb b0 98 c6 bc
       -0.046456344 -0.06138216 -0.0028640893 -0.024242729
0000c0 9b 58 79 bc d6 ce 8c 3d 1e ee aa bb 6a 1f 55 3c
       -0.015218879 0.06875388 -0.005216374 0.013007978
0000d0 f1 54 17 3d 21 8e 89 3d 5e 18 f0 3c be b0 20 bc
       0.03694624 0.06716562 0.029308494 -0.009807764
0000e0 e2 62 39 3d 1d f6 21 3a 64 0b 4e 3d 09 af 95 3d
       0.045260318 0.00061783363 0.05030383 0.07308776
0000f0 aa 0c 53 bc de c3 50 3c 79 77 2a bc 93 c8 53 bd
       -0.012881437 0.012742011 -0.010404461 -0.051704954
000100 97 95 dc bc 50 34 f0 3c 3d 2e 5a 3d 5b c5 85 bc
       -0.026926799 0.02932182 0.053266753 -0.016329458
000110 1d 45 00 3d 65 b9 29 3d 39 8e 4e 3d 35 7c 3e 3c
       0.03131591 0.04143657 0.050428603 0.011626293
000120 ec 61 63 bd 2f eb 29 3d a8 33 a5 bd 3c 75 3f bd
       -0.055513307 0.041484054 -0.08066493 -0.046742663
000130 c2 a0 d1 3c 9d 98 27 bb 9c 0c 36 bb 0b f9 34 bd
       0.02558935 -0.0025573142 -0.0027778512 -0.04418282
000140 15 60 03 3e d3 b8 15 bd 9f 33 02 bd 79 7a 49 bc
       0.12829621 -0.036553215 -0.03178751 -0.012297266
000150 38 99 f9 bb e5 f1 73 bd 36 30 b0 3c b3 d5 7b 3d
       -0.007617142 -0.05955686 0.021507364 0.061483096
000160 eb 9f cc bd f2 2e 37 3d c1 7d 0f bc 55 94 75 3c
       -0.099914394 0.044722505 -0.008758009 0.014988978
000170 86 95 b3 3c 68 4b 26 3d 32 6b a3 3d db b9 82 3a
       0.021921884 0.040599257 0.0797943 0.0009973602
000180 46 2f 99 bc f2 8f a1 bd 65 6b f2 ba 96 dd 39 3c
       -0.0186993 -0.078887835 -0.0018495141 0.011344334
000190 90 bf 30 3d 70 ce 6f 3c 5c 17 87 bd 50 c4 8f 3d
       0.04315144 0.014636621 -0.06596252 0.070198655
0001a0 9e 88 e2 bd fb f0 fa bd c8 60 b8 3c 01 17 af 3d
       -0.11061214 -0.122529946 0.022507086 0.085493095
0001b0 99 fd 6b bc 1b ba c3 bc 7a d0 85 3c 6f 8b c4 3d
       -0.014403724 -0.023892453 0.016334761 0.09596907
0001c0 ee 04 27 bd e1 2b cb bc 75 c6 a3 3d a6 8a 08 bd
       -0.040776186 -0.024801197 0.07996837 -0.03333535
0001d0 cd 2d ab 3d 28 c2 ee 3b a4 59 66 bc 03 c3 59 3d
       0.08358345 0.007286329 -0.014059458 0.053164493
0001e0 eb c2 96 3d 3a 03 3a 3c d2 c2 59 bd 62 1c 46 3d
       0.073613964 0.011353308 -0.05316431 0.04836691
0001f0 da 61 13 bd 16 33 fe bd 33 70 83 bd 2b ba 0c 3e
       -0.03598199 -0.124120876 -0.06417885 0.13742892
000200 32 79 be 3c 50 9c c9 3d 30 ea 95 3d 3c 4a 41 bd
       0.02325115 0.09844267 0.07320058 -0.047189936
000210 2c e8 d8 3c 5f e1 e8 bd 43 d2 05 bd c8 cd 65 bc
       0.026477896 -0.11371111 -0.032671224 -0.014026113
000220 06 4f f6 3c 71 81 00 bd 87 5e 59 bd 8d 59 4e 3d
       0.030066978 -0.031373445 -0.053068664 0.05037837
000230 3d 19 58 bd 3a c2 8f bd ce f4 67 bd bb a0 ab 3d
       -0.052758444 -0.07019468 -0.05662995 0.08380266
000240 09 d9 25 3e 33 95 ce 3d 32 96 60 3c 0a 80 28 bd
       0.16196074 0.10087051 0.013707684 -0.041137733
000250 12 60 65 bb b0 b0 38 3c 46 2c d0 3d a0 da cc 3d
       -0.003499989 0.011272594 0.101646945 0.10002637
000260 0d 15 ec bc 9d 1b 1e 3d fd 88 37 3a a4 29 9f bd
       -0.028818632 0.038600553 0.0007001309 -0.07771614
000270 39 27 af bb 48 d3 bd bd e3 3c d1 3d 18 35 38 bd
       -0.005345252 -0.09268814 0.10216691 -0.04497251
000280 18 af a4 bd 4f 39 98 3c 33 d2 9f bd c5 c5 c6 bc
       -0.08041209 0.018582014 -0.07803764 -0.024264226
000290 7b 17 9e bc 54 0b 26 3a 0b 06 01 bb 96 90 af 3d
       -0.019298306 0.00063340855 -0.001968744 0.085724995
0002a0 8c b3 b3 bc 8e f2 79 3c 2d e8 e0 3c 6f 79 6f 3d
       -0.0219362 0.015255583 0.02745446 0.058465417
0002b0 43 88 9b bb f1 7b 4f bd 8d f2 88 3c b1 ab e2 3c
       -0.0047464683 -0.05065531 0.01671722 0.02766976
0002c0 df bf 84 3c 18 c7 82 bd eb d6 5b bb 52 ab 54 3c
       0.016204773 -0.0638563 -0.003354485 0.012980299
0002d0 de 45 f7 bc 3d 32 b8 3c 4e c5 79 3c 78 f2 01 bd
       -0.030184682 0.022484893 0.015244795 -0.031725377
0002e0 f9 a2 4f 3d a6 a4 87 bc 0f fd d1 bd fb 48 9b bd
       0.050692532 -0.016558003 -0.10253345 -0.07582279
0002f0 e3 28 ed 3d 0c 68 b9 3d f5 f4 36 bc 18 87 ac bc
       0.11580064 0.090530485 -0.011166801 -0.021060511
000300 92 f0 90 3d 42 8e 39 bd ec 0c 96 bd 6f 9e 6a 3c
       0.07077135 -0.045301683 -0.073266834 0.01432
000310 04 00 fc 3c de dd 4d 3d 18 05 2a bd 3d 36 9d 3c
       0.030761726 0.050260417 -0.041508764 0.019190902
000320 e9 6b 88 bd 39 98 bc bd 10 25 fd bc 44 0e 24 bb
       -0.06661207 -0.09208722 -0.030901462 -0.0025032917
000330 8e 11 a5 bc 87 61 ac 3c 23 51 0b 3d b7 0c 40 bc
       -0.020149972 0.021042598 0.034012925 -0.011721781
000340 4b 57 eb 3c 7a c0 49 3d 03 b8 2a 3d c3 b5 65 bd
       0.028728148 0.049255826 0.041679394 -0.056081545
000350 58 1b 2d bd 45 51 93 bd be 58 0f bc f0 bd 12 3d
       -0.042262405 -0.07193235 -0.008749185 0.03582567
000360 17 28 93 bb 7d ae 1a bd ea bd ae 3d ea 94 87 bd
       -0.004490863 -0.03776406 0.08532317 -0.066202
000370 4a 57 2a bd 79 22 a0 b8 df 22 be 3c 1b a6 d6 3c
       -0.04158715 -7.6358156e-05 0.023209987 0.026202252
000380 11 e3 d1 bd 05 55 e9 bb fc d3 17 3e 23 ab 55 3d
       -0.102483876 -0.007120731 0.1482696 0.05216516
000390 1d f5 29 3c b8 40 0e 3d 99 cf b8 3c 1e c8 f7 bd
       0.010373381 0.03472969 0.022559928 -0.12098716
0003a0 8a de 15 3d 59 af b9 bd 24 7e b7 3c d2 00 75 bd
       0.036589183 -0.09066648 0.022399016 -0.059815235
0003b0 fd d7 3b 3d 45 bf 48 3d e6 78 3f 3d 5e 20 7e 3d
       0.04586028 0.049010534 0.046746157 0.062042587
0003c0 e2 f2 16 bd 20 df e0 bc 40 51 f7 bc dc 5c 1a bd
       -0.036852725 -0.027450144 -0.03019011 -0.037686214
0003d0 10 d0 73 3d 24 7e 77 bd ad 08 ca bb cf e9 e5 bd
       0.059524596 -0.06042303 -0.006165585 -0.11226236
0003e0 a0 6f 8d bc 84 1d 93 bc 27 60 33 bd 6e 7a 71 bc
       -0.017265141 -0.01795841 -0.04379287 -0.014738662
0003f0 03 90 bb 3d f3 ca 5f bd 5c 88 95 bc 96 4d ee bd
       0.091583274 -0.054636907 -0.018253498 -0.11635892

bias f4 [32]
000000 53 77 0d bd 32 8e 1c 3d 7b 71 f9 3c c9 e0 0e bd
       -0.034537625 0.038221546 0.03044962 -0.03488234
000010 59 d7 10 bd 13 91 0d bd 84 80 d4 bc 45 db eb 3c
       -0.03536162 -0.03456218 -0.025940187 0.02879108
000020 32 65 ef 3a 81 3d 8e bc 16 ce cb bc da ff 82 3b
       0.0018264411 -0.017363312 -0.024878543 0.003997785
000030 c3 09 d5 3b ea 80 5c bc 34 bb bf bc 37 50 30 bb
       0.006501408 -0.01345847 -0.023404695 -0.002690328
000040 8e 15 f0 bc 49 01 5b 3b 04 65 04 bd b2 fb 95 ba
       -0.029307153 0.0033417514 -0.0323229 -0.0011442809
000050 5c 28 8d bc 35 ef 04 3b 0e 23 ac bc 10 15 a0 bc
       -0.017231159 0.002028418 -0.02101281 -0.019541293
000060 81 56 80 3c ef 29 0f 3d 2a d4 05 bd 80 e4 93 3c
       0.015666248 0.0349521 -0.03267304 0.018053293
000070 17 20 d7 3c 78 8c e6 bc 24 6f 3e 3b d0 54 10 3d
       0.026260419 -0.028143153 0.0029057944 0.035237134

weight f4 [32]
000000 00 00 80 3f 00 00 80 3f 00 00 80 3f 00 00 80 3f
       1.0 1.0 1.0 1.0
000010 00 00 80 3f 00 00 80 3f 00 00 80 3f 00 00 80 3f
       1.0 1.0 1.0 1.0
000020 00 00 80 3f 00 00 80 3f 00 00 80 3f 00 00 80 3f
       1.0 1.0 1.0 1.0
000030 00 00 80 3f 00 00 80 3f 00 00 80 3f 00 00 80 3f
       1.0 1.0 1.0 1.0
000040 00 00 80 3f 00 00 80 3f 00 00 80 3f 00 00 80 3f
       1.0 1.0 1.0 1.0
000050 00 00 80 3f 00 00 80 3f 00 00 80 3f 00 00 80 3f
       1.0 1.0 1.0 1.0
000060 00 00 80 3f 00 00 80 3f 00 00 80 3f 00 00 80 3f
       1.0 1.0 1.0 1.0
000070 00 00 80 3f 00 00 80 3f 00 00 80 3f 00 00 80 3f
       1.0 1.0 1.0 1.0

bias f4 [32]
000000 00 00 00 00 00 00 00 00 00 00 00 00 00 00 00 00
       0.0 0.0 0.0 0.0
000010 00 00 00 00 00 00 00 00 00 00 00 00 00 00 00 00
       0.0 0.0 0.0 0.0
000020 00 00 00 00 00 00 00 00 00 00 00 00 00 00 00 00
       0.0 0.0 0.0 0.0
000030 00 00 00 00 00 00 00 00 00 00 00 00 00 00 00 00
       0.0 0.0 0.0 0.0
000040 00 00 00 00 00 00 00 00 00 00 00 00 00 00 00 00
       0.0 0.0 0.0 0.0
000050 00 00 00 00 00 00 00 00 00 00 00 00 00 00 00 00
       0.0 0.0 0.0 0.0
000060 00 00 00 00 00 00 00 00 00 00 00 00 00 00 00 00
       0.0 0.0 0.0 0.0
000070 00 00 00 00 00 00 00 00 00 00 00 00 00 00 00 00
       0.0 0.0 0.0 0.0

running_mean f4 [32]
000000 00 00 00 00 00 00 00 00 00 00 00 00 00 00 00 00
       0.0 0.0 0.0 0.0
000010 00 00 00 00 00 00 00 00 00 00 00 00 00 00 00 00
       0.0 0.0 0.0 0.0
000020 00 00 00 00 00 00 00 00 00 00 00 00 00 00 00 00
       0.0 0.0 0.0 0.0
000030 00 00 00 00 00 00 00 00 00 00 00 00 00 00 00 00
       0.0 0.0 0.0 0.0
000040 00 00 00 00 00 00 00 00 00 00 00 00 00 00 00 00
       0.0 0.0 0.0 0.0
000050 00 00 00 00 00 00 00 00 00 00 00 00 00 00 00 00
       0.0 0.0 0.0 0.0
000060 00 00 00 00 00 00 00 00 00 00 00 00 00 00 00 00
       0.0 0.0 0.0 0.0
000070 00 00 00 00 00 00 00 00 00 00 00 00 00 00 00 00
       0.0 0.0 0.0 0.0

running_var f4 [32]
000000 00 00 80 3f 00 00 80 3f 00 00 80 3f 00 00 80 3f
       1.0 1.0 1.0 1.0
000010 00 00 80 3f 00 00 80 3f 00 00 80 3f 00 00 80 3f
       1.0 1.0 1.0 1.0
000020 00 00 80 3f 00 00 80 3f 00 00 80 3f 00 00 80 3f
       1.0 1.0 1.0 1.0
000030 00 00 80 3f 00 00 80 3f 00 00 80 3f 00 00 80 3f
       1.0 1.0 1.0 1.0
000040 00 00 80 3f 00 00 80 3f 00 00 80 3f 00 00 80 3f
       1.0 1.0 1.0 1.0
000050 00 00 80 3f 00 00 80 3f 00 00 80 3f 00 00 80 3f
       1.0 1.0 1.0 1.0
000060 00 00 80 3f 00 00 80 3f 00 00 80 3f 00 00 80 3f
       1.0 1.0 1.0 1.0
000070 00 00 80 3f 00 00 80 3f 00 00 80 3f 00 00 80 3f
       1.0 1.0 1.0 1.0

weight f4 [32, 32]
000000 2a 80 8f be 34 56 ec be 53 2f a3 be cc e2 2c 3e
       -0.2802747 -0.46159518 -0.31872043 0.16883391
000010 c6 49 1a be 1c 33 13 3e d4 a2 d6 bd 2e d9 a7 bd
       -0.15067205 0.14374965 -0.10480276 -0.081957206
000020 27 0a aa be d9 7a d9 3d 4a a2 9c 3e 77 43 d1 be
       -0.3321087 0.106191345 0.30592567 -0.40871784
000030 1f 5c 9d be 7e db a3 bc c9 f4 61 be 01 04 ee 3e
       -0.30734345 -0.020002123 -0.22066034 0.4648743
000040 da bf 57 3e 6f 7a 21 3d 3e 81 ab 3a 30 1e 82 3e
       0.2106928 0.039423402 0.0013084782 0.25413656
000050 b7 97 7d be a5 40 f8 3d b5 2a b8 bd 99 3b 66 be
       -0.24764906 0.12121705 -0.08992521 -0.22483672
000060 58 b6 a2 3c 4b fc 1b be f9 36 81 be b5 fc eb bd
       0.019862339 -0.15232961 -0.25237253 -0.115228094
000070 48 41 9e 3e 42 b6 9a be db 4b 86 3d 50 e1 4c 3e
       0.3090918 -0.30217177 0.06557437 0.20007825
000080 9c 73 a4 bd bd 79 fe 3e 49 5a 14 3f ff a8 6d bd
       -0.08029863 0.49702254 0.57950264 -0.058022495
000090 05 2c 1b 3e dd 6c d9 be 89 7a ab bd f7 b9 03 be
       0.15153511 -0.4246587 -0.08372981 -0.12863909
0000a0 fd ea 16 be 0a 22 c4 3d ef 08 e6 3b b6 bc c9 3c
       -0.14738078 0.09576805 0.007020108 0.024626117
0000b0 57 92 da 3d 37 65 bc bd 0a 6b 37 be d8 5e f4 bd
       0.10672443 -0.09198993 -0.17911926 -0.119321525
0000c0 a3 26 e5 be ca 33 fa bd 07 da 0f 3e eb 72 13 3d
       -0.4475604 -0.12216909 0.14048015 0.035998266
0000d0 02 97 9e 3e 12 ad 9c 3c 73 6b e7 bc db 68 4a be
       0.30974585 0.019125495 -0.028249478 -0.19766562
0000e0 ad 95 86 3e bc 49 19 be 04 ae 95 3c ca b8 99 be
       0.2628607 -0.14969534 0.018271454 -0.30023795
0000f0 31 c6 73 3e 48 82 95 3e fb 51 20 3f 67 89 a3 bd
       0.23806073 0.2920096 0.6262509 -0.07985192
000100 02 0b e2 bc 52 ea 3a 3e 9c dc 5a 3e 0e 76 96 be
       -0.02759314 0.18253449 0.21373218 -0.29386944
000110 f3 76 39 3e dd 86 c3 be f1 8d 55 be dc 98 a1 3d
       0.18111782 -0.3818883 -0.20854928 0.07890484
000120 6d ba 44 3e 83 ef 7a 3d c8 68 19 3e d5 aa d3 3e
       0.19211741 0.061263572 0.14981377 0.41341272
000130 72 92 38 be 09 9e c0 be 45 db 16 bc c8 e3 af 3d
       -0.18024614 -0.3762057 -0.009207551 0.08588368
000140 4e 7d 11 3e 3f 34 d4 3d 70 dc 47 be 66 f1 48 3e
       0.14207956 0.10361528 -0.19517684 0.19623336
000150 35 29 f4 3d f4 a3 fe 3e 00 9e bd 3d 83 5e 19 be
       0.11921922 0.4973446 0.09258652 -0.1497746
000160 c4 a2 d5 3d ed 0e b9 be 0a b6 9b be 91 cd 8d 3e
       0.10431436 -0.361442 -0.30412322 0.27695897
000170 73 0c 0d 3e df cd 12 3c 04 a4 6a be 25 ce 50 bd
       0.1377428 0.008960216 -0.2291413 -0.050977845
000180 c0 6e ee 3d 10 60 51 bd 98 6b 75 be 28 5f 8f 3e
       0.11642218 -0.051117003 -0.23966825 0.28002286
000190 15 4e 6f 3e 53 62 10 3d 5e 6d 4a bd e1 c8 a1 3d
       0.2336963 0.03525002 -0.049420707 0.07899643
0001a0 be 44 87 3d 00 aa 27 be 85 b1 e4 3d 26 e1 81 bc
       0.066049084 -0.16373444 0.11166672 -0.01585443
0001b0 cf 0b a9 be 54 da da bd c7 63 cf 3e a0 e4 49 bd
       -0.33016822 -0.10686174 0.40505812 -0.0492903
0001c0 0e e5 f7 bd f2 d1 aa be 05 f2 ba be be cc 4b be
       -0.121042356 -0.333633 -0.3651277 -0.19902322
0001d0 a3 57 f7 bd fc 45 de 3d 4f 39 8a be 66 dc 15 3e
       -0.12077262 0.10853192 -0.26996848 0.14634857
0001e0 a6 3d 69 3d 6f e9 13 3e 22 49 85 bd 4b 29 9d 3d
       0.05694356 0.14444517 -0.065080896 0.07673892
0001f0 06 a9 85 3d 5b c2 e5 3d c8 1d c4 3d a4 f5 38 3c
       0.06526379 0.11218711 0.09575993 0.011289034
000200 ec dd 01 3e 58 e2 e6 3e 48 d4 00 bf 2f 1f f1 3d
       0.12682313 0.45094562 -0.50323915 0.11773526
000210 1e 2f 5e 3e 74 82 eb 3c aa 44 47 3e ea 95 06 bf
       0.21697661 0.028748728 0.19459787 -0.525725
000220 bb b6 8f be 44 7a 5b be f9 74 95 be a3 e1 44 3e
       -0.280691 -0.2143336 -0.29190806 0.19226699
000230 42 09 fd 3d 6f 6a 1c be c9 1b 79 3e e1 80 63 3e
       0.123552814 -0.15274976 0.24327005 0.22217132
000240 25 f6 bb 3e 7d 4b 8b 3e 89 2c 68 be d7 3f 06 bd
       0.3671123 0.2720603 -0.22673239 -0.032775726
000250 2a c0 38 be b0 ef 88 bd fb 38 ca bd 39 cd d2 3d
       -0.18042055 -0.06686342 -0.098741494 0.10293049
000260 09 57 38 be bf 42 a0 be 9a e1 db 3e 6c 40 82 3d
       -0.18001951 -0.31300923 0.42945558 0.06359944
000270 95 12 72 3d 39 dd 24 3e 08 31 95 3d 77 0a ab be
       0.059099752 0.16100015 0.072847426 -0.33406422
000280 83 cf a4 bb 03 13 bc be 04 5a da bc 67 75 0f be
       -0.00502962 -0.36733255 -0.02665425 -0.14009629
000290 90 d8 cc bd c6 fa 85 3e ef 71 75 be f2 7c 47 3e
       -0.100022435 0.26167887 -0.23969243 0.19481257
0002a0 50 94 08 be 6e 3c cc be 3f 2a df bd 2a 43 9c be
       -0.13337827 -0.39889854 -0.1089673 -0.30519992
0002b0 b8 d3 e7 3e 52 8d 47 3d 04 15 fb bd 74 79 13 bf
       0.45278716 0.048718758 -0.12259868 -0.576072
0002c0 47 ae 8b be ee 08 f8 3d 04 69 a0 be c1 43 80 3d
       -0.272814 0.12111078 -0.3133012 0.06262923
0002d0 cc bf c0 3e c7 a2 f7 be 33 c8 84 3e 22 88 aa 3e
       0.3764633 -0.48366377 0.2593399 0.33306986
0002e0 a1 2b 9d 3c 6e 2e 34 be f8 a6 22 be d8 d0 8c bb
       0.019185843 -0.17595837 -0.15884006 -0.004297357
0002f0 98 86 a7 3e ec 80 9e bc e7 a9 12 bd 4a 19 3f be
       0.32719874 -0.019348584 -0.035806563 -0.18661991
000300 27 3a 84 bd 74 41 99 3e e2 b6 bc 3d 9e 68 83 3d
       -0.06456404 0.2993275 0.0921457 0.064164385
000310 12 4e 4d 3e 8d df 17 be cb cc 51 3e 05 dc 35 bd
       0.20049313 -0.14831372 0.20488279 -0.04439928
000320 25 26 7a 3e 83 ae ff 3e 0e 44 ab 3e ba 65 56 be
       0.24428613 0.4993783 0.3345036 -0.20937243
000330 d2 4f 1d 3e 58 f1 67 3e ef 3a a3 be 84 f7 03 3e
       0.1536248 0.22650659 -0.318809 0.12887388
000340 27 88 d2 be de 44 ef 3d 4b 39 33 3e 1b ec 00 3e
       -0.411195 0.11683057 0.17502324 0.12590067
000350 e5 39 65 be 5f f0 4d 3e 5c 4c b0 bd b2 44 81 3e
       -0.22385366 0.20111226 -0.086083144 0.25247723
000360 64 cd 74 3e ae 42 9b bd 3c ce 86 3e b3 de c4 bd
       0.23906475 -0.075810775 0.2632922 -0.09612789
000370 98 1f c7 bc f1 4a d1 3e 7d a1 69 be 36 e1 90 bc
       -0.024307057 0.40877488 -0.22815509 -0.017685514
000380 ce d1 46 3d 6f 29 24 bf b9 92 b1 3e 0b 63 84 3a
       0.04853993 -0.6412572 0.34682253 0.0010100318
000390 6b 5b 96 be c8 4b a7 3d d2 98 f8 3e 70 08 c3 3e
       -0.2936662 0.08168751 0.48554093 0.38092375
0003a0 5c 89 d5 3d fe af 53 3e e9 46 3e be 6f 3d e4 bd
       0.1042659 0.20672604 -0.18581738 -0.1114453
0003b0 66 94 ec 3e 24 2b 8b 3e fc 3f 4c 3e 4b a2 63 3d
       0.4620697 0.2718135 0.19946283 0.055574697
0003c0 7d 9d 90 3d bd 70 d3 be 24 e6 bb be 43 fc db bd
       0.070612885 -0.4129695 -0.3669902 -0.107414745
0003d0 bf 99 9e 3d 76 a3 87 bd 22 bc 57 3d ee 38 d2 bd
       0.077441685 -0.066229746 0.05266965 -0.10264765
0003e0 62 5a c7 be 03 2a 22 bc c7 24 4a 3e 3f 52 7b be
       -0.38936144 -0.009897712 0.19740592 -0.24543093
0003f0 f9 6d 81 be 09 88 41 be 91 87 16 3e a5 b1 8c 3c
       -0.25279215 -0.1889955 0.14700152 0.017174551

bias f4 [32]
000000 62 33 90 bd 3b 1a df 3d 95 2d 25 3d d1 32 ae 3d
       -0.070410505 0.10893675 0.040326674 0.08505786
000010 12 a8 d9 3d e1 41 2e 3e 2a ca 2b 3e 67 fc ea ba
       0.1062776 0.17017318 0.16776338 -0.0017928005
000020 eb a8 14 3e 73 db 18 3e bc 69 bb 3d 58 f0 34 3e
       0.14517562 0.14927463 0.091510266 0.17669809
000030 58 46 e6 bd e9 7c 81 bd 1e 4f 9a 3d 35 ed f7 bd
       -0.11243886 -0.06322653 0.07534622 -0.121057905
000040 a8 fb c1 3d 0f 96 16 be a2 d3 0c 3e 56 dc b6 3d
       0.09471828 -0.1470568 0.13752607 0.089287445
000050 52 09 ab 3d cd 60 d8 3c e3 5c 18 3e 07 9a f2 bd
       0.08351387 0.026413346 0.14879183 -0.11845785
000060 98 0f 0a 3e 13 8c c1 bc 71 e8 eb 3c 9d e5 56 3d
       0.13482511 -0.023626363 0.02879736 0.05246507
000070 66 2f 89 bd 96 8e 43 3d 77 6b 23 3d 62 d4 59 3c
       -0.06698494 0.047743402 0.03989741 0.013295265

weight f4 [32]
000000 00 00 80 3f 00 00 80 3f 00 00 80 3f 00 00 80 3f
       1.0 1.0 1.0 1.0
000010 00 00 80 3f 00 00 80 3f 00 00 80 3f 00 00 80 3f
       1.0 1.0 1.0 1.0
000020 00 00 80 3f 00 00 80 3f 00 00 80 3f 00 00 80 3f
       1.0 1.0 1.0 1.0
000030 00 00 80 3f 00 00 80 3f 00 00 80 3f 00 00 80 3f
       1.0 1.0 1.0 1.0
000040 00 00 80 3f 00 00 80 3f 00 00 80 3f 00 00 80 3f
       1.0 1.0 1.0 1.0
000050 00 00 80 3f 00 00 80 3f 00 00 80 3f 00 00 80 3f
       1.0 1.0 1.0 1.0
000060 00 00 80 3f 00 00 80 3f 00 00 80 3f 00 00 80 3f
       1.0 1.0 1.0 1.0
000070 00 00 80 3f 00 00 80 3f 00 00 80 3f 00 00 80 3f
       1.0 1.0 1.0 1.0

bias f4 [32]
000000 00 00 00 00 00 00 00 00 00 00 00 00 00 00 00 00
       0.0 0.0 0.0 0.0
000010 00 00 00 00 00 00 00 00 00 00 00 00 00 00 00 00
       0.0 0.0 0.0 0.0
000020 00 00 00 00 00 00 00 00 00 00 00 00 00 00 00 00
       0.0 0.0 0.0 0.0
000030 00 00 00 00 00 00 00 00 00 00 00 00 00 00 00 00
       0.0 0.0 0.0 0.0
000040 00 00 00 00 00 00 00 00 00 00 00 00 00 00 00 00
       0.0 0.0 0.0 0.0
000050 00 00 00 00 00 00 00 00 00 00 00 00 00 00 00 00
       0.0 0.0 0.0 0.0
000060 00 00 00 00 00 00 00 00 00 00 00 00 00 00 00 00
       0.0 0.0 0.0 0.0
000070 00 00 00 00 00 00 00 00 00 00 00 00 00 00 00 00
       0.0 0.0 0.0 0.0

running_mean f4 [32]
000000 00 00 00 00 00 00 00 00 00 00 00 00 00 00 00 00
       0.0 0.0 0.0 0.0
000010 00 00 00 00 00 00 00 00 00 00 00 00 00 00 00 00
       0.0 0.0 0.0 0.0
000020 00 00 00 00 00 00 00 00 00 00 00 00 00 00 00 00
       0.0 0.0 0.0 0.0
000030 00 00 00 00 00 00 00 00 00 00 00 00 00 00 00 00
       0.0 0.0 0.0 0.0
000040 00 00 00 00 00 00 00 00 00 00 00 00 00 00 00 00
       0.0 0.0 0.0 0.0
000050 00 00 00 00 00 00 00 00 00 00 00 00 00 00 00 00
       0.0 0.0 0.0 0.0
000060 00 00 00 00 00 00 00 00 00 00 00 00 00 00 00 00
       0.0 0.0 0.0 0.0
000070 00 00 00 00 00 00 00 00 00 00 00 00 00 00 00 00
       0.0 0.0 0.0 0.0

running_var f4 [32]
000000 00 00 80 3f 00 00 80 3f 00 00 80 3f 00 00 80 3f
       1.0 1.0 1.0 1.0
000010 00 00 80 3f 00 00 80 3f 00 00 80 3f 00 00 80 3f
       1.0 1.0 1.0 1.0
000020 00 00 80 3f 00 00 80 3f 00 00 80 3f 00 00 80 3f
       1.0 1.0 1.0 1.0
000030 00 00 80 3f 00 00 80 3f 00 00 80 3f 00 00 80 3f
       1.0 1.0 1.0 1.0
000040 00 00 80 3f 00 00 80 3f 00 00 80 3f 00 00 80 3f
       1.0 1.0 1.0 1.0
000050 00 00 80 3f 00 00 80 3f 00 00 80 3f 00 00 80 3f
       1.0 1.0 1.0 1.0
000060 00 00 80 3f 00 00 80 3f 00 00 80 3f 00 00 80 3f
       1.0 1.0 1.0 1.0
000070 00 00 80 3f 00 00 80 3f 00 00 80 3f 00 00 80 3f
       1.0 1.0 1.0 1.0

weight f4 [1, 32]
000000 77 2c e0 bd 99 9c de bd 8d 5b 02 bc d7 6f f7 3d
       -0.10945981 -0.108697124 -0.007956398 0.12081879
000010 b1 de d7 bb dd 3d d4 3c c9 a3 63 3d 6e 23 96 bd
       -0.006587826 0.025908405 0.05557612 -0.073309764
000020 ee 77 0c be e9 7a 01 3d 47 b3 99 bd 40 00 2b 3d
       -0.13717625 0.031611357 -0.075048976 0.041748285
000030 34 be 08 3d ca 3d 08 3e ac c4 ff bd df 3b 0c 3e
       0.033384517 0.1330482 -0.12488684 0.13694714
000040 d2 b7 25 3e 06 c1 a3 bd 51 3b 87 bd 13 01 f6 3d
       0.16183403 -0.07995801 -0.066031106 0.12011924
000050 ac d5 71 bc 47 1a 8a 3d 14 ed 85 bd 40 f5 e0 3b
       -0.014760416 0.06743293 -0.0653936 0.0068651736
000060 33 ab f6 3c 81 2a b9 3d e2 90 97 3d 9e 78 a0 3d
       0.030110931 0.0904131 0.07400681 0.07835506
000070 bd 91 13 3e aa 5c e1 bc b5 7d 07 bc ea d2 46 3d
       0.14411063 -0.027510006 -0.008269717 0.048540987
