Radiomics_local_global_framework/models_2/Stochastic Gates_feature_selection/Neural_Network_try_2_with_try1_mask/global_flair_t1ce___local_flair_t1ce/model.pt (torch, 308404 bytes, 5 tensors)

fc1.weight f4 [128, 532]
0	0x3d67be4f	0.056577977
1	0xbcb650a3	-0.022255247
2	0xbd8470be	-0.06466816
3	0x3c8728ee	0.016499009
4	0x3c597244	0.013271872
5	0x3d1c5026	0.038162373
6	0x3d4f1b96	0.050563417
7	0xbdad3fd9	-0.084594436
8	0xbcb90fd4	-0.022590555
9	0x3da19297	0.07889288
10	0xbc93ae85	-0.018027553
11	0x3d1649a9	0.03669134
12	0x3c897079	0.016777264
13	0xbe0b45f1	-0.136009
14	0x3d3c026c	0.045900747
15	0x3d48c864	0.049019232
16	0xbdce95bc	-0.10087153
17	0xbd5f8b6a	-0.054576315
18	0x3cf167d4	0.029468454
19	0xbd6c131a	-0.057635404
20	0x3a980f24	0.0011601192
21	0x3c093cfd	0.008376357
22	0xbdbcbb10	-0.09215367
23	0x3d622cf9	0.05521867
24	0x3ce75f5b	0.028243711
25	0x3d6e1059	0.05812106
26	0x3c8f2b33	0.017476654
27	0xbc31d032	-0.01085286
28	0x3cdc66f1	0.026904555
29	0x3cd034f8	0.025415882
30	0xbd524892	-0.05133874
31	0x3d8e94c8	0.069619715
32	0xbe05fe8c	-0.13085383
33	0x3d9df54a	0.07712801
34	0x3d2cdaf1	0.042200986
35	0x3c99fccd	0.018797303
36	0xbcdccf4b	-0.026954314
37	0x3cad34dd	0.021143371
38	0xbcc23330	-0.023706049
39	0x3d99eb21	0.075155504
40	0xbc31aa3a	-0.010843808
41	0xbc12bbb9	-0.008955889
42	0x3da5e951	0.08101142
43	0xbdf94eba	-0.12173219
44	0x3d1bdf84	0.038054958
45	0x3cb0af08	0.021567836
46	0x3b15364a	0.0022767955
47	0x3bc22cf9	0.0059257713
48	0xbc966a03	-0.018361097
49	0xbd8794e0	-0.066201925
50	0x3d6d8f9b	0.05799828
51	0xbd088471	-0.03332943
52	0xbd58387b	-0.05278824
53	0xbbf86d68	-0.0075814016
54	0x3d553906	0.052056335
55	0x3dc26748	0.094923556
56	0x3d6f78a4	0.05846466
57	0x3d50e3e1	0.050998572
58	0xbd89e65b	-0.0673339
59	0x3d397b7b	0.045283776
60	0x3d6f712a	0.05845753
61	0x3bdc8b8d	0.006730503
62	0xbd984580	-0.07435131
63	0x3dc9bd27	0.09850531
64	0xbb916e45	-0.004438194
65	0x3da153c6	0.07877307
66	0xbd9e292e	-0.07722698
67	0xbd83f2e8	-0.06442815
68	0x3ce15088	0.02750422
69	0x3dba34e8	0.09092122
70	0x3c7b39a1	0.015333564
71	0x3e84ce41	0.2593861
72	0xbd8bec07	-0.06832128
73	0x3c6d52bb	0.0144850565
74	0xbd9f9f6f	-0.077940814
75	0xbd546a78	-0.05185935
76	0xbcdcbad5	-0.026944557
77	0xbda2df1c	-0.07952711
78	0x3eade267	0.33961794
79	0xbe44540c	-0.19172686
80	0x3db86992	0.09004511
81	0x3cefd9ea	0.029278714
82	0x3decca26	0.11561994
83	0x3c2f16fd	0.010686633
84	0x3d2bcb52	0.04194195
85	0xbd37cc0a	-0.04487232
86	0xbda14279	-0.07874007
87	0x3cc65864	0.02421207
88	0xbdea4480	-0.114388466
89	0x3dbd47d5	0.092422165
90	0x3c649979	0.013952606
91	0x3d2afcb2	0.041744895
92	0x3a4349cd	0.0007449657
93	0x3d70c8b3	0.05878515
94	0x3c0e66e1	0.00869152
95	0x3e2616dc	0.16219658
96	0x3ba607ad	0.005066833
97	0xbd487d58	-0.048947662
98	0xbd66103c	-0.056167826
99	0x3e5ca216	0.21546206
100	0xbc5dd6d1	-0.013539986
101	0x3ad47e02	0.001621187
102	0x3cfad39c	0.030618481
103	0xbd5ca1e0	-0.053865314
104	0xbdbf0378	-0.093268335
105	0x3e484e8a	0.1956121
106	0xbc31d86e	-0.0108548235
107	0xbdbe23ff	-0.092842095
108	0xbdc66e73	-0.09689035
109	0xbc1d78e1	-0.009611339
110	0xbc870f1b	-0.016486695
111	0x3c381ec1	0.011237801
112	0xbe185a70	-0.14878249
113	0x3dd91f3a	0.10601659
114	0xbd807085	-0.062714614
115	0x3cf81f5e	0.030288395
116	0xbb585955	-0.003301223
117	0x3e899415	0.2687079
118	0xbcfc860d	-0.03082564
119	0xbc9871d5	-0.018608967
120	0x3e4af1d9	0.1981882
121	0x3dd2078a	0.10255344
122	0xbd225950	-0.039635956
123	0x3d927014	0.071502835
124	0x3d9ee42f	0.07758366
125	0x3c23cf49	0.009998151
126	0xbaf25ccb	-0.0018490789
127	0x3d0e2f7f	0.034713265
128	0x3dc0cd36	0.09414141
129	0xbe149e4c	-0.1451351
130	0xbddc8bd0	-0.107688546
131	0xbdaf1283	-0.08548453
132	0xbdff5858	-0.12468022
133	0x3cffd1e7	0.031228019
134	0xbd56e969	-0.05246869
135	0xbdb72c32	-0.089439765
136	0xbe82bf71	-0.25536683
137	0xbc9c4434	-0.01907549
138	0x3c339aba	0.010962183
139	0xbd8c1549	-0.06839997
140	0x3d86daf4	0.06584731
141	0xbd197425	-0.03746428
142	0x3e344f6c	0.17608422
143	0xbd04579d	-0.032310117
144	0x3c30f093	0.010799545
145	0xbd35caaa	-0.04438273
146	0xbc2da317	-0.010597966
147	0x3c112852	0.008859711
148	0x3d339caf	0.043850597
149	0x3e72b300	0.23701096
150	0x3d9b26a0	0.075757265
151	0x3c7aa589	0.015298256
152	0xbd8930d7	-0.066987686
153	0x3ac913c2	0.0015340971
154	0x3c686977	0.014185301
155	0xbd80365d	-0.06260369
156	0xbd991efc	-0.07476613
157	0xbea4d542	-0.32193953
158	0x3e52a3fe	0.2057037
159	0x3db23984	0.087023765
160	0xbdd3eb9e	-0.10347675
161	0xbd3a57ea	-0.045493998
162	0x3ec5cb3d	0.3863162
163	0x3b7c5f02	0.0038508778
164	0x3d22e768	0.039771467
165	0x3cac3c2d	0.021024788
166	0xbe2877d1	-0.16451956
167	0x3e66f354	0.2255376
168	0x3caeca49	0.021336691
169	0xbe3fb5a0	-0.18721628
170	0x3e379eb1	0.1793163
171	0x3cb52d92	0.022116456
172	0xbc05bf86	-0.0081633385
173	0x3d4e3c9d	0.050350774
174	0xbe94bbd5	-0.29049554
175	0xbe1ec1a5	-0.15503557
176	0xbe9d579d	-0.30730906
177	0x3b607e47	0.0034254955
178	0xbc955263	-0.018227762
179	0xbc9a7e1f	-0.018858967
180	0xbdc32ff9	-0.095306344
181	0xbb837508	-0.004011754
182	0xbd0765e6	-0.033056162
183	0x3dc2c969	0.09511072
184	0xbe0789cb	-0.13236158
185	0xbe0a210d	-0.1348917
186	0x3e34367f	0.17598914
187	0xbe07b3a3	-0.1325212
188	0x3d8a9e52	0.067684785
189	0xbe61c854	-0.22049075
190	0x3e157686	0.14595994
191	0xbb50f014	-0.003188138
192	0x3cc8f0d2	0.024528895
193	0xbe32bc47	-0.17454635
194	0x3cad067d	0.021121258
195	0x3cdf5b99	0.027265357
196	0xbdb34d96	-0.08755033
197	0x3e2ac32e	0.16676018
198	0x3d2d4503	0.042302143
199	0x3cbc0c61	0.022955121
200	0xbda477e4	-0.0803068
201	0xbdc1766a	-0.09446414
202	0xbd6e825e	-0.058229797
203	0xbe741578	-0.23836315
204	0xbccf6b26	-0.025319647
205	0x3c5cd0f4	0.013477553
206	0xbc4bfeb0	-0.012450859
207	0xbda49e90	-0.08038056
208	0xbdfdc749	-0.12391526
209	0xbdcd6df5	-0.10030738
210	0x3e290324	0.16505104
211	0x3caf30ce	0.021385577
212	0x3db41e0c	0.087947935
213	0xbe07a7be	-0.13247582
214	0x3d8de01f	0.06927513
215	0x3cbdf1d7	0.023186607
216	0x3e3a10a2	0.18170407
217	0x3d773045	0.060348768
218	0xbe16a5c5	-0.14711674
219	0x3b472441	0.00303866
220	0x3e1c38a8	0.15255988
221	0x3e2785f0	0.16359687
222	0x3ca45c86	0.02006365
223	0x3dc7a07b	0.09747406
224	0xbcd17d60	-0.025572479
225	0x3b606233	0.0034238219
226	0xbdc98ea6	-0.09841661
227	0x3d48f6a9	0.04906336
228	0x3e456114	0.19275314
229	0xbbe25e86	-0.0069082407
230	0x3e0ba881	0.13638498
231	0x3ce34c80	0.027746439
232	0xbcd206fe	-0.0256381
233	0x398790be	0.00025857048
234	0xbc4c7874	-0.01247989
235	0xbe02eafd	-0.12784953
236	0x3cd290e2	0.025703851
237	0x3d385518	0.045003027
238	0x3d5c56a9	0.053793583
239	0x3e1d3489	0.15352072
240	0xbd24a28d	-0.040194083
241	0xbcfa8285	-0.030579815
242	0xbc40bca2	-0.011763724
243	0xbf022204	-0.50833154
244	0x3d522506	0.05130484
245	0xbe0989e8	-0.13431513
246	0x3e629d87	0.22130404
247	0x3dd4d5a4	0.10392311
248	0xbe8e06c9	-0.27739552
249	0x3e0937b5	0.13400157
250	0xbe4be03b	-0.19909756
251	0x3e1f9818	0.15585363
252	0x3ec88d52	0.3917032
253	0x3e4aeb07	0.19816218
254	0x3e943970	0.2895007
255	0x3e3194ec	0.17341965

fc1.bias f4 [128]
0	0xbe34e45a	-0.17665234
1	0xbe1166d1	-0.14199378
2	0xbe809c6e	-0.25119346
3	0xbd431422	-0.047626622
4	0xbe7f50f1	-0.2493322
5	0xbd7249d8	-0.059152454
6	0xbdb52ad4	-0.088460594
7	0xbe3e5715	-0.18587907
8	0xbe1ed5f1	-0.155113
9	0xbe46b831	-0.19406201
10	0xbd9fb1fc	-0.0779762
11	0xbe83fb90	-0.25777864
12	0xbe07d5c5	-0.1326514
13	0xbdadba1f	-0.084827654
14	0xbe0c0072	-0.13672045
15	0xbe813e7a	-0.25242978
16	0xbe51977c	-0.20467943
17	0xbe0382c9	-0.1284286
18	0xbdbe976b	-0.093062244
19	0xbdb713c0	-0.08939314
20	0xbe18ae89	-0.1491033
21	0xbe0e1140	-0.13873768
22	0xbe82a936	-0.25519723
23	0xbe2ad3d5	-0.1668237
24	0xbdf02786	-0.117262885
25	0xbe61abf9	-0.22038259
26	0xbe37c54f	-0.17946361
27	0xbe40f3c6	-0.18842992
28	0xbe31e782	-0.1737347
29	0xbe0d4e78	-0.13799465
30	0xbe988733	-0.2979065
31	0xbe9ca19d	-0.3059205
32	0xbe4fef1a	-0.20306054
33	0xbdb65003	-0.0890198
34	0xbdbba5af	-0.09162461
35	0xbe2554a0	-0.16145563
36	0xbe48b178	-0.19598949
37	0xbe492829	-0.19644226
38	0xbdd1ad17	-0.102380924
39	0xbe8bda3f	-0.27314946
40	0xbda27c5e	-0.079338774
41	0xbe43a1d8	-0.19104707
42	0xbe983612	-0.29728752
43	0xbe7aa97f	-0.2447872
44	0xbe9bca8d	-0.3042797
45	0xbdd23d13	-0.10265555
46	0xbe86e7f1	-0.26348832
47	0xbe86eb51	-0.26351407
48	0xbe3f16db	-0.18661062
49	0xbd1e0448	-0.0385783
50	0xbebf9540	-0.37418556
51	0xbe107ceb	-0.14110152
52	0xbd7faf6b	-0.06242315
53	0xbe71a46a	-0.23597875
54	0xbe9e4930	-0.30915213
55	0xbe137266	-0.14399108
56	0xbe45dc75	-0.19322379
57	0xbe022153	-0.12708025
58	0xbe4e73ff	-0.20161436
59	0xbe764499	-0.24049605
60	0xbe9dc3e6	-0.3081352
61	0xbcb75dde	-0.022383627
62	0xbde5cbbe	-0.11220501
63	0xbdf7c954	-0.12098947
64	0xbe7f2ee4	-0.24920231
65	0xbec6bc61	-0.38815597
66	0xbdf0afad	-0.117522575
67	0xbdce6f45	-0.10079817
68	0xbe9c1789	-0.30486706
69	0xbe0ecd48	-0.13945496
70	0xbe0b61c1	-0.13611509
71	0xbe8dc155	-0.27686563
72	0xbea97f4a	-0.33104926
73	0xbe2630fe	-0.16229627
74	0xbe81f891	-0.25384954
75	0xbdf36b61	-0.11885715
76	0xbe8b04a3	-0.27151975
77	0xbdcc4577	-0.09974187
78	0xbe80319e	-0.25037855
79	0xbdb76802	-0.08955385
80	0xbe9c4dd9	-0.30528143
81	0xbe24e00e	-0.16101095
82	0xbe0502e1	-0.1298938
83	0xbdca3bf8	-0.098747194
84	0xbe2de2dd	-0.16981073
85	0xbe7e1da5	-0.24815996
86	0xbda519f7	-0.08061593
87	0xbe802aac	-0.25032556
88	0xbde9bc77	-0.114129
89	0xbe4e0364	-0.20118481
90	0xbdddeec3	-0.10836556
91	0xbd8fcb67	-0.07021218
92	0xbe0dc5c5	-0.13844974
93	0xbe30f34d	-0.17280312
94	0xbe95530c	-0.29164922
95	0xbe334587	-0.17506991
96	0xbd327d37	-0.043576445
97	0xbe1e1fb0	-0.15441775
98	0xbe83b8b7	-0.25726864
99	0xbe2058ee	-0.15658924
100	0xbe0372c1	-0.12836744
101	0xbe4922c7	-0.19642173
102	0xbddac728	-0.10682517
103	0xbdefc86b	-0.117081486
104	0xbeb0ef03	-0.3455735
105	0xbe1b9df7	-0.15196978
106	0xbe5a6906	-0.21329126
107	0xbe57d463	-0.21077113
108	0xbe176eb1	-0.14788319
109	0xbe4b6e60	-0.19866323
110	0xbd7fc466	-0.06244316
111	0xbeb779f0	-0.35835218
112	0xbe96fe35	-0.2949082
113	0xbd6a932c	-0.05726926
114	0xbd8740f0	-0.06604183
115	0xbdb3cf9d	-0.087798335
116	0xbe358bc5	-0.17729099
117	0xbdb69423	-0.089149736
118	0xbe2f59f1	-0.17124154
119	0xbea63eec	-0.3246988
120	0xbdbf7e13	-0.093502186
121	0xbe85182e	-0.2599501
122	0xbe87398f	-0.264111
123	0xbe50532f	-0.20344232
124	0xbddadab7	-0.10686248
125	0xbe69723f	-0.22797488
126	0xbdce10e5	-0.10061816
127	0xbdc17bb0	-0.0944742

fc2.weight f4 [64, 128]
0	0x3e85a21c	0.26100242
1	0x3e4a5fb9	0.19763078
2	0x3e061e9c	0.13097614
3	0x3e278ab6	0.16361508
4	0x3e2765e6	0.16347465
5	0x3e8bd0fe	0.27307886
6	0x3e81c2a1	0.25343803
7	0x3e8b9d3e	0.27268404
8	0x3dfb7f1c	0.122801036
9	0x3e17a39b	0.14808504
10	0x3e6bddd9	0.23033847
11	0x3e179415	0.14802583
12	0x3e1b02e9	0.15137829
13	0x3e96886e	0.29400963
14	0x3e56b51c	0.20967525
15	0x3e493107	0.19647609
16	0x3db6820f	0.089115255
17	0x3e825685	0.25456634
18	0x3debe396	0.11518018
19	0x3dce3aa5	0.10069779
20	0x3dae4d0b	0.085107885
21	0x3d82f7be	0.06394909
22	0x3e56aba0	0.20963907
23	0x3eaa0219	0.33204725
24	0x3b8c2f81	0.004278124
25	0x3ea7236b	0.3264421
26	0x3e9b9a55	0.30391183
27	0x3dd02cf8	0.10164827
28	0x3de6da09	0.11272056
29	0x3e69e4c9	0.22841181
30	0x3d8eca8a	0.06972225
31	0x3e346e23	0.17620139
32	0x3d915f8d	0.07098303
33	0x3e687ab1	0.22703053
34	0x3e3fc616	0.18727908
35	0x3e10feb6	0.14159665
36	0x3de99fad	0.11407409
37	0x3e643f1c	0.222897
38	0x3e4dc3ca	0.20094219
39	0x3e7ff772	0.24996737
40	0x3e262ca8	0.16227973
41	0x3e561183	0.20905118
42	0x3e270d33	0.16313629
43	0x3e36a369	0.17835774
44	0x3e515475	0.20442374
45	0x3e008bd6	0.12553343
46	0x3e896ad9	0.2683933
47	0x3da92ed6	0.08260886
48	0x3e4dc9c3	0.20096497
49	0x3d9cf3ad	0.07663665
50	0x3e9963f4	0.2995907
51	0x3e6747aa	0.22585931
52	0x3e4fcb36	0.20292363
53	0x3e25cca7	0.1619135
54	0x3e2854c2	0.16438583
55	0x3dd8c1a9	0.10583813
56	0x3e53f6cf	0.20699619
57	0x3e3060bf	0.17224406
58	0x3e781f7a	0.24230757
59	0x3ea2f95d	0.31830874
60	0x3dade7bc	0.084914654
61	0x3de24ab7	0.11049407
62	0x3e1c4147	0.15259276
63	0x39c54707	0.00037627688
64	0x3e81a214	0.25318968
65	0x3e6054d1	0.21907355
66	0x3e47691a	0.19473687
67	0x3e645e50	0.22301602
68	0x3e987fcc	0.29785
69	0x3e765dc6	0.24059209
70	0x3e88201e	0.26587003
71	0x3e803e4b	0.25047526
72	0x3de434e0	0.111428976
73	0x3e1cd298	0.1531471
74	0x3e984cd0	0.29746103
75	0x3e996e6e	0.29967064
76	0x3e5f2527	0.21791516
77	0x3e0c5c19	0.13707007
78	0x3e69e2ab	0.22840373
79	0x3e735a8b	0.23765008
80	0x3e9de1b5	0.30836263
81	0x3e27783f	0.16354464
82	0x3cc9100e	0.024543788
83	0x3de75b53	0.112967156
84	0x3de5e03f	0.11224412
85	0x3e33fad2	0.17576149
86	0x3e659984	0.22421843
87	0x3df69f5f	0.120421164
88	0x3e71347a	0.23555174
89	0x3e5d251c	0.21596187
90	0x3e30aed6	0.17254195
91	0x3e3550b9	0.17706574
92	0x3df9118e	0.121615514
93	0x3dd84d22	0.10561587
94	0x3e6c1c8b	0.23057763
95	0x3d6bbd9b	0.05755387
96	0x3e4bb614	0.19893676
97	0x3e2ccb5e	0.16874453
98	0x3eb578e6	0.354438
99	0x3e030e09	0.12798323
100	0x3e6055f1	0.21907784
101	0x3e2d5089	0.16925253
102	0x3e39aa9a	0.18131486
103	0x3e6fbc48	0.23411667
104	0x3dcc32f7	0.09970658
105	0x3e88c7de	0.26714987
106	0x3e9bc700	0.30425262
107	0x3e2fa939	0.17154397
108	0x3dee9125	0.11648778
109	0x3e1ad1af	0.1511905
110	0x3e37358e	0.17891523
111	0x3dcc03fe	0.09961699
112	0x3e00b482	0.12568858
113	0x3e5abd09	0.21361174
114	0x3dfe2e0d	0.12411127
115	0x3e9619ac	0.2931646
116	0x3e05a30d	0.1305048
117	0x3df87e38	0.12133449
118	0x3e125702	0.14291003
119	0x3e05d576	0.1306971
120	0x3e2ce0a6	0.16882572
121	0x3cbcecab	0.02306207
122	0x3db30e2f	0.0874294
123	0x3e38f8b5	0.18063624
124	0x3e32b0df	0.17450283
125	0x3e3b26a0	0.18276453
126	0x3e720b58	0.2363714
127	0x3d555415	0.05208214
128	0x3e5df7a5	0.216765
129	0x3e002d77	0.12517343
130	0x3e8e28c2	0.2776547
131	0x3e383b16	0.1799129
132	0x3e599480	0.21248055
133	0x3eb71463	0.3575774
134	0x3e88e6a3	0.26738462
135	0x3e851ce0	0.25998592
136	0x3e3d6de8	0.18498957
137	0x3e2234fa	0.15840521
138	0x3e5ff816	0.21871981
139	0x3e3d2874	0.18472463
140	0x3e76c9d2	0.24100426
141	0x3eaa7b7b	0.33297333
142	0x3e2b7754	0.16744739
143	0x3dc8b82b	0.09800752
144	0x3e5f69f8	0.21817768
145	0x3e432d14	0.19060165
146	0x3d1a6e18	0.03770265
147	0x3db9876e	0.09059034
148	0x3e4b0174	0.19824773
149	0xbd1a6322	-0.037692197
150	0x3e650511	0.22365214
151	0x3e37e381	0.1795788
152	0x3de039cc	0.10948524
153	0x3ea1f833	0.31634673
154	0x3e89a5b0	0.26884222
155	0x3e035944	0.12827021
156	0x3e9540ef	0.29151103
157	0x3e5779ad	0.2104251
158	0x3e015a13	0.12632017
159	0x3e1f8189	0.15576757
160	0x3e187ffe	0.14892575
161	0x3e06b59a	0.13155213
162	0x3e372af8	0.17887485
163	0x3e48cfd1	0.19610526
164	0x3e1bce97	0.15215527
165	0x3e93fde7	0.2890465
166	0x3e4ea49a	0.20179978
167	0x3e32c93e	0.1745958
168	0x3d9f207d	0.077698685
169	0x3e4cbe6b	0.19994514
170	0x3e488d26	0.19585094
171	0x3e64a544	0.22328669
172	0x3e233d9f	0.15941475
173	0x3dee6415	0.11640183
174	0x3e3b2fb1	0.18279912
175	0x3d79c9f3	0.06098361
176	0x3e6036ec	0.21895951
177	0x3a00f2af	0.0004918975
178	0x3e6da1f0	0.23206306
179	0x3e33e5af	0.17568086
180	0x3dc8bf81	0.098021515
181	0x3e2796d6	0.16366133
182	0x3e377d8b	0.17918985
183	0x3e94f21d	0.29090968
184	0x3e79a6b7	0.24380003
185	0x3e3fb726	0.1872221
186	0x3ea3adc8	0.31968522
187	0x3e8af774	0.27141917
188	0x3e7276f4	0.2367819
189	0x3e59b705	0.21261223
190	0x3e68bb10	0.22727609
191	0x3d88afe4	0.066741735
192	0x3e41d696	0.18929514
193	0x3e00a525	0.12562998
194	0x3e2bfebd	0.16796394
195	0x3e5d96e5	0.21639593
196	0x3eade4fd	0.33963767
197	0x3df4d42e	0.119545326
198	0x3e9f9516	0.3116843
199	0x3e4a446c	0.19752663
200	0x3e569fe1	0.20959426
201	0x3e7c930f	0.24665473
202	0x3eaaf80f	0.3339238
203	0x3e850d62	0.25986773
204	0x3e812741	0.2522526
205	0x3e1f4eea	0.15557447
206	0x3e7feb65	0.2499214
207	0x3e8016fd	0.2501754
208	0x3e7bba3c	0.24582762
209	0x3e64ff38	0.22362983
210	0x3dc96bba	0.09835
211	0x3e4eae83	0.20183758
212	0x3e29be23	0.16576438
213	0x3e615c01	0.22007753
214	0x3e71b58f	0.23604415
215	0x3de103a6	0.10987024
216	0x3e82febd	0.25584975
217	0x3e90f550	0.2831216
218	0x3e1cc854	0.15310794
219	0x3e3c67c8	0.18398964
220	0x3e8da04d	0.27661362
221	0x3e4d17f1	0.20028664
222	0x3e6e162d	0.23250647
223	0x3e20f1fe	0.15717313
224	0x3e351eee	0.1768758
225	0x3e50d3ba	0.20393267
226	0x3e99927e	0.29994577
227	0x3e8efad4	0.27925742
228	0x3e7c1c32	0.2462013
229	0x3e83e46d	0.25760213
230	0x3e71fdee	0.23632023
231	0x3e22cb92	0.15897968
232	0x3df2e77d	0.11860559
233	0x3e4903f9	0.19630422
234	0x3e85bca4	0.26120484
235	0x3ea561db	0.3230122
236	0x3e188d44	0.14897639
237	0x3e924b20	0.2857294
238	0x3dbf7ac8	0.093495905
239	0x3e5a5aab	0.2132365
240	0x3e75883b	0.23977749
241	0x3e1490fb	0.1450843
242	0x3e4b5e03	0.19860081
243	0x3e96c307	0.2944567
244	0x3e08af2c	0.13348073
245	0x3e956ec1	0.2918606
246	0x3e652ddf	0.2238078
247	0x3e6cb570	0.23116088
248	0x3e80cd7e	0.25156778
249	0x3dbad8be	0.091233715
250	0x3d74a3cd	0.059726525
251	0x3e96a367	0.2942154
252	0x3d7f5bd1	0.062343422
253	0x3df04c3d	0.11733291
254	0x3e98dcc1	0.29855922
255	0x3d64dfca	0.055877484

fc2.bias f4 [64]
0	0xbd822bcf	-0.06356012
1	0xbe1a4708	-0.15066159
2	0xbd5d5b4f	-0.054042157
3	0xbcb317eb	-0.02186199
4	0x3ee478f1	0.4462352
5	0x3edda942	0.43293196
6	0x3d77cc12	0.06049735
7	0xbd001590	-0.031270564
8	0xbd55e44b	-0.05221967
9	0x3ce63bf0	0.028104752
10	0x3ea942b1	0.33058694
11	0x3bee2b0e	0.007268316
12	0xbe6db17e	-0.23212239
13	0xbde1d05d	-0.1102607
14	0xbdc118ee	-0.09428583
15	0x3eea8f79	0.45812586
16	0xbdfac440	-0.12244463
17	0x3dcf0675	0.101086535
18	0xbe306ec8	-0.1722976
19	0x3d25bcb5	0.04046317
20	0x3ea0e4f3	0.31424674
21	0xbddde348	-0.10834366
22	0x3edd258d	0.4319271
23	0xbd70a546	-0.058751367
24	0xbcdcd3e8	-0.026956514
25	0xbe57b073	-0.21063404
26	0xbdae9b86	-0.085257575
27	0xbd99628a	-0.07489498
28	0x3e78dcc3	0.24302964
29	0x3d68979e	0.05678522
30	0xbe1ac487	-0.15114032
31	0x3ee5d79f	0.44891068
32	0xbacd1575	-0.0015646653
33	0x3e8a789c	0.27045143
34	0xbd79768c	-0.06090407
35	0x3d7d7eed	0.061888624
36	0x3e9a9c90	0.30197573
37	0x3d114c13	0.03547294
38	0x3ee298fc	0.44257343
39	0xbd163159	-0.036668155
40	0x3cc9326d	0.024560178
41	0x3f095d12	0.5365764
42	0xbd9ecdb6	-0.0775408
43	0x3cdc11e7	0.026864005
44	0xbdd93bf2	-0.10607137
45	0xbdbb2846	-0.09138541
46	0xbdc02fbd	-0.09384105
47	0xbd8a8a5b	-0.067646705
48	0xbe191a75	-0.14951499
49	0x3e8b2da0	0.27183247
50	0xbd8f6364	-0.07001379
51	0x3e03cd00	0.1287117
52	0x3f0aba9c	0.54190993
53	0xbda694c1	-0.08133841
54	0x3e9ad584	0.30241024
55	0x3ee59d9d	0.44846812
56	0x3edf3246	0.43593043
57	0x3e9a4e0f	0.3013768
58	0xbe157ced	-0.14598437
59	0x3d297559	0.041371677
60	0x3f09679d	0.53673726
61	0xbc3b1a1a	-0.011419797
62	0x3f0f56b7	0.5599169
63	0xbe0c5e75	-0.13707907

fc3.weight f4 [1, 64]
0	0x3e8a2b5b	0.26986203
1	0x3e6b8f57	0.23003899
2	0x3e76b541	0.2409258
3	0x3e76663d	0.24062438
4	0xbf73aa05	-0.95181304
5	0xbf2c4b0a	-0.67302
6	0x3e9f7ed1	0.3115144
7	0x3e7a2322	0.24427465
8	0x3ea3a8ec	0.31964815
9	0x3bfe38f7	0.0077582556
10	0xbf4dc41b	-0.8037736
11	0x3e960d52	0.29307038
12	0x3e8708fb	0.2637404
13	0x3d1355a0	0.03597033
14	0xbd0afce5	-0.033932585
15	0xbf34d865	-0.7064269
16	0x3e9a16c9	0.3009551
17	0xbed92827	-0.42413446
18	0x3e7f6f34	0.24944764
19	0xbb0bcd8d	-0.0021332235
20	0xbf20e213	-0.6284496
21	0x3eab6249	0.33473423
22	0xbf68dcce	-0.9096192
23	0x3e9486da	0.29009134
24	0x3e9ed672	0.31022984
25	0xbd8dbb82	-0.0692053
26	0x3e63df64	0.22253186
27	0x3e78ea61	0.24308158
28	0xbf449282	-0.76786053
29	0x3ea2ece8	0.3182137
30	0x3e6d7708	0.23189938
31	0xbf92089d	-1.1408879
32	0x3e8800c4	0.26563084
33	0xbf393083	-0.7233965
34	0x3ea32f2e	0.31871933
35	0xbc4e0248	-0.012573786
36	0xbee3f3a2	-0.44521815
37	0x3e98e537	0.29862377
38	0xbf458edc	-0.7717111
39	0x3e8dcbc5	0.27694526
40	0x3e90cdf2	0.28282124
41	0xbf6dae2a	-0.9284388
42	0x3e9a3746	0.30120295
43	0x3e9e7e3c	0.30955684
44	0x3e85b212	0.2611242
45	0x3e98d7c2	0.2985211
46	0x3e8e1afb	0.2775496
47	0x3e864050	0.26220942
48	0x3e692206	0.22766885
49	0xbf23fc03	-0.64056414
50	0x3e97af11	0.29625753
51	0xbf2aede3	-0.66769236
52	0xbf48894e	-0.7833451
53	0xbed158b5	-0.4088799
54	0xbf2be39c	-0.6714418
55	0xbf3bf281	-0.73416907
56	0xbf50291c	-0.8131273
57	0xbf586439	-0.8452793
58	0x3e85d027	0.2613537
59	0x3e8a0466	0.2695648
60	0xbf52a3cd	-0.8228119
61	0x3ea73bbd	0.32662764
62	0xbf5a9bbd	-0.8539389
63	0x3e8874dd	0.2665166
