Radiomics_local_global_framework/models_2/Stochastic Gates_feature_selection/Neural_Networktry_3_with_try1_mask/global_flair_t1ce___local_flair_t1ce/model.pt (torch, 713320 bytes, 7 tensors)

fc1.weight f4 [256, 532]
000000 ec d4 ae bb 1b c7 21 3b c2 80 17 bd 87 15 c3 3c
       -0.005335441 0.0024685326 -0.036988027 0.023813976
000010 1a 4c e8 bc 6b fd 04 3d ef ce 4d 39 bc 96 5d bb
       -0.0283566 0.03246824 0.00019627412 -0.0033811769
000020 38 6f 2a bd 63 63 e2 bb ea e4 79 bd bd 5e f5 3c
       -0.041609973 -0.0069088205 -0.061009325 0.029952401
000030 19 61 99 bc 74 c7 83 bd 7e e4 2a 3d ec a1 31 3d
       -0.018723058 -0.06434527 0.041721813 0.04336731
000040 1b 8f dd bc 65 0a 66 bd 7b af de 3c 73 f0 89 bd
       -0.027045777 -0.056162257 0.027183285 -0.06735315
000050 64 b7 c1 3c f1 91 b5 3c 3f ee f0 3d ac af 0f bc
       0.023647018 0.022164317 0.11764192 -0.008769911
000060 3e 90 fa bb a8 53 43 bc 75 51 9e 3b 9d 90 bc 3b
       -0.0076465895 -0.011921801 0.004831488 0.005754544
000070 81 85 92 3c e7 a0 58 3d 6e 72 cf bc 9d 2c 01 bc
       0.017885925 0.052887823 -0.025323119 -0.007884172
000080 4b f2 ea 3d 56 9b 93 3b c3 e5 e3 bb 7a 3f d7 3b
       0.11471995 0.0045046015 -0.00695488 0.0065688463
000090 61 63 d0 bc 75 0a 89 3b 80 95 dd bb 56 3f 52 3c
       -0.025438013 0.004182155 -0.0067622066 0.012832483
0000a0 f3 b5 0a 3d 1e b9 05 bd d7 fe ca 3d 53 72 f6 bd
       0.033864927 -0.032647245 0.09911888 -0.12033524
0000b0 e8 19 31 3d fe 44 91 3b fa 33 09 3c 26 25 82 3b
       0.043237597 0.0044332733 0.008374209 0.0039717136
0000c0 85 a8 bb bb fc 4f 37 bd 2f dc a2 3a c5 1c 11 bd
       -0.005726876 -0.044754013 0.0012425239 -0.035427827
0000d0 48 8a 08 be d2 46 29 3c ec 62 09 3d e7 b1 5d 3d
       -0.13334 0.010331826 0.033541605 0.05412474
0000e0 8d 02 80 bc 08 98 0c bb d4 0f d3 bd 6c dc 3f 3d
       -0.015626216 -0.0021452922 -0.10305753 0.04684107
0000f0 f2 b2 e4 3c 5e 81 97 bc ec d7 32 bc 60 c4 77 3d
       0.027917359 -0.018494304 -0.010915738 0.060490012
000100 07 14 da 3c b5 dc 49 3c 7d f7 b8 bc 46 45 18 3b
       0.026620878 0.012320687 -0.02257895 0.002323465
000110 e5 24 4d 3d e3 ed 32 3d 02 14 8a 3d bd c1 75 3c
       0.050084013 0.043683898 0.067420974 0.014999804
000120 33 35 0b bd 52 cb d3 bc 5f 8e c5 bc 90 0b 92 3a
       -0.03398628 -0.025853787 -0.02411574 0.0011142362
000130 0f 3e 14 bd f1 a1 02 bc 86 a0 60 3e 45 3f 97 bd
       -0.036191996 -0.00797318 0.21936235 -0.073851146
000140 11 02 49 3d 6e 73 91 bc 88 88 28 3d 31 13 a9 3b
       0.049074236 -0.017755236 0.04114583 0.0051597585
000150 62 99 57 3d e2 78 81 bd 21 49 a5 bd a6 74 c4 3c
       0.05263651 -0.06321885 -0.08070589 0.023981404
000160 f6 4b 9c 3d 29 d3 be bc 95 01 80 3d bd 5f 64 3d
       0.07631676 -0.023294048 0.06250302 0.055755366
000170 d6 a5 51 bd 95 82 8f 3c 92 b1 e2 3c bb 41 92 3d
       -0.051183544 0.017518321 0.027672563 0.07141443
000180 b5 28 2c bd b0 87 55 bd 57 57 22 bc 55 ae 04 3e
       -0.04203101 -0.052131355 -0.009908519 0.12957127
000190 47 65 fc 3b 61 4f b3 3d a8 5b 40 3d bd 9d 90 bc
       0.007702503 0.08755375 0.04696241 -0.01765334
0001a0 c3 b8 ad bd 9d 83 85 3d 44 1b 14 3c 33 90 f0 bc
       -0.08482506 0.06519244 0.009039704 -0.029365635
0001b0 d2 91 fd 3b aa 41 2e bd 79 e6 f3 bc 6c 63 24 3d
       0.0077383304 -0.04254309 -0.029772984 0.04013388
0001c0 f2 00 c7 bd f7 92 76 3d df f7 06 bc 96 04 43 3d
       -0.09716977 0.06019875 -0.008237808 0.047611795
0001d0 83 a7 02 3e 82 a8 8f 3d d7 a1 44 3d 90 33 bf bd
       0.12759213 0.07014562 0.048005905 -0.09336007
0001e0 7b b1 ee 3d 1a eb 02 3a 2c 94 d2 bc fd d4 ef bb
       0.116549455 0.00049941393 -0.02570542 -0.0073190914
0001f0 e2 78 23 3b 4c c1 cf bc af 13 e8 bb 39 fb 15 bb
       0.0024943878 -0.025360726 -0.0070824246 -0.0022885336
000200 ee 36 63 bd 5b 20 bf bd 05 0d 13 bc 33 21 3e bd
       -0.055472307 -0.09332343 -0.008975272 -0.04641838
000210 f2 be 97 bc c8 47 8e bc 18 38 ba bc cc 1f 27 bd
       -0.018523667 -0.017368212 -0.022731826 -0.04080181
000220 88 82 b5 bd 80 c4 56 bc 49 d8 c5 3c fc 79 92 bd
       -0.088627875 -0.013108373 0.024150984 -0.07152173
000230 91 a7 36 3d ad 1c 05 be ff 43 fb 3c 09 d0 81 3c
       0.044593398 -0.1299922 0.030672072 0.01584627
000240 5d 4d 41 bc be 78 9a bb c7 9d 48 3d cd 4b 0d bc
       -0.01179823 -0.0047141006 0.048978593 -0.008624029
000250 d8 ac 79 bc 1e d3 31 3e 63 9a 66 3c 1a cb 6b 3a
       -0.015238963 0.17365691 0.014074895 0.0008994803
000260 a7 66 9f bd 49 51 90 bd a3 a5 16 bc e7 d2 da bd
       -0.07783251 -0.07046754 -0.009194764 -0.10684758
000270 45 b4 eb bc 2c 69 f1 bd 4e aa 40 3e 14 be a1 3d
       -0.028772483 -0.11787638 0.18814966 0.07897583
000280 71 9c 24 3c df 3f b1 3c a7 79 63 3e 03 ee 09 be
       0.010047064 0.021636901 0.22214375 -0.134697
000290 82 32 6c 3c aa 84 ae 3d 9b 06 e0 bd ea 38 ef 3d
       0.014416339 0.085213974 -0.1093876 0.11680777
0002a0 6d cf a1 bd 49 e4 e5 bd 9a 23 2c 3e 62 29 97 3d
       -0.079008915 -0.112251826 0.16810456 0.0738094
0002b0 42 fc 7c bc b4 a0 1e 3d d3 73 51 be 3f ba cb bd
       -0.015441002 0.038727477 -0.2045434 -0.09947633
0002c0 b5 21 3c be 9d 3c 97 bd b4 b9 f5 3c 7b c6 43 3d
       -0.18372233 -0.07384608 0.029995777 0.047796708
0002d0 b6 29 1e bd 1a 3d 98 3d 7d e8 83 3d 53 81 0d bc
       -0.038613997 0.07433529 0.06440828 -0.00863679
0002e0 67 d1 d9 bd bc c0 fc bc 2f f8 0b 3e 26 50 c6 bd
       -0.106356435 -0.030853622 0.13668893 -0.09683256
0002f0 37 99 1c bd 38 4c 33 be 97 26 20 3d ca 4d 41 3d
       -0.038232055 -0.17509544 0.039099302 0.047193326
000300 00 e0 91 bc ab fc 33 be 2c 20 ac 3a 41 14 a8 3d
       -0.017807007 -0.17576854 0.0013132147 0.08206988
000310 52 6d 5e 3d 7a 6d 69 3e 61 c3 00 bd 93 5f 3e 3d
       0.054303475 0.22795668 -0.031436328 0.046477865
000320 72 94 a7 bd d8 9b 7f bd 99 ca 9f bd 3e 22 8c 3b
       -0.081826106 -0.062404484 -0.07802314 0.004276543
000330 b4 45 a7 3d a0 4a 96 bd bd 3e 25 be e6 45 a8 bd
       0.08167592 -0.07338452 -0.16137214 -0.08216457
000340 ae 44 92 bd e2 19 87 bd cb 18 88 3d fd 17 ae 3d
       -0.07142006 -0.06596734 0.06645354 0.08500669
000350 dc 98 ac bd 37 6c fa bd cf 66 9d 3a be 73 80 bc
       -0.08427593 -0.122276716 0.0012008789 -0.01568019
000360 76 de 15 3e 56 28 19 3d 3d cd 7b bb 2d df 94 bd
       0.14635643 0.037391983 -0.0038421892 -0.0726913
000370 e2 d1 05 3e 06 65 e2 3d cf 00 ec 3a b1 0a b5 3b
       0.13068345 0.11054425 0.0018005612 0.005524956
000380 d3 2a 09 3b 70 43 96 3d e4 a2 82 bd d0 78 7e bc
       0.0020930066 0.073370814 -0.06378725 -0.015531734
000390 be f5 e5 3d f5 61 75 3c 9d d7 03 3e e5 40 20 bd
       0.11228512 0.014976968 0.12875219 -0.03912439
0003a0 41 ee 3c 3c 52 e2 cb bc 33 0d b4 3c 8a 65 13 bd
       0.0115314135 -0.024888191 0.02197895 -0.035985507
0003b0 c2 32 91 3d 6b a1 97 3c c0 b5 4f bd e2 6d 77 3d
       0.070897594 0.018509587 -0.05071044 0.060407527
0003c0 16 0f 20 bd 23 53 39 bd c3 98 42 bc 1a fc ea be
       -0.039076887 -0.0452453 -0.011877242 -0.45895463
0003d0 04 99 e7 bd c8 78 1f 3d aa e9 03 3d 07 82 9a bd
       -0.11308482 0.038933545 0.03220526 -0.07544332
0003e0 42 ea 76 be ef 62 b9 3d b6 b4 51 bd 17 02 4c 3d
       -0.241128 0.09052073 -0.05119773 0.04980668
0003f0 ec 37 21 3e c2 af 61 3e 6e 2b ea 3d 98 be 89 3d
       0.15743989 0.22039703 0.11434065 0.06725806

fc1.bias f4 [256]
000000 b3 e3 15 be 14 76 88 be ca fa 17 be d4 8e e4 bd
       -0.14637642 -0.26652586 -0.14841762 -0.11160055
000010 8a 3b c8 be 80 cb f7 bd 6b 57 ad be 0b 9f 48 be
       -0.39107925 -0.120993614 -0.33855757 -0.1959192
000020 4d 97 97 be 3e 81 4d be b6 09 7a be 74 61 24 be
       -0.2960762 -0.20068833 -0.24417767 -0.160528
000030 bd 38 b2 be 65 4c 60 be 16 b0 82 bf ed e6 94 be
       -0.34808913 -0.21904142 -1.0209987 -0.29082432
000040 b7 3d fc be 84 ac 68 be a0 b9 59 be 17 69 5a be
       -0.49265835 -0.2272206 -0.21262217 -0.21329151
000050 b0 32 35 be bb 83 57 be 07 a6 70 be 06 ce 17 be
       -0.17695117 -0.21046345 -0.23500834 -0.14824685
000060 f6 a4 21 bf 4c 5a 10 bf cb 1c dd bd 52 9a 3e be
       -0.63142335 -0.5638778 -0.107965074 -0.18613556
000070 ae 30 f2 bd ea 8d 49 be cf ee 22 be 10 29 b1 be
       -0.11825691 -0.19683042 -0.15911411 -0.3460164
000080 64 84 f4 bc 6d c8 91 be d4 74 95 be fb a5 ca bd
       -0.029848285 -0.28473225 -0.29190695 -0.098949395
000090 25 12 e7 bd 2f d1 c8 bd 07 85 69 be 90 7c ab bd
       -0.11282758 -0.098055236 -0.22804652 -0.08373368
0000a0 79 f3 b1 bd 1a 68 c0 be b0 5a 55 be fb d0 ca bd
       -0.08689017 -0.37579423 -0.20835376 -0.09903141
0000b0 7b 4d 29 be 43 0c 00 be 78 2f 74 be 04 ae 5f be
       -0.16533463 -0.12504677 -0.23846233 -0.21843725
0000c0 38 42 b2 bd 6d 40 1d be 54 b7 52 be cb ab 99 bd
       -0.087040365 -0.15356608 -0.20577747 -0.0750347
0000d0 e9 78 87 be 30 61 36 bf 46 51 6a be 5c 32 0a bf
       -0.26459435 -0.71242046 -0.22882566 -0.5398309
0000e0 25 61 26 be cf ec 6a be 05 4e 77 be c8 ec a0 be
       -0.16247995 -0.22941898 -0.24150856 -0.3143065
0000f0 f8 d6 74 be 25 6a 8d be 10 c6 ae be 62 c1 8a be
       -0.23910129 -0.27620044 -0.34135485 -0.27100664
000100 f5 bb 2e be 38 b0 ad bd 9f 05 93 bd 3d 58 6f be
       -0.17063887 -0.08480877 -0.071788065 -0.23373504
000110 aa a5 44 be 08 5e 94 be fd 1b 3d be 58 19 38 be
       -0.19203821 -0.2897799 -0.18467708 -0.17978418
000120 92 b4 40 be f5 66 22 be 32 61 17 be 99 ee 29 be
       -0.18818882 -0.15859587 -0.14783171 -0.16594924
000130 2e d8 15 be 84 de 6a bf e4 3b 27 be 9c ce 77 be
       -0.14633247 -0.9174578 -0.1633144 -0.24199909
000140 fa 26 6c be 31 c2 94 be 12 06 5b be 00 e8 70 be
       -0.23061743 -0.29054406 -0.21389034 -0.23526001
000150 56 fa 78 be b3 56 82 be 21 86 06 be 3d 4a e9 bd
       -0.24314246 -0.2545677 -0.13137104 -0.11391113
000160 24 87 ba be 86 c9 91 be 39 b7 a9 be 4e 02 a1 be
       -0.3643123 -0.28474063 -0.331476 -0.3144707
000170 04 76 bf be 8f 9e 29 be d9 74 fd be ed 18 21 be
       -0.37394726 -0.16564392 -0.4950321 -0.15732165
000180 86 12 a4 be b6 03 2e be b8 4f 38 be 2b 8e 94 be
       -0.32045382 -0.16993603 -0.1799916 -0.29014716
000190 98 53 3a be 16 d5 46 be 1a 10 ce be 40 9e 86 be
       -0.18195951 -0.19417223 -0.4024666 -0.2629261
0001a0 2d ae 1a bf fe c4 4d be 83 c3 19 be cc 19 9c be
       -0.6042202 -0.20094678 -0.15015988 -0.3048843
0001b0 5d b4 70 be d2 1d 3f be 28 df e6 bd ca 00 8a be
       -0.23506303 -0.1866372 -0.112730324 -0.26953727
0001c0 f8 90 4d be b2 c6 88 be 76 2b 95 be d0 12 e5 be
       -0.20074832 -0.26714092 -0.2913472 -0.44740915
0001d0 e5 ad 34 be d4 de 44 be 31 b4 89 be e2 3b fb bd
       -0.1764446 -0.19225627 -0.26895288 -0.12267281
0001e0 a2 5a 53 be 7e 08 0b be 27 e6 62 be be 36 8b be
       -0.20640042 -0.13577458 -0.22158109 -0.27190202
0001f0 7e 39 0c be 16 16 a3 be 0c 37 16 be 82 c0 75 be
       -0.13693807 -0.31852788 -0.14669436 -0.23999217
000200 58 35 07 be f6 b0 0e be 44 f1 55 be d4 98 0a bf
       -0.13203943 -0.13934693 -0.20892817 -0.5413945
000210 9c ef 37 be 10 36 49 be 8b 4b 63 be 7a 43 8b be
       -0.17962497 -0.1964953 -0.22196786 -0.27199918
000220 26 23 52 be 93 a7 27 be bf a4 9c be 2c e1 81 be
       -0.2052122 -0.16372518 -0.3059444 -0.25367105
000230 a5 12 5f be 89 90 13 be 55 96 37 be ad 65 8d be
       -0.21784456 -0.14410605 -0.17928441 -0.27616635
000240 cc df ed be 7b 86 1f be 67 1c e2 bd 13 0f e5 bd
       -0.46459806 -0.15578644 -0.110405736 -0.11184516
000250 a5 4d b7 be 07 5e 4f be 53 3e 39 be d4 cd 8f be
       -0.35801426 -0.20250712 -0.18090181 -0.28086722
000260 20 c0 56 be 1d 8b 86 be 46 e7 dd bd 33 df a0 be
       -0.20971727 -0.2627801 -0.108351275 -0.31420287
000270 d4 e8 47 be 09 81 cc bd 52 58 19 be 84 a3 3c be
       -0.1952241 -0.09985549 -0.14975098 -0.18421751
000280 a0 e9 f1 bd d3 7b 6f bf 93 46 10 be b8 89 04 be
       -0.118121386 -0.93548316 -0.14089422 -0.1294316
000290 bb 4f 56 be 5f de 05 bf b4 3b 97 bd ce 4e 95 be
       -0.20928852 -0.52292436 -0.07384434 -0.29161686
0002a0 95 e6 49 be ad 5d 87 be 2f c9 37 be 0d cc 36 be
       -0.19716866 -0.26438656 -0.17947839 -0.17851277
0002b0 25 7b 5a be 10 8d cf be ed cf 44 be 96 de 15 be
       -0.21336038 -0.4053731 -0.19219942 -0.14635691
0002c0 e6 da db be f5 7a 6c be 91 d6 60 be 70 f4 e3 bd
       -0.42940444 -0.2309378 -0.2195685 -0.11130607
0002d0 fd 97 28 be 36 40 32 be 6a b4 2c be 2f c7 24 be
       -0.16464229 -0.17407307 -0.16865698 -0.16091608
0002e0 a5 af f0 bd 8e 76 5b be 5a a9 4b be f9 93 78 be
       -0.117522515 -0.21431944 -0.19888821 -0.24275197
0002f0 d1 db 0d be 06 6c 7c be b2 20 0a be 06 c7 3f be
       -0.13853385 -0.24650583 -0.13489035 -0.18728265
000300 65 8f 7c be 40 ac 97 be 56 a8 84 be 5a 75 20 be
       -0.24664076 -0.29623604 -0.2590968 -0.15669766
000310 3b c5 0b be c7 f9 28 bf e5 a2 e5 bd 28 89 30 be
       -0.13649456 -0.6600613 -0.1121271 -0.17239821
000320 86 3e ff bd 8e ab dc bd 15 f6 0d be cc f5 3a be
       -0.12463097 -0.10774909 -0.13863404 -0.18257827
000330 51 4e 91 be 9f 45 2c be e4 74 2f be 96 48 f0 be
       -0.28380063 -0.16823433 -0.17134434 -0.4693038
000340 ba 53 0a bf 1a 37 9b be 22 64 c9 bd 53 e2 8f be
       -0.54034007 -0.30315477 -0.09833552 -0.2810236
000350 d7 5a 7e be 54 6a 14 be a0 21 08 bf 05 90 00 bf
       -0.2483934 -0.14493686 -0.5317631 -0.50219756
000360 45 a0 e5 be 46 67 95 be cc 90 f8 be 9a b4 58 be
       -0.44848838 -0.29180354 -0.4854797 -0.21162644
000370 12 7a c7 be 6e f6 8b be e9 05 bf bd dc c5 3a be
       -0.3896032 -0.27336448 -0.09327299 -0.1823954
000380 e9 d9 a1 be 20 7d 26 be 17 52 d2 be 51 b6 5e bf
       -0.31611565 -0.16258669 -0.41078255 -0.8699694
000390 66 af 09 be 1f 27 25 be f4 f0 51 be 29 77 e3 bd
       -0.13445815 -0.16128205 -0.20502073 -0.11106712
0003a0 96 a4 e8 bd d9 8a 3f bf ce 86 62 be 46 e6 c7 be
       -0.11359517 -0.7482124 -0.22121736 -0.39042872
0003b0 cd 3f 84 be a1 8d 6a be 22 0a 36 be 4f 32 ab be
       -0.25829926 -0.2290559 -0.17777303 -0.3343682
0003c0 14 86 7b be e6 09 24 be 9f 29 2a be bb 14 71 be
       -0.24562865 -0.16019401 -0.1661744 -0.23543064
0003d0 5d 4f 81 be 16 30 9b be da 78 20 be 11 52 d8 bd
       -0.25255862 -0.30310124 -0.15671101 -0.10562528
0003e0 f6 7f 4d be 55 5c 20 be 5d 65 6f be d8 4e 3a be
       -0.20068344 -0.15660222 -0.23378511 -0.18194139
0003f0 9a 7b 4a be a1 93 79 bf 26 5b f1 bd a2 3a d9 bd
       -0.19773713 -0.9749089 -0.11784963 -0.106068864

fc2.weight f4 [128, 256]
000000 b0 56 a0 3d b4 56 f9 3d f7 6d 14 3e 0e b3 e5 3d
       0.07829034 0.121747404 0.14495073 0.112157926
000010 5f 13 01 bd 80 2c df 3d 7a 00 8b 3d e7 ee a3 3c
       -0.031512614 0.108971596 0.067872 0.020011378
000020 76 72 a6 3d 40 4f 53 3d 5b 22 c2 3c dd 7f cb 3d
       0.081273004 0.05158925 0.023698023 0.09936497
000030 94 08 48 3d 7a 56 45 3d d8 0d 58 3a de f0 58 3d
       0.048836306 0.048178174 0.0008241809 0.052964084
000040 07 6f bc 3c 87 be 13 3d 2e d5 8c 3d 22 22 b7 3d
       0.02300216 0.036070373 0.06876598 0.08942057
000050 f4 98 84 3d a1 d6 70 3d d7 34 91 3d 7d 53 8e 3d
       0.06474486 0.058798436 0.070901565 0.06949518
000060 e1 63 94 3d b2 d5 41 3d c2 67 89 3d 1e 61 2a 3d
       0.07245613 0.047322936 0.06709243 0.041596524
000070 da 23 db 3d 4b cc 48 3c d1 d9 d7 3d 58 de 90 3d
       0.107001975 0.0122557385 0.10539592 0.07073659
000080 1b 1d 2e 3d f2 b4 06 3c 66 b5 b3 3c 56 17 f0 3c
       0.042508226 0.008221852 0.021937083 0.029308002
000090 a4 73 71 3d ce 7f cb 3d c8 3d 17 3e 68 8c 09 3e
       0.058948174 0.09936486 0.14769661 0.13432467
0000a0 38 81 ac 3c 99 fe 0a 3d d7 7b 1d 3d e5 43 fb 3d
       0.02105771 0.03393421 0.03844818 0.12268809
0000b0 42 9c 02 3e ff 43 21 bd 68 d5 2a 3d 97 57 2a 3d
       0.1275492 -0.039371487 0.041707426 0.04158744
0000c0 b2 33 8c 3d 5e ac 00 bd 0f f8 9e 3c 50 da 88 3d
       0.068457976 -0.031414382 0.019405393 0.06682265
0000d0 75 46 62 3d 6b 40 41 3c 11 17 ad bb 09 3e be bc
       0.055242974 0.011795144 -0.0052822907 -0.02322294
0000e0 46 74 73 3d cd 7b 23 3e 51 61 ef ba 33 66 f3 ba
       0.05943706 0.15965195 -0.0018263255 -0.0018569886
0000f0 1c bc 95 bb 7f 09 bb bc 76 40 aa bc cd f1 a0 3b
       -0.0045695435 -0.022831677 -0.02078269 0.0049116374
000100 bd f0 aa 3d 98 d1 96 3c 63 8a a6 3d 50 cd 27 bd
       0.083466984 0.018410489 0.08131864 -0.040967286
000110 f0 57 8f 3d 9c ea 04 3d 38 50 a6 3c 17 69 97 3d
       0.069991946 0.032450303 0.020301923 0.07393091
000120 00 2b 07 3e ce 35 e2 3d cf 5b b1 3d dc c9 68 3b
       0.13199997 0.11045419 0.08660089 0.0035520708
000130 5b 17 fe 3d 98 4e 55 bd be a5 b2 3d d0 3b 7b 3c
       0.124067985 -0.052076906 0.08723019 0.015334085
000140 01 f2 41 bd 0f 26 b2 bc 5b c7 7c 3d c8 5e 84 3d
       -0.047349934 -0.021746663 0.061713558 0.064633906
000150 d6 8a 0e 3d cd 50 87 3d d3 01 51 3d 34 6c c8 39
       0.034800373 0.066072084 0.05102713 0.0003822759
000160 f3 f1 32 bb cc bf 18 3d 96 6e 1d 3e 17 ad 3e bc
       -0.0027304858 0.037292287 0.15374216 -0.0116379475
000170 b1 20 55 bd d8 69 a0 3d 3d 52 1e bd f3 fd ea 3d
       -0.05203313 0.07832688 -0.038652647 0.11474218
000180 63 b0 18 bd 44 d1 5b 3e 50 2d 0a 3d 30 84 b4 bc
       -0.03727759 0.21466547 0.03373462 -0.022035688
000190 05 a0 39 bc 84 a9 49 3d d2 46 7a 3d 8b ec 97 3d
       -0.011329656 0.04923393 0.061102696 0.07418164
0001a0 4f d2 bc 3c 52 b8 9f 3d d8 77 ba 3d 57 ec d1 3b
       0.023049502 0.07798828 0.0910489 0.0064063477
0001b0 b9 c4 df 3d 8e 44 6a 3d c2 e2 a4 3d f8 a4 14 3d
       0.10926194 0.057194285 0.08051063 0.03629014
0001c0 d1 17 7f 3d 3a 48 35 3d f3 c1 0d 3e e1 c6 50 bd
       0.062278572 0.044258334 0.13843517 -0.050970916
0001d0 6e 67 03 3e 27 3e 22 3d 55 ee f1 3d 5c 30 90 3d
       0.12832424 0.039610054 0.11813036 0.07040474
0001e0 b1 7f ea bc fc 67 e6 3d 99 41 df 3d f6 44 b1 3d
       -0.028625341 0.11250302 0.10901184 0.086557314
0001f0 79 02 96 3d ec 11 64 3b d7 83 8d 3d eb 12 d4 bc
       0.0732469 0.0034800721 0.06909912 -0.025887927
000200 93 16 c2 3d 99 fb a8 3d fb 85 1b 3e 84 fd 3d bc
       0.09476962 0.082511134 0.15187828 -0.011596087
000210 2c b4 a8 bb 3b c9 ad 3d 96 c6 bd 3c 79 8a a5 bc
       -0.0051484313 0.08485647 0.023165982 -0.02020763
000220 fb 60 95 3d 79 2a 2e 3e be 35 bc bc 91 b3 d3 39
       0.07293888 0.1700839 -0.022974845 0.00040378844
000230 d5 bd 8a 3d 8b 11 2f ba 32 6d 03 3d 07 5f 26 3c
       0.06774489 -0.00066783343 0.03208656 0.010154492
000240 82 a6 85 bb bf 03 16 3b 22 9a b5 3d 75 65 00 3d
       -0.004078687 0.0022890416 0.08867289 0.031346757
000250 f4 22 03 3c aa ff ac 3c 1b a9 96 3c de c3 17 3d
       0.008003939 0.021118004 0.018391183 0.037052028
000260 ae 72 e3 bc f7 ea 59 bc 81 7b 24 3c c3 40 80 3d
       -0.027764644 -0.013300649 0.010039211 0.06262352
000270 86 14 1b 3d e2 b7 f6 3d 56 99 b9 3d 7b f0 94 3c
       0.03786137 0.120467916 0.0906245 0.018181076
000280 72 34 d1 3d 78 bf 17 bd 1e f1 ef 3d c8 68 76 3d
       0.10215081 -0.037047833 0.11715911 0.06015852
000290 ad a8 14 3c 71 74 4d 3d be 7b 73 3d f6 62 11 3d
       0.009073419 0.050159875 0.05944418 0.035494767
0002a0 d0 e8 b5 3b 62 69 3f 3c f1 07 f8 3c db 7c 42 3c
       0.005551435 0.01168284 0.030277224 0.011870588
0002b0 af bf fe 3d 4c b3 22 3d 44 c4 f7 3d 24 60 83 bb
       0.124389045 0.039721772 0.120979816 -0.0040092636
0002c0 fa 8a 1b 3d 82 2e 25 3c 22 20 05 3e 4c cc d5 3d
       0.037974335 0.010081889 0.13000539 0.10439357
0002d0 52 2a 47 3d 31 47 dc 3d b4 0f af 3d dc 23 24 3c
       0.048624344 0.10755766 0.08547917 0.010018315
0002e0 e4 fe 9b 3d b7 b1 cf 3d 74 fc 0e 3c 96 9a 2b bd
       0.07616976 0.10141318 0.008727182 -0.04189547
0002f0 c8 98 8f 3d 50 05 06 3d b8 6a b5 3d 88 c8 80 3c
       0.070115626 0.03271991 0.088582456 0.01572062
000300 d1 da 81 bc 78 ed 4f 3d 03 b3 eb bb da 55 bc 3d
       -0.01585141 0.050763577 -0.0071929707 0.091960624
000310 24 e8 ce 3d 79 fe d9 bc 79 9a a9 3c 6b 2b 79 3d
       0.10102871 -0.0266106 0.020703541 0.060832422
000320 a7 e9 d1 3d 61 6e d1 3d 6c 0e 77 3d 40 7c 4c 3b
       0.10249644 0.10226131 0.06031649 0.0031201988
000330 38 41 11 3e d8 3a 7c 3d 5f 55 c9 bb 8c 01 0b bd
       0.14185035 0.061579555 -0.00614421 -0.033937022
000340 62 d8 78 3d 9f c8 b7 3d d7 5e e3 3d 34 8e 22 3d
       0.060753234 0.08973812 0.11102074 0.039686397
000350 06 46 57 3d 19 09 15 bb eb f9 64 bd ea b8 ff 3c
       0.052557014 -0.0022741018 -0.055902403 0.031216104
000360 1e 60 53 3d 56 aa 61 3d 35 12 17 3d 91 3a e0 3c
       0.051605336 0.055094086 0.036882598 0.027371677
000370 cb 04 57 bc b4 fb c9 3c 20 96 8b 3d b6 32 47 3d
       -0.013123701 0.024656154 0.068157434 0.048632346
000380 e0 35 3b 3d c6 98 b7 3d 27 ad 46 3d 12 3b 11 bc
       0.045705676 0.08964686 0.048504975 -0.008864181
000390 64 8d 2b 3e 98 c4 90 bc 48 42 b8 bc 50 cc 3b 3d
       0.16753155 -0.017671868 -0.022492543 0.045849144
0003a0 5a fd 30 3e c4 8d 87 bd 72 cd ff 3c d9 b5 23 bc
       0.17284146 -0.066188365 0.031225894 -0.009992086
0003b0 5f 4f f8 3c 2d 41 bf 3d 13 d5 aa 3d c6 c8 83 3d
       0.030311285 0.09338603 0.08341422 0.06434779
0003c0 94 56 86 3d 41 9d 1e 3e c5 d4 1f 3e 9a 0d b8 bc
       0.06559482 0.15489675 0.15608509 -0.022467423
0003d0 d5 5b ad 3d 32 01 09 3c 4b 44 a6 3c 00 e4 95 3d
       0.08464781 0.008362101 0.020296237 0.07318878
0003e0 d4 87 13 3d d3 4a 51 bc 3c 6c 67 3d 1c 8d 6f bc
       0.036018208 -0.012774187 0.056499705 -0.014621045
0003f0 04 33 cd 3d 26 e9 aa 3c e6 7b 1d 3e 86 e9 94 3b
       0.10019496 0.020863127 0.15379295 0.0045444397

fc2.bias f4 [128]
000000 13 6b c0 3c 4c c0 e3 bb 9f 49 5a 3d e8 51 fb 3c
       0.023488557 -0.006950414 0.053292867 0.030678704
000010 d5 98 9b bd 9c d6 19 bd 3f ff 84 bd 33 15 91 3d
       -0.0759751 -0.037558183 -0.06493997 0.070841216
000020 19 47 c7 bc f6 08 94 bc 73 b6 49 3d a9 7e 31 bd
       -0.024325894 -0.01807068 0.049246263 -0.043333683
000030 5a 3e 08 3d 93 a4 0d 3d 59 86 71 3e 46 8d 26 3d
       0.033262588 0.03458078 0.23586406 0.040662073
000040 f8 bc 2b bc e3 79 5d bd d6 e3 41 3c c6 60 c4 3d
       -0.010482065 -0.05407132 0.0118341055 0.095887706
000050 e5 d1 94 bd a2 0c c7 bb 55 bd a8 bc b4 1f 58 3d
       -0.07266597 -0.006074504 -0.020598093 0.05276461
000060 12 68 df 3c 34 84 57 3d 7a c6 44 3e 4c 23 62 3d
       0.027271304 0.052616313 0.19216338 0.055209443
000070 63 d3 f0 3b 8d a7 28 3e 1c 27 a7 bd a8 f0 7e bd
       0.007349418 0.16470166 -0.081617564 -0.062241226
000080 ad e3 43 3d b5 cd 16 bc 9d bb 81 3d 4a fc dc bd
       0.04782455 -0.009204318 0.063346125 -0.10790308
000090 cc 95 da 3c d1 38 e5 3d fc 6c a6 3e fd 16 b1 3c
       0.026682757 0.111924775 0.32505023 0.021617407
0000a0 03 d4 09 bd 69 c5 1d 3e 05 bd 07 3c 37 75 cc bd
       -0.033649456 0.15407337 0.008284812 -0.099832945
0000b0 8d cc 48 3e d9 d1 54 bc 3f 30 d7 bb f7 04 3b 3d
       0.1960928 -0.012989485 -0.0065670307 0.04565903
0000c0 3f 2a 3d 3d 58 c1 30 bd 1b d2 68 3e d3 25 22 bd
       0.046182867 -0.043153137 0.22736399 -0.039586853
0000d0 20 4a 07 bc f1 25 78 bd 88 e1 1a 3d 94 92 a3 3d
       -0.008257419 -0.06058306 0.03781274 0.07986942
0000e0 62 a2 13 bd ce ca f2 3c 01 4c 16 bb 07 16 ce 3c
       -0.036043532 0.02963772 -0.0022933485 0.025156988
0000f0 dc 5e 39 3d b6 ed 78 3d 5b dc 55 3d b5 a7 07 3e
       0.04525648 0.060773574 0.0522121 0.13247569
000100 07 d1 b0 3c 48 56 12 3e cc 1b 14 3e cd 81 d8 bd
       0.021584047 0.14290726 0.14463729 -0.105716325
000110 f6 6a 70 3e c9 0e aa 3b c1 9e 25 3e 56 2d 4d 3d
       0.23478302 0.005189751 0.16173841 0.050092064
000120 9d a7 87 bd f8 a7 b1 3e c0 da e5 bc 45 06 3d bd
       -0.066237666 0.34698462 -0.02805841 -0.046148557
000130 b5 cb 0c 3d 47 45 de bd e9 8d 03 bc e4 8a 80 3c
       0.034373958 -0.10853057 -0.0080294395 0.015691228
000140 a7 be 9c 3d 31 a0 3b 3d 7c a2 2e 3d 8c ff eb ba
       0.076535515 0.045807067 0.042635426 -0.0018005236
000150 b2 2e b7 bd 57 c6 1a 3b f3 c9 8b 3e b3 1d c6 3d
       -0.08944453 0.0023616755 0.27302513 0.096736334
000160 82 7b 76 bc 24 8f 5a be 22 b5 2b be 30 4a bd bd
       -0.015044095 -0.21343666 -0.16768315 -0.09242666
000170 5f 23 ff 3b 46 7e 9d bd b7 1c 5c bd a8 23 40 bd
       0.007786199 -0.076901 -0.053738322 -0.046909004
000180 1a 64 9b bd 9b a2 44 3e 19 5f 0e 3d 79 0b 13 bd
       -0.07587452 0.19202654 0.03475866 -0.035899613
000190 d9 3c 8d bd 01 c0 21 3c 80 f2 87 3d c6 14 96 bd
       -0.068963714 0.009872437 0.0663805 -0.07328181
0001a0 72 66 64 3d de 41 df bc 4d 64 f5 3c 8e dd 9e bd
       0.055761762 -0.027253088 0.029955054 -0.07757102
0001b0 61 db 98 bc 64 f1 6c bd b1 e9 7c 3d 7e 5d 54 bc
       -0.018659296 -0.057847396 0.061746303 -0.012961743
0001c0 8d 21 0b bc 58 0b 2a bc 1c 37 24 be 7a 85 90 bd
       -0.008491886 -0.010378681 -0.16036648 -0.07056709
0001d0 03 b9 12 3d b2 45 af bc 69 d9 5c 3d 67 72 86 bc
       0.035820972 -0.021395538 0.053918276 -0.016411973
0001e0 d1 ab 44 bc ec e1 81 3c 58 bd 67 bc b5 b2 ce bc
       -0.012003855 0.015854798 -0.014144264 -0.025231699
0001f0 7d 6c 7f 3d bc 1c 4a 3d aa aa c6 bd 87 02 1b bd
       0.06235932 0.04934381 -0.0970052 -0.037844207

fc3.weight f4 [64, 128]
000000 80 ad af bd fb c2 ea bd ef 94 b9 3c cb f1 e5 bc
       -0.085780144 -0.11462971 0.022654025 -0.028069397
000010 a0 a4 06 3d ac bb 73 bd eb 0b 9f 3c b4 3b de bd
       0.032871842 -0.05950515 0.019414863 -0.10851231
000020 17 ca 0d 3d 3b ab b6 bd b9 ef f7 3c 8e f7 45 bd
       0.034616556 -0.08919378 0.030265676 -0.04833179
000030 11 36 cc 3c 50 5e 67 bd 1e 93 56 3c 4f c6 41 3c
       0.024928125 -0.056486428 0.013096599 0.011827066
000040 5d f5 b9 bd a7 ab ad bd 85 46 57 bd 10 d6 7c bd
       -0.090800025 -0.08480006 -0.052557487 -0.061727583
000050 1a 3e 47 bd 13 a3 f6 bd d6 d1 dc bd 50 82 6f bc
       -0.04864321 -0.12042823 -0.107822105 -0.014618471
000060 09 80 74 bb 2d 12 af bd 50 fc 7b bd 72 20 29 3d
       -0.003730776 -0.08548389 -0.06151992 0.041290708
000070 03 66 c1 bc ca cf 8b 3c f2 15 b1 bc 0b 8c 1f bd
       -0.023608213 0.017066855 -0.02161691 -0.038951915
000080 57 a7 11 3d 42 f4 e9 3b d6 0f 1b bc db b8 1e 3d
       0.03555998 0.0071397135 -0.009464225 0.03875051
000090 7f 8c 84 3d 43 95 05 3c 0e 60 ac bd b3 68 fe bc
       0.0647211 0.008153263 -0.084167585 -0.031055784
0000a0 9b 92 d2 bd fa 44 d3 bd 15 00 fc bd 43 52 3f 3d
       -0.10281869 -0.103158906 -0.12304703 0.04670931
0000b0 b8 67 9c 3c 03 94 f3 bc b9 03 e0 ba 10 42 47 bd
       0.019092426 -0.029733663 -0.0017090953 -0.048646986
0000c0 1c 62 c3 bd d2 4d 43 3d 8e 41 70 bd 62 3a b2 bd
       -0.09540197 0.047681637 -0.058656268 -0.08702542
0000d0 17 7c 53 3d 7c f2 e2 3b 2a d0 3d 3d ce 69 3c 3d
       0.051632013 0.006925879 0.0463411 0.04599934
0000e0 02 72 85 3d bb 32 13 bc 01 90 16 3d 45 4e 6e bd
       0.06515886 -0.008984263 0.036758427 -0.058180112
0000f0 30 5f 0b 3b 39 48 34 3d f1 df 05 bd bd 60 d7 bd
       0.0021266453 0.04401419 -0.03268427 -0.10516498
000100 ad 0b 10 3d 82 6c c6 3c 01 28 09 bb 47 a0 9a bd
       0.035167385 0.024221662 -0.0020928385 -0.07550102
000110 41 22 b3 3c 82 05 82 bd ce 0a b3 3c cd 6d d0 bd
       0.02186692 -0.06348707 0.021855738 -0.10177193
000120 27 15 9d 3c 92 14 45 bd aa fd c6 bd 0a 48 11 bc
       0.019175125 -0.04811532 -0.09716351 -0.008867273
000130 c2 14 79 bd 45 f1 10 bd ec 14 43 3b 31 ce 5b bd
       -0.06081081 -0.035386343 0.002976711 -0.053663436
000140 e5 8d e6 bd 83 ce ef bd 16 b3 2b 3d 85 05 a3 bd
       -0.11257533 -0.11709311 0.041918837 -0.07960037
000150 fb a6 87 bd a5 6f a4 bc d4 5d 50 3d e8 a3 d9 3c
       -0.06623646 -0.020072768 0.05087073 0.026567414
000160 33 67 03 3d 5f 3b ff 3c 97 b4 72 bd 88 01 74 bd
       0.03208084 0.03115624 -0.059254255 -0.059571773
000170 09 aa a3 bc 46 36 ca bd c8 4f c4 bd 4f 54 bb bc
       -0.01997854 -0.09873633 -0.095855296 -0.02286735
000180 0a 96 27 bd 22 5c 07 bb 75 d0 90 bd 8f 45 1d 3d
       -0.040914573 -0.002065428 -0.0707101 0.038396414
000190 a6 ef fa bd 60 b3 b2 bd 93 fe 4b 3b 7a 14 34 3d
       -0.122527406 -0.08725619 0.003112708 0.04396484
0001a0 ff f8 5a bd 73 0c a2 bd f7 87 96 bc 7c 08 ec bd
       -0.053460117 -0.07912531 -0.01837538 -0.11525056
0001b0 92 d4 3c 3d f1 e7 01 3d 84 79 ba bd 54 2e 8c bd
       0.04610116 0.031715337 -0.091052085 -0.06844774
0001c0 39 33 08 bc ba e3 8f bc be bb f5 3c 3c 18 27 3d
       -0.008312994 -0.017564643 0.029996749 0.040794596
0001d0 4d b0 37 bd a6 29 2b bd 6d 74 8d 3c f1 bc 82 bc
       -0.044845868 -0.041787766 0.01726743 -0.015959235
0001e0 ed 05 a0 3c 7b 94 98 ba 44 73 9c bc ee f6 05 3d
       0.019534076 -0.001164093 -0.019097932 0.032706194
0001f0 42 14 2f bd 89 42 f9 bd 97 4e 2a 3c 31 2f f0 bd
       -0.04274393 -0.12170894 0.010394714 -0.11727751
000200 36 ad d7 bc 93 96 04 3e d6 85 0e 3e 2a 8a 0b 3d
       -0.02632771 0.12948065 0.13918242 0.03406731
000210 8f 3e e8 3d 2a 47 99 3d 39 7b bb 3d 03 a3 09 3e
       0.11340057 0.074842766 0.09154362 0.1344109
000220 8d 64 74 bc f5 54 b0 3d 47 15 3d 3d 6f 5a 10 3e
       -0.014916551 0.08609954 0.04616287 0.14096998
000230 3b 6d 81 3d b3 02 be 3d 85 f4 ea be 58 ef 3d 3c
       0.06319662 0.092778586 -0.4588968 0.0115927085
000240 24 cf ef 3d 18 cc f1 3d e9 13 07 3e ec 2f a5 be
       0.11709431 0.11806506 0.13191189 -0.32263124
000250 5d dc cb bc f8 ca 0c 3e a4 86 9e 3d a8 2d 3a 3d
       -0.02488535 0.13749301 0.077405244 0.045453697
000260 41 fe 16 3d d4 18 8c 3d 4f cb 51 bf 64 14 9a bb
       0.03686357 0.06840673 -0.8195085 -0.004702138
000270 ce 08 85 3d de 4b 0f bf 7f ec 37 3d 7f 3d 53 3d
       0.0649582 -0.5597514 0.044903275 0.05157232
000280 92 55 bf be 5d 87 0d 3e 51 07 dc 3d a6 76 3c be
       -0.37369972 0.13821168 0.10743583 -0.18404636
000290 47 4f 43 bc 8a 5b 99 be 4b 6c da be 56 b8 96 3d
       -0.011920757 -0.2995265 -0.42660746 0.07359378
0002a0 cc 05 10 3e 9d 22 a5 be a2 20 11 3e 79 f2 59 3d
       0.14064711 -0.3225297 0.14172605 0.053209756
0002b0 60 5b d7 be 0b 49 95 bc d9 35 22 3d b7 cf dc 3d
       -0.420619 -0.018223306 0.039602134 0.10781806
0002c0 64 69 c0 3d 65 74 11 3e 78 e4 7e 3e 4c 18 10 3b
       0.09395102 0.14204557 0.24891841 0.0021987138
0002d0 4b 55 d1 bc f6 1b 15 be 01 2d 0c 3d c9 3a d3 3c
       -0.025553366 -0.14561448 0.034222607 0.025784867
0002e0 78 74 08 bd 3b 9b d5 3d a8 ed 9c 3d 93 41 d3 3d
       -0.0333142 0.104299985 0.07662517 0.10315242
0002f0 fd ee fb 3d 0c 43 e2 3d bb e7 1b 3e f3 4d e9 3e
       0.12301443 0.110479444 0.15225117 0.45567283
000300 fd 90 4c 3d 36 63 bb be 77 3f c2 be e6 08 87 bd
       0.04994296 -0.3659913 -0.37939045 -0.06593494
000310 dc f0 82 be b6 b6 bf 3c 9e 42 d0 be 8c 98 ee 3c
       -0.25574386 0.023402553 -0.40675825 0.029125474
000320 de 97 e6 3d 50 95 9d be eb 7a dd 3d d6 a3 ef 3c
       0.11259435 -0.3077798 0.1081446 0.029252928
000330 0f 8b 6e 3c 57 af b3 3d a2 f4 ea 3d a1 71 ee 3d
       0.014559521 0.08773678 0.11472441 0.11642767
000340 52 fe 36 3d 90 67 36 3d a5 98 67 3c 76 fa b8 3d
       0.044676133 0.04453236 0.014135514 0.09032147
000350 53 db c8 bd 12 08 35 3c 13 88 04 bf 12 03 b0 be
       -0.09807458 0.011049287 -0.5177013 -0.34377342
000360 91 83 c8 3d de f4 09 3e ce bb a9 3c f1 e5 a8 bc
       0.09790719 0.13472316 0.020719435 -0.020617457
000370 29 b1 8d 3d 4d 2f a3 3c ce 13 c1 bc 72 15 a7 3d
       0.06918556 0.019920016 -0.023569014 0.08158387
000380 7f 16 ec 3d 5d e6 fc be d9 be 07 3c cc 41 54 bd
       0.11527728 -0.49394503 0.008285248 -0.05182056
000390 e6 b4 a1 3d 4f a6 8e 3d 38 64 fd 3d 64 e2 d5 3d
       0.07895832 0.069653146 0.12372631 0.10443571
0003a0 08 01 07 3e 88 ae f6 3d bf f5 fc 3d e8 9e 18 3e
       0.13183987 0.12045008 0.1235156 0.14904368
0003b0 78 d6 3a 3d f3 e6 4a 3d a1 97 5e 3c e1 44 bd 38
       0.04561469 0.049536657 0.013585956 9.025052e-05
0003c0 3d d2 7d 3d fb 5a ae 3d ad 00 5c 3d 64 4b fc 3d
       0.061968077 0.08513447 0.053711582 0.12319067
0003d0 fe ca 23 3d 37 88 6c 3d e8 12 bd 3d 3a d6 a9 bb
       0.03998851 0.057747092 0.09232122 -0.0051830085
0003e0 4c 8b bb 3b dc 8c 72 bc 66 57 0e 3e 1f fa 8c 3d
       0.0057233926 -0.014804091 0.13900527 0.06883644
0003f0 49 38 62 3d b3 ca 40 bb 1f 22 fb 3d 6d f2 1a 3c
       0.05522946 -0.0029417693 0.122623675 0.009457213

fc3.bias f4 [64]
000000 f6 00 18 3d 45 f9 d3 3d f2 f9 0e 3e 70 76 54 bd
       0.03711029 0.10350279 0.13962534 -0.051870763
000010 3a b6 65 3d 7e 6b 02 3e f9 ac c2 bd 46 22 db 3d
       0.056081988 0.12736318 -0.09505648 0.106998965
000020 6f 30 19 3e a9 67 ee bc bd 27 2d 3e 16 e8 94 3d
       0.14959882 -0.029102163 0.1690969 0.072708294
000030 11 4c b5 3b 47 40 42 3d 04 e8 68 bd c7 68 09 3e
       0.0055327495 0.04742458 -0.056861892 0.13418876
000040 34 d7 11 3e 46 b9 86 3d 6b db e0 3c a8 ee 9a bc
       0.1424225 0.06578307 0.027448377 -0.018912628
000050 58 e2 13 3e 80 69 05 3e 86 b1 fe bc bf 73 11 3e
       0.14441812 0.13028526 -0.03109051 0.1420431
000060 62 e0 df 3d 1d bd 14 3d 52 22 9b 3c 23 23 05 bc
       0.109314695 0.036313165 0.018937264 -0.008126053
000070 68 0f a7 bd 42 e6 4b 3e 92 4e a6 3d fa 6e 00 3d
       -0.081572354 0.19912055 0.08120455 0.031355835
000080 08 a0 80 3c b7 f0 39 bd 21 69 39 3e 78 89 2d 3e
       0.015701309 -0.04539558 0.1810651 0.16946971
000090 61 a8 a2 bd 85 d3 87 bd 47 2b 00 3e 39 a6 dd 3d
       -0.07942272 -0.06632141 0.12516509 0.1082272
0000a0 10 c1 96 3d 35 57 3f 3d 02 3f 12 3e 46 05 96 bd
       0.073610425 0.046714026 0.14281848 -0.073252246
0000b0 51 c4 a3 3d a2 ea 86 3c e6 a2 b0 bd 96 ea 6d bd
       0.07996429 0.016469304 -0.086248204 -0.058085047
0000c0 2c 7c 9d bd 55 cf 11 3e cc ca 28 3d da 1f 2b 3e
       -0.076896995 0.14239247 0.041209027 0.16711369
0000d0 94 66 db 3c 76 4e f5 bc c4 a0 46 bb 36 13 2f bd
       0.026782311 -0.02994464 -0.0030308226 -0.04274293
0000e0 16 6f 43 3c fe 8e b9 3c cb e4 61 bd a7 d0 49 3e
       0.01192834 0.022651192 -0.055149835 0.19708501
0000f0 60 fd 17 3e f8 25 9c 3d eb 9d f6 3d c0 bc 17 bd
       0.14842749 0.076244295 0.12041839 -0.03704524

fc4.weight f4 [1, 64]
000000 3d 38 c5 bd a4 90 06 3e 72 4e 56 3d 8b c7 b2 bd
       -0.09629867 0.13141114 0.052320905 -0.08729466
000010 a8 88 1e 3e e8 69 28 3e ea a9 76 bd e1 ce 16 3e
       0.15481818 0.1644665 -0.060220636 0.14727356
000020 ac 16 09 3e a6 40 8b bc 6d 31 e3 3d f4 4c 20 3e
       0.13387555 -0.0169986 0.110934116 0.15654355
000030 5e 72 5d bd d1 11 21 3e ad a2 e9 bd 6b 7b c4 3d
       -0.054064147 0.15729453 -0.11407981 0.095938526
000040 06 54 f6 3d a7 d7 d7 3d 2d f3 da bd f4 b3 bb bd
       0.12027745 0.10539179 -0.10690913 -0.09165183
000050 32 45 8c 3d 61 a0 1e 3e 37 92 ce bd 9a ce 06 3e
       0.068491355 0.15490867 -0.10086482 0.1316475
000060 79 5e 0d 3e a4 ae a2 3d 32 83 bb bd 3a a1 57 bd
       0.1380557 0.07943466 -0.09155883 -0.052643992
000070 9c 4b 70 bd 33 01 fa 3d 84 73 2a 3e 6b 1f 2a 3e
       -0.058665857 0.1220726 0.16645628 0.16613548
000080 c2 ba 85 3d a3 9a d1 3a 32 dd 0b 3e f8 ab 2b 3e
       0.06529762 0.001599152 0.13658598 0.1676482
000090 ca 12 31 bd 2d 52 1f bd 1a 31 1f 3e 12 16 95 3d
       -0.04323081 -0.03889673 0.15546075 0.072796
0000a0 35 92 c8 bc 21 b4 03 3d ac 51 08 3e 1f fd 08 3a
       -0.02448378 0.032154206 0.13312405 0.0005225706
0000b0 5d b4 fd 3d 45 2f ce bd 29 69 98 bd c1 2f 5a bc
       0.12387917 -0.1006761 -0.07441933 -0.0133170495
0000c0 c5 3a 5f bd 23 1c 87 3d 54 49 94 bd 60 81 ec 3d
       -0.054499406 0.065971635 -0.07240549 0.11548114
0000d0 8f 95 08 bd 49 af 2f 3d 91 60 79 bd 40 95 2c bd
       -0.033345755 0.042891774 -0.06088311 -0.042134523
0000e0 9e 48 ac bd fc 29 07 bb 02 c0 c7 bd 90 b4 12 3e
       -0.08412288 -0.002062439 -0.097534195 0.14326692
0000f0 5b 49 cd 3d 9c 4e 16 3e 8f 69 16 3e 25 69 20 3d
       0.10023757 0.14678425 0.14688705 0.039162774
