Radiomics_local_global_framework/models/Stochastic Gates_feature_selection/Neural_Network/global_flair_t1ce_t2___local_flair_t1ce/model.pt (torch, 217268 bytes, 5 tensors)

fc1.weight f4 [100, 485]
000000 33 ff a8 bb 91 71 1f bd 31 bb a9 3d 86 8f 0e 3e
       -0.0051573752 -0.038926665 0.08287657 0.13921937
000010 a7 29 12 3e 62 49 56 3d c9 d5 a5 bd c8 04 e3 bd
       0.14273702 0.052316077 -0.08097417 -0.11084896
000020 cb ca 6f bd 56 01 f4 bd e1 59 17 be 3b 5d 56 3d
       -0.058543008 -0.11914317 -0.1478038 0.052335005
000030 f1 87 91 3b df 39 d5 bd 9a 1b e3 3d 10 89 9f 3c
       0.0044412543 -0.10411429 0.11089249 0.019474536
000040 a4 2f 61 3d cb 1d 8a 3d 03 eb a4 bd c0 38 2b bb
       0.054977074 0.06743964 -0.080526374 -0.0026126355
000050 81 b6 f2 3d 65 9c 21 bd 45 9b f9 3d d5 a9 87 3d
       0.11851216 -0.03945579 0.121878184 0.0662419
000060 60 58 9e 3c 14 31 32 be 1f f2 cf 3a 89 12 f8 bd
       0.01932925 -0.17401534 0.0015865004 -0.1211291
000070 8b 18 28 be c9 8e 4e 3e 59 18 ea bc 6a b4 0c 3d
       -0.16415612 0.20171656 -0.028576063 0.034351744
000080 68 17 07 3e 39 70 d0 3a 16 35 cd 3c eb 2a a7 3d
       0.13192523 0.0015902586 0.025049727 0.08162483
000090 a6 da 34 bd 8f b1 82 bd 75 89 94 bc eb f6 27 bd
       -0.044153832 -0.06381523 -0.01813195 -0.041006964
0000a0 4a c9 81 bd ad ea e7 3d 39 82 2c 3e f2 3c 0d 3e
       -0.06337221 0.11324058 0.16846551 0.1379278
0000b0 20 d4 17 3e b4 d3 8e 3d 72 b7 b0 3d 4c b7 4e 3d
       0.14827013 0.06973973 0.086287394 0.050467774
0000c0 b1 42 86 bd a2 d1 04 be ae 57 7b 3d 58 18 7a 3d
       -0.06555689 -0.12970594 0.061362915 0.061058372
0000d0 d8 6e 95 3d 71 88 a9 bd f8 ae b5 3d c6 21 c8 3d
       0.072965324 -0.08277977 0.08871263 0.09772067
0000e0 d0 5e 23 bd 0a bc 2a 3e 0a 21 64 3e ee b2 d4 bc
       -0.039885342 0.16673294 0.22278228 -0.025964227
0000f0 5c bc bf bc 1f 62 a1 bd 24 29 dc bd d9 90 3d 3c
       -0.023405246 -0.07880043 -0.107500345 0.011570179
000100 ac b4 95 be a3 2b c4 3d eb fa cc bd 06 3d 98 bd
       -0.29239404 0.095786355 -0.10008796 -0.07433514
000110 e6 81 fa bd 32 de 8e 3d 01 16 96 bd f4 ba 81 bc
       -0.122318074 0.06975974 -0.07328416 -0.015836217
000120 bc b9 39 bd c7 04 15 be c6 6e 14 be bd 64 7a 3d
       -0.045343146 -0.14552604 -0.14495382 0.061131228
000130 df 9e ac bd 4c 5c 71 3e 36 95 17 be 2f 38 54 3e
       -0.0842874 0.23570365 -0.14803013 0.20724557
000140 a9 01 21 be f0 ff 0e 3d 16 53 62 3d 37 90 3b 3d
       -0.1572329 0.03491205 0.05525502 0.04579183
000150 0c b4 12 bd 80 06 a4 3b 25 1a 14 3e bf 48 29 3d
       -0.035816237 0.0050056577 0.14463098 0.04132914
000160 a1 05 eb 3c 0e 86 1d 3c 81 a4 32 bb ba 34 32 ba
       0.028689208 0.009614481 -0.0027258697 -0.0006798018
000170 9d 62 ab bc 93 4d 3a bd 16 39 18 bd 98 e6 cc 3d
       -0.020921046 -0.045484137 -0.037163816 0.1000492
000180 dc 16 f7 3c f7 7c 13 3c 84 c4 f2 bc cb f0 4b 3c
       0.030162267 0.009001962 -0.029634722 0.012447546
000190 ca 9a b1 3d d2 79 c2 3c f1 a0 18 3d 48 b4 37 3c
       0.08672102 0.02373973 0.03726286 0.011212416
0001a0 a0 e5 c1 3d 30 31 3f bc 1a 46 12 3d 9c 62 83 3d
       0.094676256 -0.011669442 0.035711385 0.064152926
0001b0 ae 08 15 be d7 25 8f 3c b0 d6 95 3c 21 2e ba 3d
       -0.14554092 0.017474098 0.018290848 0.0909083
0001c0 92 51 3e bd 51 9d 1b bc ff b8 42 3d fe b0 b6 3b
       -0.04646451 -0.009497956 0.047539707 0.0055752983
0001d0 15 dd 98 bd 3c ee 3e 3c 23 ce 2d 3d 4f 8d 45 bd
       -0.07464043 0.011653479 0.042432915 -0.048230466
0001e0 e9 82 7a 3d c8 35 8d bd 78 20 05 3d 67 e3 47 bc
       0.061160002 -0.068950236 0.032501668 -0.012200213
0001f0 d6 42 92 3d aa c0 9c 39 0b fd 46 bc 07 c9 f3 3c
       0.07141654 0.00029898185 -0.012145291 0.029758943
000200 db 9c 60 3e 8a 39 32 3d 9a b4 8c bc 4d 83 25 3e
       0.21934836 0.043511905 -0.017175961 0.16163369
000210 fd af 57 3d d3 5d a1 3c 02 e7 aa bd 79 ed 22 3d
       0.05265807 0.01969806 -0.083448425 0.039777253
000220 b0 24 ac bd 5e 80 0d 3e ce 21 cf 3d bd 7c 6c 3d
       -0.08405435 0.138185 0.101138696 0.057736147
000230 f6 97 c7 bc c7 76 99 bb 17 5f 09 be fa 2c c4 3d
       -0.024364453 -0.004683349 -0.1341518 0.09578891
000240 a5 f7 14 bd ec b1 5f 3c 49 16 6d ba ba ed a7 bc
       -0.036368985 0.01365326 -0.0009044153 -0.020499099
000250 47 74 42 3e 8a 72 b4 3d 0a c2 98 bc 99 11 72 3d
       0.18989669 0.08810909 -0.018647213 0.059098814
000260 48 1a 1c 3e cc 43 90 bc a7 40 d1 3d 16 f1 24 3d
       0.152444 -0.017610453 0.102174096 0.04026898
000270 10 67 14 bd 46 01 a8 bd 33 23 8c 3d bd dd 03 3d
       -0.0362311 -0.08203368 0.06842651 0.032193888
000280 4f 67 b6 bd a5 b6 9c 3d 7d a1 bd bc c5 e2 1f 3e
       -0.08906423 0.07652024 -0.023148293 0.1561385
000290 38 4c 9e 3c 28 6b 07 3d 41 d8 ab be e6 c1 31 3d
       0.019323453 0.033061177 -0.33563426 0.043397807
0002a0 88 d7 bc bd 6a 2e d8 bd 45 c5 a2 bd 7e 52 27 3c
       -0.09220797 -0.10555728 -0.079477824 0.010212539
0002b0 f5 d0 55 3d 45 a4 9d 3c ca df 76 3b fa b7 0d bf
       0.05220123 0.019243369 0.003767001 -0.5535885
0002c0 1d fc 65 bc 4e 5a 91 3d 6e fc bf 3c c7 68 d9 bd
       -0.014037159 0.070973024 0.023435798 -0.10615688
0002d0 3d ff 3f be 3e db 94 be 4d 7c 2c be c6 3e 98 3d
       -0.1874971 -0.2907352 -0.16844292 0.07433848
0002e0 20 2a c9 3c 19 b9 25 be 00 c8 09 3d 2d c9 0b 3e
       0.02455622 -0.1618389 0.033638 0.13650961
0002f0 87 45 56 be 84 ac 4e 3d 3c 09 c1 bd 75 3b be be
       -0.2092496 0.050457492 -0.094255894 -0.37154737
000300 88 40 80 be b6 a2 66 3e c3 fe 58 3d e1 9e 1a be
       -0.25049233 0.22523007 0.052977335 -0.1509967
000310 3d ab bf 3c 17 d7 7d be 9d d0 8a be df 39 d1 3d
       0.023397082 -0.24789082 -0.27112284 0.10216116
000320 e0 25 9d bc 1a 44 1a be 95 27 65 be 4d 33 3e bd
       -0.0191831 -0.15065041 -0.2237838 -0.046435643
000330 2d 2b 17 be 98 b4 83 be c1 d1 d1 bb e4 d4 42 bc
       -0.14762564 -0.2572372 -0.0064031784 -0.011891577
000340 3b 07 8b bd 3f da db 3d 4b 75 14 bb 8d ac a2 3d
       -0.067884885 0.107349865 -0.002265292 0.07943068
000350 c9 8e 88 3d 33 76 3b 3d 0a c2 3c bd f9 54 e4 3d
       0.06667859 0.04576702 -0.046083488 0.1114902
000360 81 dd e2 3d 88 0c fb be 65 fb 79 bc a2 5c d0 bd
       0.11077405 -0.49032998 -0.015257691 -0.10173918
000370 cc 4c a1 bc 55 f7 fd bd a7 eb fc 3d f3 40 76 bd
       -0.01968994 -0.124006905 0.123496346 -0.060120534
000380 e4 6f ce 3d 88 7f 2b be 39 33 bf 3d 0a e8 f4 bd
       0.10079935 -0.16747868 0.09335942 -0.119583204
000390 aa aa 72 3d 34 d3 c8 bd 1a 09 8f bd b8 d1 8e bc
       0.05924479 -0.09805909 -0.06984158 -0.017433986
0003a0 95 8f 1f 3e 61 94 ec bc 49 c6 82 bc 90 ba 87 bd
       0.15582116 -0.028879346 -0.01596369 -0.06627381
0003b0 b3 ab 28 3e d1 8b 7c be 9f 21 e7 bd 94 45 37 3e
       0.16471748 -0.2466271 -0.112857096 0.17897636
0003c0 57 38 55 bc 87 c4 39 3e 9c ae 3e 3d 99 ea 0a be
       -0.013013921 0.18141375 0.04655324 -0.13566054
0003d0 82 bf 70 be bd b3 cb bd 57 54 8a 3d b3 46 31 be
       -0.23510554 -0.09946392 0.06754368 -0.17312126
0003e0 84 8b 80 bd f8 b3 72 bc b0 b2 8e be a0 dc 1d 3d
       -0.062766105 -0.014813416 -0.27870703 0.038540483
0003f0 dd bd 57 be bb dc 41 be 68 de 73 be 02 32 57 be
       -0.21068521 -0.18931858 -0.2381531 -0.2101517

fc1.bias f4 [100]
000000 d1 37 5c be f4 b0 ea bd 36 ab a4 bd 53 9b 84 be
       -0.21505667 -0.114595324 -0.080404684 -0.25899753
000010 61 1f 50 be 3b 85 0a be 9c 9e 90 be d3 be 98 be
       -0.2032447 -0.13527386 -0.2824601 -0.29833087
000020 d4 7e 10 be 41 e0 19 be 71 b5 ba bd b9 6a df be
       -0.14110881 -0.15026952 -0.091166385 -0.4363611
000030 04 68 c2 be 34 64 35 be cc ad 80 be 01 82 a1 be
       -0.37969983 -0.17714006 -0.25132596 -0.31544498
000040 cc 5a 33 be 36 0b d3 be 7f 3b a8 be d2 a3 6c be
       -0.17515105 -0.4121949 -0.32857892 -0.23109367
000050 99 8b 84 be 46 15 dd be 3f 90 61 be 9c e3 86 be
       -0.25887755 -0.43180293 -0.22027682 -0.26345527
000060 a3 4d b0 be 99 38 28 be d0 2f a1 be 9e 03 9e be
       -0.34434232 -0.1642784 -0.3148179 -0.30862135
000070 a3 e1 3f be e1 27 74 be fd f8 ca be 62 4f bb be
       -0.18738417 -0.23843338 -0.39643088 -0.36584002
000080 00 c0 89 be d9 dd 18 be 2d 4d 88 be 2c 06 1a be
       -0.26904297 -0.14928378 -0.2662138 -0.15041417
000090 b2 30 a9 be b9 b2 63 be a5 a1 c9 be 5b b0 8d be
       -0.33044964 -0.22236146 -0.39381137 -0.2767361
0000a0 e5 f4 8a be 99 32 df bd 41 a8 82 be 48 52 e7 be
       -0.27139965 -0.108983226 -0.25518993 -0.45179963
0000b0 ee b4 8d be 94 92 e3 bd 78 18 a5 be 38 dd 14 bf
       -0.276771 -0.11111942 -0.3224523 -0.58150053
0000c0 e6 d3 4e be 61 26 a4 be e6 0e 70 be 40 f0 41 be
       -0.2019802 -0.3206053 -0.23443183 -0.18939304
0000d0 5f c3 38 bd 74 15 a5 be 15 66 e4 be 94 5f 8e be
       -0.045108195 -0.3224293 -0.44609132 -0.27807295
0000e0 56 00 ea be 01 da a4 be ec 5b 98 bc 23 8d 6a be
       -0.4570338 -0.32197574 -0.01859852 -0.22905402
0000f0 bc 45 2b be 13 2e d7 be ff 6c 07 be a8 87 e7 be
       -0.1672582 -0.4202734 -0.13225172 -0.45220685
000100 b2 e0 85 be ac 56 93 be e8 dd 86 be 52 94 5f be
       -0.2614799 -0.28777063 -0.26341176 -0.21833923
000110 1e 9b 92 be 7e 69 a6 be b1 30 be be 74 60 ab be
       -0.2863397 -0.3250236 -0.37146524 -0.33472025
000120 e0 d9 93 be be 71 f3 be a3 71 73 be 5c e7 6d be
       -0.28877163 -0.47547716 -0.23773818 -0.23232788
000130 18 b8 4f be c3 de ca be 41 ac 8c be 0e a9 d6 be
       -0.2028507 -0.3962308 -0.2747517 -0.41925853
000140 cf 4e 4b be 81 1f 95 be 47 d7 bf be fd 46 f1 be
       -0.19854282 -0.29125598 -0.3746893 -0.47124472
000150 24 67 dd bd 61 bf 44 be 33 85 bd be b4 b4 82 bd
       -0.10810688 -0.1921363 -0.37015685 -0.06382123
000160 f5 bc 82 be 75 19 40 be 8b f2 84 be 61 78 7f be
       -0.25534788 -0.18759711 -0.25966296 -0.24948265
000170 33 c0 ab be 3f 10 f8 be fc 78 37 be 3e a4 d5 bd
       -0.33545074 -0.48449895 -0.17917246 -0.10431717
000180 cc f1 48 be a3 1e 84 be 0a 16 93 be 67 46 83 be
       -0.19623488 -0.25804624 -0.28727752 -0.2563965

fc2.weight f4 [50, 100]
000000 fc 01 9b 3e cd 3f 61 3e 1d 73 76 3e 03 bd 14 3e
       0.3027495 0.21996994 0.2406735 0.14525227
000010 3f d4 01 3e a6 00 3d 3e 1a de f5 3e e3 c3 d6 3e
       0.12678622 0.18457279 0.48021013 0.41946325
000020 f0 72 aa 3e c1 97 8f 3e 51 38 55 3e 45 0a 70 3e
       0.33290815 0.28045467 0.20822264 0.23441418
000030 8c 92 82 3e f6 24 21 3e e9 0f 37 3e 66 04 82 3e
       0.2550243 0.15736756 0.17877163 0.2539398
000040 1a cd 45 3e 3b 6e 8a 3e 4d 22 db 3e 11 57 d5 3e
       0.19316521 0.27037224 0.42799607 0.4166799
000050 e0 c5 c3 3e b7 2a a4 3e 64 0c 91 3e 7e d0 8b 3e
       0.38236904 0.3206384 0.28329766 0.27307504
000060 2a fd 3c 3e 7e b2 73 3e 41 db 91 3e bd c9 98 3e
       0.1845595 0.23798558 0.2848759 0.29841414
000070 38 9e 48 3e 24 9f 09 3e fe ee 8f 3e 24 aa 9f 3e
       0.19591606 0.13439614 0.28112024 0.31184494
000080 dc 1e b0 3e d4 4e 6d 3e 5a ad 8a 3e a0 6a 28 3e
       0.34398544 0.23174602 0.27085382 0.16446924
000090 0b ff a5 3e fc 5f a3 3e c2 f4 ed 3e 6f 25 99 3e
       0.32421145 0.31909168 0.46475798 0.29911372
0000a0 4e 54 75 3e 7c c1 f3 3d 60 ae 1c 3e 98 c0 90 3e
       0.23957941 0.119021386 0.15300894 0.28271937
0000b0 3c 34 8e 3e 49 9e a4 3e 7e 54 df 3e 34 5b 01 3f
       0.27774227 0.32152012 0.4361915 0.5052979
0000c0 6d 08 8f 3e 88 55 af 3e e4 c1 5f 3e 4f 2b b1 3e
       0.27936116 0.34244943 0.21851307 0.34603354
0000d0 34 f5 32 3e 7c 1f 93 3e 30 c0 b3 3e a0 63 4e 3e
       0.1747635 0.28734958 0.35107565 0.20155191
0000e0 90 2e d3 3e 5e 28 a8 3e ed f6 b5 3e a3 d6 82 3e
       0.41246462 0.32843298 0.35539952 0.2555438
0000f0 e5 a6 3c 3e 8a 1a 60 3e ec 41 bd 3d bb b4 99 3e
       0.1842304 0.21885124 0.09241089 0.300207
000100 2d 1c a6 3e bc ce b6 3e 06 81 8b 3e 20 6f 7b 3e
       0.3244337 0.357046 0.27246875 0.2455411
000110 fc 43 b4 3e 69 08 6b 3e bd 1d 82 3e af 0b f1 3e
       0.35208118 0.22952427 0.25413314 0.47079226
000120 06 38 aa 3e 66 47 d7 3e 4b ce 96 3e 11 00 15 3e
       0.33245867 0.4204666 0.29454264 0.14550807
000130 7b 28 1d 3e 86 20 62 3e b0 a3 56 3e f9 51 85 3e
       0.15347473 0.22082719 0.2096088 0.26039103
000140 6f 96 9c 3e 81 4d 96 3e ed 09 d4 3d 31 be 02 3f
       0.30583522 0.29356006 0.10353456 0.5107146
000150 9c 8a 7e 3e b6 eb 87 3e c7 98 98 3e 9d 56 17 3e
       0.24857563 0.2654702 0.2980406 0.14779134
000160 d9 c2 90 3e eb 5e 02 3e 21 d8 56 3e 9a df ae 3e
       0.28273657 0.12731521 0.20980884 0.3415497
000170 49 69 a0 3e 5d e0 de 3e 93 a8 8c 3e 5e c9 1c 3e
       0.31330326 0.4353055 0.27472362 0.1531119
000180 d0 c5 95 3e 22 b4 93 3e f0 08 16 3f eb f7 3d 3e
       0.2925248 0.28848368 0.5860739 0.18551604
000190 96 5e 51 3e 51 3f ad 3e 11 c6 e4 3d 88 36 a0 3e
       0.20446238 0.3383737 0.11170591 0.31291604
0001a0 71 5d fe 3d af f2 f6 3d 79 5a e0 3e 4b 7a a9 3e
       0.12420166 0.12058007 0.43819025 0.33101115
0001b0 b9 31 41 3e 69 37 96 3e 85 6d 5d 3e 75 13 5e 3e
       0.18866624 0.2933915 0.2162381 0.2168711
0001c0 da a6 8e 3e 2d 66 82 3e 27 24 0e 3e b3 bb 57 3e
       0.27861673 0.2546858 0.13880979 0.21067695
0001d0 0c e4 99 3e f1 73 2f 3e 84 30 b8 3e 06 d1 80 3e
       0.30056798 0.17134072 0.35974514 0.25159472
0001e0 c4 ff 8a 3e a4 32 b1 3e eb 4b 84 3e 3d db 93 3e
       0.2714826 0.34608948 0.2583917 0.28878203
0001f0 0d 83 66 3e 95 67 06 3e 41 c1 ab 3e 47 55 b8 3e
       0.2251093 0.13125451 0.3354588 0.3600256
000200 ef 2f 43 3e b6 04 62 3e ce aa 75 3e 8c f5 99 3e
       0.19061254 0.2207211 0.23990938 0.3007015
000210 f2 e8 95 3e 9f da 88 3e 4a bd 64 3e c9 09 7c 3e
       0.29279286 0.26729295 0.22337833 0.24613108
000220 d6 24 90 3e e2 61 2d 3e 01 84 c2 3e 91 2c 1a 3e
       0.28153104 0.1693187 0.37991336 0.15056063
000230 09 84 7f 3e 81 9d 15 3e d4 99 68 3e 82 51 2e 3e
       0.24952711 0.14610864 0.22714931 0.1702328
000240 5f 15 20 3e 50 28 98 3e e8 81 c3 3e ba b5 26 3f
       0.15633152 0.29718256 0.38185048 0.6512104
000250 2b 47 61 3e 0c d0 7e 3e 0b 57 02 3e c8 79 dd 3e
       0.21999805 0.24884051 0.12728517 0.43256974
000260 89 3a 34 3e ea 9e 95 3e 66 fb a9 3e ed eb 9a 3e
       0.17600454 0.29222804 0.33199614 0.30258122
000270 b1 1f b2 3e 29 83 91 3e b1 3c 89 3e a6 57 3a 3e
       0.34789804 0.2842038 0.26804116 0.18197498
000280 26 a7 9f 3e de dc 4e 3e ad 5f e6 3d 02 53 8f 3e
       0.31182212 0.20201442 0.112487175 0.27993017
000290 dd ed 99 3e 37 b0 ab 3e a2 c1 ab 3e 89 8a 3a 3e
       0.30064288 0.3353288 0.33546168 0.1821691
0002a0 8e 8d 70 3e ef 5f 96 3e 1a 9b 9a 3e 23 f3 91 3e
       0.23491499 0.29370067 0.30196458 0.2850581
0002b0 eb 4d a3 3e 89 15 d0 3e b6 54 6c 3e 5c 97 20 3e
       0.31895384 0.4064143 0.2307919 0.15682739
0002c0 d8 e7 5b 3e 1b 22 ad 3e a4 4a 97 3e 08 98 45 3e
       0.2147516 0.33815083 0.29549134 0.19296277
0002d0 97 8e 4b 3e f0 5a 81 3e f7 72 31 3e cb 46 e8 3e
       0.19878612 0.25264692 0.17329012 0.4536651
0002e0 23 d5 86 3e 38 a5 75 3e 80 3f 3c 3e c7 44 02 3e
       0.26334485 0.23988807 0.18383598 0.12721549
0002f0 81 2a 25 3e c6 35 4e 3e cc b8 27 3e 74 42 a1 3e
       0.16129495 0.201377 0.16379088 0.31496012
000300 a5 5f 58 3e 65 82 e5 3e e8 e6 91 3e f3 5c dd 3d
       0.21130235 0.44826046 0.2849648 0.10808744
000310 a1 d0 a6 3e ba 87 8e 3e c5 2d e0 3e 48 44 41 3e
       0.32581046 0.27837926 0.4378492 0.18873703
000320 50 bd 63 be 49 09 12 3f 35 53 f8 be 00 74 c2 be
       -0.22240186 0.5704542 -0.48500982 -0.37979126
000330 f6 e8 46 be 8e 45 ef be 3b 41 8e 3e 4a 22 cd 3e
       -0.19424805 -0.46732754 0.27784142 0.40065223
000340 da eb c1 3d 04 cc b7 3e f6 ca 6f be 48 3b 5d bc
       0.09468813 0.3589784 -0.23417267 -0.013502903
000350 10 74 80 3e 94 c4 c7 bd 35 92 a1 be b3 38 90 bd
       0.2508855 -0.09754291 -0.3155686 -0.070420645
000360 33 88 1f be 69 29 8c be 4f d2 87 3e 77 2f f9 3e
       -0.155793 -0.27375343 0.2652764 0.48669025
000370 94 76 a5 be 1d 2d 27 bd 34 df 50 be 91 8a 75 be
       -0.3231703 -0.040814508 -0.20397645 -0.2397864
000380 ef 6d 3a bc 91 2b b0 be 82 e3 d1 3e 69 9a 98 be
       -0.011378749 -0.3440824 0.40993887 -0.29805306
000390 3e 9e 7f be c6 b6 d5 be 8c 49 67 3e cf dc 55 bf
       -0.24962708 -0.41741008 0.2258665 -0.8354005
0003a0 43 c2 94 bd 5f 9c 57 be 3b 49 16 bf 3c 64 a2 be
       -0.07263615 -0.21055745 -0.5870549 -0.31717098
0003b0 f4 3c 97 be e9 bc 9d bd f8 00 6f 3e f7 5c 47 be
       -0.2953869 -0.077020474 0.23340213 -0.19469057
0003c0 78 5e 4a be 22 f8 ef be 09 4d cb be 9d f5 1a be
       -0.197626 -0.46868998 -0.3970721 -0.15132757
0003d0 6d 3c e7 bd c5 4c ca be ae d9 f7 bd a2 aa f0 bd
       -0.11290822 -0.39511696 -0.12102066 -0.117512956
0003e0 a6 de 31 be 59 41 f6 bd c4 74 91 be 34 25 01 3f
       -0.1737009 -0.12024183 -0.28409398 0.5044739
0003f0 e9 70 da be a5 40 9d be 96 99 00 3d 66 38 69 be
       -0.4266427 -0.30713382 0.03139647 -0.2277542

fc2.bias f4 [50]
000000 2c 58 bd be 83 61 95 be bf ce 2b 3f 52 5b 87 be
       -0.36981332 -0.29175958 0.67112345 -0.2643686
000010 14 00 b5 be 14 23 8b 3f 48 b8 ab be 26 43 bb be
       -0.35351622 1.087008 -0.33539033 -0.36574668
000020 1f 4f 65 3f c9 35 81 3f 8c 94 c5 be 9a 12 7b be
       0.89573854 1.0094539 -0.38589895 -0.24518815
000030 b9 0e 97 be ab 49 88 3f 83 50 b9 be 95 49 1e 3f
       -0.2950342 1.0647482 -0.36194238 0.6183103
000040 32 29 54 3f be 1a 26 3f 04 f7 cf be e8 8c c3 be
       0.8287536 0.64884555 -0.40618145 -0.3819344
000050 79 cf 91 be 66 ed 3c 3f f7 8d 23 bf 7a 4e cd be
       -0.28478602 0.7379974 -0.63888496 -0.40098935
000060 e8 1e b8 be 85 80 8b 3f 55 84 6d 3f 9f 34 86 3f
       -0.3596108 1.0898596 0.9278005 1.0484809
000070 c3 0e 9d be 40 e8 44 3f 93 7a c5 be a8 12 8e be
       -0.30675325 0.76916885 -0.3857008 -0.2774861
000080 8a bf 4d 3f ac da be be 15 84 1a 3f e9 80 03 bf
       0.8037039 -0.37276208 0.6035779 -0.51368576
000090 28 75 56 3f 93 9c 97 3f 11 9d 01 bf 93 bf 6a be
       0.83772516 1.1844658 -0.5063029 -0.22924642
0000a0 f9 7d a0 be c2 5e e2 be ac 60 20 3f 2e bf a5 be
       -0.3134611 -0.4421292 0.6264751 -0.3237242
0000b0 60 fe c1 be f6 ae 24 3f a2 c4 98 be 97 4e e8 be
       -0.37889385 0.6432947 -0.2983752 -0.4537246
0000c0 17 3b c6 be 30 2d a5 bd
       -0.38716957 -0.080652595

fc3.weight f4 [1, 50]
000000 40 37 d2 3e 73 84 f3 3e 6a 01 90 bf 21 5a f0 3e
       0.41057777 0.47561988 -1.1250432 0.46943763
000010 42 10 e6 3e 4e 2e 6f bf 27 89 ec 3e cc b5 d5 3e
       0.4493428 -0.9343003 0.4619839 0.41740263
000020 a2 22 61 bf b6 fe d0 bf ff d2 b5 3e d1 83 d9 3e
       -0.8794347 -1.6327732 0.3551254 0.4248338
000030 fe 7d fc 3e 1b 31 a1 bf 24 5e de 3e 11 c0 90 bf
       0.49314874 -1.2593111 0.434312 -1.1308614
000040 d8 a4 8a bf 20 15 9c bf a7 cd d6 3e d5 fb c4 3e
       -1.0831556 -1.2193947 0.41953775 0.38473383
000050 09 fc f7 3e 35 78 8d bf dd fd d0 3e d5 c0 e1 3e
       0.48434475 -1.1052309 0.40818682 0.44092432
000060 cc 52 e0 3e 5b 25 c7 bf 25 3e 9d bf 8d 64 c4 bf
       0.4381317 -1.5558275 -1.228459 -1.5343186
000070 e9 56 e9 3e e1 85 83 bf 3b eb e8 3e ca 91 d8 3e
       0.4557412 -1.0275232 0.45491967 0.42298728
000080 7f 4d 88 bf 53 85 d0 3e 9f 3a 95 bf ed d4 c0 3e
       -1.064865 0.40726718 -1.1658515 0.3766245
000090 2c 2a 85 bf 25 9b c3 bf b8 74 bf 3e 91 65 eb 3e
       -1.0403495 -1.5281721 0.37393737 0.45975927
0000a0 af f3 f1 3e 25 3e b8 3e e3 5c 7f bf 04 1c c0 3e
       0.47256228 0.35984913 -0.9975111 0.37521374
0000b0 92 12 e7 3e 0e 33 8b bf 9a 0d e8 3e 93 56 b8 3e
       0.45131356 -1.0874956 0.45322877 0.3600355
0000c0 9f 23 c8 3e 61 be 30 3f
       0.39089677 0.69040495
