Radiomics_local_global_framework/model_og/models/lasso_feature_selection/Neural_Network/global_flair_t1ce_t2___local_flair_t1ce_t2/model.pt (torch, 579572 bytes, 5 tensors)

fc1.weight f4 [200, 670]
00000000: 5391 143e 48c2 42bd 66b7 1e3e 3a1b b73d
00000010: 62e7 203d 60a5 ccbd 5fe9 d6bd 8289 1abd
00000020: 889d 4f3c 3978 173e b36e 02be 5409 a53d
00000030: 36af 04bd 22cc c3bd 2365 01be 2adb 5b3b
00000040: 9dc1 24bd 0c8f fa3c d5d5 78bd f17c 7fbd
00000050: 0350 923d c6ef 903d d15d a13c 01ea 29bd
00000060: e85e 9abc 796d 1a3d 9db9 f0bc 76fa 9dbd
00000070: 21f6 0ebe 75bb 84bd 7a6b e13d a188 bd3a
00000080: b1c8 bdbd 850d 7ebd b68b 143d 6f70 f93b
00000090: 7ed6 a7bd 5bb9 68bd 3740 693d 3857 0d3e
000000a0: 009a 1bbd 2ec0 00bb 1c39 dabc b2b8 57bd
000000b0: dfb9 dd3c c075 b33d eec7 30bd 3912 dfbd
000000c0: 5d46 15be 03a8 e03b 18fc 063c 3f4d 85bb
000000d0: addb 813c b27e 83be 4f6e 4cbc 5553 33bb
000000e0: bd5d d43b d630 edbd c0f6 be3d 9167 12bb
000000f0: 19de 1dbe ea37 56bd feca 52be 69a0 7a3d
00000100: 151f 41bd 19c9 8dbd 7693 debd 6143 a6b9
00000110: 46c6 d7bd f999 273e 0e58 0f3e 8ac3 35be
00000120: d8dc ee3d 63f0 2abe 8e14 d73d 3bc5 7d3d
00000130: 56cf a6bc 20f6 693d 4ab2 223e ad58 a0bd
00000140: 37c9 9a3d 243d e1bd c603 91bd c41f 2cbd
00000150: 9b55 313d 0f9b 5c3e 6fc3 473c f354 8ebe
00000160: ed08 6a3d 63f8 8ebe 0b84 9e3d ba8b fb3d
00000170: e74f 40bc 1a38 4bbd f2bd f93c 342c abbc
00000180: ae13 f1bd ddf8 70bd 5f99 b23c 595f 96bd
00000190: 0d64 61bd e6c7 383d bbcb 15bd 1961 bf3a
000001a0: 0dec 91bd f796 febc 2e7f d13c a45e 923e
000001b0: 95e1 20be 426d 963d 30c7 2ebe 8392 1c3c
000001c0: fe85 2cbd 4bd9 ab3d 6134 0cbe 8578 793c
000001d0: 3483 38bd 7783 87bd 3b4f 47be dc28 703d
000001e0: 382e 703e 7911 c63d 06d4 88bd ab35 cbbd
000001f0: e6e3 2abe 28b1 9bbd 3211 233d d8e6 893d
00000200: 3e06 72bd c221 54be 82ae 193d 7d4e d93d
00000210: b088 9cbd 4a43 4cbe 40bf edbd 6dc1 203e
00000220: 3da9 14be ef57 0d3e 64c8 633d aa2c 65bb
00000230: 9214 c0bd 394a a6ba 1694 39be cacf dc3d
00000240: ef74 5c3d 05c8 a0bd 1dfc c83c 4afa 19bd
00000250: 60f8 353d 9b4e 52bd 4a6e 8cbe d732 8f3c
00000260: a890 463d b4e0 a13e e5ee 483c cc60 a93d
00000270: c04d 81be 1171 2f3d ba31 adbb 051b 743d
00000280: f38d aa3d 7e21 8f3d 040a 83bc 9ec3 ffbe
00000290: 800c 7abe ad8b 07bd 8f90 60bd 1905 b1bd
000002a0: e317 35be 1def 03be 4239 393e bc28 b03d
000002b0: a610 0cbe b1c5 6b3e 4552 5bbe c261 51bd
000002c0: 5077 f1bc 3f17 24bd 000b f33d 1f96 b23c
000002d0: cf37 093d e71e 01be b2aa 0dbe fd97 17bd
000002e0: e8b8 d23d 9790 323c 5596 9d3d 536c 06bd
000002f0: 23a5 66bc 81de b63d f0d0 4abd 2c40 38bd
00000300: 6bf7 3dbd e970 373b 52ac 873d 2b31 443d
00000310: a78d de3d 3918 0fbb b955 793d 5e3f 37be
00000320: b5c4 c23a a68b e1bd c64e 0fbb ceac 4abc
00000330: 7e8e b5bc 37a6 88bc 4a3a a43e 0366 553e
00000340: 8b0e 283d 1c06 28be e4b3 15be 6a03 56be
00000350: fbfc 843d 0600 bbbc 1059 1abe 4c86 8dbe
00000360: 27ad 8bbd 0af8 043d 81d4 d1bd bc67 22be
00000370: 2fcb 0abd f416 4abe ccbf 09bd f2f5 1f3d
00000380: 74ee 723e 32bf 0e3e 7544 a6be 0d0d b63c
00000390: 2419 623e 6d68 2d3e 1ea8 a13d dd05 eb3d
000003a0: a1ea 593d a169 27bc 338e 36bd e722 203d
000003b0: 418b e53b c327 a6bd 2278 153d 1646 4fbe
000003c0: 0ba4 e7bc 397d 85bc 1adb 843c 133e a43e
000003d0: 3d45 b2be 8df6 973c fb19 bcbd 40cf 80bd
000003e0: 42ec 833d b908 f1bd 64f1 f83c d075 223e
000003f0: 0132 6dbd 500d 4cbd a72c 40bb c67f f1bc
0.14508562 -0.047548562 0.15499648 0.0894074 0.039283164 -0.0999248 -0.10493731 -0.037728794
0.012671836 0.14791955 -0.12737541 0.0805842 -0.032393657 -0.095604196 -0.12636237 0.003354738
-0.040223707 0.030585788 -0.0607508 -0.062375013 0.07144167 0.07076983 0.019698055 -0.04148293
-0.018844083 0.037702058 -0.029385382 -0.07713787 -0.13961078 -0.06481067 0.11006828 0.0014460274
-0.092667945 -0.062024612 0.03626605 0.00761228 -0.08195208 -0.056817394 0.056946006 0.13802803
-0.037988663 -0.0019645798 -0.02663856 -0.052666374 0.02706617 0.087626934 -0.043159418 -0.108921476
-0.14577623 0.006855966 0.008238815 -0.0040680463 0.01585182 -0.25682598 -0.0124774715 -0.0027362902
0.006480901 -0.1158158 0.093244076 -0.0022339562 -0.15416755 -0.052299418 -0.20585248 0.061188135
-0.047148783 -0.06923122 -0.1086797 -0.00031712189 -0.105358645 0.1636733 0.13998434 -0.17750373
0.11663216 -0.16693263 0.10501967 0.06195567 -0.020362537 0.05711949 0.15888324 -0.078294136
0.0755791 -0.1099799 -0.07080798 -0.04202248 0.04329453 0.21543525 0.012192591 -0.27799186
0.05713742 -0.2792388 0.07740029 0.1228251 -0.0117378 -0.04961405 0.03048608 -0.020895101
-0.11771332 -0.058831085 0.021801649 -0.07342405 -0.055027056 0.045112513 -0.036571246 0.0014601081
-0.07125101 -0.031077845 0.02557334 0.2858783 -0.15711053 0.07345058 -0.17068172 0.0095564155
-0.042119972 0.08391055 -0.13691856 0.015226488 -0.045047 -0.06616872 -0.19463818 0.058632717
0.23455131 0.096713014 -0.06681065 -0.09922346 -0.16688499 -0.07602149 0.03981132 0.06733483
-0.059087984 -0.20716003 0.03751994 0.106106736 -0.076432586 -0.19947544 -0.11608744 0.15698786
-0.14517684 0.13803075 0.05561103 -0.0034969249 -0.093789235 -0.0012686915 -0.18122897 0.1078182
0.053822454 -0.07850651 0.02453428 -0.03759221 0.044426322 -0.051344495 -0.27427894 0.017480297
0.0484778 0.31616747 0.012263988 0.08270416 -0.2525463 0.042832438 -0.005285469 0.05959608
0.08327856 0.0698881 -0.015995987 -0.49953932 -0.24418831 -0.03309219 -0.05482536 -0.086435504
-0.17684893 -0.12884183 0.18088248 0.086015195 -0.13678226 0.23024632 -0.21418102 -0.05111862
-0.029475838 -0.04006123 0.118673325 0.021800099 0.03350049 -0.12609445 -0.13834646 -0.03701018
0.10289174 0.010898731 0.07694689 -0.03281815 -0.014077458 0.08929158 -0.049515665 -0.044983074
-0.046378534 0.0027990884 0.06624664 0.047898453 0.10866862 -0.0021834506 0.060872767 -0.17895266
0.0014859649 -0.11012964 -0.002186702 -0.012370301 -0.022162672 -0.01668082 0.3207572 0.20839696
0.041029494 -0.1640858 -0.14619404 -0.2089974 0.06493565 -0.02282716 -0.15073037 -0.27641523
-0.068201356 0.03246311 -0.1024561 -0.15859884 -0.033885177 -0.19735318 -0.033630177 0.03905291
0.23723775 0.13940123 -0.32474104 0.02222302 0.22079903 0.16934367 0.07893394 0.11475728
0.053202275 -0.010218055 -0.044569205 0.039095785 0.0070051257 -0.08113053 0.03649152 -0.2024158
-0.028276464 -0.016295062 0.016217757 0.3207861 -0.3481845 0.018550182 -0.09184643 -0.0628953
0.06441547 -0.11769242 0.030388542 0.15865254 -0.057909016 -0.049817383 -0.002932349 -0.029479872

fc1.bias f4 [200]
00000000: b61f 6a3d bc95 febc b95b 98bd 64e4 74bf
00000010: c224 8cbe 896e 02bf 8e32 91be 2292 89bf
00000020: 3955 00be a9cc 46bd f137 c9bf e79b 353e
00000030: de45 f0bf df3d 6bbf 117b 59be 3bf2 28bd
00000040: da95 98be 714c 03be 3752 a2bd 08e9 59bf
00000050: 2a09 a6be 55ee 5dbf f72e d3bf 0b33 e23c
00000060: cf5d 40be 83d8 c0bd d1c8 03bf 2d0a 24be
00000070: 95c4 0cbf b83b dbbd b247 24be c77f a6be
00000080: 646b 0fbc a727 27bd 17d5 c8bf 208f 2dbe
00000090: dc08 a2be 5a7d 3bbe 1e13 34be b782 71bf
000000a0: 947f f7bd 3e39 8cbf b676 fcbc 9b1e 27bf
000000b0: 3153 b3be fe86 57bf 9f9f 93be 3ab3 84bf
000000c0: 2b30 0b3d 8d20 e4bd 3e05 63be 333b d3bb
000000d0: 6cba 523d 80fd fcbc 104d 1dbe 6aa2 4ebf
000000e0: 7b91 6c3d 4712 c2be ff40 88be 04a8 2cbf
000000f0: d707 4bbf eb3a f8bd f6cd b2be 1791 ccbd
00000100: a21b 89bd 43b4 55be 829e c8bf a6e5 07be
00000110: a11c 24bf 64ed f0bd 44c1 e5bd 0abe e1bd
00000120: b62c 70bf bfd8 65be 6af2 38bf 09e9 33bd
00000130: 9676 21be dede acba 25bb 663d 536c 79bf
00000140: 5dfa 30be c9db 47be 0566 42be 5950 13be
00000150: 87a1 03be d272 3ebe e61e 1cbf d835 7ebd
00000160: 72b1 b4bf 16ba 81be c1d0 40be a1da 64bf
00000170: 28c6 c5bf 2a8c 7cbf 0abb 19bd 74e5 7bbe
00000180: cbe3 893d e0c1 98be 8db8 a3be a697 f23d
00000190: 3f31 a7bc c877 37be 49ab 64bd bb59 93be
000001a0: 61e4 20be f675 f0bd 9c8d e8bd bc8b 44bf
000001b0: 6d51 30bf 0c8d 6bbd 68aa 023d 1be2 88be
000001c0: 3197 11be cfec 5abe f754 8ebe 8e0a e0bb
000001d0: d51c 8ebe b8f2 63be e1e6 2ebe 36de 17be
000001e0: f9e7 3ebe 2d31 aebe 445c 98be db4a 68bd
000001f0: 1d37 42bf c030 12be ef5b 95bc de12 87be
00000200: cf5f b8be c571 16bd ae47 dbbd 2316 26bd
00000210: 4527 bf3d 12b0 68bd d296 bebe bee9 a2bd
00000220: 2ee6 a8be fb23 c4be 090c fbbd 2b12 16be
00000230: 2195 c1bd c057 4ebe 7f1b 6dbe 295b c4be
00000240: 9e4b 07be c95d 8cbd 2677 d3bd 1037 33be
00000250: 8449 fdbe 33d0 3bbe b00a f5bd e723 70bf
00000260: 20ba 97be 3a0b 5ebe b418 38bf eec9 80be
00000270: e0ca 73be 767d 3cbf 61c5 d0be 5334 3cbd
00000280: c932 80be 0e80 8cbd 4faa 5dbe 2c0f 99be
00000290: 9128 85be 526a 67be fda5 15be 002a 19be
000002a0: 0d4f d0be 0a15 ee3b 1535 afbd 4e0f 86be
000002b0: e8e1 08bd b50d b8bd 95b1 83be baa6 31bd
000002c0: ac4d a639 350e bfbf b87c 8dbe 74e2 49be
000002d0: 62eb 073e 8140 95be 5e81 bbbd c391 96bd
000002e0: 3119 a0bf c581 79bf 900e 8bbd ebd4 3dbe
000002f0: b378 6bbf c11e 79bf 05e3 0abf 627a f13c
00000300: a178 e5bc 6213 4fbe d407 07bf 8b24 1bbe
00000310: 46c3 4bbe 1090 a4be 8de5 90be 397f 87be
0.05715915 -0.031077258 -0.0743937 -0.95660996 -0.27371794 -0.50949913 -0.28358883 -1.0747721
-0.1253251 -0.048535023 -1.5720197 0.17735253 -1.8771322 -0.9189128 -0.21238352 -0.041246634
-0.29801828 -0.12822129 -0.079258375 -0.851212 -0.32428867 -0.8669179 -1.6498708 0.02761223
-0.18785785 -0.09416296 -0.51478297 -0.16019507 -0.5498746 -0.1070475 -0.16042975 -0.3251936
-0.008753631 -0.0408093 -1.569003 -0.16949129 -0.31647384 -0.18309537 -0.17585418 -0.9434008
-0.120848805 -1.0954969 -0.030818325 -0.65281075 -0.35024408 -0.84190357 -0.2883272 -1.0367196
0.033981483 -0.11139021 -0.22169968 -0.006446266 0.051447317 -0.030882597 -0.15361428 -0.80716574
0.05775593 -0.3790457 -0.26612088 -0.6744387 -0.7930884 -0.12120613 -0.3492276 -0.09988611
-0.06694724 -0.20869546 -1.5673373 -0.13271198 -0.64106184 -0.11764029 -0.11218503 -0.11022575
-0.93818223 -0.22445963 -0.72244895 -0.04392341 -0.15767893 -0.0013188978 0.05633082 -0.97430915
-0.17283006 -0.19517435 -0.1898423 -0.14386119 -0.12854587 -0.18598488 -0.6098465 -0.06206307
-1.4116652 -0.25337285 -0.18829633 -0.893961 -1.5451097 -0.98651373 -0.03753189 -0.24599248
0.06732901 -0.29835415 -0.3197674 0.11845331 -0.020409225 -0.17916787 -0.055827413 -0.28779396
-0.1571212 -0.11741249 -0.11355135 -0.7677572 -0.68874246 -0.05750756 0.031900793 -0.26735005
-0.14217831 -0.21379398 -0.27799198 -0.0068371957 -0.27756372 -0.22260559 -0.17080261 -0.1483086
-0.18643178 -0.34021893 -0.29757893 -0.056712013 -0.75865346 -0.14276409 -0.018232314 -0.26381582
-0.36010596 -0.036729593 -0.10707031 -0.040548455 0.09333662 -0.05680854 -0.37224442 -0.07954739
-0.32988113 -0.383087 -0.12258155 -0.14655368 -0.09452272 -0.20150661 -0.2315502 -0.383508
-0.1321244 -0.068538256 -0.1032546 -0.17501473 -0.4947015 -0.1834114 -0.11964929 -0.9380478
-0.2963419 -0.2168397 -0.71912694 -0.2515406 -0.2380786 -0.7362894 -0.40775588 -0.045948338
-0.25038746 -0.06860362 -0.21646999 -0.29894388 -0.26007512 -0.22599152 -0.14614101 -0.14957428
-0.4068531 0.0072656916 -0.085550465 -0.26183552 -0.033418566 -0.089869894 -0.25721422 -0.043371893
0.00031719857 -1.4926211 -0.27634215 -0.19715291 0.13273385 -0.29150775 -0.09155534 -0.073520206
-1.2507688 -0.9746364 -0.06789887 -0.18538253 -0.9198105 -0.9731255 -0.54252654 0.029477302
-0.028011622 -0.20222238 -0.5274632 -0.15150659 -0.1989871 -0.3214116 -0.28300133 -0.2646425

fc2.weight f4 [50, 200]
00000000: e279 a03c 8ccd 8dbc 31be 67bd 8683 5abc
00000010: 93aa 103c acf8 a7bc d4d1 463c 8c71 97bd
00000020: 39ef 1d3d ccaf c93b 0174 8fbd 93c9 83bd
00000030: 919d 393d f33d 1fbd 2a5d 2a3d 9085 673c
00000040: ec5e 123d 1339 adbb 6f2d 26bd e21f 1d3c
00000050: be1a dc3c 0e8a bf3c d115 513d 4a0e 0fbd
00000060: 9f83 cdbc 3df2 b6bc d3a6 a6bd 352c 20bd
00000070: d419 613c 0d51 92bc b0d2 b93b 21cd 14bd
00000080: 5f7e 8abd a0a4 883b f763 8abd 5da9 8fbd
00000090: 9d5d c2bc 79a9 19bd 357c 093a 1eb9 8cbd
000000a0: 959b 9ebd 7bfb ff3c 3eca 3a3d 1e97 61bd
000000b0: 1bce 253c badc d3bc c646 82bd 236c 413d
000000c0: ce20 f4bc 8760 543c 2013 9ebd d76f d93c
000000d0: b6c2 413d 4d59 94bd caee 21bd b223 a6bc
000000e0: c078 26bd 67bf f3bc 8881 93bd 2fa2 89ba
000000f0: abc7 6cbd 44bc 01bb 5932 313d b957 8e3c
00000100: c89f e53c b14d 4c3d 007f 753b fe1f 8dbd
00000110: 808a 0cb9 c28f 1e3d 95bf b53c 7e5b fc3c
00000120: ff29 11bd 2362 0e3c 07f7 493d 4647 abbd
00000130: b445 32bd 3f80 a53c f7f3 4d3d d702 363c
00000140: a761 36bd 127f 233d 907a fe3a d4a5 1a3d
00000150: 73e6 a5bd 4447 123d a8de c63c 86c0 c6bc
00000160: 0dd6 003d 1074 3ebd 3178 373d e579 b23c
00000170: d875 6e3c f5df 10bd 4d15 09bd efd3 89bd
00000180: 7813 9ebc fd7a a9bd e9e1 aabd 8ba0 8bbd
00000190: 363c 4b3d eeaa 013d 7dd9 acbd 2b8f e63c
000001a0: c25c 50bd 991a 90bd 36a1 a8bd 39b3 d93c
000001b0: 6405 86bd 869d e7b9 933a 12bd 8530 9dbd
000001c0: 60f3 6abd 633b 7839 6a00 303c 567e 4abd
000001d0: e4ad 633c fb8b 53bd 0bf1 04bd 4518 0a3b
000001e0: 0b6d 033d d346 12bc 06e7 453d 06b2 5a3d
000001f0: f30b 7dbc e6c9 3cbd d869 4fbc 45e1 4ebd
00000200: 0fd0 943c 0a18 adbd 6c34 87bb 1879 403d
00000210: feaf c1bc 1d85 fc3c dbe1 eb3a 7622 89bd
00000220: 10f2 023d 5199 413d f26f 7dbd b23e aa3c
00000230: a5b5 cd3c a48d 333d 8d39 1b3d 0c3a a1bd
00000240: 7166 513b dbd3 3e3d e31f 22bd 0428 8fbd
00000250: 6f75 b03b 8a58 583d ec0a 9fbd b3b1 cebd
00000260: d47a 18bd dc59 103d 6c95 af3b 79bd fc3c
00000270: b168 593d b28f 33bc 630c 44bd 501c fb3c
00000280: 1ad2 87bc 4bbe 2ebd 50c3 adbd fcf0 d6bb
00000290: ea64 173d bdbb fb3c 7b0e 93bd a7a3 81bd
000002a0: 8967 94bd 2e18 fe3c 5b27 5f3b e774 d63c
000002b0: 7136 71bd 26e0 053c 61f0 9ebd 41cb 683d
000002c0: 9a56 67bd 2926 9fbd 6a65 ad3c 9d61 92bd
000002d0: 50ca ea3b a521 71bd 0a27 303d 2397 f03b
000002e0: c675 a1bd 51ab 44bc 9b72 4fbd 427b e53c
000002f0: 9ba1 633c 438a f8bc 02f9 0e3d e836 4f3c
00000300: 67e2 9b3c 1543 02bc 7e89 44bb 4a7a 2b3b
00000310: 80cc 9cbd bdd4 2c3d 6104 b63c 7efe 2c3d
00000320: e2cb e5bd aa30 0bbf 495a 7cbe 81d5 ccbd
00000330: 213c 263e ba4b fa3d 765b 143e 3a7a 20bd
00000340: 7dbf dcbc 18ba 1abe 658c a13c bd6f b1be
00000350: a241 fb3d 0f24 663c c6f6 4c3e 0144 16be
00000360: 584b b03e dcd5 98be 2fc6 34be 6d77 c43e
00000370: 52a8 e3bd bcfb 40be 78f1 9e3b da15 77be
00000380: 7a84 17be c153 4dbe 86e5 813d 82c6 3cbe
00000390: 8210 50be 1976 0dbd 7c76 3f3e 8a6a 8a3e
000003a0: baf2 6ebe 5956 97be 8cd7 463d ebc4 0dbf
000003b0: afcb 773e 89ed d73d b1fb bc3e 21f5 7f3e
000003c0: f53a 02be 97f9 083e e325 4fbe fcb7 d1bc
000003d0: 14e7 e7be dacf 71bd 4fd1 b73d 6332 69bc
000003e0: c283 0b3d 295e 363e 440c 4b3e cc2c e8bc
000003f0: cac1 e0be 424c 363b de8d 153e c15d 81bb
0.019589368 -0.017309926 -0.056577865 -0.013337022 0.008829731 -0.020504318 0.012134988 -0.07394704
0.03855822 0.00615499 -0.07004548 -0.064349316 0.045316283 -0.03887744 0.041592754 0.014130965
0.035735056 -0.005286345 -0.040570673 0.009590121 0.02686822 0.02338126 0.051046196 -0.034925736
-0.025087176 -0.022332305 -0.08137288 -0.03910466 0.013739068 -0.017860914 0.005670868 -0.03632844
-0.067623846 0.0041700155 -0.06757348 -0.07014725 -0.023726279 -0.037515137 0.00052446435 -0.06871246
-0.07744519 0.031247845 0.04560303 -0.055075757 0.01011994 -0.025862087 -0.06361155 0.047222268
-0.029800799 0.012962467 -0.077184916 0.026542587 0.04730483 -0.07243595 -0.039534368 -0.020280693
-0.0406425 -0.029754354 -0.072024405 -0.0010500605 -0.057807606 -0.0019796053 0.043260906 0.017375814
0.028030291 0.04987878 0.003745973 -0.06890868 -0.00013403036 0.038711317 0.02218608 0.030805346
-0.03544044 0.00869039 0.04930785 -0.08363204 -0.043523505 0.020202754 0.05028149 0.0111090755
-0.044526722 0.039916106 0.0019415189 0.037755802 -0.08100595 0.035712495 0.024276093 -0.024261724
0.031454135 -0.046497405 0.044792358 0.02178664 0.014554463 -0.035369832 -0.03346758 -0.06729876
-0.019296393 -0.08275411 -0.0834387 -0.068177305 0.04961797 0.031657152 -0.0843992 0.02814444
-0.05086971 -0.07036323 -0.082338735 0.026574718 -0.06543997 -0.00044177118 -0.035700392 -0.0767527
-0.057361007 0.00023673246 0.010742286 -0.04943689 0.013896439 -0.051647168 -0.03245644 0.0021071595
0.032086413 -0.008928019 0.048316024 0.053392433 -0.015444743 -0.046090983 -0.012659512 -0.050507803
0.018165616 -0.08451851 -0.004126122 0.046990484 -0.02364349 0.030825192 0.0017996387 -0.06696026
0.03196913 0.047265355 -0.061874337 0.020781849 0.025111029 0.04383625 0.03789668 -0.078724
0.003195193 0.04658876 -0.03958119 -0.06990054 0.005385093 0.052818812 -0.07765755 -0.10092487
-0.037226513 0.035241947 0.0053583886 0.030852066 0.053078357 -0.010959553 -0.047863375 0.030653149
-0.016579676 -0.042661946 -0.084845185 -0.0065594893 0.036961474 0.030729169 -0.07180496 -0.06330042
-0.0724631 0.03101739 0.0034050557 0.02617879 -0.05888981 0.008171117 -0.077606924 0.056834463
-0.056479074 -0.0777095 0.021166522 -0.071475245 0.007165231 -0.058869977 0.04300598 0.0073422357
-0.078837916 -0.012003736 -0.050646406 0.028012875 0.01389351 -0.030339366 0.03490544 0.012647368
0.019028855 -0.007950564 -0.0029989178 0.002616542 -0.07656193 0.04219507 0.022218885 0.04223489
-0.11220528 -0.5437113 -0.24643816 -0.1000166 0.16233875 0.12221475 0.14488015 -0.039179064
-0.026946777 -0.15110052 0.019720266 -0.34655562 0.12268378 0.014046683 0.20016012 -0.14674379
0.34432483 -0.29850662 -0.17653726 0.38372365 -0.11116089 -0.18846029 0.0048505627 -0.2412943
-0.1479663 -0.20051481 0.06342606 -0.184351 -0.20318797 -0.034536455 0.18697542 0.27034408
-0.2333478 -0.29558066 0.048545405 -0.553786 0.24198793 0.10543353 0.36910775 0.24995853
-0.12717803 0.13376461 -0.20229296 -0.025600426 -0.45293486 -0.059036113 0.08975469 -0.014233205
0.0340612 0.17809357 0.19828898 -0.028341673 -0.4389785 0.002781645 0.146049 -0.003947944

fc2.bias f4 [50]
00000000: 7714 583d af01 413e 3060 1e3e fe96 223e
00000010: e055 583e 87d9 473e 498b 933e 6d02 82be
00000020: 2cca 7a3e b6b4 ad3e f7a6 b13e 1d18 043e
00000030: 9e6a 65bc 6f7e 063f 5536 603e ba3c 913c
00000040: f9cf 8c3e e47b a1bd 2b66 ef3d dbda 2abd
00000050: 1f7e 6d3e 0be2 6e3d 880c 993b 4873 bd3e
00000060: e55a b33e 962f 70bd 6bd5 833e 7135 a23e
00000070: aa3a 9f3e 5e97 2ebd 7c52 6f3e 3061 ab3e
00000080: 1cd3 113f d693 8a3e a66d d9bd 4e3e a83e
00000090: 340f b13e 0679 5cbe 24ae d83d 7bf4 6bbd
000000a0: 19d6 913e ac48 32bd 6e42 7b3e ad3c a13e
000000b0: bb8f 313f 8952 803e 81a4 9d3d 804d 2b3f
000000c0: d587 0f3f 0558 e9bd
0.05275389 0.18848298 0.1546638 0.15877911 0.21126509 0.19516574 0.28817204 -0.25392476
0.24491185 0.33926934 0.34697697 0.12899823 -0.01400247 0.5253667 0.21895726 0.017729152
0.2750242 -0.078849584 0.11689409 -0.041712623 0.23192643 0.05832104 0.0046706833 0.37002015
0.35030285 -0.05863913 0.25748762 0.31681398 0.31099445 -0.042624824 0.23371309 0.33472586
0.5696275 0.27065915 -0.10616617 0.32860035 0.34581912 -0.21530542 0.1058009 -0.0576062
0.28483656 -0.043526337 0.2453706 0.31491604 0.6935994 0.2506297 0.07697392 0.6691513
0.5606664 -0.113937415

fc3.weight f4 [1, 50]
00000000: 2c8b 27bb 1230 02bf 6644 4abf adf6 3b3e
00000010: 51b3 473e 5016 383e 0954 533e 3678 d9be
00000020: 6283 373e 9680 853e 400c 08bf 5d24 2f3e
00000030: ee6b 09bf bd9e adbe 0109 2d3e a33f aebd
00000040: 1ec8 393e 83b6 bc3c 7452 323e f556 b0be
00000050: 064d 673e a0fd 1ebf fd57 523c dbe5 26bf
00000060: d391 963e f2bd 22bf a59c 8f3e 1e5c 843e
00000070: 038d 903e 5f48 d3be b46e 3e3e 49c6 53bf
00000080: e939 3cbf 0d19 56bf 86fe 63bd 074c f8be
00000090: 5071 873e 5bbd 25bf 7819 27bf 448a 57bf
000000a0: c97b 503e b7a6 683b 4658 4f3e a3a0 583e
000000b0: f49d 37bf 874c 7e3e 5c12 383e 9dc3 e2be
000000c0: 2c4c 2dbf 618b 70be
-0.002556513 -0.508546 -0.7901062 0.18355818 0.19501998 0.17977262 0.20637526 -0.42474526
0.17921212 0.26074666 -0.5314369 0.17103715 -0.5368031 -0.3391017 0.16897966 -0.085082315
0.18142745 0.023036247 0.17414266 -0.34441343 0.22587976 -0.6210575 0.012838361 -0.6519448
0.2940813 -0.63571084 0.28049198 0.2585153 0.28232583 -0.41266152 0.18596917 -0.82724434
-0.73525864 -0.83631974 -0.055662654 -0.48495504 0.26453638 -0.6474206 -0.6527324 -0.8419535
0.2035972 0.003549976 0.20248517 0.21155028 -0.7172539 0.2483388 0.17975754 -0.44289866
-0.67694354 -0.23490669
