Radiomics_local_global_framework/model_og/models/Stochastic Gates_feature_selection/Neural_Network/global_flair_t1ce___local_flair_t1ce/model.pt (torch, 469172 bytes, 5 tensors)

fc1.weight f4 [200, 532]
0.006027327 0.10940441 0.08074074 -0.06428724 -0.12070195 0.034060534 0.25667858 0.18187808
-0.08652003 -0.13068154 0.46377146 -0.26368135 0.0026286144 -0.03548289 0.08987812 -0.07364205
0.3408232 0.069649436 0.004219478 -0.12786925 0.07634853 0.07882893 0.30349195 -0.06483764
0.20298404 -0.079679646 -0.046642058 0.0161838 0.2533808 0.027797677 0.09099577 -0.10974531
0.13762411 0.06267764 -0.1471865 -0.05949674 0.0068399804 -0.044034928 0.07598197 -0.15970245
-0.042544674 0.07935543 -0.11096878 0.035685677 -0.082006216 -0.03582791 -0.048138425 -0.32668382
-0.050123323 0.06661359 0.16338079 0.2015378 -0.3676925 -0.056633055 0.17072845 -0.07548984
-0.2674835 -0.037044372 -0.3724716 -0.059309386 -0.054038186 0.025209293 0.101871036 0.022014277
-0.048731253 -0.08443631 0.13060324 0.04568337 -0.09101737 -0.37871912 0.30630794 0.04660239
0.13396867 0.02192699 0.25080404 0.02770307 -0.03524515 0.041715555 -0.17011164 0.22021273
-3.770711e-05 -0.07825921 0.0744018 0.02567593 0.116871476 0.01912659 0.073331654 -0.088926464
0.1447248 -0.10498234 -0.03807998 -0.0073462795 -0.18736306 -0.23636699 0.0010320691 -0.22984983
0.087676816 0.21281725 0.025356751 0.15955846 0.11123671 0.06729459 -0.1316054 0.18308432
0.03491906 -0.10453611 0.03348773 0.13742836 0.09214631 -0.12843587 -0.3148888 0.0058673657
-0.054975115 0.19467048 0.009497355 0.0029042962 0.30973044 -0.035406753 0.04407454 -0.40990227
-0.28992957 0.23951274 -0.084068686 -0.024700854 -0.06673938 0.04475547 0.11440942 0.06486336
0.07672124 0.23049319 -0.02292759 -0.05462925 0.17286077 -0.18400978 -0.020184783 0.11106428
0.19160035 0.057649814 -0.00037173915 -0.29686233 -0.011445498 0.20338587 0.047598712 0.07804565
-0.035832904 0.074145205 0.204737 -0.055271696 0.026938349 0.010599276 -0.062080067 -0.056762535
0.017341511 0.16290697 -0.112544544 -0.02920815 0.08763236 0.0808958 -0.16891514 -0.26978648
0.3146197 -0.094389 -0.15640354 0.05264254 0.10340711 -0.1308861 -0.2021848 0.018341579
0.11712507 -0.030924821 -0.09655562 -0.07208157 0.097384974 0.083248675 0.01801756 -0.05639538
0.15585418 0.10511728 -0.035165843 0.09927072 0.06004359 -0.011889406 0.037267398 0.1446582
-0.10763484 -0.048101854 0.016600322 -0.080531634 0.044878013 0.1558193 0.13706267 -0.07715899
0.10719863 0.006895854 0.08840061 0.061805 -0.040257815 -0.16033357 0.047298092 0.07208524
-0.069499105 0.029860232 -0.003982148 -0.14310777 0.14310531 0.12151909 0.035375133 0.03214219
-0.029029656 0.03560891 0.1459089 0.071398616 0.15065211 -0.017789217 0.14322326 0.087777816
-0.14538172 0.11463746 0.10244856 0.11196791 -0.12462681 0.17071824 0.049440432 -0.023831265
-0.13806577 0.11695962 0.018011177 0.10943231 0.10497602 0.16994716 -0.18323946 0.108900495
0.083074294 0.11710736 0.21960053 0.0071744192 0.14976442 0.067174375 0.06860596 0.08134575
0.10215564 0.11716426 0.07242142 -0.93242806 -0.07955952 0.30195022 -0.38236287 -0.57894355
-0.41130042 -0.27409685 0.43351397 -0.28315958 -0.1088416 -0.14835915 0.15720457 0.1110701
00000000: e280 c53b 6b0f e03d 675b a53d 07a9 83bd
00000010: 9532 f7bd 0f83 0b3d 606b 833e 3f3e 3a3e
00000020: 6a31 b1bd 62d1 05be 7473 ed3e 3e01 87be
00000030: d544 2c3b 8256 11bd 0512 b83d a5d1 96bd
00000040: 6180 ae3e 5da4 8e3d 8c43 8a3b 28f0 02be
00000050: 9e5c 9c3d 1071 a13d 4c63 9b3e 99c9 84bd
00000060: 0cdb 4f3e 152f a3bd be0b 3fbd e393 843c
00000070: 21bb 813e f4b7 e33c fe5b ba3d 26c2 e0bd
00000080: 56ed 0c3e 225d 803d 0fb8 16be dbb2 73bd
00000090: ea21 e03b f85d 34bd 6f9c 9b3d 0a89 23be
000000a0: 5343 2ebd 1a85 a23d 9a43 e3bd 252b 123d
000000b0: e0f2 a7bd 49c0 12bd cc2c 45bd 1a43 a7be
000000c0: 1d4e 4dbd b56c 883d 4b4d 273e ed5f 4e3e
000000d0: 3142 bcbe 10f8 67bd 70d3 2e3e 6b9a 9abd
000000e0: 99f3 88be d7bb 17bd 99b4 bebe 66ee 72bd
000000f0: 2557 5dbd b883 ce3c c3a1 d03d 4957 b43c
00000100: 6c9a 47bd f2ec acbd dbbc 053e 7c1e 3b3d
00000110: 5167 babd 79e7 c1be 65d4 9c3e 26e2 3e3d
00000120: 152f 093e 3ba0 b33c 6369 803e 8cf1 e23c
00000130: 385d 10bd eedd 2a3d bf31 2ebe 727f 613e
00000140: b327 1eb8 5d46 a0bd f95f 983d 5456 d23c
00000150: 505a ef3d 5eaf 9c3c e82e 963d 141f b6bd
00000160: bd32 143e fb00 d7bd c1f9 1bbd 0fb9 f0bb
00000170: 1adc 3fbe 300a 72be 7e46 873a c15d 6bbe
00000180: e78f b33d c4ec 593e f6b8 cf3c 4b63 233e
00000190: 12d0 e33d bfd1 893d 91c3 06be 757a 3b3e
000001a0: 4a07 0f3d 0717 d6bd 6e2a 093d 05ba 0c3e
000001b0: 34b7 bc3d b184 03be 1b39 a1be 0843 c03b
000001c0: 962d 61bd b357 473e cb9a 1b3c 0156 3e3b
000001d0: fd94 9e3e ac06 11bd 8187 343d b6de d1be
000001e0: a671 94be d442 753e 342c acbd 7259 cabc
000001f0: a8ae 88bd 8351 373d 7c4f ea3d 15d7 843d
00000200: 0720 9d3d 6806 6c3e a4d2 bbbc ecc2 5fbd
00000210: 6a02 313e 0f6d 3cbe 8f5a a5bc ab75 e33d
00000220: e232 443e 3622 6c3d fce5 c2b9 57fe 97be
00000230: e685 3bbc 6344 503e def6 423d 66d6 9f3d
00000240: 86c5 12bd 71d9 973d 93a6 513e 9364 62bd
00000250: d0ad dc3c 96a8 2d3c ab47 7ebd d57f 68bd
00000260: c90f 8e3c 16d1 263e c17d e6bd ee45 efbc
00000270: 9878 b33d b2ac a53d 17f8 2cbe 7421 8abe
00000280: d515 a13e 054f c1bd 4028 20be b49f 573d
00000290: 1bc7 d33d 0107 06be 8809 4fbe 1441 963c
000002a0: 45df ef3d 0d56 fdbc f4be c5bd 819f 93bd
000002b0: c671 c73d 487e aa3d 9099 933c d8fe 66bd
000002c0: 3d98 1f3e ba47 d73d 0f0a 10bd 724e cb3d
000002d0: 44f0 753d c8cb 42bc b3a5 183d 4721 143e
000002e0: a86f dcbd 7306 45bd 66fd 873c c5ed a4bd
000002f0: 02d2 373d 188f 1f3e 285a 0c3e 8805 9ebd
00000300: f58a db3d 9ef6 e13b 610b b53d 3d27 7d3d
00000310: 61e5 24bd 7c2e 24be a5bb 413d 6da1 933d
00000320: 8c55 8ebd 729d f43c ae7c 82bb d88a 12be
00000330: 338a 123e 00df f83d 84e5 103d 87a7 033d
00000340: 9acf edbc a6da 113d 2569 153e 7039 923d
00000350: 8c44 1a3e b1ba 91bc 1ea9 123e dbc4 b33d
00000360: f2de 14be 0bc7 ea3d 8dd0 d13d 6e4f e53d
00000370: 573c ffbd c3d0 2e3e 0d82 4a3d c939 c3bc
00000380: 1d61 0dbe 8688 ef3d 2d8c 933c 0c1e e03d
00000390: abfd d63d a106 2e3e 20a3 3bbe 3907 df3d
000003a0: db22 aa3d fcd5 ef3d f6de 603e 6417 eb3b
000003b0: d85b 193e b892 893d 4881 8c3d 9a98 a63d
000003c0: fa36 d13d d1f3 ef3d ae51 943d 9bb3 6ebf
000003d0: 1af0 a2bd 3899 9a3e 11c5 c3be a535 14bf
000003e0: f895 d2be 6c56 8cbe 8bf5 dd3e 4bfa 90be
000003f0: 58e8 debd 76eb 17be 3cfa 203e b878 e33d

fc1.bias f4 [200]
-0.35509133 -0.5708159 -0.32009685 -1.0274037 -0.20467053 -1.6797559 -0.27536213 -0.40924594
0.027023606 -0.2530731 -0.35032395 -0.12285922 -0.21246001 -0.3827503 -0.19824286 -0.36606622
-0.39898103 -0.16020913 -0.034059435 -0.31531745 -0.65264803 -0.88395786 -0.63477415 -0.43198168
-0.24105379 -0.09376231 -0.86682665 -1.165486 -0.5950186 -0.14080136 -0.2458097 -0.62466574
-0.3665595 -0.8535284 -0.49859774 -0.15325989 -0.43074948 -0.2390824 -0.24319911 -0.13101242
-0.2933858 -0.30421543 -0.67928565 -0.1894948 -0.24638769 -0.80007154 0.02026659 -0.09005089
-0.2919975 -0.40564698 -0.26954404 -0.18905593 -0.30287713 -1.4199779 -0.73462373 -0.52863103
-0.17425615 -0.55520004 -0.25832936 -0.3509242 -0.32103714 -0.36781892 -0.46419078 -1.1040424
-0.19790049 -0.15563384 -1.0760306 -0.3108361 -0.25855124 -0.2660291 -1.0957193 -0.14162263
-0.20263961 -0.8567624 -0.16680063 -1.1768705 -0.35112208 -0.10139999 -0.24585441 -0.2990771
-0.20760296 -0.55678093 -0.041641712 -0.38356864 -1.5147263 -0.09276587 -0.42695513 -1.4095029
-0.28145942 -0.63169146 -0.24512374 -0.02712829 -0.037901998 -0.30338332 -0.24102393 -0.21866006
-0.5176991 -0.29286784 -0.49187726 -0.4042619 -0.42929733 -0.2098585 -0.2772594 -0.556413
-1.8198525 -0.38712645 -0.9086766 -0.24284826 -0.21803989 -0.28084907 -0.23004703 -0.19292696
-0.23538463 -0.47300103 -0.12696671 -0.46328264 -0.027640358 -0.052706376 -0.18632439 -0.3836622
-0.99764454 -0.24333881 -0.21703336 -0.6634121 -0.3985321 -0.41668108 -0.26153192 -0.58620733
-0.3530204 -0.4591001 -0.42703724 -0.4796824 -0.28831846 -0.22438134 -0.28078866 -0.14300156
-0.24314855 -0.448348 -0.5643417 -0.24684027 -0.3796267 -0.48210612 -0.1385342 -0.3908704
-0.3069434 -0.51987714 -0.6580561 -0.390131 -0.2494871 -0.3734947 -0.289548 -0.29786983
-0.30596435 -0.46976644 0.044934593 -1.752073 -0.24950556 -0.4189062 -0.089525595 -0.076876074
-0.25780502 -0.35470778 -0.56712866 -0.09475122 -0.17552033 -0.21307395 -0.7920446 -0.15192348
-0.1891023 -0.48279616 -0.14210887 -0.6341151 -0.215267 -0.6775573 -0.17010733 -0.2966531
-0.6495722 -0.18689449 -0.25002673 -0.28896782 -0.23011817 -0.25653994 -0.45621988 -0.6062288
-0.2534389 -0.23831701 -0.3747291 -0.17105153 -0.30966446 -0.47321007 -0.15707378 -0.28040138
-0.42358413 -0.5113816 -0.22980572 -0.23679921 -0.3214338 -0.35601065 -0.07796373 -0.25429067
00000000: 88ce b5be fe20 12bf bce3 a3be f781 83bf
00000010: 2795 51be 3e02 d7bf 44fc 8cbe af88 d1be
00000020: 9c60 dd3c cc92 81be a95d b3be 9d9d fbbd
00000030: 1e8f 59be d9f7 c3be 2d00 4bbe 086d bbbe
00000040: 3e47 ccbe dd0d 24be e881 0bbd 4a71 a1be
00000050: f113 27bf 104b 62bf 8f80 22bf b42c ddbe
00000060: ced6 76be 7406 c0bd 5ae8 5dbf a52e 95bf
00000070: 2453 18bf 3b2e 10be 8ab5 7bbe 18ea 1fbf
00000080: b0ad bbbe d680 5abf 3448 ffbe 29f0 1cbe
00000090: 328b dcbe 04d2 74be 3009 79be 1f28 06be
000000a0: aa36 96be 20c2 9bbe aae5 2dbf ed0a 42be
000000b0: 0e4d 7cbe 7dd1 4cbf 1f06 a63c 9a6c b8bd
000000c0: b280 95be f6b0 cfbe ad01 8abe e197 41be
000000d0: b612 9bbe d6c1 b5bf 4d10 3cbf 5d54 07bf
000000e0: 3470 32be 9721 0ebf bf43 84be 56ac b3be
000000f0: fb5e a4be c352 bcbe 6aaa edbe 4351 8dbf
00000100: 6da6 4abe 7a5e 1fbe 5fbb 89bf e925 9fbe
00000110: d460 84be f734 88be 8840 8cbf 8605 11be
00000120: c280 4fbe c854 5bbf c9cd 2abe b1a3 96bf
00000130: 46c6 b3be ccaa cfbd 42c1 7bbe a220 99be
00000140: df95 54be 3289 0ebf 8090 2abd 1c63 c4be
00000150: 8de2 c1bf 08fc bdbd dd99 dabe 976a b4bf
00000160: 731b 90be 88b6 21bf b801 7bbe 263c debc
00000170: 203f 1bbd 0f55 9bbe face 76be 6ce8 5fbe
00000180: ee87 04bf c6f2 95be 56d7 fbbe 6afb cebe
00000190: dccc dbbe 26e5 56be f2f4 8dbe 1571 0ebf
000001a0: edf0 e8bf 7035 c6be 089f 68bf 37ad 78be
000001b0: d945 5fbe 73cb 8fbe 7391 6bbe a58e 45be
000001c0: ab08 71be 312d f2be 9003 02be 6233 edbe
000001d0: 086e e2bc a4e2 57bd d2cb 3ebe 5f6f c4be
000001e0: a265 7fbf cf2d 79be fe3d 5ebe 60d5 29bf
000001f0: 660c ccbe 3957 d5be 83e7 85be af11 16bf
00000200: 17bf b4be 2b0f ebbe a0a4 dabe ee98 f5be
00000210: 7a9e 93be 39c4 65be 88c3 8fbe 006f 12be
00000220: effb 78be de8d e5be b378 10bf b2c3 7cbe
00000230: 6e5e c2be 9dd6 f6be e9db 0dbe 2a20 c8be
00000240: af27 9dbe ab16 05bf 5d76 28bf 40bf c7be
00000250: 8c79 7fbe b33a bfbe a33f 94be 6582 98be
00000260: 5ca7 9cbe 3a85 f0be 560d 383d ee43 e0bf
00000270: 637e 7fbe e07a d6be 3259 b7bd 3471 9dbd
00000280: 05ff 83be 429c b5be 582f 11bf ed0c c2bd
00000290: 9abb 33be 0f30 5abe 6fc3 4abf d491 1bbe
000002a0: 09a4 41be 0f31 f7be fd84 11be 5e55 22bf
000002b0: f46e 5cbe 6574 2dbf 9e30 2ebe eae2 97be
000002c0: 5d4a 26bf 4561 3fbe 8103 80be 97f3 93be
000002d0: 19a4 6bbe 3459 83be a795 e9be d031 1bbf
000002e0: bec2 81be 6009 74be 7edc bfbe 2228 2fbe
000002f0: 578c 9ebe 9748 f2be f3d7 20be c590 8fbe
00000300: 05e0 d8be e8e9 02bf 3152 6bbe 7e7b 72be
00000310: f992 a4be 0747 b6be 73ab 9fbd 6332 82be

fc2.weight f4 [50, 200]
0.15109709 0.13962868 0.16250667 0.042885322 0.041364644 -0.010452755 0.15033108 0.29450572
0.2337976 0.20355092 0.3407802 0.24578536 0.21149147 0.09202261 0.23706132 0.20958258
0.105244204 0.17615655 0.19609635 0.034973886 0.03139266 0.09412468 0.13629346 0.25491306
0.20453611 0.26366872 0.07347205 0.07610654 0.040561985 0.1949563 0.13003811 0.024666542
0.22939835 0.009022143 0.019158 0.28662768 0.16193661 0.30643168 0.042038523 0.090043284
0.21114051 0.19529921 0.052978672 0.18316138 0.26299453 -0.027031029 0.3037677 0.18385448
0.23342635 0.15365596 0.23539737 0.07163176 0.11162989 0.06094201 -0.014925989 0.075771816
0.20859881 0.21344809 0.17305513 0.18027642 0.17673945 0.15170613 0.15565582 0.03698325
0.25875494 0.20153585 0.08182671 0.10574788 0.16574262 0.37564373 0.08646332 0.13623425
0.17915249 -0.016684148 0.25189883 0.0499913 0.124093644 0.082409285 0.086508624 0.0055249888
0.14454262 0.12572119 0.13541551 0.22024465 -0.05568287 0.16907479 0.2586943 0.019414984
0.118053295 -0.0020418852 0.19925417 0.06998141 0.17428686 0.12112146 0.30440342 0.23436384
-0.037237223 0.21288829 0.28673893 0.20830528 0.061869837 0.15939234 0.0895556 0.10777637
0.042551585 -0.058353778 0.081682384 0.3002235 0.06450261 0.35945126 0.3141732 0.008236981
0.30479765 0.08187791 0.12207273 0.18035622 0.143641 0.097232535 0.37539786 0.15830205
0.011282826 0.41875675 0.276101 0.031608686 -0.027068956 0.07130102 0.18731731 0.06846894
0.23023258 0.121753074 0.29523277 0.09042049 0.14249122 0.22964798 0.1244951 0.17185163
0.37663823 0.18264322 0.109388806 0.0563406 0.2457112 -0.020721924 0.11925873 0.05378937
0.25954 0.1621394 0.049155958 0.11599002 0.13695076 0.41088045 0.13466959 0.28473625
0.31889758 0.0387036 0.25646624 -0.010607556 0.14606266 0.27493274 0.19583675 0.09149284
0.011997236 0.22016367 0.08034618 0.11772924 0.21922669 0.056236263 -0.009900078 0.16569364
0.18027243 0.10486132 0.22106875 0.0387569 0.10954773 0.07718344 0.20150252 0.18498841
0.23354392 0.062158383 0.13239013 0.030333132 0.22724985 0.22387248 0.09942404 0.1144039
0.3567474 0.17688437 0.17293794 0.1810385 0.13120484 0.24986626 0.17917114 0.022476623
-0.011987938 0.0045578326 0.19599833 0.3260092 0.10272498 0.22784951 0.22780949 0.22635351
0.04515545 -0.02653286 -0.046976022 0.04842827 -0.060726855 0.0012843439 -0.07056588 -0.08301804
-0.071845315 0.037530396 -0.06339706 -0.033407126 0.013573758 0.026338106 0.028395312 0.0051363856
0.020707557 -0.016108228 0.02124705 0.056274004 -0.044135462 -0.01595706 0.021818643 -0.02946791
-0.023538038 0.048521683 0.029986002 0.03521332 -0.008070908 -0.006552508 -0.024219252 -0.028478129
-0.05107853 -0.069924586 0.049484976 -0.06276326 0.0004113126 -0.021730244 -0.0019949938 -0.011550497
-0.04407462 -0.018071512 0.0070786513 0.0116511425 0.01112826 0.032645024 -0.0015941358 -0.0847139
-0.004648183 -0.018134505 -0.04893278 -0.00029583127 0.008630929 -0.015685529 -0.056521773 0.05291508
00000000: 32b9 1a3e d2fa 0e3e 2668 263e 85a8 2f3d
00000010: f96d 293d 0842 2bbc 64f0 193e 74c9 963e
00000020: a368 6f3e a76f 503e be7a ae3e 28af 7b3e
00000030: 3891 583e 5a76 bc3d 34c0 723e d19c 563e
00000040: 468a d73d 6262 343e 7bcd 483e c740 0f3d
00000050: 9795 003d 71c4 c03d 8390 0b3e f783 823e
00000060: ea71 513e 96ff 863e 8478 963d bfdd 9b3d
00000070: 5324 263d a0a2 473e b628 053e 7d11 ca3c
00000080: 67e7 6a3e 9cd1 133c 3df1 9c3c ddc0 923e
00000090: b6d2 253e 9de4 9c3e 9630 2c3d 9d68 b83d
000000a0: 3835 583e 84fc 473e 2a00 593d a88e 3b3e
000000b0: 38a7 863e 2d70 ddbc 7187 9b3e 5944 3c3e
000000c0: 5107 6f3e fd57 1d3e 020c 713e acb3 923d
000000d0: 369e e43d 549e 793d 238c 74bc 412e 9b3d
000000e0: ed9a 553e 2392 5a3e 5d35 313e 629a 383e
000000f0: 30fb 343e da58 1b3e 3d64 1f3e c07b 173d
00000100: 877b 843e 6a5f 4e3e c394 a73d 5892 d83d
00000110: 6fb8 293e 6054 c03e ae13 b13d fe80 0b3e
00000120: c073 373e 32ad 88bc e2f8 803e adc3 4c3d
00000130: cf24 fe3d 33c6 a83d 6f2b b13d f70a b53b
00000140: fb02 143e 0ebd 003e 5daa 0a3e d087 613e
00000150: b913 64bd f121 2d3e 9473 843e 2c0c 9f3c
00000160: edc5 f13d 26d1 05bb 4909 4c3e 6a52 8f3d
00000170: 4178 323e 870e f83d c4da 9b3e 13fd 6f3e
00000180: 0f86 18bd 63ff 593e 72cf 923e fb4d 553e
00000190: 3a6b 7d3d bf37 233e ed68 b73d dcb9 dc3d
000001a0: 924a 2e3d 5f04 6fbd 1849 a73d e5b6 993e
000001b0: f219 843d ff09 b83e 4fdb a03e 67f4 063c
000001c0: 700e 9c3e 9baf a73d 4401 fa3d 4daf 383e
000001d0: a016 133e da21 c73d 2634 c03e ef19 223e
000001e0: 9adb 383c 4967 d63e 1c5d 8d3e 1c78 013d
000001f0: b7bf ddbc 4506 923d 1cd0 3f3e 7239 8c3d
00000200: 17c2 6b3e ad59 f93d c028 973e 612e b93d
00000210: 38e9 113e d728 6b3e 49f7 fe3d e0f9 2f3e
00000220: bad6 c03e d306 3b3e 3d07 e03d 67c5 663d
00000230: b89b 7b3e 06c1 a9bc ec3d f43d 3e52 5c3d
00000240: 6de2 843e df07 263e c257 493d 2d8c ed3d
00000250: d23c 0c3e ec5e d23e d3e6 093e f3c8 913e
00000260: 8b46 a33e ab87 1e3d 8b4f 833e 51cb 2dbc
00000270: 7391 153e fcc3 8c3e 6e89 483e 9960 bb3d
00000280: 0e90 443c 9672 613e 8a8c a43d 071c f13d
00000290: f67c 603e ff57 663d f033 22bc 98ab 293e
000002a0: 5699 383e 88c1 d63d d95f 623e 8ebf 1e3d
000002b0: 8f5a e03d 5a12 9e3d ad56 4e3e 9a6d 3d3e
000002c0: 2326 6f3e ca99 7e3d 4791 073e 307d f83c
000002d0: 2fb4 683e d43e 653e d59e cb3d 984c ea3d
000002e0: 98a7 b63e 2d21 353e a516 313e 2862 393e
000002f0: 905a 063e f1dc 7f3e a478 373e e520 b83c
00000300: 0e69 44bc df59 953b c9b3 483e aeea a63e
00000310: 7961 d23d 6251 693e e446 693e 37c9 673e
00000320: ecf4 383d 715b d9bc ee69 40bd b95c 463d
00000330: b9bc 78bd 6e57 a83a d884 90bd 5d05 aabd
00000340: a323 93bd 79b9 193d 51d6 81bd e9d5 08bd
00000350: 7864 5e3c 03c3 d73c 499d e83c 204f a83b
00000360: e5a2 a93c 67f5 83bc 4b0e ae3c 927f 663d
00000370: 63c7 34bd 61b8 82bc 03bd b23c b066 f1bc
00000380: d8d2 c0bc acbe 463d 34a5 f53c d83b 103d
00000390: d73b 04bc 6cb6 d6bb 7467 c6bc f74a e9bc
000003a0: b837 51bd 9f34 8fbd c2b0 4a3d 068a 80bd
000003b0: 71a5 d739 a003 b2bc 71be 02bb 4c3e 3dbc
000003c0: 9787 34bd b50a 94bc 08f4 e73b 6fe4 3e3c
000003d0: 4e53 363c cab6 053d 52f2 d0ba 7b7e adbd
000003e0: c94f 98bb d08e 94bc bd6d 48bd cd19 9bb9
000003f0: bd68 0d3c f07e 80bc 6083 67bd 7cbd 583d

fc2.bias f4 [50]
0.003754164 -0.08473085 0.14358668 0.13059321 0.05525287 -0.11373538 0.04766862 0.08210289
-0.027707772 0.21469893 0.6544253 0.06616037 0.18228705 0.038855076 0.12619805 0.09404977
0.19700396 0.20226826 0.14512178 0.07135889 0.18454832 0.055511836 0.034464177 0.41429102
0.19979812 0.045460697 0.05488449 0.14390858 -0.34755453 -0.38128045 0.3435998 -0.013777204
0.053435728 0.17519377 0.017788915 0.43267077 0.18173356 0.21099208 0.09122649 0.06524569
0.1126502 0.30318764 0.017208716 0.090971775 0.71154976 0.16213103 0.16834396 0.07110789
0.0067443396 0.16824102
00000000: 6c08 763b 5e87 adbd 6308 133e 3aba 053e
00000010: d550 623d 18ee e8bd 2c40 433d 8f25 a83d
00000020: 69fb e2bc 09da 5b3e 6b88 273f 177f 873d
00000030: 75a9 3a3e 8026 1f3d 103a 013e 2a9d c03d
00000040: 68bb 493e 691f 4f3e ce9a 143e 9c24 923d
00000050: 3cfa 3c3e 6160 633d 4f2a 0d3d f41d d43e
00000060: e197 4c3e ff34 3a3d 8fce 603d c55c 133e
00000070: abf2 b1be 3137 c3be 50ec af3e c8b9 61bc
00000080: 6cdf 5a3d ff65 333e 0fba 913c 0687 dd3e
00000090: 5d18 3a3e 4f0e 583e f4d4 ba3d 889f 853d
000000a0: 26b5 e63d 693b 9b3e 4bf9 8c3c 694f ba3d
000000b0: 2028 363f ad05 263e 5c62 2c3e 03a1 913d
000000c0: 9fff dc3b 6047 2c3e

fc3.weight f4 [1, 50]
0.17888278 -0.0015431914 0.25195408 0.24455926 0.2060936 -0.002435647 0.22003199 0.17105956
-0.016843505 -0.51853454 -0.83535707 0.23802851 -0.6569607 -0.0028724917 0.27026007 0.2190091
-0.6103944 -0.66203266 -0.9773827 0.21790467 0.2577053 0.21559481 0.16778174 -1.2553333
0.26849458 -0.8574758 0.0069564176 -0.5252746 -0.1579603 -0.0066939197 -0.8682362 -0.002468707
0.16934003 -0.4397081 0.16417281 -0.4814422 0.25875163 0.2539444 0.16928984 0.19581302
-0.3463465 -0.61960566 -0.078618005 0.21150157 -0.68577653 0.2011282 0.2300284 0.18169016
0.16194704 0.23825389
00000000: 0c2d 373e e944 caba 2000 813e be6d 7a3e
00000010: 330a 533e 609f 1fbb 1150 613e 3d2a 2f3e
00000020: 64fb 89bc aebe 04bf f6d9 55bf bfbd 733e
00000030: 942e 28bf 6a40 3cbb 875f 8a3e ec43 603e
00000040: cf42 1cbf f97a 29bf c135 7abf 6722 5f3e
00000050: f3f1 833e e3c4 5c3e face 2b3e c3ae a0bf
00000060: 1f78 893e 8983 5bbf a9f2 e33b 6578 06bf
00000070: 58c0 21be ab58 dbbb ba44 5ebf 08ca 21bb
00000080: 7967 2d3e 6c21 e1be eb1c 283e 987f f6be
00000090: 187b 843e 0005 823e 515a 2d3e 3583 483e
000000a0: 5454 b1be 7a9e 1ebf 7a02 a1bd de93 583e
000000b0: 0d8f 2fbf 8df4 4d3e 918c 6b3e fc0c 3a3e
000000c0: 72d5 253e d4f8 733e
