Radiomics_local_global_framework/models/Stochastic Gates_feature_selection/Neural_Network/global_flair_t1ce___local_t2/model.pt (torch, 222452 bytes, 5 tensors)

fc1.weight f4 [100, 498]
000000 60 19 97 3d a5 d7 a0 3c 31 3f bc bd 1e 75 70 bd
       0.07377887 0.019634077 -0.0919174 -0.05870544
000010 fb 29 73 bd 8f 31 c7 3b f0 90 bf bc 31 38 17 bd
       -0.059366208 0.006078906 -0.023384541 -0.036918823
000020 cf c5 d8 3d 05 29 8f bc 22 09 4d 3d cd 34 1d bd
       0.10584604 -0.017475614 0.050057538 -0.038380433
000030 6b 32 bb 3d 28 03 ee bd 5c d7 bb bd bd 28 55 bc
       0.09140476 -0.11621696 -0.09171936 -0.013010201
000040 1e ba 48 bd 14 3d 86 3d b0 f4 0d bd 39 5e d5 bd
       -0.04900562 0.065546185 -0.03465718 -0.10418362
000050 6c 99 c3 3c c5 62 ad 3d 48 44 2f 3e fe f6 69 3c
       0.023876868 0.084661044 0.17115891 0.014280079
000060 81 fc 8e 3d 02 e7 07 3e b1 86 9e bd 47 da 2b bc
       0.06981755 0.13271716 -0.07740534 -0.010489053
000070 2e d8 6c bd 35 cc d4 3d 47 c3 f1 3d ac 09 c9 3d
       -0.057823353 0.10390512 0.11804824 0.09816298
000080 1c 41 bb bd 90 92 1e bd 90 a1 dd 3c e2 b0 94 3d
       -0.09143278 -0.03871399 0.027054578 0.072603
000090 97 a7 1d 3c 51 09 c1 bd a1 08 49 3d f0 00 75 be
       0.009622476 -0.09425605 0.049080495 -0.23926139
0000a0 fd 99 29 3d 68 f3 c1 bd ee 4e 4c bd 10 ad ea 3c
       0.04140662 -0.09470254 -0.04987996 0.028646976
0000b0 a8 a5 02 be 03 d0 d6 3d f1 71 31 3d ae eb ae bd
       -0.12758505 0.10488894 0.043321554 -0.08541046
0000c0 b1 97 91 bd e9 44 a7 bd cd 29 86 3d 47 2e 7d bd
       -0.07109011 -0.081674404 0.065509416 -0.06181171
0000d0 e0 3c a5 bd 7c 22 94 3a d2 9f e3 3d 5a 6a ac bd
       -0.080682516 0.0011301781 0.11114468 -0.084187225
0000e0 09 fb a7 bc f2 61 fb bc 50 8b 43 3d cf ee a9 3d
       -0.020505445 -0.030686352 0.04774028 0.08297502
0000f0 82 8b 98 bd dc bd ae bd 4f c1 98 bc f0 1c 95 bd
       -0.07448484 -0.085323066 -0.018646864 -0.0728091
000100 66 92 a1 ba c2 44 b5 3d aa 0a 23 3d 98 fb 68 3d
       -0.0012326955 0.08851005 0.039805092 0.056880563
000110 5b a0 63 3c 2e d7 46 bd 4a 05 b5 3d 1f 3a cd bd
       0.013893212 -0.048545055 0.088388994 -0.10020851
000120 1f 8e b8 3d 0b 3c cd 3d 7f 96 68 3d 99 49 5b 3d
       0.090114824 0.10021218 0.05678415 0.053536985
000130 7f 3f 3a bd f9 47 6f bd 62 2c e5 bb f0 6b 1e bc
       -0.04547071 -0.058418248 -0.0069938162 -0.009669289
000140 4f 13 ab 3d 99 b4 2f bd ee 18 50 3c 4a 2c 3d bd
       0.08353292 -0.04289684 0.012701256 -0.046184815
000150 cc 40 6b 3d b4 cb a9 3d 1d 16 22 bd 68 eb ac bc
       0.057434842 0.082908064 -0.03957187 -0.021108344
000160 70 f1 5d 3d 13 2e 81 bc 41 f9 13 3c b0 29 f7 3c
       0.05418533 -0.01576904 0.009031595 0.030171245
000170 ba 17 a4 bc 89 db 60 3d 6f ac a0 bd 22 6e 1f be
       -0.020030845 0.054896865 -0.07845389 -0.15569356
000180 60 c5 dc bd fb b3 87 3d e6 17 c6 3c 07 c9 43 3e
       -0.10779834 0.066261254 0.024181318 0.19119655
000190 a4 9c 56 bd f5 cd 1e bd 5f fd ac 3d 5d cf e3 3c
       -0.052395478 -0.038770635 0.08446764 0.02780884
0001a0 95 a3 bd 3d 58 58 00 bd 69 fa c5 3d 92 f1 a1 bd
       0.092597164 -0.03133425 0.096669026 -0.07907404
0001b0 05 fa 35 be 26 7f 1d bc 34 87 45 bd 00 aa 06 be
       -0.17771156 -0.009612834 -0.048224643 -0.13150787
0001c0 94 ce fa bd e9 b4 15 3d 96 ab ca 3c 3f 66 16 3d
       -0.12246433 0.036549482 0.024740022 0.036718603
0001d0 28 35 c7 bc ed 9b 85 3d 47 bd 15 bc a9 70 2c 3e
       -0.024317339 0.06523881 -0.0091393655 0.16839851
0001e0 b3 0e 11 be f2 61 ba 3d 42 cd 09 be f0 84 d7 bd
       -0.14165764 0.09100713 -0.13457206 -0.10523403
0001f0 c3 b5 93 3d d1 ac 90 3d 5c f5 db 3d 55 26 a2 bd
       0.07212403 0.07064212 0.10740158 -0.079174675
000200 6e 57 15 bd 99 f5 d8 bd b6 db b1 bd b0 a3 29 bd
       -0.036460333 -0.10593719 -0.08684485 -0.04141587
000210 46 b3 e7 3d ee 60 54 be 34 59 dc 3d d0 63 3b bd
       0.113134906 -0.207401 0.10759202 -0.045749485
000220 93 2d bf bd c1 a0 0b 3e b8 ee bc bc e3 9a 95 3d
       -0.093348645 0.13635541 -0.023063049 0.07304933
000230 4c 68 55 3e eb 27 86 bd b4 ab 1f 3e c3 37 60 3e
       0.20840567 -0.065505825 0.15592843 0.21896271
000240 ce 87 58 bd ae 2d d3 3b b8 5a 17 3d 2b fa a1 bd
       -0.05286389 0.0064446544 0.03695175 -0.07909044
000250 b8 43 49 3b 3d 6b 2c bd fa e9 9e 3d 9f fd 12 3e
       0.003071053 -0.042094458 0.07759471 0.14354561
000260 bf 50 9c 3d 10 38 e4 bd 41 20 15 3c 02 34 2d bd
       0.076325886 -0.111435056 0.009101928 -0.042285927
000270 1c 31 fb bb ef 5e b9 bd 81 c2 5f bd 46 21 df bd
       -0.0076657664 -0.0905131 -0.054628853 -0.10895018
000280 b0 84 ec 3d 1f c6 d6 3d f0 ec 60 bc 24 e1 31 3e
       0.11548746 0.10487007 -0.013728365 0.1737104
000290 87 44 46 be 21 58 0e be 66 00 10 be 73 e4 fa 3d
       -0.19362079 -0.13900806 -0.14062652 0.122506045
0002a0 40 3b 1b 3e 3e 4e 21 be 0d 42 0e be 9c e1 91 3d
       0.15159321 -0.15752503 -0.13892384 0.0712311
0002b0 4e 44 0c 3e 89 cc 34 be b8 73 b6 bd d3 b3 5a bd
       0.13697931 -0.17656149 -0.0890879 -0.05339415
0002c0 fa 07 cc bc f9 01 d8 bd 5e c0 25 3e d5 d0 38 be
       -0.024906147 -0.10547251 0.16186664 -0.18048413
0002d0 4c 14 37 be c1 03 b2 bc 4c fa c2 3e f3 e5 17 3e
       -0.17878836 -0.021730306 0.38081586 0.14833812
0002e0 6d 7c 04 3e e0 29 0b be 7b 69 02 3e 95 66 9f 3d
       0.1293809 -0.13590193 0.1273555 0.07783238
0002f0 8b 2c 94 bd 8c 64 2c be e1 41 c9 bd 33 a6 ec bd
       -0.072350584 -0.1683523 -0.098270185 -0.115551375
000300 08 a3 4e bd 3e e7 b7 bd 83 5d ae 3a 7e 6b f9 bd
       -0.050448447 -0.08979653 0.0013303015 -0.12178706
000310 6e 59 82 bd 86 de 72 3d 1a 68 5d 3d d7 9f 0d 3e
       -0.063647136 0.059294246 0.054054357 0.13830505
000320 c5 c0 fa bd 54 0b 7d bd b4 98 2f bf 39 5d 13 3e
       -0.12243799 -0.06177838 -0.6859238 0.1439103
000330 99 42 e8 bd 24 ee e5 3d 2f dd df 3c e7 2b 10 3e
       -0.113408275 0.11227062 0.027327148 0.14079247
000340 c6 1e a9 bd 83 d6 9b 3e 93 16 fc 3d c0 11 ef bd
       -0.08257823 0.30437097 0.12308993 -0.116733074
000350 00 45 3e 3e 1c b7 eb 3d 4f 62 fd 3d 0d 11 3d bf
       0.18581009 0.11509535 0.123722665 -0.7385414
000360 cf d2 89 3d c3 54 da bd 69 30 39 be cf d7 f4 3d
       0.06729662 -0.10660698 -0.18084873 0.11955225
000370 a0 96 de 3d a2 d2 1b 3e 30 66 b2 be d6 81 06 bc
       0.10868573 0.15217069 -0.34843588 -0.008209666
000380 ac d1 83 3e 5b 37 8b 3e 2c 8a a1 3e ad 32 65 3d
       0.25745904 0.2719067 0.3155073 0.05595653
000390 3e 40 40 3c 93 94 f7 bd 41 f7 19 3e e3 88 23 3e
       0.0117340665 -0.12088885 0.15035726 0.15970187
0003a0 18 24 b0 3b db 8f 5f be d9 59 66 3d 52 9f 2f be
       0.0053753965 -0.2183222 0.05623803 -0.1715062
0003b0 ac d2 19 be b3 40 eb bd 23 89 a5 bd e5 cc 9e be
       -0.15021771 -0.1148695 -0.080827974 -0.31015697
0003c0 c5 99 bc bc 94 91 f3 3d 72 7d c2 bd 5a fd e9 bd
       -0.023022542 0.11893001 -0.09496583 -0.11425276
0003d0 03 d7 e7 3d 96 04 3e bd ac 77 05 be 1d 9d 0e 3d
       0.11320307 -0.046391092 -0.13033932 0.034817804
0003e0 1a 05 e5 bc 12 1a c2 bc 3e 38 c6 3d fe 39 ed bb
       -0.027956534 -0.023694072 0.09678696 -0.007239579
0003f0 73 a8 8c bd 67 0d 47 be 45 a7 f8 3d 8e 69 9b 3b
       -0.06868067 -0.19438706 0.12141279 0.0047428077

fc1.bias f4 [100]
000000 41 ff 4b be 89 d9 86 be 4e 88 93 be 79 05 81 be
       -0.1992159 -0.2633784 -0.2881493 -0.25199488
000010 6b 87 82 be 47 0a a4 be ad 0f 23 be 59 bc 5d be
       -0.2549394 -0.3203909 -0.15923949 -0.2165388
000020 6d 13 e5 be 2d 24 63 be db 4e 64 be af dc 43 be
       -0.44741383 -0.22181769 -0.22295706 -0.19127153
000030 19 75 08 be 64 5d 7e be c8 50 8c be 28 51 a9 be
       -0.13325919 -0.24840313 -0.2740538 -0.3306973
000040 8e 07 5b be c0 69 78 be 1a 46 e3 be a6 81 20 be
       -0.213896 -0.2425909 -0.4438942 -0.15674457
000050 7f 79 ee bd d7 8a a5 be 6e 18 3b be 81 74 03 be
       -0.11644267 -0.3233249 -0.18271038 -0.12837411
000060 0f ae d4 be b6 b1 6c be aa 47 6f be 32 e1 23 be
       -0.41539046 -0.23114666 -0.23367181 -0.16003874
000070 bf c7 a2 be ec b2 06 be bc e7 fe be b7 60 b5 be
       -0.3179302 -0.13154191 -0.49786174 -0.3542535
000080 ad d1 90 bd 46 35 1e be ed 03 85 be 26 d4 d3 be
       -0.070712425 -0.1545001 -0.25979558 -0.41372794
000090 c5 f4 b5 be 34 ad a1 be d2 f2 e6 be d5 bd c1 be
       -0.35538307 -0.31577456 -0.45107132 -0.37840143
0000a0 e4 53 a3 be 7b 4d c7 bd 77 8f a3 be 08 e9 b8 be
       -0.3189994 -0.09731575 -0.31945392 -0.3611529
0000b0 eb c8 8e bd 9a 8b 82 be 65 05 a3 be 5f 56 86 be
       -0.06971916 -0.25497133 -0.31840053 -0.2623777
0000c0 9c 4f bb be 66 0f 37 be 70 02 d7 bd c2 e1 b7 be
       -0.36584175 -0.17876968 -0.10498512 -0.35914427
0000d0 bc c2 ea bc 03 15 7d be 23 a0 5c be 71 21 43 be
       -0.02865731 -0.24715047 -0.21545462 -0.19055726
0000e0 b1 6b d9 be 76 0a c6 be 6d cd 18 be 7f 60 ba be
       -0.42464975 -0.38679856 -0.14922114 -0.36401746
0000f0 f9 c1 b7 bd 55 d5 c5 be c2 fa 02 bf ab f9 aa bd
       -0.08972544 -0.38639322 -0.51163876 -0.08348402
000100 18 53 81 be 4a 1d 90 be 54 9e 88 be 13 3a 5a be
       -0.25258708 -0.28147346 -0.26683295 -0.21311216
000110 4e 38 da be 7e 50 d0 be 9e f6 d5 be cb 98 56 be
       -0.42621082 -0.4068641 -0.41789716 -0.20956723
000120 30 07 4a be fb 29 6b be 7c 36 8d be a1 29 9f be
       -0.19729304 -0.22965233 -0.2758063 -0.31086448
000130 23 e1 ac be 80 95 47 be a4 a1 12 be 97 90 74 be
       -0.33765516 -0.19490623 -0.14319474 -0.23883282
000140 08 3d 15 be 6e 66 a8 be 6e 06 7d be 14 b6 48 bd
       -0.14574063 -0.32890648 -0.24709484 -0.04900177
000150 4d dd f0 bd fb 06 ae be c8 84 bc bd 0f 04 42 be
       -0.1176096 -0.339897 -0.092050135 -0.1894686
000160 6e ce 9c be c8 49 c9 be d4 a6 4a be f5 d4 96 be
       -0.30626243 -0.39314103 -0.19790202 -0.29459348
000170 2e 84 11 be 6e d4 ea be 2c 49 1a be ce 3f 2a be
       -0.14210579 -0.45865196 -0.15066975 -0.16625902
000180 d2 35 55 be 40 b5 bd be 07 e6 5e be d3 c7 82 be
       -0.20821312 -0.37052345 -0.21767436 -0.2554308

fc2.weight f4 [50, 100]
000000 60 47 83 3e e1 26 05 be d9 5b 07 3d db 18 5e be
       0.25640392 -0.13003112 0.033046577 -0.21689169
000010 13 8f d5 be e6 82 60 3b 29 0f fd be c5 2c 98 3c
       -0.4171072 0.003425771 -0.4942563 0.018576035
000020 59 ab d7 be d6 b9 9b 3e 81 6d da bc 72 5f 8f 3e
       -0.42122915 0.3041522 -0.026663544 0.28002506
000030 26 8f 78 3e 61 58 3f bf 21 36 2d 3c c5 40 69 be
       0.24273357 -0.7474423 0.010571987 -0.22778614
000040 c4 26 fa 3e a3 c6 0b bc d4 98 3e 3e 9d 97 e7 bd
       0.488577 -0.008531245 0.18612987 -0.11308215
000050 a3 62 19 3d 19 75 2f 3c e9 2f 2e bf ad e6 d4 3b
       0.037447583 0.010709071 -0.68041855 0.0064972253
000060 53 de 48 bf ab e8 86 3e 38 dd 10 3e 6e 76 7f 3e
       -0.7846424 0.26349387 0.14146888 0.24947521
000070 ab 7c 37 bd 71 29 3a be b6 cc 45 be 60 98 95 3e
       -0.044796627 -0.18179871 -0.19316372 0.29217815
000080 a3 65 2f bf 5a 31 92 3e 4b 49 7f 3e d8 98 bf 3d
       -0.6851446 0.28553277 0.24930303 0.093553245
000090 5b 44 a7 be 9b 18 1c be 80 86 11 bd 34 8b 82 be
       -0.3266934 -0.15243761 -0.03552866 -0.2549683
0000a0 7e 3a a1 be ee 84 2e bf 5e a7 56 be 43 2e 17 bc
       -0.31489938 -0.68171585 -0.20962283 -0.009227338
0000b0 7c 71 27 bf 4a 8c 97 3c 3a 95 36 3c 71 1a 90 be
       -0.6540754 0.018499512 0.011143977 -0.28145173
0000c0 57 b3 04 bd a1 fe 27 bf fb 97 d3 3e 4c 16 80 be
       -0.032397594 -0.6562291 0.4132689 -0.2501701
0000d0 41 4d b9 3e b8 ad ad bd 9b 35 f0 3d e4 e7 c7 bd
       0.36191753 -0.084804 0.117289744 -0.097610265
0000e0 24 28 73 be 54 51 ed be 59 b9 31 bf df 31 22 3e
       -0.23745781 -0.4635111 -0.69423443 0.15839337
0000f0 5b 84 b0 be a3 42 49 3d bd b0 b0 be e7 e2 26 bf
       -0.3447598 0.049135815 -0.3450984 -0.65189976
000100 fc bd c8 3d d1 e8 7e 3c e6 10 0f 3f 34 1f 36 be
       0.09801862 0.015558437 0.5588516 -0.1778534
000110 a2 a6 0a bf e2 af 57 bd 25 e1 c5 be 5a f9 d3 bd
       -0.5416051 -0.05265797 -0.38648334 -0.103502944
000120 4b 8e d7 be 03 fc 12 3e 97 25 a2 3c 62 2f 6b bc
       -0.42100748 0.14353947 0.019793315 -0.014354559
000130 7e b1 46 bd c0 e6 b3 3e d9 06 a8 3e 9f 63 6a 3e
       -0.048509113 0.35136986 0.32817724 0.22889565
000140 a1 1b 23 bf 65 ab 3f 3d b9 f7 3b be d8 98 38 3e
       -0.63714033 0.046794314 -0.18356217 0.18027055
000150 21 3f 24 3e 5d 95 b6 3d 9f ba e2 3e 12 8b 31 bf
       0.16039707 0.089152075 0.44283006 -0.6935283
000160 f5 fa c3 bd a9 75 42 be c4 f4 3b 3e a0 49 c6 3e
       -0.09569351 -0.18990196 0.1835509 0.38728046
000170 6a 25 6d bd 95 6c 16 bf a0 75 06 be a3 70 af 3e
       -0.05789701 -0.58759433 -0.13130808 0.34265622
000180 98 f1 0c be 88 28 74 be e6 1d a0 3e 65 20 27 3e
       -0.13764036 -0.23843586 0.3127281 0.16320951
000190 70 54 0f bf 33 05 5b 3e 72 5d 00 be 58 d2 ff bd
       -0.55988216 0.21388702 -0.12535647 -0.12491292
0001a0 16 3a c3 be 1e 90 10 bf 5a a4 75 3e 25 fe bd be
       -0.38130254 -0.56469905 0.23988476 -0.3710796
0001b0 5e 51 af be f4 13 5b be bd 78 f1 bd 92 51 c3 3e
       -0.34241766 -0.2139433 -0.11790607 0.3814817
0001c0 a0 28 a8 bd 76 61 0e bd 57 f5 18 3e 5d 5a d6 be
       -0.082108736 -0.034760915 0.1493734 -0.41865817
0001d0 5f 2c 06 3e e7 7a ae bd 2a d2 c8 3e b7 23 00 3e
       0.13102864 -0.085195355 0.39222842 0.12513624
0001e0 e0 81 6b 3e 34 26 26 3d 66 2d 4c bd 69 31 aa 3d
       0.22998762 0.040563777 -0.049847983 0.083102055
0001f0 d7 ab 5c 3e 11 78 b3 be 53 9b cc bd ff 08 79 be
       0.21549927 -0.3505254 -0.09990563 -0.24319838
000200 e7 1f 67 3e e2 69 dd be a7 ff 87 3e 5b dd e0 3e
       0.22570764 -0.43244845 0.26562235 0.4391888
000210 5b 38 07 be 8d 81 d7 3d 4b c8 de be 1d 3d a2 bc
       -0.13205092 0.10522757 -0.43512186 -0.019804532
000220 a1 1d ee be c3 52 95 bd 9e 4a 9f 3d e3 76 a2 be
       -0.4650698 -0.07291176 0.07777904 -0.31731328
000230 30 0d 6e be 24 ad 4c bf c8 60 4d be e5 69 0d be
       -0.23247218 -0.7995169 -0.2005645 -0.13809927
000240 26 d2 40 bf 64 94 ab be d3 cb bc be 78 08 5e be
       -0.7532066 -0.3351165 -0.36874256 -0.21682918
000250 77 8a e5 be bb 73 82 be 7e ea d4 be 36 68 e8 3d
       -0.44832203 -0.2547892 -0.41585153 0.11348002
000260 c3 2b 33 be 69 5b 0f 3d 0d 1b c8 3e 85 39 52 be
       -0.17497163 0.034999285 0.39083138 -0.20529754
000270 77 de 76 be b4 eb e6 be f1 48 fd 3d 32 05 9f bd
       -0.24108301 -0.45101702 0.12367428 -0.07764663
000280 95 16 13 3f 27 b6 97 bd 93 16 df bd 8b 7e 5b bd
       0.5745633 -0.0740779 -0.108929776 -0.053587478
000290 b9 f5 8c be 50 f8 c6 be 6a 2a 4e be 66 a7 5f 3e
       -0.27531222 -0.38861322 -0.20133367 0.21841201
0002a0 09 aa 83 bd c2 0b 43 3e e8 00 8d be 3b a0 5b 3e
       -0.06428916 0.19047454 -0.27539754 0.21447842
0002b0 8f 2c 0a 3f 1c 80 15 bf 9d ac 08 3e 59 ec a9 be
       0.5397424 -0.58398604 0.13347097 -0.3318813
0002c0 ec bd a1 3e 05 12 86 bd fc 6e b3 3e a6 f6 b0 3e
       0.3159021 -0.06546406 0.35045612 0.34563178
0002d0 1b d4 b2 bd 52 a3 ac bc d3 24 38 3e 5a 89 de 3e
       -0.08731862 -0.021073971 0.17982797 0.43464166
0002e0 fa bf b3 3e 1b 9c d5 bd 31 dd 69 3e d9 8b 6a 3d
       0.35107404 -0.104301654 0.22838284 0.057262275
0002f0 a6 ab 90 3d 57 ba 2c be 54 53 c4 be 42 cb 4d bd
       0.07063989 -0.16867958 -0.38344824 -0.05024267
000300 02 7b dc be ba 42 2c be db b3 14 bf 10 c4 91 be
       -0.43062598 -0.16822329 -0.5808694 -0.28469896
000310 f2 13 54 be bd 25 af bd e0 61 ab bd 49 72 68 3d
       -0.20710734 -0.0855212 -0.083682775 0.056749616
000320 59 bc 93 3e 5a b9 52 3e a6 73 9d 3e 0d 3f 3c 3e
       0.28854635 0.20578519 0.30752295 0.18383427
000330 95 f7 aa 3e 07 de b7 3e 71 b4 7e 3e 70 ec 99 3e
       0.33392015 0.3591158 0.2487352 0.300632
000340 74 27 6d 3e e0 47 08 3e aa b0 56 3e 2f d8 52 3e
       0.23159581 0.13308668 0.2096583 0.2059028
000350 26 6d 46 3e 62 fc a6 3e e0 50 42 3e be 24 d0 3e
       0.19377574 0.32614428 0.18976164 0.40653032
000360 e3 27 74 3e 7b d4 b7 3e 42 c0 de 3e e7 a2 73 3e
       0.2384334 0.35904297 0.43506056 0.23792611
000370 f7 f6 8b 3e 36 d6 50 3e b6 3a a2 3e 1f ee 5d 3e
       0.27336857 0.20394215 0.31685418 0.21672867
000380 f9 5f f1 3e 65 d6 86 3e ad 58 59 3e 73 92 12 3e
       0.47143534 0.26335445 0.21225233 0.14313678
000390 33 05 53 3e fc 87 6c 3e c7 85 ad 3e 8a 4d aa 3e
       0.20607452 0.23098749 0.33891127 0.33262283
0003a0 3f 8a 6c 3e 88 12 99 3e 84 2c a1 3e 94 49 ba 3e
       0.23099612 0.2989695 0.31479275 0.3638426
0003b0 44 a8 aa 3e 79 79 5c 3e ad 11 fe 3e db cb 4f 3e
       0.333315 0.21530713 0.4962286 0.20292608
0003c0 77 11 2d 3e 94 5d 6b 3e 60 25 36 3e a5 76 d2 3e
       0.16901194 0.22984916 0.17787695 0.41106144
0003d0 c5 32 6f 3e 79 ef 32 3e 7f 71 7c 3e c1 36 a3 3e
       0.23359211 0.17474164 0.2465267 0.3187771
0003e0 fd e3 92 3e 61 53 44 3e 06 8b ca 3d 7e bc 65 3e
       0.28689566 0.19172432 0.09889798 0.22435185
0003f0 23 34 7a 3e dd 53 87 3e e2 89 8c 3e eb 2f 62 3e
       0.24433951 0.2643117 0.27448946 0.22088592

fc2.bias f4 [50]
000000 97 e4 49 3f 28 b8 7f 3e c6 ff 9a be b6 bc 24 3f
       0.78864425 0.24972594 -0.30273265 0.6435045
000010 ff 3b 52 3f 69 e3 a7 be 06 e2 de bd 7d d6 bd 3d
       0.82122797 -0.32790688 -0.10882954 0.09269426
000020 ae 30 1e 3f a2 f9 55 3f 28 d8 75 3e ea f3 fe 3e
       0.6179303 0.83584034 0.24008238 0.49795467
000030 1d 87 2c 3f 73 98 1c 3f ac f0 a0 be 6b 62 8a be
       0.67393667 0.6117012 -0.31433618 -0.27028212
000040 35 b4 50 3f a9 39 5c be f0 73 b5 be ee e4 5e 3f
       0.81524974 -0.2150637 -0.35440016 0.8706807
000050 77 e0 95 be 01 2c 5d be c5 ce 84 3e 61 cc b9 be
       -0.29272816 -0.21598817 0.25939003 -0.3628874
000060 36 6b 6e bd 9f f2 ab 3e d4 61 5c be 73 2f 63 be
       -0.058207713 0.33583543 -0.21521693 -0.22186069
000070 92 f4 4a 3f 43 4e 85 be bb 7d 0f bc 32 dd b0 be
       0.79279435 -0.2603627 -0.008758004 -0.3454376
000080 57 38 bb 3e 03 c9 0a 3f 15 a0 37 ba 37 fe 99 be
       0.3656642 0.5421297 -0.000700475 -0.30076763
000090 2c 91 3c be d7 c0 27 3f cc b4 3d 3f 93 13 2e 3f
       -0.18414754 0.65528625 0.74104 0.6799862
0000a0 51 f7 01 3f 16 b8 1e be d3 0f 91 be 5b 09 8d be
       0.50768 -0.1549991 -0.28332385 -0.275462
0000b0 f3 89 2b 3f 0b fc 94 be 6b 31 4d 3f d6 72 47 3f
       0.6700737 -0.29098544 0.8015353 0.779096
0000c0 3b 07 33 3f 3d 7f 90 be
       0.6993291 -0.28222075

fc3.weight f4 [1, 50]
000000 d6 22 78 bf 72 dd b7 bf d2 e4 00 3f ba ca 91 bf
       -0.96928155 -1.4364455 0.5034915 -1.1389992
000010 df 27 b2 bf 31 ec bd 3e 0c c4 a4 bb cb c7 c0 be
       -1.3918418 0.37094262 -0.0050282534 -0.3765243
000020 aa e9 99 bf 6c bb a0 bf a6 25 4e bf 5f 7a 8a bf
       -1.2024434 -1.2557197 -0.80526197 -1.0818595
000030 0e 27 bc bf e4 2a 62 bf 20 40 c5 3e b3 ee dd 3e
       -1.4699419 -0.88346696 0.38525486 0.43346176
000040 a7 23 cf bf 2e 90 f2 3e b1 80 c5 3e b3 40 5f bf
       -1.6182755 0.47375625 0.38574746 -0.872081
000050 6a 82 d4 3e 63 72 f6 3e 2a 4a 8a bf ec 77 d2 3e
       0.41505748 0.48134145 -1.0803883 0.41107118
000060 e9 33 b4 bd 0e 8c 74 bf cb 3b fe 3e 1e 52 c7 3e
       -0.087989636 -0.95526206 0.49654993 0.38929838
000070 14 e0 ab bf 73 18 f3 3e dd 4d d8 3d af 6c c2 3e
       -1.3427758 0.4747959 0.10561726 0.37973544
000080 3a de 81 bf e4 a6 7f bf dc f2 bf bd 7d 73 ce 3e
       -1.0145943 -0.9986403 -0.093724936 0.40322486
000090 90 76 ed 3e 72 b1 6b bf dd 43 14 bf 38 8c 6b bf
       0.46379519 -0.92067635 -0.5791605 -0.9201083
0000a0 e2 16 40 bf 6a 2c df 3e d8 f1 cf 3e bc 5a c5 3e
       -0.75034916 0.43588573 0.406142 0.38545787
0000b0 7d 73 9f bf 02 f0 c1 3e a2 72 b5 bf 4f 57 8a bf
       -1.2457119 0.37878424 -1.4175608 -1.0807894
0000c0 ca 5e a3 bf f3 74 db 3e
       -1.2763302 0.42862663
