Radiomics_local_global_framework/models/lasso_feature_selection/Neural_Network/global_flair_t1ce___local_flair_t1ce/model.pt (torch, 271668 bytes, 5 tensors)

fc1.weight f4 [100, 621]
000000 71 fd ca bc 40 63 46 3d d9 17 e3 3c 18 3e 25 ba
       -0.024779053 0.048434496 0.027721332 -0.0006303503
000010 97 ad 2e bc 48 85 01 bc 62 66 76 3b ad c3 3b bc
       -0.010661504 -0.007905312 0.0037597646 -0.011460227
000020 6d 59 b0 3d 96 11 33 3c b2 2e 0a bd bf b6 8b 3b
       0.086108066 0.010929486 -0.03373594 0.0042637284
000030 07 eb d5 3d f2 8e 9a bc 00 bb 51 bc e8 f4 df 3c
       0.104452185 -0.01886699 -0.012800932 0.02733846
000040 62 36 47 bd 7c 0f d4 bc 90 69 1a bb f7 1a d1 3c
       -0.048635848 -0.02588629 -0.0023561455 0.025525553
000050 92 12 2e 3d a4 0d e3 bb bf 06 c1 3c b0 de 00 bc
       0.04249818 -0.0069291163 0.023562787 -0.007865593
000060 8c 26 c5 3b f6 de cf bb a0 04 6a bc 3a 50 2b 3d
       0.006016558 -0.0063437177 -0.014283329 0.041824557
000070 89 33 e2 3c a7 ed 4b bd 7f db c8 bd 90 56 2a 3c
       0.027612465 -0.04978719 -0.098074906 0.010396615
000080 97 a6 c2 3b da 8a 69 3d 85 62 bd bc 15 e9 3b bd
       0.005940269 0.057017185 -0.023118267 -0.04587658
000090 32 d8 00 bc 36 bb 94 3c ad f8 a0 bd 99 0c 93 3c
       -0.007864045 0.018155675 -0.07859931 0.017950343
0000a0 3e d3 0e 3d 06 17 e7 bd 25 60 b2 bc e5 8b 8b bd
       0.034869425 -0.11283688 -0.02177436 -0.06813792
0000b0 d8 d2 e5 3c a0 b6 ae bb ef 67 8b 3d fd 51 14 bc
       0.02805464 -0.005331829 0.06806933 -0.009052751
0000c0 f7 1d 1a be 18 01 47 3d 2d 20 2e bd 41 bc ae 3c
       -0.15050493 0.048585027 -0.042511154 0.02133
0000d0 1c 57 83 3d 74 f6 05 bc 2c 3e 08 3d 0f 6f 8b 3c
       0.06413099 -0.008176435 0.033262417 0.01702073
0000e0 7c 69 4f 3d ee 55 ac bc 16 5f 8c 3c 19 ef 1b 3d
       0.050637707 -0.021037068 0.017135184 0.03806982
0000f0 82 c1 7f bd bc 43 72 bc 1a 65 ea 3c c9 11 4c 3b
       -0.062440403 -0.014786657 0.028612662 0.003113853
000100 4b ec f6 3d c3 41 6a 3d 95 22 f6 bc 6c 77 2b bd
       0.12056788 0.05719162 -0.030045787 -0.041861936
000110 9b 07 42 bd cc 06 2e 3d 23 c1 08 3d fe 12 23 bd
       -0.047370534 0.04248695 0.033387315 -0.039813034
000120 6c 8c 3c 3d a4 3c 31 3d 20 74 85 bd e3 06 96 3d
       0.046032354 0.043270722 -0.0651629 0.07325532
000130 b2 f5 38 bd 5f 5e 00 3e cb b3 81 bd 97 1a cb 3a
       -0.04515619 0.12536 -0.06333121 0.0015495595
000140 fb a8 8d bd dd 45 3e 3d cc 53 25 bd aa 82 43 bd
       -0.06916996 0.046453346 -0.040363118 -0.047732033
000150 b1 19 06 3c 29 54 d6 3a 6a 16 60 bd 0c 9e a9 3c
       0.008184836 0.0016351986 -0.054708876 0.020705245
000160 c2 b1 3a bc d6 40 eb 3c a3 34 d3 bd 65 64 27 3d
       -0.01139492 0.02871744 -0.10312774 0.040867228
000170 1e ce 44 3c 06 14 74 3c 32 8f 99 3c 6e ba 7e bc
       0.012012033 0.014897352 0.018745039 -0.015547378
000180 35 b9 3d 3c e8 af 33 bd 9a 8a 2d 3d 66 8c 51 bd
       0.011579801 -0.04386893 0.04236851 -0.051159285
000190 36 6e 84 3b 8a 22 04 3d c1 2b 96 bc 72 47 5f 3d
       0.0040414585 0.0322595 -0.01833141 0.054511495
0001a0 70 b2 b5 bc 24 0c ea 3a f7 50 51 bd 8d 28 01 bd
       -0.022179812 0.0017856401 -0.051102605 -0.031532813
0001b0 d4 87 7a 3d 65 3b a5 3c ba 44 b4 bc c9 45 26 3d
       0.061164692 0.020169923 -0.022005428 0.040593896
0001c0 eb a6 b8 3c 71 3c 29 bd 9a 44 b5 bb cc 59 1b be
       0.02254053 -0.041317407 -0.0055318596 -0.15170974
0001d0 70 7e 86 3b 6b b3 96 3c 9c fc df 3c c6 61 bd 3b
       0.004104428 0.0183961 0.027342133 0.005779478
0001e0 e1 d6 a0 bd 3e 68 b4 ba 14 fd 42 3d 9b 7a 4d bd
       -0.07853485 -0.0013763977 0.047604635 -0.050165754
0001f0 6d 27 cb bc 36 39 29 3e f7 ba c5 ba 99 77 26 bd
       -0.024799073 0.1652573 -0.0015085627 -0.0406414
000200 a8 3b 68 3d db 52 92 bc ea be c3 3d 70 1c 1c bd
       0.056697518 -0.017861774 0.09557898 -0.038113058
000210 65 bc 57 3d ff b4 a7 3c b8 48 dc bc c3 26 ff bd
       0.0526699 0.020472048 -0.026890144 -0.12458565
000220 7b c9 55 b9 ac 9b e9 bc 9d 0b 8a 3c 63 f9 3a 3d
       -0.0002038832 -0.028516613 0.01685124 0.04564799
000230 9e 7d 6f 3d 41 8c 08 3c 05 46 d6 3c 22 0f 0a bd
       0.058469407 0.00833422 0.026156435 -0.033705838
000240 0c f3 8a 3b ad bb 8e bd b0 05 e2 bd 83 a5 d0 bc
       0.004240399 -0.0696939 -0.11036241 -0.025469547
000250 fe 12 ec 3d a9 0f 03 bd 16 5c cb bd f5 27 6a 3c
       0.1152706 -0.031997357 -0.099296734 0.014291753
000260 e8 77 b5 3c 31 d2 ae bd f2 e9 3f 3d c0 49 d6 3a
       0.022151902 -0.085361846 0.046853967 0.0016348884
000270 a3 94 21 bc c6 f6 0e bc 3f c9 dd 3c c8 bf 7b 3c
       -0.009862098 -0.008725828 0.0270735 0.015365548
000280 1a 73 0e bd a6 d1 da bd 7e e0 ae bc ae 1f 31 bd
       -0.03477774 -0.106845185 -0.02134728 -0.043243103
000290 da bc 8a 3d 3a 2b e3 bc da 90 90 3c 1b 4d 82 3d
       0.06774302 -0.027730573 0.017647196 0.06362363
0002a0 7e 82 f1 bd ef 43 21 3c 0f 8b 35 bd 34 cc 19 3c
       -0.117924675 0.009842857 -0.04432207 0.009387065
0002b0 3b 88 a2 bc 38 8e 02 3d 35 32 85 bd 13 bf 8a bd
       -0.01984035 0.03187391 -0.06503717 -0.06774726
0002c0 bc 7b e3 bd 16 75 81 3c 96 16 aa 3c 13 17 cb 3c
       -0.11107585 0.015802901 0.020762723 0.024791276
0002d0 2e f8 ff 3b da ca 26 3d a0 cb e9 bc 3f 48 44 bd
       0.0078115677 0.040720798 -0.028539479 -0.04792046
0002e0 ea e4 49 3d 88 2d 28 be ab 9d 40 3b 8c 71 31 3b
       0.049290575 -0.16423619 0.0029390852 0.0027075736
0002f0 d9 0f 0b bd 95 2c 94 3d d9 89 93 3d 97 a6 29 bd
       -0.03395066 0.07235066 0.07204027 -0.041418638
000300 cd 4a 80 3d 70 63 5b bb e3 2d b5 bd 90 bd c7 bb
       0.06264267 -0.0033476017 -0.08846643 -0.0060955957
000310 fb 1a 1f bd 57 8d 93 bc e4 68 72 bb 03 3e 98 bd
       -0.03884409 -0.018011732 -0.003698879 -0.07433703
000320 c3 41 12 3d 12 be e3 bb 97 2f 8c bc e1 53 e4 3d
       0.035707247 -0.0069501484 -0.017112536 0.11148811
000330 34 80 a3 bb 2e 0b a8 bb 2d b0 be bc 03 3e b4 bb
       -0.0049896482 -0.005128286 -0.023277367 -0.0055005564
000340 1e a2 cd 3d 7d b4 20 3d 7a 3b 01 bc ec 41 25 bd
       0.10040687 0.039234627 -0.0078877155 -0.04034607
000350 c9 6e bb bc 90 a4 8e 3d 73 1a b2 3d cc 4d c9 3b
       -0.022879975 0.069649816 0.08696451 0.0061433073
000360 73 bd ea bc 28 1a 1f be de b7 d1 3b c1 14 18 3e
       -0.02865479 -0.15537322 0.0064000925 0.14851667
000370 cf 12 dd 3d 3d 0a 56 bd 3e 58 8b bd 29 ff b8 3d
       0.10794603 -0.052255858 -0.0680394 0.09033043
000380 98 d6 a7 3d 74 d7 c7 3c fe 01 6d 3d d8 e2 64 3d
       0.081952274 0.024394728 0.057863228 0.055880398
000390 d1 a0 07 3d 24 83 91 3d ef 14 b4 bd 78 21 a9 3b
       0.03311235 0.07105091 -0.08793055 0.0051614605
0003a0 fa 89 bb bd 86 24 51 3d e2 0a 05 3d 9a 6c e8 bd
       -0.09157176 0.051060222 0.03248108 -0.11348839
0003b0 2b 88 2b be 49 1e 11 3e bc c0 da 3c bd 2d 7c 3d
       -0.16751163 0.14171709 0.026703231 0.061567057
0003c0 bf 7d e9 3d 2a 6e 56 bd a6 4c 65 3d d6 85 e4 3c
       0.11400937 -0.052351154 0.0559813 0.02789585
0003d0 e2 0b 62 3d 63 54 9e bd 16 a1 5c 3d 37 e9 92 3d
       0.055187114 -0.07730939 0.05386456 0.071733885
0003e0 b9 c5 af 3d b6 00 6b 3d 4a 1f 3f 3d 36 4d 58 bd
       0.085826345 0.057373725 0.0466607 -0.05280801
0003f0 da f4 fb bd 0f 72 b8 3d 5a c9 09 3d ba 9d 55 bd
       -0.12302561 0.0900613 0.03363929 -0.052152373

fc1.bias f4 [100]
000000 8b d7 37 bc 40 a1 85 be c0 b9 c4 be 87 f6 2c be
       -0.011220823 -0.26099586 -0.38422966 -0.16890918
000010 4d 5f 9d be 48 ad 51 be 66 bd 7d be 5e 20 cd be
       -0.3073677 -0.20476258 -0.24779281 -0.40063757
000020 5e d5 db be 8c 96 d9 be a9 48 8c be 6b 4d 94 be
       -0.42936224 -0.4249767 -0.27399185 -0.28965315
000030 c2 7c 2d be c0 36 d6 be 14 7e 89 bd be 2a de be
       -0.16942123 -0.41838646 -0.067135006 -0.43391985
000040 7c 03 b4 be 3b d7 83 be a1 9f dd be fb e5 9a be
       -0.35158908 -0.25750145 -0.4328585 -0.30253586
000050 a1 bf 9c be 2d 6b 8f be d7 81 3b be 8f 4e a4 be
       -0.3061495 -0.28011456 -0.18311249 -0.32091185
000060 87 4f 28 be 7d d1 91 be fa 14 5b be a9 98 9a be
       -0.16436587 -0.2848014 -0.2139472 -0.30194595
000070 c1 18 a3 be c1 4a 8a be 34 0c 7c be ff 68 16 bf
       -0.31854823 -0.27010158 -0.2461403 -0.5875396
000080 0f 5e 62 be 4b dc 0b be 7d ad d6 be 95 b0 ac be
       -0.22106193 -0.13658254 -0.41929236 -0.3372847
000090 21 5f 51 be 8a 1d 09 be e6 9a 42 be 66 8a 4b be
       -0.20446445 -0.13390175 -0.19004402 -0.19877014
0000a0 3f e6 92 be d1 b6 53 be 94 d0 ab be ec ae 7b be
       -0.2869129 -0.20675208 -0.3355757 -0.24578446
0000b0 de 57 18 be b3 75 9f be 64 dc 33 be e7 ba 60 be
       -0.14877269 -0.31144485 -0.17564541 -0.21946298
0000c0 f3 62 c3 be 48 c0 70 be 8b 2c 00 bf 29 da d2 be
       -0.3816143 -0.2351085 -0.5006797 -0.41182068
0000d0 43 c4 78 be 19 39 9a be e8 5e e8 be f0 19 78 be
       -0.24293618 -0.30121687 -0.45384908 -0.24228644
0000e0 20 82 0a be 33 40 95 be f9 22 09 be 8c ac 7d be
       -0.13526201 -0.29150543 -0.13392247 -0.24772853
0000f0 9d be 0d bf c4 da d2 bd 9f fd 8e be 61 69 cb be
       -0.5536898 -0.102956325 -0.27927873 -0.39728835
000100 a1 0f 8c be da 77 05 be 8d c4 79 be f7 98 7b be
       -0.27355674 -0.13034001 -0.24391384 -0.2457007
000110 97 d9 db bd 1c 0d 42 be 54 b5 0f be 9e 1e 58 be
       -0.10734861 -0.18950313 -0.14034015 -0.2110543
000120 a2 db 9e be ed 2f bf be ba c8 71 be 08 94 71 be
       -0.31026942 -0.37341252 -0.23611727 -0.23591626
000130 da 4f 90 be 14 ea 2d be 38 4a be be f8 a0 4c be
       -0.28185922 -0.16983825 -0.37166 -0.1998328
000140 7c c6 2b be e1 db 0d bd 74 25 62 be 88 42 12 be
       -0.16774935 -0.03463352 -0.220846 -0.14283192
000150 78 30 05 be cd 7b 92 be 58 5e ee bd fa 74 ab be
       -0.1300677 -0.28610078 -0.116390884 -0.33487684
000160 dd dd 55 be 50 46 66 be f5 8f 0d bf a5 8c 44 be
       -0.20885415 -0.2248776 -0.55297786 -0.19194277
000170 58 6f 81 be cc cf 58 be f1 63 b9 be 94 73 9d be
       -0.2528026 -0.21173018 -0.36209062 -0.30752242
000180 0b a4 0d be 2a e9 6a be a3 82 ad be 02 81 c2 be
       -0.13832109 -0.22940508 -0.3388873 -0.3798905

fc2.weight f4 [50, 100]
000000 ea e2 ce 3d 43 41 5b 3e 5e 1a 66 3e b0 9b 9f 3e
       0.10101874 0.21411614 0.22470996 0.31173468
000010 8a 2c 30 3e a2 c0 34 3e b5 4b ae 3e 69 66 a0 3e
       0.1720449 0.17651609 0.34042135 0.31328133
000020 a5 e7 ca 3e 08 5c 9a 3e 08 44 20 3e 2f 73 71 3e
       0.39629856 0.3014834 0.15650952 0.23579095
000030 98 8c 4a 3e c4 3d a6 3e 71 5b 78 3e 92 38 a5 3e
       0.19780195 0.32468998 0.24253632 0.32269722
000040 3e 0b 5d 3e 77 3e 18 3e e6 ef 9c 3e ae 68 8a 3e
       0.2158632 0.14867578 0.30651778 0.2703299
000050 43 54 73 3e cd 64 7e 3e 0a f4 a6 3d ab 91 b1 3e
       0.23762612 0.2484314 0.081520155 0.34681448
000060 92 94 2d 3e 3c 6e 00 3e 95 e9 a9 3e 55 9a 4b 3e
       0.16951206 0.12542051 0.3318602 0.19883092
000070 ff bf 9c 3e 4c 46 2f 3e 0b 71 ab 3e cf b4 e1 3e
       0.3061523 0.1711666 0.33484682 0.44083259
000080 3e 06 b0 3e dd 3d 07 3e 3d 26 f1 3e 2b 39 85 3e
       0.34379762 0.13207193 0.47099486 0.26020178
000090 25 cf 59 3e 74 62 b1 3e fb 7f 27 3e fd a9 16 3e
       0.21270426 0.34645426 0.16357414 0.14713283
0000a0 7c 6b 59 3e a0 1e 82 3e 59 51 f7 3e 06 06 85 3e
       0.21232408 0.2541399 0.4830425 0.25981158
0000b0 36 a3 ed 3d 7e a8 33 3e f9 2f 96 3e 84 98 61 3e
       0.11603396 0.17544743 0.29333475 0.22030836
0000c0 f6 49 a4 3e fa e6 14 3e c8 06 a9 3e 1f 43 52 3e
       0.32087678 0.14541236 0.33012986 0.20533417
0000d0 44 6e c6 3e 1f 06 94 3e 32 ea dd 3e 7e f0 84 3e
       0.38756 0.2891092 0.4334274 0.2596473
0000e0 31 c7 35 3e e6 dc ba 3e 84 63 ac 3e e8 7a 71 3e
       0.17751767 0.36496657 0.33669674 0.23582041
0000f0 33 5c 40 3e 54 4d 72 3e 06 b0 1a 3e 5b 64 96 3e
       0.18785171 0.23662311 0.1510621 0.2937344
000100 9c a1 af 3e 22 3d 95 3e 1b 1c 29 3e 0a fb 1a 3e
       0.34302986 0.29148203 0.16514628 0.15134826
000110 62 38 77 3e 17 9e 9a 3e 76 ec ae 3d c6 af 6e 3e
       0.24142602 0.30198738 0.08541195 0.2330924
000120 cf d1 39 3e 5b 63 13 3e 79 33 39 3e 62 a5 8b 3e
       0.18146442 0.1439337 0.18086042 0.27274615
000130 ca b8 98 3e a9 3f 91 3e d4 6d 8d 3e 62 ad 63 3e
       0.29828483 0.2836888 0.27622855 0.22234109
000140 0f ac 54 3e a2 d0 09 3e 59 47 3e 3e ae d4 71 3e
       0.2076876 0.13458493 0.18581904 0.23616287
000150 de c4 98 3e 2b e1 83 3e 6c 82 97 3e fa 6f 38 3e
       0.29837698 0.25757727 0.29591691 0.18011466
000160 71 8d 2b 3e 23 8b 89 3e c3 d2 a5 3e 6b 0c 00 3e
       0.16753174 0.26863965 0.3238736 0.12504737
000170 8f bf 47 3e 63 c8 7f 3e c4 8a 20 3e 8e b0 52 3e
       0.19506668 0.24978785 0.15677935 0.20575163
000180 48 3e 78 3e 93 ee 4d 3e 52 9b a7 3e bd 1e ad 3e
       0.24242508 0.2011054 0.32735687 0.33812514
000190 da 22 be 3d 1d 0d 03 3e e3 f4 bd be 4e d2 58 bd
       0.09283991 0.12797971 -0.37100896 -0.052934937
0001a0 ac d2 52 3e 58 90 d2 bc 2c 7f 21 be 1e fc bf bd
       0.20588177 -0.025703594 -0.15771168 -0.093742594
0001b0 72 0a 07 bf d5 f6 8f 3e 31 4f c0 3e c8 32 b3 3b
       -0.52750313 0.28118005 0.37560418 0.0054687
0001c0 81 de b9 3e 9a 58 3b 3e 47 a6 2f 3e c9 0c 84 be
       0.3630257 0.18295518 0.17153274 -0.25791004
0001d0 8f c5 3e 3e a5 22 70 be d5 ff cc 3e 16 02 4a bc
       0.1863005 -0.23450716 0.40038934 -0.012329599
0001e0 bc 5e a9 3e 95 51 27 3e 61 fb d3 3e 14 db 5a be
       0.3308009 0.16339715 0.41402724 -0.21372634
0001f0 62 df f0 3c c9 91 46 3e 78 d1 13 be f6 40 9e 3e
       0.029403392 0.1939155 -0.14435375 0.30908936
000200 75 0e 5f bd 4b 0d e0 bd 54 7c 13 3d 67 d0 51 be
       -0.054457147 -0.109400354 0.03600724 -0.20489655
000210 bc 0a 69 be 38 70 dd 3e 24 47 9a be bb 9d a8 be
       -0.22758001 0.4324968 -0.301324 -0.3293284
000220 a3 ab aa be 3c 95 dd 3c 7d ac a6 3c 44 51 85 3e
       -0.33334073 0.0270487 0.02034592 0.26038563
000230 ae c4 6b 3e b3 f0 9f 3e 4d 97 0e bf a3 8a da bc
       0.23024246 0.31238326 -0.55699617 -0.026677435
000240 e2 63 d1 bc 09 9b 9d 3d e4 b8 84 3e 51 e2 88 3d
       -0.025560323 0.07695586 0.2592231 0.066837914
000250 ff 08 0b 3d da d5 eb 3d b0 2b b2 be 66 4e 71 3d
       0.033944126 0.11515398 -0.34798956 0.058912657
000260 8c 31 82 be f8 0c 19 3e e1 b1 89 be c7 43 1c 3d
       -0.25428426 0.14946353 -0.26893523 0.038150575
000270 b9 25 85 bd b3 be b9 be 69 1e 9d be e1 26 4b 3e
       -0.06501336 -0.36278304 -0.30687264 0.1983905
000280 56 aa 19 3d 28 2e dc 3d 12 80 af 3e 1c f1 a7 be
       0.03751596 0.10750991 0.34277397 -0.3280114
000290 98 22 8a be 4d 1a 70 bd 5d 96 c3 3e 99 5b 9b 3e
       -0.26979518 -0.058618832 0.38200656 0.3034332
0002a0 13 56 ee 3d 84 d5 61 be 49 7b 5b 3e ee 01 51 3e
       0.11637511 -0.22054106 0.21433748 0.20410892
0002b0 a2 fd d6 be 70 56 bc 3e bc a0 91 bd 3d 1a ce bd
       -0.4199038 0.36784697 -0.07110736 -0.10063598
0002c0 4f 63 05 3e ab 86 3c bf c4 96 1c bd 49 e1 34 be
       0.13026164 -0.73642987 -0.03822972 -0.17664064
0002d0 99 75 e4 3e 2d 13 3c bc 15 6a e1 bd 91 4a 2a 3e
       0.4462097 -0.011479181 -0.11006562 0.16630007
0002e0 4e b4 93 3c f9 d3 7a be 21 8f 08 3e b0 71 9f bd
       0.018030312 -0.24494924 0.1333585 -0.07785356
0002f0 83 01 b3 3e 5b cb ac bd cf ff 66 3d 9c b8 01 3e
       0.3496209 -0.084372245 0.0563963 0.12668079
000300 10 95 7b bd 55 84 8f 3c 0f cd 21 3e 9b 5a 81 bd
       -0.061421454 0.017519156 0.1580088 -0.0631611
000310 83 d5 54 be bf 3f 93 be 4a 78 8e bd 57 e5 a9 3e
       -0.20784573 -0.28759572 -0.06956537 0.33182785
000320 b8 f1 26 3e 31 6c fd 3d 50 9e bb be b3 be f0 bc
       0.16303146 0.123741515 -0.3664422 -0.029387807
000330 ea b7 84 bd 89 b1 cd 3c 76 9d af be d4 7c 0a be
       -0.06480391 0.02510907 -0.3429982 -0.1352418
000340 67 27 0f bf ae d9 49 3e d7 36 48 3e 5c c9 3b 3d
       -0.559195 0.19711944 0.1955217 0.04584633
000350 84 5f 61 3e 28 40 47 3e f8 c9 40 3e 58 0c ad be
       0.22009093 0.19458067 0.18827045 -0.3379848
000360 64 39 02 3d 5e 99 7a be ee 2a d0 3e c3 1e 04 3e
       0.031793013 -0.24472567 0.40657753 0.1290236
000370 fc 75 33 3e 9e c2 95 3e b0 02 67 3e aa 9c ec bd
       0.17525476 0.29250044 0.22559619 -0.11553319
000380 c1 a8 aa 3d c8 98 c7 3d 80 65 a7 bd 5f e0 ac 3e
       0.083329685 0.097459376 -0.081736565 0.33764932
000390 06 e7 7e 3d b6 76 8d 3c 02 56 27 3e 7e 84 8b be
       0.06223204 0.01726852 0.16341403 -0.2724952
0003a0 9d 12 3e bd 37 5e ff 3e 38 42 4d be 61 d4 98 be
       -0.04640447 0.49876568 -0.20044792 -0.29849532
0003b0 0a b1 93 be e5 83 43 3d cd 5d 7f 3d f2 ab c1 3e
       -0.28846008 0.047733206 0.062345315 0.37826496
0003c0 43 7a 68 3e ea 60 8e 3e a2 1c 3a bf 97 d8 b4 3d
       0.22702889 0.27808315 -0.7269994 0.08830374
0003d0 79 90 30 3e 67 64 30 3e b6 5f 9f 3e 48 07 31 3e
       0.17242612 0.172258 0.3112771 0.17287934
0003e0 88 39 74 be b6 c3 a5 3e 57 d1 bf be 80 0f 3c 3e
       -0.23850071 0.32375878 -0.374644 0.18365288
0003f0 cb fc af be 15 81 43 3d e0 27 f2 be aa 9b dd bd
       -0.34372553 0.047730524 -0.47296047 -0.10820706

fc2.bias f4 [50]
000000 4a 73 9a be 5f 41 26 3f d4 bf 17 3f 7e d8 b1 be
       -0.30166084 0.649435 0.5927708 -0.34735483
000010 51 b0 ed be ea 09 a8 be 11 49 7d 3f 73 cb cd be
       -0.4642358 -0.32820064 0.98939615 -0.40194282
000020 d2 01 d0 be fe 57 c7 be df 14 9a be c2 82 3d 3f
       -0.4062639 -0.3893432 -0.30094048 0.74027646
000030 a0 04 73 be 9d 74 3d be 83 11 2f be 24 28 30 be
       -0.23732233 -0.18501516 -0.17096524 -0.17202812
000040 7b b8 1c 3f 22 e6 04 3f e6 7c 35 be 5f cc af be
       0.61218995 0.51913655 -0.17723426 -0.3433561
000050 bf 77 66 be a0 62 b0 be 67 06 1b be 59 3a 94 be
       -0.22506617 -0.34450245 -0.15139161 -0.28950766
000060 bd a9 94 be 93 fd 21 be 30 50 48 3d a4 b1 02 3f
       -0.2903575 -0.15819387 0.048904598 0.5105231
000070 85 46 4a be 8d c3 81 be 9a d2 27 3f 84 2e 2e 3f
       -0.19753464 -0.25344506 0.6555573 0.6803973
000080 0b 2a a5 be 4a 68 bf be d3 3e 66 be 62 01 a2 be
       -0.3225864 -0.37384254 -0.22484903 -0.3164168
000090 9d d5 2f 3f eb da 3b 3f b7 0a 7f be e0 d8 ae be
       0.68685323 0.7338092 -0.24906431 -0.34149837
0000a0 f8 28 59 3f 47 08 6c 3f ed 17 74 3f 89 0b 66 3f
       0.8482814 0.9220013 0.9534901 0.8986135
0000b0 70 21 b2 be bb 13 8f be b6 ed 5f 3f 75 bd 80 3f
       -0.34791136 -0.2794474 0.87472093 1.0057818
0000c0 fd 7f 4a 3f 60 51 45 3f
       0.79101545 0.77077293

fc3.weight f4 [1, 50]
000000 7b 84 de 3e ca 43 ac bf a2 d6 97 bf f4 8b bc 3e
       0.4346045 -1.3458188 -1.1862376 0.36825526
000010 4d e6 c6 3e 40 1c b2 3e 2d 2e 98 bf ac 98 b2 3e
       0.3884758 0.34787178 -1.1889092 0.34882104
000020 38 da b9 3e 3e 6f bc 3e 58 02 ae 3e f5 cb b8 bf
       0.362993 0.3680362 0.33986163 -1.4437243
000030 b5 cd b5 3e 07 b6 df 3e 2c 9b e9 3e 1d a0 c6 3e
       0.35508505 0.43693563 0.456262 0.38794032
000040 47 0e 94 bf e5 98 8e bf d8 1a e6 3e 3a 4f b5 3e
       -1.1566857 -1.114041 0.44942355 0.35412008
000050 d7 97 d6 3e 22 0b c1 3e c7 8a e5 3e 59 73 be 3e
       0.4191272 0.37703806 0.4483244 0.37197378
000060 5e ad c8 3e 76 17 d7 3e 1b 33 11 bb 7f 0c ad bf
       0.3919477 0.42010087 -0.0022155705 -1.3519439
000070 f6 ae e2 3e 57 20 cc 3e 0d 85 84 bf a9 60 76 bf
       0.4427411 0.39868423 -1.0353104 -0.9624124
000080 ee e0 eb 3e aa d9 cd 3e a3 02 bd 3e 3c 75 de 3e
       0.46070045 0.40205127 0.36916074 0.43448818
000090 45 60 8a bf 09 80 b2 bf 49 78 d7 3e 36 6d d1 3e
       -1.0810629 -1.3945323 0.42083958 0.40903634
0000a0 40 49 b1 bf 84 37 ba bf c0 23 9c bf be 3c a9 bf
       -1.3850479 -1.4548192 -1.219841 -1.3221662
0000b0 6e 6a af 3e 73 00 bd 3e b8 5c 94 bf b9 c8 ac bf
       0.34260887 0.36914405 -1.1590796 -1.3498756
0000c0 80 4b 77 bf eb 70 79 bf
       -0.9659958 -0.97437924
