Radiomics_local_global_framework/models/lasso_feature_selection/Neural_Network/global_flair_t1ce___local_flair_t1ce/model.pt (torch, 540404 bytes, 5 tensors)

fc1.weight f4 [200, 621]
0	0x3c71c54c	0.014756512
1	0xbb1923d2	-0.0023367298
2	0x3e06331c	0.13105434
3	0xbd9fce70	-0.07803047
4	0x3d903bce	0.07042657
5	0xbd1203d3	-0.03564818
6	0xbc86bf7e	-0.016448732
7	0x3c7a478f	0.01527585
8	0xbe00c06f	-0.12573408
9	0xbdb95554	-0.09049478
10	0x3e63ed81	0.2225857
11	0x3dcb1218	0.099155605
12	0xbdcb32e4	-0.09921816
13	0x3c994883	0.018711334
14	0x3c578229	0.013153591
15	0xbd5c96f7	-0.05385491
16	0x3dbca7cf	0.092116944
17	0x3c8cfac1	0.017209413
18	0xbd6e3243	-0.058153402
19	0x3e0b7fd0	0.13622975
20	0x3d1cd0ac	0.038284943
21	0xbe65c01e	-0.22436568
22	0xbd4b5fbd	-0.04965185
23	0x3d66d1ee	0.05635255
24	0x3d336f38	0.04380724
25	0x3d3f49ef	0.046701368
26	0x3d70161e	0.058614843
27	0x3dbeb2a8	0.0931142
28	0xbe249a03	-0.16074376
29	0xbd7c2f17	-0.061568346
30	0x3db3779d	0.08763049
31	0xbd3e6b95	-0.046489317
32	0xbe5c6bd0	-0.21525502
33	0x3d00c9c7	0.03144243
34	0x3e113a3b	0.1418237
35	0x3de7fb1f	0.113271944
36	0xbcc0d7d5	-0.023540417
37	0x3d82baea	0.06383307
38	0x3e1c0fdf	0.1524043
39	0x3cbc36df	0.022975383
40	0xbd478a96	-0.04871615
41	0x3eadead8	0.33968234
42	0xbb55d20f	-0.0032626425
43	0xbde84bb8	-0.11342567
44	0x3dea986a	0.11454852
45	0x3d94e6a9	0.072705574
46	0xbde69197	-0.11258238
47	0x3cc1ffb2	0.023681495
48	0x3def1d45	0.116755046
49	0x3c8abb84	0.016935118
50	0x3d909ca0	0.07061124
51	0xbce98d06	-0.028509628
52	0xbd188270	-0.03723377
53	0x3bf990f9	0.007616159
54	0x3b6c9620	0.0036100224
55	0xbdb1c557	-0.08680218
56	0x3c326bf3	0.010889995
57	0x3d47fa75	0.04882284
58	0xbd9449c9	-0.07240636
59	0x3e1889bc	0.14896291
60	0xbdfd7f75	-0.12377826
61	0xbd2e9724	-0.042624608
62	0x3e201661	0.15633537
63	0xbe93ce28	-0.28868222
64	0xbea323c8	-0.31863236
65	0xbd8f03a6	-0.06983118
66	0x3d03a33a	0.032138087
67	0xbd7e44a8	-0.062077194
68	0x3d7f809f	0.062378522
69	0xbd17827d	-0.036989678
70	0x3e095b11	0.13413645
71	0x3ddd19f1	0.107959636
72	0xbecd677c	-0.40118015
73	0xbe6f27d8	-0.23355043
74	0x3d48ef79	0.049056504
75	0xbdda223d	-0.10651062
76	0xbe2e99a4	-0.17050797
77	0xbd512b9d	-0.051066983
78	0x3e41f91e	0.18942687
79	0x3dc6dc0e	0.09709941
80	0x3dff09d1	0.12453044
81	0xbe29462a	-0.16530672
82	0x3e9b1e50	0.30296564
83	0xbd418bd8	-0.047252506
84	0x3dc9a3a8	0.09845668
85	0xbd3c226f	-0.045931276
86	0xbe1d8504	-0.15382773
87	0x3c819299	0.015816974
88	0xbe00e308	-0.12586606
89	0x3ce749f7	0.028233511
90	0x3eb03683	0.3441659
91	0xbcd9322e	-0.026513185
92	0x3d97c6cd	0.07410965
93	0x3cc4f774	0.024043776
94	0xbc8e1318	-0.017343089
95	0x3d6af35f	0.057361003
96	0x3dc411f3	0.09573736
97	0xbc22a2dc	-0.009926524
98	0x3da043ac	0.078254074
99	0x3e0a800c	0.13525409
100	0x3c0b5f0e	0.0085065495
101	0x3dbab488	0.09116465
102	0xbc3bdf1d	-0.011466769
103	0xbc9e07df	-0.019290863
104	0x3c5561e3	0.013023826
105	0xbd47bd41	-0.04876447
106	0xbbf45045	-0.007455858
107	0xbd2314f0	-0.03981489
108	0xbed3714d	-0.4129738
109	0xbdae4111	-0.08508504
110	0xbe1e3256	-0.15448889
111	0x3e597837	0.21237265
112	0x3d50d829	0.050987396
113	0xbd88c366	-0.06677894
114	0xbb99f4c2	-0.004698367
115	0x3d79dcfd	0.061001766
116	0x3dbaf744	0.091291934
117	0x3dab0be4	0.08351877
118	0xbd556e64	-0.05210723
119	0x3c8f0acc	0.017461203
120	0x3d9e6f0c	0.07736024
121	0x3e233dd8	0.1594156
122	0xbd85b41b	-0.06528493
123	0xbc525841	-0.012838424
124	0x3e0401ad	0.12891264
125	0xbe8c1ef7	-0.27367374
126	0xbdcc4e7a	-0.09975906
127	0x3d73a1d9	0.05948052
128	0xbdacb4fa	-0.08432956
129	0x3e26234a	0.16224399
130	0x3dbcc904	0.09218028
131	0xbc9b02d9	-0.018922256
132	0xbd16a219	-0.036775682
133	0xbe7028e1	-0.23453094
134	0xbd08ee2f	-0.033430275
135	0xbe5fa91b	-0.21841852
136	0xbd941630	-0.072307944
137	0x3d92abf2	0.07161702
138	0x3ddfd5e1	0.10929466
139	0xbc9bd0bf	-0.019020436
140	0x3e81f007	0.2537844
141	0x3daf044d	0.08545742
142	0xbe225e87	-0.15856372
143	0xbc969bc7	-0.018384827
144	0xbe59018c	-0.21191996
145	0x3e8da393	0.2766386
146	0x3e9fa96d	0.3118395
147	0x3d8321d6	0.06402938
148	0x3e7ecbc5	0.2488242
149	0x3daa0003	0.083007835
150	0xbe443dad	-0.19164152
151	0xbdee810e	-0.11645709
152	0xbca81eb6	-0.020522457
153	0x3d39216c	0.04519789
154	0x3d811875	0.06303493
155	0xbdc4146e	-0.09574209
156	0xbde130bb	-0.10995623
157	0xbc37b140	-0.011211693
158	0x3e086703	0.13320546
159	0x3d9a60fc	0.075380296
160	0xbd838df6	-0.06423561
161	0xbc0258ce	-0.007955743
162	0xbd8adace	-0.06780015
163	0x3dbf4243	0.0933881
164	0xbc250eeb	-0.0100743575
165	0x3cad0e85	0.021125088
166	0xbdbc5c8e	-0.09197341
167	0x3ca6d971	0.020367356
168	0x3c6c8b96	0.014437577
169	0x3e6e993d	0.23300643
170	0xbda4a02b	-0.08038362
171	0xbdc7c9ab	-0.09755262
172	0x3cd8bad1	0.026456269
173	0x3d3be8b1	0.04587621
174	0x3dd182d6	0.10230033
175	0x3e927488	0.2860453
176	0xbdcae39c	-0.09906694
177	0x3e1466a4	0.1449228
178	0x3e00a6ea	0.12563673
179	0xbddbfec3	-0.10741951
180	0xbcd92adc	-0.026509695
181	0xbdd04781	-0.10169888
182	0x3c28f1c5	0.010311549
183	0x3bd8e3f6	0.006618972
184	0xbd2af546	-0.041737817
185	0x3d8ea959	0.06965894
186	0x3cff9b55	0.031201998
187	0x3d3c1432	0.045917697
188	0x3d181721	0.037131432
189	0x3dc4a974	0.09602633
190	0xba5869e7	-0.0008255527
191	0xbe3e8b70	-0.18607879
192	0xbc45beb5	-0.012069394
193	0xbdca3d18	-0.09874934
194	0xbe836533	-0.25663146
195	0x3df791bf	0.12088346
196	0xbe007833	-0.12545852
197	0xbd4e332a	-0.050341763
198	0x3e058b02	0.13041309
199	0x3e01e88a	0.12686363
200	0x3bb0d4e0	0.0053964704
201	0x3e571343	0.21003442
202	0x3e0833d3	0.1330102
203	0xbd76b5bc	-0.06023191
204	0xbdb4bcac	-0.08825049
205	0xbd803c39	-0.062614866
206	0x3d87909c	0.06619379
207	0xbd876da4	-0.06612709
208	0x3e7193ac	0.23591489
209	0xbda3d6f9	-0.07999987
210	0xbdc23209	-0.094822
211	0x3d216372	0.03940148
212	0x3df1750b	0.11789902
213	0x3d6ed80f	0.05831152
214	0xbd01e96b	-0.031716745
215	0x3d1b7f4c	0.037963197
216	0xbc92d121	-0.017921986
217	0xbca5cb62	-0.020238582
218	0x3cf70eaf	0.030158369
219	0x39f0e618	0.000459478
220	0xbdd38a7e	-0.1032915
221	0xbe33b91a	-0.1755108
222	0x3bd32475	0.006443555
223	0x3de51f47	0.11187606
224	0xbe32c1f0	-0.17456794
225	0x3ddb7256	0.10715167
226	0x3d47a89a	0.048744775
227	0xbc832cc9	-0.016012566
228	0xbd37356d	-0.044728685
229	0x3d729f74	0.059234098
230	0xbd390622	-0.045171864
231	0xbeaef893	-0.34174022
232	0xbd1ae280	-0.037813663
233	0x3da39b8c	0.079886526
234	0x3dd379d1	0.10325969
235	0x3e7ddfc7	0.24792396
236	0xbdd37851	-0.10325683
237	0x3e26101f	0.16217087
238	0x3d9aabec	0.07552323
239	0xbd9b1557	-0.075724296
240	0x3eb330d9	0.34998205
241	0xbd8bab6e	-0.06819807
242	0xbe946c92	-0.28989083
243	0x3d3b3c5d	0.045711864
244	0xbc8e7a97	-0.01739244
245	0xbc69de8d	-0.014274252
246	0x3d71a79b	0.05899773
247	0x3d80cdd0	0.062892556
248	0x3e297f18	0.16552389
249	0x3d547b62	0.05187548
250	0x3d322e19	0.043500993
251	0xbd0fa142	-0.035065897
252	0xbe0bb5e9	-0.13643612
253	0x3dace50b	0.08442124
254	0x3da2f3da	0.07956667
255	0xbebb45c1	-0.36576656

fc1.bias f4 [200]
0	0xbe8a1862	-0.26971728
1	0xbea8f5ce	-0.33000034
2	0xbe2ee9a4	-0.17081314
3	0xbe911759	-0.28338125
4	0xbeb2e858	-0.3494289
5	0xbf506104	-0.81398034
6	0xbfc12b55	-1.5091349
7	0xbf0e513b	-0.555927
8	0xbfdf1824	-1.7429242
9	0xbe0791c2	-0.13239196
10	0xbe25be02	-0.16185763
11	0xbe480f64	-0.19537121
12	0xbe9b5a54	-0.30342352
13	0xbe4a9fbf	-0.19787501
14	0xbec90d1d	-0.39267817
15	0xbf0de85f	-0.55432695
16	0xbed3c688	-0.41362405
17	0xbe452e7c	-0.19256014
18	0xbe0aca6c	-0.1355378
19	0xbe7595bc	-0.239829
20	0xbe8a5bad	-0.27023068
21	0xbef61532	-0.48063046
22	0xbf192769	-0.5982576
23	0xbed5a88e	-0.4173016
24	0xbec6ad0b	-0.38803896
25	0xbfe10dbe	-1.7582319
26	0xbf663386	-0.8992237
27	0xbe881e9d	-0.26585856
28	0xbe9579ab	-0.29194388
29	0xbebbe58d	-0.3669857
30	0xbe8fae4c	-0.28062665
31	0xbec168ba	-0.37775213
32	0xbe9f90e9	-0.31165245
33	0xbe9726d9	-0.29521826
34	0xbf05120e	-0.51980674
35	0xbecb97cc	-0.3976425
36	0xbf8ace71	-1.0844251
37	0xbe6822a7	-0.22669469
38	0xbdf18a0e	-0.1179391
39	0xbe97a00c	-0.29614294
40	0xbec9617f	-0.39332196
41	0xbe9c96b0	-0.30583715
42	0xbde080bf	-0.10962056
43	0xbebccd2c	-0.36875284
44	0xbe862d5f	-0.2620649
45	0xbd81d13b	-0.06338736
46	0xbfb26295	-1.3936335
47	0xbe450592	-0.19240406
48	0xbe89d914	-0.2692343
49	0xbe3f99c1	-0.18710996
50	0xbebe01b8	-0.37110686
51	0xbe6b1daf	-0.22960542
52	0xbef53e3d	-0.47899047
53	0xbef82a6a	-0.4846986
54	0xbe5b2626	-0.21401271
55	0xbea77a8d	-0.32710686
56	0xbf02c112	-0.5107585
57	0xbed6ba80	-0.41939163
58	0xbe753849	-0.23947252
59	0xbef8b05b	-0.4857205
60	0xbefecf70	-0.49767637
61	0xbfe917a3	-1.8210338
62	0xbfab71b3	-1.3394073
63	0xbf6a8fb0	-0.916255
64	0xbe54689e	-0.20743033
65	0xbf032543	-0.5122873
66	0xbe82c059	-0.25537375
67	0xbe255277	-0.16144739
68	0xbfe4fd69	-1.7889835
69	0xbe57fb58	-0.21091974
70	0xbeb03e1f	-0.34422395
71	0xbde11c99	-0.10991783
72	0xbe6fc4bb	-0.2341489
73	0xbfc7d87d	-1.5612942
74	0xbec4694f	-0.38361594
75	0xbe5d68a4	-0.21621948
76	0xbf42da24	-0.76114106
77	0xbef1272f	-0.47100207
78	0xbdf36b3d	-0.118856885
79	0xbd84b332	-0.06479491
80	0xbf32a408	-0.6978154
81	0xbfb38ee2	-1.4027979
82	0xbf0138bd	-0.504772
83	0xbeaaa859	-0.33331564
84	0xbe3844f4	-0.17995054
85	0xbeb1ef9b	-0.34753117
86	0xbffa65ed	-1.9562355
87	0xbeba8291	-0.3642774
88	0xbe0eeaef	-0.13956808
89	0xbe961873	-0.29315528
90	0xbf200196	-0.6250242
91	0xbf674c59	-0.9035087
92	0xbee2e7a3	-0.4431735
93	0xbe316fbf	-0.17327784
94	0xbeb54443	-0.35403642
95	0xbea5baf6	-0.32369202
96	0xbe92bf4f	-0.28661582
97	0xbec28606	-0.37992877
98	0xbec20b27	-0.37899134
99	0xbf412dd8	-0.75460577
100	0xbf2c4715	-0.6729596
101	0xbe3402dd	-0.17579217
102	0xbec83271	-0.39100984
103	0xbf03ccab	-0.51484174
104	0xbf1cd336	-0.6125978
105	0xbe6c2520	-0.23061037
106	0xbffa669c	-1.9562564
107	0xbe89a7e4	-0.26885903
108	0xbee011a7	-0.43763468
109	0xbebffae9	-0.37496117
110	0xbe97bfa7	-0.29638407
111	0xbe05ddcc	-0.1307289
112	0xbe4e1101	-0.20123674
113	0xbe30c4e8	-0.17262614
114	0xbe943b5c	-0.28951538
115	0xbeea7e6b	-0.45799574
116	0xbe0d7586	-0.13814363
117	0xbf281a55	-0.6566518
118	0xbea1eff6	-0.31628388
119	0xbe817eb3	-0.25291976
120	0xbe63453e	-0.22194383
121	0xbe70f8ea	-0.23532453
122	0xbe52d39b	-0.20588534
123	0xbe005929	-0.12534012
124	0xbee99807	-0.456238
125	0xbec2b73f	-0.3803043
126	0xbe5513d8	-0.20808351
127	0xbeae4d46	-0.3404333
128	0xbe25cbed	-0.16191073
129	0xbfccf015	-1.6010767
130	0xbfea45af	-1.8302516
131	0xbe8791e4	-0.26478493
132	0xbe607605	-0.21920021
133	0xbf0ac3e0	-0.5420513
134	0xbf2cbe8b	-0.67478245
135	0xbfd5c1fd	-1.6699826
136	0xbe3556fe	-0.17708966
137	0xbf13ed88	-0.5778432
138	0xbe87f262	-0.2655211
139	0xbecf0f70	-0.40441465
140	0xbed51568	-0.41617894
141	0xbf171582	-0.59017193
142	0xbe23c60a	-0.15993515
143	0xbe077396	-0.13227686
144	0xbeca0720	-0.3945856
145	0xbdeef29b	-0.11667367
146	0x3c8a02d5	0.016847054
147	0xbf123ace	-0.5712098
148	0xbe95c9b4	-0.2925545
149	0xbe6174eb	-0.22017257
150	0xbfc98a1a	-1.574527
151	0xbee03afe	-0.43795007
152	0xbe2a0477	-0.16603266
153	0xbe293e14	-0.16527587
154	0xbe9fb3dd	-0.31191912
155	0xbd556916	-0.05210217
156	0xbe9aafac	-0.30212152
157	0xbeff2e8d	-0.49840203
158	0xbedad1c5	-0.42738166
159	0xbeb73d52	-0.3578897
160	0xbeb29cc6	-0.34885234
161	0xbf65753c	-0.8963201
162	0xbde23301	-0.110448845
163	0xbe9ff15b	-0.31238827
164	0xbebb6a60	-0.36604595
165	0xbec2f03c	-0.3807391
166	0xbf0df93c	-0.55458426
167	0xbe890189	-0.26758984
168	0xbf006864	-0.5015929
169	0xbe4a2390	-0.19740129
170	0xbebe71c3	-0.37196168
171	0xbec8ea27	-0.39241144
172	0xbf05586a	-0.52088034
173	0xbe73aed2	-0.23797157
174	0xbf859b0c	-1.0437942
175	0xbe42e036	-0.19030842
176	0xbeb3d980	-0.35126877
177	0xbf040a8d	-0.515786
178	0xbdf03285	-0.11728386
179	0xbee77b4d	-0.4521126
180	0xbef86eaa	-0.4852193
181	0xbecf62b6	-0.40504998
182	0xbead5d15	-0.33860078
183	0xbee227ee	-0.4417109
184	0xbeb65fb8	-0.35619903
185	0xbfdb094d	-1.7112213
186	0xbe7c3c99	-0.24632491
187	0xbe3e2865	-0.18570097
188	0xbe32cf94	-0.17461997
189	0xbecaf900	-0.39643097
190	0xbeec5694	-0.46159804
191	0xbed2eb8f	-0.41195342
192	0xbfed3934	-1.8533082
193	0xbee8553a	-0.45377523
194	0xbeeb94de	-0.46012014
195	0xbf1567b7	-0.5836138
196	0xbe80f7d7	-0.25189087
197	0xbef9c8c7	-0.48785993
198	0xbe34be10	-0.17650628
199	0xbec8abe8	-0.39193654

fc2.weight f4 [50, 200]
0	0x3e05ebbd	0.13078208
1	0x3e37c751	0.17947127
2	0x3e8dbbcd	0.27682343
3	0x3e13e1c7	0.14441596
4	0x3df473ff	0.11936187
5	0x3de24503	0.11048319
6	0x3d62a491	0.055332724
7	0xbcc9c592	-0.024630342
8	0xbd5111e0	-0.051042438
9	0x3e5f1be3	0.21787982
10	0x3e9b08d4	0.30280173
11	0x3d223e7e	0.03961038
12	0x3d7ce506	0.06174185
13	0x3e477cde	0.19481227
14	0x3d95cdc9	0.07314641
15	0x3da96d8c	0.082728475
16	0x3e53b4a4	0.20674378
17	0x3df2d296	0.11856572
18	0x3e74b3ad	0.23896666
19	0x3e203e71	0.1564882
20	0x3da379ce	0.07982217
21	0x3e6dfb37	0.23240362
22	0x3d5b28d7	0.053505745
23	0x3e85f780	0.2616539
24	0x3daa234d	0.08307514
25	0x3cf980aa	0.03045686
26	0x3d95390a	0.0728627
27	0x3dcadcaa	0.099053696
28	0x3dd33320	0.10312486
29	0x3dcf65ba	0.10126825
30	0x3e8d517e	0.27601236
31	0x3df7ea93	0.12105288
32	0x3ed0da7d	0.40791693
33	0x3e83b45c	0.2572354
34	0x3e10938b	0.14118783
35	0x3e3677e1	0.17819168
36	0xbd07126d	-0.032976557
37	0x3dd5aa96	0.10432927
38	0x3e032de5	0.12810476
39	0x3e3abf89	0.18237127
40	0x3dd274e5	0.10276202
41	0x3e57280f	0.21011375
42	0x3e1a7e09	0.15087141
43	0x3e4f4d2b	0.20244281
44	0x3e6807c1	0.22659208
45	0x3ebfb0bf	0.37439534
46	0x3cd639fc	0.026150696
47	0x3eb4c333	0.35305175
48	0x3d6b93ad	0.05751388
49	0x3d087d6b	0.033322733
50	0x3d0724d6	0.032994114
51	0x3dccc982	0.09999372
52	0x3e09e96b	0.13467948
53	0xbb77b192	-0.003779505
54	0x3e8fda6a	0.28096324
55	0x3e33b6ae	0.17550156
56	0x3e6d5474	0.23176748
57	0x3bde497c	0.0067836624
58	0x3e7223ae	0.23646423
59	0x3e262c8c	0.16227931
60	0xbc8bdbfa	-0.017072666
61	0x3d1497b2	0.03627748
62	0xbccd92cd	-0.025094414
63	0xbcde9152	-0.027168903
64	0x3e7cb915	0.24679978
65	0x3d14e582	0.03635169
66	0x3e491733	0.19637756
67	0x3dae3171	0.08505524
68	0x3d4dbd3f	0.050229307
69	0x3e329c97	0.17442547
70	0x3e82dbaa	0.25558215
71	0x3e7cf881	0.24704172
72	0x3dc2ca5b	0.095112525
73	0x3d84df24	0.06487873
74	0x3e2f90c4	0.17145067
75	0x3dd0c254	0.10193315
76	0x3df6e094	0.12054554
77	0x3e04693f	0.12930773
78	0x3dd42c07	0.1035996
79	0x3ed283f2	0.4111629
80	0x3db6cd25	0.08925847
81	0xbd2c2386	-0.042026065
82	0x3b3f0ac7	0.002915071
83	0x3de938f0	0.11387813
84	0x3de6838e	0.11255561
85	0x3e43b6da	0.19112721
86	0xbd4418c2	-0.047875173
87	0x3e0cf2d4	0.13764507
88	0x3d947d94	0.072505146
89	0x3d1bbbef	0.038021024
90	0x3e010147	0.12598144
91	0xbc4896e1	-0.012243004
92	0x3e1af995	0.1513427
93	0x3dcbb703	0.09947016
94	0x3da8d1b3	0.08243122
95	0xbc0598fe	-0.008154152
96	0x3e04e1ff	0.12976836
97	0x3d906e62	0.07052304
98	0x3e22dce1	0.15904571
99	0x3d4a45e6	0.049383067
100	0x3e22d0a0	0.15899897
101	0x3e0b53b8	0.13606155
102	0x3d9e139e	0.077185854
103	0x3db8c6de	0.09022306
104	0x3e035e80	0.12829018
105	0x3dd8ee51	0.1059233
106	0xbd0131e7	-0.03154173
107	0x3e314f66	0.17315444
108	0x3e3d87ce	0.18508837
109	0x3d45510f	0.048173007
110	0x3def781a	0.116928294
111	0x3e70e053	0.23523073
112	0x3e781bda	0.24229375
113	0x3e3f1cd6	0.18663344
114	0x3e8b60a8	0.2722218
115	0x3ecfff56	0.40624493
116	0x3dcdf3f3	0.10056295
117	0x3ca05a5b	0.019574335
118	0x3de5dcde	0.11223768
119	0x3df4439c	0.11926958
120	0x3dee109a	0.1162426
121	0x3e1ef46b	0.15522926
122	0x3e818296	0.25294942
123	0x3e2318a0	0.15927362
124	0x3e1c4e38	0.15264213
125	0x3e0ae63b	0.13564388
126	0x3d0349e4	0.03205289
127	0x3e05c194	0.13062125
128	0x3e4cb841	0.19992162
129	0xbc675456	-0.014119228
130	0xbce6c5cd	-0.02817049
131	0x3e15a27a	0.14612761
132	0x3deaf0a0	0.11471677
133	0x3dc4a4f9	0.096017785
134	0x3e41cad0	0.18925023
135	0xbc8ccf73	-0.017188763
136	0x3e2a7482	0.16646007
137	0x3e5eb197	0.21747433
138	0x3dfd2699	0.123608775
139	0x3e74ee14	0.23918945
140	0x3b854193	0.004066655
141	0x3e18aef0	0.14910483
142	0x3e70f7f2	0.23532084
143	0x3e14408a	0.14477745
144	0x3c45f8e6	0.012083268
145	0x3e15ba12	0.14621761
146	0x3e9047a9	0.28179672
147	0x3dd53a2d	0.10411487
148	0x3e8b4d9f	0.27207658
149	0x3e14b053	0.14520387
150	0x3d83337d	0.06406305
151	0x3e959342	0.2921391
152	0x3daf2e37	0.08553737
153	0x3e9a3beb	0.3012384
154	0x3f08c6f0	0.53428555
155	0x3d54706f	0.051865038
156	0x3df6b0c4	0.12045434
157	0x3dd9fdd3	0.10644116
158	0xbc865570	-0.016398162
159	0x3e43b3b4	0.1911152
160	0x3e086e9b	0.13323443
161	0xbc3a68dc	-0.0113775395
162	0x3e4edee5	0.20202215
163	0x3e949f71	0.29027894
164	0x3def2bc8	0.116782725
165	0x3daf369b	0.08555337
166	0x3e46bfdf	0.1940913
167	0x3dba29c5	0.09089998
168	0x3c830f8a	0.01599862
169	0x3daf3ac6	0.08556132
170	0x3e2b4e2d	0.1672904
171	0x3e12c4b3	0.14332847
172	0x3e436be0	0.1908412
173	0x3db3c277	0.087773256
174	0xbc44ce41	-0.012012065
175	0x3dda077e	0.1064596
176	0x3e049b3f	0.12949847
177	0x3dc38500	0.09546852
178	0x3debffb5	0.115233816
179	0x3e3b302a	0.18280092
180	0x3da11202	0.07864763
181	0x3e3644d6	0.17799696
182	0x3de47aa8	0.11156207
183	0x3e3ae982	0.18253139
184	0x3e5280a0	0.20556879
185	0xbd248c87	-0.04017308
186	0x3e14aab3	0.14518242
187	0x3db24d4d	0.0870615
188	0x3dacc060	0.0843513
189	0x3e6c4076	0.23071465
190	0x3d919d9f	0.07110142
191	0x3e7cf47e	0.24702641
192	0x3d891657	0.06693714
193	0x3e21c525	0.15797861
194	0x3d9834e7	0.07431965
195	0x3dfbc036	0.12292521
196	0x3dcd71c5	0.100314654
197	0x3d5cbf67	0.053893473
198	0x3dbd6eff	0.092496864
199	0x3e8fa91d	0.2805871
200	0x3e095d7a	0.13414565
201	0x3db78ded	0.08962617
202	0x3e9b7495	0.30362383
203	0x3e17e3a8	0.14832938
204	0x3e3e2fc8	0.18572915
205	0x3d7e0cee	0.06202405
206	0xbd0b30b2	-0.033981986
207	0x3d796cea	0.060894884
208	0x3c481eb7	0.012214354
209	0x3e6070dc	0.21918052
210	0x3ea493ca	0.32144004
211	0x3ced23b7	0.028947694
212	0x3d9988c0	0.07496786
213	0x3e1296a3	0.14315276
214	0x3d6a9294	0.057268694
215	0x3e1417bf	0.14462183
216	0x3e179740	0.14803791
217	0x3e075dd1	0.13219382
218	0x3e2d5b2e	0.16929314
219	0x3d91280a	0.07087715
220	0x3d46f5e4	0.048574343
221	0x3e046c40	0.12931919
222	0x3d495e26	0.049162053
223	0x3eb66f28	0.3563168
224	0x3dbe23ce	0.09284173
225	0x3936c3f0	0.00017429865
226	0x3cdd2676	0.026995879
227	0x3e46013e	0.19336411
228	0x3de677ba	0.11253305
229	0x3e6fe07f	0.23425482
230	0x3e5bda71	0.21470048
231	0x3ccccbd3	0.024999535
232	0x3ec3c018	0.38232493
233	0x3e98b825	0.2982799
234	0x3e565f99	0.20934905
235	0x3e0fbdd2	0.14037254
236	0x3c1a7b25	0.009428774
237	0x3e326ddd	0.17424722
238	0x3deba417	0.11505907
239	0x3e5b9892	0.2144492
240	0x3ce40fab	0.027839502
241	0x3e269204	0.16266638
242	0x3e14a23c	0.14515013
243	0x3e30598c	0.1722166
244	0x3e6b245c	0.22963089
245	0x3ec937b2	0.39300305
246	0x3d5d247f	0.053989884
247	0x3ea51f2a	0.3225034
248	0x3dfeb676	0.124371454
249	0x3e012727	0.12612592
250	0x3a1d56fb	0.0006002036
251	0x3e38742e	0.18013069
252	0x3db3feea	0.087888554
253	0x3dd29257	0.10281818
254	0x3e89bbf5	0.26901212
255	0x3e7c3935	0.24631198

fc2.bias f4 [50]
0	0x3e24b569	0.16084827
1	0x3dc5664d	0.09638653
2	0x3f2f9295	0.6858304
3	0xbd73360b	-0.05937771
4	0x3dc08e52	0.094021454
5	0x3e76fa3e	0.24118897
6	0x3e5ce0e9	0.21570171
7	0xbda6ae0e	-0.08138667
8	0x3d9ff08f	0.07809555
9	0x3e86a2be	0.26296037
10	0x3ee6c82b	0.4507459
11	0x3e6014b9	0.21882905
12	0x3e4c8198	0.19971311
13	0xbdaf7209	-0.08566672
14	0x3e15a6f6	0.14614472
15	0x3e742f5b	0.2384619
16	0x3e66f321	0.22553684
17	0x3d831c8e	0.06401931
18	0x3e7f92b0	0.249583
19	0x3e13b6b9	0.14425172
20	0x3eddba64	0.43306267
21	0x3d6faf32	0.05851669
22	0x3e1477c7	0.14498816
23	0x3ec1b965	0.37836757
24	0x3e0ae619	0.13564338
25	0x3e7ebf71	0.24877717
26	0x3d668c58	0.056286186
27	0x3e116e0e	0.14202139
28	0x3e47586d	0.19467326
29	0x3ee67ad6	0.4501559
30	0x3e728337	0.23682867
31	0x3e850813	0.25982723
32	0x3deb2cd6	0.11483161
33	0x3dc86788	0.09785372
34	0x3ddae9cf	0.10689127
35	0x3dcacbbb	0.0990214
36	0x3e58d7fb	0.2117614
37	0x3e0496c8	0.12948143
38	0xbc87fddf	-0.016600547
39	0x3e9e3378	0.30898643
40	0xbbd06f55	-0.006360928
41	0x3e0822c2	0.13294509
42	0xbdbda6ad	-0.092603065
43	0x3e641338	0.22272956
44	0x3ed0d086	0.4078409
45	0x3f1fb618	0.6238723
46	0xbdd5490d	-0.10414324
47	0x3df30a59	0.11867208
48	0x3ed7463c	0.42045772
49	0x3eaf0510	0.3418355

fc3.weight f4 [1, 50]
0	0x3e3ea015	0.18615754
1	0x3e1c4806	0.1526185
2	0xbf4387f8	-0.76379347
3	0xbc3f6071	-0.011680708
4	0x3e4ad99b	0.19809572
5	0x3e717cbe	0.23582742
6	0xbf4b1d51	-0.7934161
7	0xbd8e4a2a	-0.069477394
8	0x3e22a85e	0.1588454
9	0x3e8113d9	0.25210455
10	0xbf0f204a	-0.55908644
11	0x3e744157	0.2385305
12	0x3e6a82dd	0.22901483
13	0xbd453164	-0.048142806
14	0x3e633455	0.22187932
15	0x3e85205d	0.26001254
16	0x3e88ee40	0.2674427
17	0x3e1d5a36	0.15366444
18	0x3e73317d	0.23749347
19	0x3e3027e4	0.17202717
20	0xbf1570f2	-0.58375466
21	0x3e220589	0.15822424
22	0x3e5cb833	0.21554641
23	0xbf17f658	-0.59360266
24	0x3e206c4a	0.15666309
25	0xbf68a5b1	-0.90877825
26	0x3e419196	0.18903193
27	0x3e546aff	0.20743941
28	0x3e64450b	0.22291963
29	0xbf54b056	-0.8308157
30	0x3e5ba78e	0.21450636
31	0xbf30b501	-0.6902619
32	0x3e725a6e	0.23667309
33	0x3e349a84	0.17637068
34	0x3e21f5a4	0.1581636
35	0xbf67d882	-0.9056474
36	0x3e5cb88c	0.21554774
37	0x3e4c5d24	0.19957405
38	0xbe42801a	-0.1899418
39	0xbf575adc	-0.84123015
40	0xbd751d7b	-0.059842568
41	0x3e6cc9ca	0.23123851
42	0xbc4d2dd1	-0.0125231305
43	0x3e5e2f12	0.21697643
44	0xbf36af71	-0.7136145
45	0xbf33ebf0	-0.7028189
46	0x39f36e09	0.00046430554
47	0x3e2b088c	0.16702479
48	0xbf1f8775	-0.62316066
49	0xbf0b5aec	-0.5443561
