Radiomics_local_global_framework/models/lasso_feature_selection/CoxPH/global_flair___local_flair/model.pt (torch, 90686 bytes, 13 tensors)

weight f4 [32, 606]
-0.046950452 0.07263651 0.0805304 0.051284008 -0.01848432 -0.015297657 -0.059985638 0.089320056
0.01563014 0.05785021 0.00075964234 0.13251822 -0.052933037 0.0017591689 0.06379767 -0.049812824
-0.05210973 0.036269385 0.026845021 -0.0115202125 -0.03605903 0.0381875 0.018392583 0.01898478
0.01250952 -0.013220576 -0.0696176 0.01938078 -0.053610615 -0.10940961 -0.050103348 0.15240087
-0.015667921 0.04582608 -0.16923785 0.080693856 -0.0035457471 -0.036890123 -0.028964307 -0.00778626
0.057296254 0.049631197 0.048596606 0.006873291 -0.02723235 0.104659274 -0.033649597 -0.054293677
0.04000856 -0.1309888 0.08366043 0.075968176 -0.052307747 -0.07818029 0.03123085 0.022205738
0.018946389 -0.045686387 0.10498354 0.064584866 0.03712079 -0.09780568 -0.017645894 0.07927779
-0.10723802 -0.050442893 0.046971746 -0.075750746 -0.05603413 0.03148531 -0.016672358 -0.016982421
0.03528559 -0.052070335 0.029998533 -0.119362004 -0.033482026 -0.006262611 -0.06989329 0.0427198
-0.028885229 0.008736551 0.03756541 0.025571816 0.027928418 0.017211594 -0.020150796 -0.04792651
0.0538759 0.13791901 0.042660616 0.027321773 -0.01110171 0.039769486 -0.14131677 -0.0006277245
0.0493829 -0.05047874 -0.11206241 0.07602897 -0.121648446 0.014897319 0.08085778 -0.03208563
-0.022565672 0.06947552 0.004326461 -0.057622008 -0.01641876 -0.046394262 -0.00675441 -0.073699415
-0.13104708 -0.00806878 -0.053124413 0.013652044 0.03244214 0.046780936 0.030571826 0.020976711
0.061421074 0.015334728 -0.0983619 -0.075411685 -0.011315404 -0.060120538 0.020249689 -0.044136107
-0.072056174 -0.044537753 -0.11512912 -0.018893985 0.045491 0.006872139 -0.052613683 0.091787405
-0.08025136 -0.009895745 -0.01463666 -0.056967378 0.0021116806 -0.081211396 -0.05266496 0.044779416
-0.04146365 0.05818725 -0.09904844 0.005276612 0.0348527 -0.07009633 0.06128872 -0.035349082
-0.02346416 -0.067564465 -0.11698578 0.03369492 0.008563099 -0.12733348 -0.022227325 -0.02758457
-0.012268843 -0.02470377 0.01454831 0.08962371 0.012915659 0.0066854507 -0.031519726 0.04303382
-0.08671037 0.023905003 0.057717633 0.17423637 -0.007189807 -0.016278703 -0.07230402 0.065346934
-0.013084395 0.024184361 0.0481656 0.03602289 0.027899392 -0.05100235 0.07617821 0.013183532
-0.18566875 -0.06280481 -0.016450852 -0.060647186 0.020978162 -0.06967499 0.036311325 -0.08829882
0.031065168 -0.016464345 -0.034313645 -0.07023199 0.040837612 0.12261471 0.054721616 -0.01636087
-0.011126653 -0.05221942 -0.02685649 0.050336823 0.016960055 -0.017589055 -0.005870729 -0.08354778
-0.043501906 0.008762 -0.0456077 -0.059746493 0.00964081 -0.0007166122 0.046758708 -0.06587609
0.03455095 -0.02273577 -0.06806985 0.0150890425 0.04534758 -0.07719749 -0.0094728 -0.13804896
-0.037729826 -0.012350903 -0.04955828 0.060552895 0.14783472 -0.06408995 -0.016077243 -0.15005152
-0.022859398 0.025426742 -0.06607525 0.018243607 -0.034285698 -0.004110879 -0.00060068804 -0.020968212
-0.101795815 0.05584429 -0.039514326 0.0494421 0.061160274 -0.071918234 0.027275829 -0.04898757
0.03470116 0.009001257 0.03651063 -0.001860672 -0.1750046 -0.08177592 -0.042799104 0.06620311
00000000: 1e4f 40bd 73c2 943d 1fed a43d 2e0f 523d
00000010: 6e6c 97bc 06a3 7abc 80b3 75bd 6fed b63d
00000020: c80a 803c 58f4 6c3d bc22 473a dbb2 073e
00000030: 50d0 58bd ea93 e63a 5aa8 823d 8808 4cbd
00000040: 0371 55bd 358f 143d 17ea db3c 46bf 3cbc
00000050: a2b2 13bd 7f6a 1c3d 0bac 963c f885 9b3c
00000060: bbf4 4c3c 1d9b 58bc ac93 8ebd 71c4 9e3c
00000070: ce96 5bbd 2512 e0bd 2b39 4dbd f90e 1c3e
00000080: 035a 80bc 21b4 3b3d b04c 2dbe d242 a53d
00000090: c45f 68bb 191a 17bd 8e46 edbc e223 ffbb
000000a0: 7aaf 6a3d 154a 4b3d 3c0d 473d 5839 e13b
000000b0: 6116 dfbc 9a57 d63d 29d4 09bd 0c63 5ebd
000000c0: 04e0 233d ee21 06be 2956 ab3d 3495 9b3d
000000d0: a640 56bd fd1c a0bd d7d7 ff3c cfe8 b53c
000000e0: 7535 9b3c a621 3bbd 9c01 d73d 1245 843d
000000f0: f80b 183d 584e c8bd 1f8e 90bc 655c a23d
00000100: 9b9f dbbd 359d 4ebd 7265 403d 3523 9bbd
00000110: 0b84 65bd bef6 003d 7894 88bc b81e 8bbc
00000120: 9f87 103d b447 55bd 7cbf f53c 1174 f4bd
00000130: 7324 09bd 9736 cdbb 3724 8fbd f5fa 2e3d
00000140: b7a0 ecbc c023 0f3c 30de 193d fc7b d13c
00000150: 23ca e43c 54ff 8c3c 4813 a5bc 974e 44bd
00000160: faac 5c3d a43a 0d3e e6bc 2e3d e9d1 df3c
00000170: f2e3 35bc 54e5 223d 58b5 10be e18d 24ba
00000180: b945 4a3d ccc2 4ebd fa80 e5bd 14b5 9b3d
00000190: d222 f9bd e213 743c c498 a53d 396c 03bd
000001a0: a5db b8bc 2e49 8e3d fcc4 8d3b 0e05 6cbd
000001b0: a380 86bc e907 3ebd 1954 ddbb b8ef 96bd
000001c0: 3531 06be eb32 04bc fc98 59bd d3ac 5f3c
000001d0: 0de2 043d 5e9d 3f3d c471 fa3c 5ad7 ab3c
000001e0: aa94 7b3d 833e 7b3c f771 c9bd 7171 9abd
000001f0: 3f64 39bc f440 76bd ade2 a53c 10c8 34bd
00000200: 3092 93bd 386d 36bd d1c8 ebbd 8fc7 9abc
00000210: c554 3a3d ae2f e13b 7281 57bd 09fb bb3d
00000220: d35a a4bd c321 22bc 9ace 6fbc a056 69bd
00000230: 1f64 0a3b 2952 a6bd 37b7 57bd 9f6a 373d
00000240: cad5 29bd c155 6e3d e9d9 cabd 6ee7 ac3b
00000250: b4c1 0e3d aa8e 8fbd e209 7b3d 33ca 10bd
00000260: e937 c0bc 3d5f 8abd 3e96 efbd af03 0a3d
00000270: 3e4c 0c3c b563 02be 1416 b6bc 09f9 e1bc
00000280: 4203 49bc 905f cabc 095c 6e3c a38c b73d
00000290: 339c 533c a011 db3b d41a 01bd 3b44 303d
000002a0: 3595 b1bd 6dd4 c33c 5369 6c3d 056b 323e
000002b0: 7998 ebbb ea5a 85bc 2114 94bd 9dd4 853d
000002c0: ee5f 56bc 481e c63c 4b49 453d bd8c 133d
000002d0: 448d e43c d7e7 50bd 5203 9c3d beff 573c
000002e0: f31f 3ebe cf9f 80bd f0c3 86bc 2f69 78bd
000002f0: 65da ab3c c3b1 8ebd 2fbb 143d 03d6 b4bd
00000300: 617c fe3c 3ce0 86bc 778c 0cbd cad5 8fbd
00000310: 5745 273d 6c1d fb3d c623 603d 3b07 86bc
00000320: 914c 36bc 08e4 55bd 2402 dcbc fc2d 4e3d
00000330: d0ef 8a3c ec16 90bc 3f5f c0bb 191b abbd
00000340: 0e2f 32bd 7e8e 0f3c 24cf 3abd bdb8 74bd
00000350: 7df4 1d3c 08db 3bba 0f86 3f3d 0bea 86bd
00000360: 4c85 0d3d 5e40 babc 3568 8bbd 0838 773c
00000370: 62be 393d b819 9ebd ce33 1bbc b55c 0dbe
00000380: 978a 1abd 715b 4abc 9ffd 4abd 5006 783d
00000390: fc61 173e 9741 83bd 6cb4 83bc 1ba7 19be
000003a0: a243 bbbc be4b d03c 7652 87bd 9e73 953c
000003b0: 296f 0cbd 8db4 86bb 7e77 1dba 87c5 abbc
000003c0: 537a d0bd fbbc 643d c6d9 21bd cd83 4a3d
000003d0: 3283 7a3d de49 93bd 8f71 df3c 31a7 48bd
000003e0: ce22 0e3d 027a 133c 2c8c 153d cbe1 f3ba
000003f0: 6834 33be 227a a7bd 1d4e 2fbd 7f95 873d

bias f4 [32]
0.040522967 -0.0050607612 -0.013085098 -0.0087491395 -0.021239128 0.0015109326 -0.0028858962 0.040553667
0.037329637 -0.011365519 0.013023476 -0.028126923 0.013655787 0.014552869 0.024362603 0.029376741
0.03677165 -0.02145649 -0.038709655 0.0028448799 -0.033536065 -0.039173793 0.026934078 0.00087498035
-0.00012143653 -0.021289514 -0.01262185 -0.005920439 0.007471032 -0.022463584 -0.032320578 0.0066473973
00000000: 69fb 253d bed4 a5bb e162 56bc 8d58 0fbc
00000010: aefd adbc 7c0a c63a 4e21 3dbb 9a1b 263d
00000020: f6e6 183d 7136 3abc 6b60 553c 6f6a e6bc
00000030: 86bc 5f3c 286f 6e3c 1594 c73c 7ea7 f03c
00000040: df9d 163d 85c5 afbc 048e 1ebd 2a71 3a3b
00000050: 1d5d 09bd b374 20bd dba4 dc3c f05e 653a
00000060: beab feb8 5967 aebc e0cb 4ebc 3e00 c2bb
00000070: 8fcf f43b 8d05 b8bc 9562 04bd 69d2 d93b

weight f4 [32]
1.0 1.0 1.0 1.0 1.0 1.0 1.0 1.0
1.0 1.0 1.0 1.0 1.0 1.0 1.0 1.0
1.0 1.0 1.0 1.0 1.0 1.0 1.0 1.0
1.0 1.0 1.0 1.0 1.0 1.0 1.0 1.0
00000000: 0000 803f 0000 803f 0000 803f 0000 803f
00000010: 0000 803f 0000 803f 0000 803f 0000 803f
00000020: 0000 803f 0000 803f 0000 803f 0000 803f
00000030: 0000 803f 0000 803f 0000 803f 0000 803f
00000040: 0000 803f 0000 803f 0000 803f 0000 803f
00000050: 0000 803f 0000 803f 0000 803f 0000 803f
00000060: 0000 803f 0000 803f 0000 803f 0000 803f
00000070: 0000 803f 0000 803f 0000 803f 0000 803f

bias f4 [32]
0.0 0.0 0.0 0.0 0.0 0.0 0.0 0.0
0.0 0.0 0.0 0.0 0.0 0.0 0.0 0.0
0.0 0.0 0.0 0.0 0.0 0.0 0.0 0.0
0.0 0.0 0.0 0.0 0.0 0.0 0.0 0.0
00000000: 0000 0000 0000 0000 0000 0000 0000 0000
00000010: 0000 0000 0000 0000 0000 0000 0000 0000
00000020: 0000 0000 0000 0000 0000 0000 0000 0000
00000030: 0000 0000 0000 0000 0000 0000 0000 0000
00000040: 0000 0000 0000 0000 0000 0000 0000 0000
00000050: 0000 0000 0000 0000 0000 0000 0000 0000
00000060: 0000 0000 0000 0000 0000 0000 0000 0000
00000070: 0000 0000 0000 0000 0000 0000 0000 0000

running_mean f4 [32]
0.0 0.0 0.0 0.0 0.0 0.0 0.0 0.0
0.0 0.0 0.0 0.0 0.0 0.0 0.0 0.0
0.0 0.0 0.0 0.0 0.0 0.0 0.0 0.0
0.0 0.0 0.0 0.0 0.0 0.0 0.0 0.0
00000000: 0000 0000 0000 0000 0000 0000 0000 0000
00000010: 0000 0000 0000 0000 0000 0000 0000 0000
00000020: 0000 0000 0000 0000 0000 0000 0000 0000
00000030: 0000 0000 0000 0000 0000 0000 0000 0000
00000040: 0000 0000 0000 0000 0000 0000 0000 0000
00000050: 0000 0000 0000 0000 0000 0000 0000 0000
00000060: 0000 0000 0000 0000 0000 0000 0000 0000
00000070: 0000 0000 0000 0000 0000 0000 0000 0000

running_var f4 [32]
1.0 1.0 1.0 1.0 1.0 1.0 1.0 1.0
1.0 1.0 1.0 1.0 1.0 1.0 1.0 1.0
1.0 1.0 1.0 1.0 1.0 1.0 1.0 1.0
1.0 1.0 1.0 1.0 1.0 1.0 1.0 1.0
00000000: 0000 803f 0000 803f 0000 803f 0000 803f
00000010: 0000 803f 0000 803f 0000 803f 0000 803f
00000020: 0000 803f 0000 803f 0000 803f 0000 803f
00000030: 0000 803f 0000 803f 0000 803f 0000 803f
00000040: 0000 803f 0000 803f 0000 803f 0000 803f
00000050: 0000 803f 0000 803f 0000 803f 0000 803f
00000060: 0000 803f 0000 803f 0000 803f 0000 803f
00000070: 0000 803f 0000 803f 0000 803f 0000 803f

weight f4 [32, 32]
0.35759965 -0.13051161 0.21820831 0.3193801 -0.2191492 0.10836834 -0.1508089 -0.12043604
-0.13734405 0.2329576 0.28935215 -0.48657396 -0.23772371 -0.29166695 0.017748674 -0.24476185
0.14452752 0.058389638 -0.3128083 -0.62258554 0.18961635 -0.3573637 0.16031031 -0.15926087
0.14246356 0.45508695 0.0781782 0.15898445 0.0044123153 0.28191903 0.07894739 0.11291137
-0.094357945 -0.4038288 0.28213516 -0.21706498 0.16908102 0.2958206 0.11108666 -0.15927714
0.28061974 -0.20250101 -0.2920302 0.19839601 -0.08280164 0.014193704 -0.013514365 -0.025067275
-0.028426452 0.17075184 0.11020774 -0.29063284 -0.0026600438 -0.043303564 0.2147699 0.034279607
-0.053432982 0.081723206 0.21726237 0.26321107 -0.011496569 -0.2589304 -0.29039875 0.048052378
0.2845716 0.66100645 0.34666616 0.08025251 0.21181369 0.13020244 -0.38445142 0.4462803
0.15796667 -0.1679904 -0.16073982 -0.092605546 0.31045058 -0.16018617 0.15231054 -0.19757886
0.07503425 0.2375852 0.08868618 -0.41754442 0.07131244 -0.3665694 0.444183 -0.2421538
-0.02131871 0.08609933 0.044687178 0.27500045 0.29723805 0.16087456 -0.23553872 -0.0517226
-0.42876267 0.1380951 -0.68672585 0.112648934 0.16085039 -0.13420787 -0.0071638515 -0.29788214
-0.026200434 0.10896781 0.0733035 0.298424 -0.10033235 0.37578845 0.18159467 -0.19094922
0.17632207 0.34664696 0.27290905 -0.026343921 -0.4463423 0.38238275 0.13226835 -0.24759896
-0.033346098 0.2754041 -0.06013505 -0.22578135 0.20383564 0.21105978 0.50080854 -0.08402565
0.00036695026 -0.13124864 0.06581888 -0.0089852875 -0.062061347 -0.20837396 -0.39582562 -0.41178808
-0.04181545 -0.048340842 0.49404857 0.23680046 -0.08951945 -0.35510704 0.16734327 0.28364834
0.022079164 -0.29236096 -0.12596504 0.23453636 0.085470796 0.4991586 -0.15881817 -0.0067036278
-0.14454342 -0.25645107 -0.29932827 -0.079009965 -0.25217134 -0.22501722 0.3848743 0.4996139
0.35101542 0.11737261 -0.09633272 0.45854485 0.34673178 0.26445404 -0.2703089 0.16208617
0.24868256 0.37073472 -0.2851145 -0.303285 -0.23692384 -0.17238043 0.10004144 -0.28905976
0.066904165 -0.1425665 -0.06897609 0.21834557 0.03146459 0.22343133 0.18762529 0.14170259
0.05199332 -0.17196524 0.07705887 -0.619986 -0.39855126 -0.2275123 -0.14786446 0.10262702
-0.44645333 0.0056097894 0.101676814 -0.25122023 0.11011692 -0.12092513 -0.11009627 -0.3326429
0.48660815 -0.26366305 -0.32760897 0.0573201 -0.3015337 0.1298571 -0.17671369 -0.4389437
0.27705398 -0.6985123 0.15423656 0.086443074 0.5309945 -0.031209946 -0.23384999 -0.19364287
0.20986995 -0.02987024 0.21326819 0.28525427 0.119548626 0.20276235 -0.34963265 0.07239174
0.06702408 -0.3904561 -0.04285518 0.054175153 -0.17896909 0.26194426 -0.1526769 -0.41024935
0.014778418 0.1625776 0.0064387345 0.36376527 -0.087538525 0.043973003 0.05556318 0.04073817
-0.030705975 -0.4962462 -0.28740203 0.26151645 0.1571933 -0.19883329 -0.36356384 -0.32247722
0.015825162 -0.18501282 -0.18968117 -0.15774286 0.06845508 0.01639145 -0.31687787 -0.1622129
00000000: 4d17 b73e d6a4 05be 0072 5f3e ca85 a33e
00000010: a668 60be 38f0 dd3d a66d 1abe 2ca7 f6bd
00000020: eba3 0cbe 708c 6e3e f725 943e 3920 f9be
00000030: d86d 73be 5f55 95be ab65 913c daa2 7abe
00000040: 06ff 133e f929 6f3d 6928 a0be c461 1fbf
00000050: ca2a 423e 60f8 b6be 6328 243e 4815 23be
00000060: f8e1 113e 2801 e93e e41b a03d d2cc 223e
00000070: 2f95 903b b157 903e 2baf a13d 143e e73d
00000080: bd3e c1bd a6c2 cebe 0574 903e 4846 5ebe
00000090: 9323 2d3e cc75 973e 6781 e33d 8c19 23be
000000a0: 64ad 8f3e 6d5c 4fbe fb84 95be 5328 4b3e
000000b0: e893 a9bd b68c 683c 5b6b 5dbc e359 cdbc
000000c0: 97de e8bc 92d9 2e3e 98b4 e13d d4cd 94be
000000d0: 2154 2ebb 145f 31bd a4ec 5b3e c668 0c3d
000000e0: 8bdc 5abd 7f5e a73d 077a 5e3e 9ac3 863e
000000f0: 1b5c 3cbc 8692 84be 25af 94be 92d2 443d
00000100: 5eb3 913e b837 293f 3a7e b13e 6e5b a43d
00000110: b0e5 583e ca53 053e d1d6 c4be da7e e43e
00000120: 04c2 213e ad05 2cbe fb98 24be faa7 bdbd
00000130: 61f3 9e3e d807 24be 4bf7 1b3e 1d52 4abe
00000140: 8fab 993d 8949 733e 1aa1 b53d 62c8 d5be
00000150: 420c 923d fcae bbbe f46b e33e 2af7 77be
00000160: 93a4 aebc d854 b03d e709 373d dccc 8c3e
00000170: 962f 983e 4dbc 243e 1031 71be 14db 53bd
00000180: c886 dbbe cd68 0d3e 44cd 2fbf 7cb4 e63d
00000190: f7b5 243e ca6d 09be bebe eabb 0284 98be
000001a0: 4ba2 d6bc 842a df3d 2520 963d 08cb 983e
000001b0: 0c7b cdbd 5867 c03e f4f3 393e 3188 43be
000001c0: c68d 343e b67b b13e bcba 8b3e 35cf d7bc
000001d0: fa86 e4be acc7 c33e 5b71 073e 958a 7dbe
000001e0: eb95 08bd c401 8d3e 2c50 76bd 3a33 67be
000001f0: 4aba 503e 0e20 583e fd34 003f a415 acbd
00000200: 3b63 c039 0b66 06be 0dcc 863d 0737 13bc
00000210: 0a34 7ebd fc5f 55be a8a9 cabe e3d5 d2be
00000220: ad46 2bbd 0c01 46bd eff3 fc3e d27b 723e
00000230: f955 b7bd 97d0 b5be 095c 2b3e 5b3a 913e
00000240: 5ddf b43c 56b0 95be fbfc 00be 4d2a 703e
00000250: 500b af3d b791 ff3e 3ba1 22be 1baa dbbb
00000260: 3103 14be 8e4d 83be 8e41 99be facf a1bd
00000270: 9a1c 81be ea6a 66be 3f0e c53e 65cd ff3e
00000280: 4bb8 b33e 0d61 f03d 174a c5bd 64c6 ea3e
00000290: d486 b13e 8566 873e ee65 8abe ebf9 253e
000002a0: a4a6 7e3e f1d0 bd3e 87fa 91be 2c48 9bbe
000002b0: 2a9c 72be 7f84 30be 87e2 cc3d a4ff 93be
000002c0: 0d05 893d f4fc 11be 5643 8dbd fb95 5f3e
000002d0: 04e1 003d 2fcb 643e d820 403e 7c1a 113e
000002e0: f3f6 543d a817 30be 0ad1 9d3d 67b7 1ebf
000002f0: e90e ccbe fcf8 68be c869 17be 1d2e d23d
00000300: 8895 e4be 53d2 b73b ef3b d03d f09f 80be
00000310: fb84 e13d 98a7 f7bd 277a e1bd 2c50 aabe
00000320: b424 f93e d8fe 86be 5dbc a7be 7bc8 6a3d
00000330: a062 9abe 42f9 043e 6ff4 34be 3bbd e0be
00000340: 05da 8d3e b4d1 32bf 30f0 1d3e 1109 b13d
00000350: 41ef 073f 00ac ffbc 5f76 6fbe 514a 46be
00000360: 26e8 563e 6fb2 f4bc fa62 5a3e d90c 923e
00000370: e9d5 f43d efa0 4f3e 0d03 b3be 1f42 943d
00000380: ec43 893d dde9 c7be ea88 2fbd c4e6 5d3d
00000390: ac43 37be 8f1d 863e 5557 1cbe 340c d2be
000003a0: 2d21 723c be7a 263e 05fc d23b 713f ba3e
000003b0: 6647 b3bd 091d 343d 3896 633d 11dd 263d
000003c0: 198b fbbc fb13 febe 5c26 93be 7ce5 853e
000003d0: 48f7 203e f49a 4bbe 0a25 babe bc1b a5be
000003e0: c5a3 813c 0074 3dbe c83b 42be 5887 21be
000003f0: 2d32 8c3d 5d47 863c d13d a2be 231b 26be

bias f4 [32]
0.1055796 -0.098748066 -0.1449437 -0.08814636 -0.12556079 0.062333524 0.0020287386 0.030990852
-0.15638976 -0.050739285 0.035804484 -0.11077446 0.029698586 0.07576136 0.025855195 -0.029377723
0.14691736 0.0789644 -0.02969922 0.123645596 0.1372203 0.08062768 -0.14283027 -0.14682211
0.16805477 0.06439334 -0.06484351 0.12783708 -0.13197708 0.0003279446 0.076677784 -0.13791315
00000000: 1e3a d83d 6d3c cabd 1f6c 14be 1486 b4bd
00000010: 0293 00be 7051 7f3d 96f4 043b 87e0 fd3c
00000020: a324 20be ffd3 4fbd b9a7 123d b8dd e2bd
00000030: 734a f33c c628 9b3d 46ce d33c 8da9 f0bc
00000040: 8171 163e 16b8 a13d c74b f3bc e739 fd3d
00000050: 7a83 0c3e 2020 a53d 1942 12be 8958 16be
00000060: 8d16 2c3e a8e0 833d adcc 84bd b9e7 023e
00000070: 0025 07be fbef ab39 3e09 9d3d 1b39 0dbe

weight f4 [32]
1.0 1.0 1.0 1.0 1.0 1.0 1.0 1.0
1.0 1.0 1.0 1.0 1.0 1.0 1.0 1.0
1.0 1.0 1.0 1.0 1.0 1.0 1.0 1.0
1.0 1.0 1.0 1.0 1.0 1.0 1.0 1.0
00000000: 0000 803f 0000 803f 0000 803f 0000 803f
00000010: 0000 803f 0000 803f 0000 803f 0000 803f
00000020: 0000 803f 0000 803f 0000 803f 0000 803f
00000030: 0000 803f 0000 803f 0000 803f 0000 803f
00000040: 0000 803f 0000 803f 0000 803f 0000 803f
00000050: 0000 803f 0000 803f 0000 803f 0000 803f
00000060: 0000 803f 0000 803f 0000 803f 0000 803f
00000070: 0000 803f 0000 803f 0000 803f 0000 803f

bias f4 [32]
0.0 0.0 0.0 0.0 0.0 0.0 0.0 0.0
0.0 0.0 0.0 0.0 0.0 0.0 0.0 0.0
0.0 0.0 0.0 0.0 0.0 0.0 0.0 0.0
0.0 0.0 0.0 0.0 0.0 0.0 0.0 0.0
00000000: 0000 0000 0000 0000 0000 0000 0000 0000
00000010: 0000 0000 0000 0000 0000 0000 0000 0000
00000020: 0000 0000 0000 0000 0000 0000 0000 0000
00000030: 0000 0000 0000 0000 0000 0000 0000 0000
00000040: 0000 0000 0000 0000 0000 0000 0000 0000
00000050: 0000 0000 0000 0000 0000 0000 0000 0000
00000060: 0000 0000 0000 0000 0000 0000 0000 0000
00000070: 0000 0000 0000 0000 0000 0000 0000 0000

running_mean f4 [32]
0.0 0.0 0.0 0.0 0.0 0.0 0.0 0.0
0.0 0.0 0.0 0.0 0.0 0.0 0.0 0.0
0.0 0.0 0.0 0.0 0.0 0.0 0.0 0.0
0.0 0.0 0.0 0.0 0.0 0.0 0.0 0.0
00000000: 0000 0000 0000 0000 0000 0000 0000 0000
00000010: 0000 0000 0000 0000 0000 0000 0000 0000
00000020: 0000 0000 0000 0000 0000 0000 0000 0000
00000030: 0000 0000 0000 0000 0000 0000 0000 0000
00000040: 0000 0000 0000 0000 0000 0000 0000 0000
00000050: 0000 0000 0000 0000 0000 0000 0000 0000
00000060: 0000 0000 0000 0000 0000 0000 0000 0000
00000070: 0000 0000 0000 0000 0000 0000 0000 0000

running_var f4 [32]
1.0 1.0 1.0 1.0 1.0 1.0 1.0 1.0
1.0 1.0 1.0 1.0 1.0 1.0 1.0 1.0
1.0 1.0 1.0 1.0 1.0 1.0 1.0 1.0
1.0 1.0 1.0 1.0 1.0 1.0 1.0 1.0
00000000: 0000 803f 0000 803f 0000 803f 0000 803f
00000010: 0000 803f 0000 803f 0000 803f 0000 803f
00000020: 0000 803f 0000 803f 0000 803f 0000 803f
00000030: 0000 803f 0000 803f 0000 803f 0000 803f
00000040: 0000 803f 0000 803f 0000 803f 0000 803f
00000050: 0000 803f 0000 803f 0000 803f 0000 803f
00000060: 0000 803f 0000 803f 0000 803f 0000 803f
00000070: 0000 803f 0000 803f 0000 803f 0000 803f

weight f4 [1, 32]
-0.10995748 0.026553905 -0.114801355 0.051735044 0.038147345 0.12587418 -0.116435766 0.12780008
-0.09817031 0.10930947 -0.16926078 -0.0058319857 0.07212072 0.011527184 0.112878785 -0.1215359
0.15383905 0.08624027 0.023569087 -0.11611907 0.049109254 0.09553331 -0.054546494 0.036067754
0.17387901 0.17676403 0.008077928 -0.045100182 -0.080639355 0.1276498 0.13317186 0.16157582
00000000: 6331 e1bd 9387 d93c f91c ebbd 20e8 533d
00000010: 6440 1c3d 29e5 003e e075 eebd 06de 023e
00000020: 840d c9bd a5dd df3d b352 2dbe 3e1a bfbb
00000030: 07b4 933d 84dc 3c3c fe2c e73d d0e7 f8bd
00000040: fc87 1d3e bd9e b03d f513 c13c d6cf edbd
00000050: c926 493d f8a6 c33d 256c 5fbd c8bb 133d
00000060: 570d 323e a101 353e 4959 043c f8ba 38bd
00000070: 3f26 a5bd a1b6 023e 345e 083e 2274 253e
