Radiomics_local_global_framework/models/lasso_feature_selection/Neural_Network/global_flair_t1ce_t2___local_flair_t1ce_t2/model.pt (torch, 291252 bytes, 5 tensors)

fc1.weight f4 [100, 670]
000000 d7 dc 95 bc 22 b0 bf 3c c0 f9 42 bd 97 e0 3a 3e
       -0.018293781 0.023399416 -0.04760146 0.18249737
000010 40 79 f1 bb 2f 20 c5 bc 05 72 8f bd ca 13 e8 bc
       -0.0073691905 -0.024063198 -0.070041694 -0.028329749
000020 c1 54 bc bc 65 52 90 3d 72 ff 8c 3c e3 9e 7f bd
       -0.022989633 0.070469655 0.01721165 -0.062407386
000030 4f 55 7a bd 9d c4 70 3b 49 09 93 bd 02 14 17 3c
       -0.061116513 0.0036738284 -0.071795054 0.009221079
000040 04 2d 3d 3b 10 85 ba bc 1f cb da 3c 0b 6a 35 bd
       0.0028865943 -0.022768527 0.026708184 -0.044290584
000050 bf 78 ab bd 05 01 f5 3c 3e e7 1f bd 1f 03 22 bb
       -0.0837264 0.029907713 -0.03903889 -0.0024721099
000060 eb 53 21 bc df 25 8a bc 51 16 6c bd f1 a3 c9 bc
       -0.009846668 -0.016863761 -0.05763847 -0.024614306
000070 85 50 6f 3d f7 da f2 bd 27 08 6d 3d 2b c4 0d bc
       0.0584264 -0.118581705 0.057869103 -0.008652727
000080 51 c2 23 3d a7 72 87 3c f8 28 2f bd 67 8f ff bb
       0.039980236 0.016534163 -0.04276368 -0.0077990773
000090 f1 bf 01 be a3 61 01 bd 98 45 52 3d 69 07 da bc
       -0.12670876 -0.031587254 0.0513359 -0.026614862
0000a0 e6 b8 54 3d fa 49 3a 3d 6a 82 f5 bd 91 9b ce bc
       0.051934145 0.045480706 -0.11987765 -0.025220664
0000b0 db 2d 0a bd 11 a1 a9 3c 14 eb 5a bd d0 c1 cd 3c
       -0.033735137 0.020706685 -0.053446844 0.025116831
0000c0 ac 02 e8 bd ed 3a 0e be 97 5e 00 bd 8f 75 38 bd
       -0.113286346 -0.13889666 -0.031340208 -0.045033988
0000d0 0d 33 1c bd e9 1e 9a 3c ac fb 2d bd 42 9c 6c 3d
       -0.038134623 0.018813567 -0.04247634 0.057766207
0000e0 ae e3 90 bc 2c f9 a4 ba 96 55 6a bb 32 58 a0 bd
       -0.017686691 -0.0012586466 -0.003575658 -0.07829322
0000f0 e4 25 db bb 8e c5 11 bd 5e d2 15 be c9 dd 4f 3c
       -0.0066878665 -0.035588793 -0.1463103 0.012687155
000100 60 ef 58 3c f6 f3 05 3c ae 60 49 3c 7a fb cf 3d
       0.013240665 0.008175841 0.012291117 0.10155387
000110 bc 34 a5 3c a9 c8 d4 3d 11 d4 78 3d 38 c0 73 3d
       0.020166747 0.103898354 0.060749117 0.059509486
000120 e7 e0 06 3d 24 54 bd 3d 7c 1b f4 3c 7d 13 38 3c
       0.032929327 0.09244564 0.029798262 0.011235115
000130 01 63 2f bc be 9d 57 bc d0 2a 2c 3a 70 ac d7 bd
       -0.010704757 -0.013160167 0.0006567659 -0.10530937
000140 91 b5 e2 ba 97 3f 7d 3d 0b aa 4a bd df 12 9a 3c
       -0.0017296543 0.061828222 -0.04947857 0.018807827
000150 2a e2 c7 3c e3 2f 14 3e f1 a4 b9 3d 18 3a dd bc
       0.024399836 0.14471392 0.09064663 -0.02700524
000160 f4 43 b7 3c c9 a5 04 be 5f 90 0a bd 8e e6 45 3d
       0.02237127 -0.12953867 -0.03382909 0.048315577
000170 28 a9 19 3d 80 f0 b6 3c 18 dd 84 bc aa 1a 43 bd
       0.037514836 0.022331476 -0.016218707 -0.04763285
000180 09 9d 8e bc 60 ff 6d bc bc a8 47 3d f1 6a 4d be
       -0.017408865 -0.014526218 0.048744902 -0.20060326
000190 94 96 96 bd 7c 83 6b bb 90 a9 86 bd a4 7d 50 3d
       -0.07352939 -0.0035936525 -0.0657531 0.05090107
0001a0 4f 20 39 bd 98 0e 35 3d a1 18 d4 3c 02 aa a2 3e
       -0.045196828 0.04420337 0.02589065 0.3177033
0001b0 01 72 f2 bd bb 7a f6 3d a5 e4 89 bd dc 9f 3f 3d
       -0.11838151 0.12035128 -0.067330636 0.046783313
0001c0 f5 4c 99 3c c4 49 75 3d 1c 18 90 3d 87 4e 8b bc
       0.018713454 0.0598848 0.070358485 -0.017005218
0001d0 f8 5e 4a bd 23 b6 39 bd ac 92 9a 3c b9 f6 f3 3c
       -0.049406976 -0.045339715 0.018868767 0.029780732
0001e0 ca 5c 33 3e ae 84 a9 bb a5 63 a0 bd db af 31 bd
       0.17515865 -0.0051732874 -0.07831506 -0.0433806
0001f0 63 97 b1 bc 13 a3 a9 3b a8 22 4a 3d 69 34 52 bd
       -0.021678632 0.0051769107 0.049349457 -0.051319513
000200 02 6a 8b 3c 6c 75 19 be 8d f0 97 3c c4 1a 07 bd
       0.017018322 -0.14986199 0.01854732 -0.03298451
000210 82 f7 6b bd 34 fb b3 bd 11 70 7c 3d a7 ee e9 bb
       -0.05760909 -0.087881476 0.061630312 -0.0071390453
000220 2a d4 91 bc ed 59 ae 3b 0f 6b c6 bd 07 96 61 3d
       -0.017801363 0.0053207786 -0.096883886 0.055074718
000230 5f 29 4e 3d ac 7f f8 bc ff e3 8f bd f2 cd b6 3d
       0.050332423 -0.030334316 -0.07025909 0.08926
000240 69 e5 0d bd 9a 18 02 3d 7e 16 22 bb 50 d9 33 3d
       -0.03464261 0.031761743 -0.0024732645 0.043908417
000250 a9 5c 4b bc 4d 2d b1 bd 3f 0b 12 3d d1 db 24 3d
       -0.012412229 -0.086512186 0.035655256 0.040248696
000260 aa 31 eb bd c8 a6 52 3e f3 db 51 3d 31 78 01 3d
       -0.11484082 0.20571434 0.05123515 0.031608764
000270 0b 58 ba bd b3 d1 e5 bc 6b 16 6c 3d 37 17 e9 3c
       -0.09098824 -0.028054094 0.057638567 0.028453453
000280 db 01 8b 3d 7d 4c a9 3c a4 50 b7 bd 5c a9 01 be
       0.06787463 0.020666355 -0.08950928 -0.12662262
000290 3f 13 85 bc c6 10 5e 3c fb 50 ec bb 66 7c a0 bd
       -0.016244529 0.013553804 -0.007211802 -0.07836227
0002a0 8a 6d e2 bd 18 ff 8d bc 8a 10 6a bd c5 9b dc 3d
       -0.11056049 -0.017333552 -0.05714468 0.10771898
0002b0 01 be 48 be 1c c9 bf 3c 4c b6 7e be 6d 92 1c 3d
       -0.1960373 0.023411326 -0.24874228 0.03822558
0002c0 a0 57 c7 bc 48 5c ff bc 8d ad 95 3d 1c 70 b5 bc
       -0.024333775 -0.031171933 0.07308493 -0.022148184
0002d0 2a 7a b1 3d d1 12 ec bc 8f 76 a7 bc 85 9f 7e bd
       0.08665879 -0.028817566 -0.020442275 -0.06216385
0002e0 a6 0f 31 bd a9 86 21 3d ad 0c 1d bc 63 10 2d bc
       -0.043227814 0.039435063 -0.009585542 -0.010562989
0002f0 95 6d 6e 3c c6 e7 ec bc 23 00 08 3d 1f aa 8b bd
       0.014552494 -0.028919112 0.033203255 -0.068195574
000300 06 b6 17 bd 8a c7 91 bc 80 0f ea 3c 70 65 3d bc
       -0.037038825 -0.017795343 0.028571844 -0.011559829
000310 1e e2 f1 bb 08 82 ce bd 5e 37 fc 3a 26 f0 79 bd
       -0.0073816916 -0.10083395 0.0019242575 -0.06102004
000320 58 31 23 bd 15 4c 20 be e5 f5 dc bc 30 8f d1 39
       -0.03984198 -0.15654023 -0.02697272 0.0003997027
000330 f0 63 19 3c df 22 35 3c b2 b7 92 3d f0 ae f7 3c
       0.009362206 0.011055677 0.07163943 0.030234784
000340 aa 02 14 3d de 7d 0e 3c 07 86 f3 bd b0 ef 20 be
       0.036135353 0.008697001 -0.11890798 -0.15716434
000350 3e c9 bb bc 52 16 fc 3c 40 cb bf bc 2b 42 a3 bd
       -0.022923108 0.030772362 -0.023412347 -0.07971605
000360 66 49 93 bd cc 1f 4f 3d 98 19 e2 bd 10 82 cb 3b
       -0.07191734 0.050567433 -0.11040038 0.006210573
000370 8c f8 41 bc 98 5d d3 3d dc e3 ff 3d 24 fc bc bd
       -0.011839043 0.10320586 0.124946326 -0.092277795
000380 e7 3b c1 bc 69 2e f8 bc 73 2e 0b bd 56 c3 30 be
       -0.023588134 -0.030295568 -0.033979844 -0.17262015
000390 4e 9e 0e 3d 20 b7 25 3d 71 d9 be 3d 55 7b 51 bb
       0.03481894 0.040457845 0.093188174 -0.003196438
0003a0 ec 6a 6c bb ac 63 43 bd 19 96 c4 3c 79 ca 08 3d
       -0.0036074473 -0.047702476 0.023997353 0.033396218
0003b0 33 71 68 bc 91 4f 1a 3e c8 90 2a bc b7 8a bf bd
       -0.014187145 0.15069415 -0.010410495 -0.0935263
0003c0 7b b6 f9 ba 83 3b f9 3c 3c 15 34 bd 4e 8a f6 bb
       -0.0019051576 0.030423885 -0.043965563 -0.0075238114
0003d0 be cd ab bd 75 86 17 3c bb 78 54 bd 56 a8 94 3d
       -0.083888516 0.009248366 -0.05187295 0.0725867
0003e0 d6 a0 df 3d 4c c6 15 be ba fc dc b9 00 f7 0a 3e
       0.10919349 -0.14626426 -0.00042149966 0.13570786
0003f0 8a c8 ef bc a4 11 46 3c 2f bf 7f 3c 42 d3 bc 3c
       -0.02927043 0.012089167 0.015609547 0.023049954

fc1.bias f4 [100]
000000 a5 ba b5 be 81 73 f4 bd e7 db 7c be 3b ab b6 be
       -0.3549396 -0.11936093 -0.24693261 -0.35677513
000010 74 e9 69 be 9f d7 aa be eb e3 b0 be 26 3c 6d bc
       -0.22842962 -0.3336763 -0.34548888 -0.014479673
000020 b5 58 ad be 96 6a b4 be 34 d6 9a be 13 fe 0a be
       -0.3385674 -0.3523757 -0.3024155 -0.13573484
000030 cb ad a4 bd 87 de 91 be aa dd a2 bb 94 fe 92 be
       -0.08040961 -0.28490087 -0.004970272 -0.28709853
000040 77 9e a2 be e9 93 9e be 8d b2 98 be a4 1e d2 be
       -0.31761524 -0.30972221 -0.29823723 -0.41039002
000050 69 c3 d5 be d9 33 7a be 00 8d a1 be 4f 3b 8c be
       -0.4175065 -0.24433841 -0.31552887 -0.27389
000060 d5 7a 8f be 9a 01 9c be 09 0b 45 be 30 6c c7 be
       -0.280234 -0.30469972 -0.19242491 -0.38949728
000070 3e cd 4a be 3a b0 ec be 68 40 81 be bc 69 4d be
       -0.19804856 -0.462282 -0.2524445 -0.20059866
000080 64 cc b0 be 3a 49 5a be 79 df 95 be bf e0 88 be
       -0.34530938 -0.21316996 -0.2927206 -0.26733968
000090 b9 17 b5 be 22 86 1e bf 5b 80 77 be 92 e0 32 be
       -0.3536966 -0.6192342 -0.24170057 -0.1746848
0000a0 5f 89 93 be 56 0a 44 be 30 22 d2 be 53 89 16 be
       -0.28815743 -0.19144568 -0.41041708 -0.14700823
0000b0 f2 9d 59 be d0 23 2a 3c 45 6b 8e be 39 ce ab be
       -0.21251658 0.010384515 -0.27816215 -0.33555773
0000c0 7f fd 98 be cc 6f 7b be 74 36 63 be 40 ca 14 be
       -0.29880902 -0.24554366 -0.22188741 -0.14530277
0000d0 7d 54 15 bb 8c ac af be 10 ed 82 be 3b 42 8f be
       -0.0022785955 -0.3431133 -0.2557149 -0.27980217
0000e0 ca ac a5 be f0 6e 09 be 56 5d f0 be e0 29 a4 bd
       -0.3235839 -0.13421226 -0.4694621 -0.080157995
0000f0 b2 71 8d be df cb 6f be a7 20 ff be 0d 91 0f be
       -0.27625805 -0.23417614 -0.498296 -0.14020176
000100 ec 86 0f 3d 6b 5b 75 be f0 b3 8d be a6 cb e7 be
       0.03504078 -0.23960654 -0.27676344 -0.4527256
000110 bc e1 19 be 81 99 de bd 1d ff 0a bd 47 40 98 be
       -0.15027517 -0.10869122 -0.0339347 -0.2973654
000120 df 4e 35 be 26 55 7d be db ce 58 be 5a 9a 03 be
       -0.17705868 -0.24739513 -0.21172659 -0.12851849
000130 b7 0a 83 be 0e 4a c2 be 12 43 ec be 03 a6 9d be
       -0.25594112 -0.37947124 -0.4614492 -0.3079072
000140 84 b8 a9 ba 23 fe c3 be 5a 12 5f be 47 31 dc be
       -0.0012948667 -0.38279828 -0.21784344 -0.43006346
000150 c1 8a 9e be c3 5a 6b bd 10 27 b4 be c5 45 de bd
       -0.30965236 -0.057459604 -0.35186052 -0.10853151
000160 82 6d f1 bd 21 5b ed be fa 38 03 be ba 34 f3 bd
       -0.11788465 -0.46358588 -0.12814704 -0.11875291
000170 88 d6 8a be d4 51 b5 be 42 b6 a1 be 6d 08 bd be
       -0.271168 -0.35413992 -0.31584364 -0.3692049
000180 9d a7 f3 be 72 a8 d2 be 44 81 a8 be 1e 4f b7 be
       -0.47588816 -0.4114414 -0.32911122 -0.3580255

fc2.weight f4 [50, 100]
000000 74 f6 9f 3e b4 5a d4 3e 87 5d bd 3e 80 7e ae 3e
       0.31242716 0.4147545 0.36985418 0.34080887
000010 84 d6 51 3e 7d 18 47 3e d8 ce 89 3e a4 a9 94 3e
       0.20491987 0.19442935 0.26915622 0.29035676
000020 fd cc 9a 3e 4a 2d b5 3e 24 f0 9f 3e 1c f7 83 3e
       0.3023452 0.35386115 0.312379 0.25774467
000030 7d 60 d1 3e 80 c6 94 3e 2b 78 9e 3e 29 93 7e 3e
       0.40893927 0.29057693 0.30951056 0.24860825
000040 09 37 bf 3d a2 ee 87 3e 9a a6 70 3e 77 b3 f0 3e
       0.09336669 0.2654925 0.23501053 0.4701192
000050 90 c7 c9 3e 5f 31 69 3e ea c4 92 3e e8 11 86 3e
       0.39410067 0.2277274 0.28665859 0.26185536
000060 a8 9e 79 3e 9c b5 97 3e 2e 5b 8c 3e 82 a2 ba 3e
       0.24376929 0.29630744 0.27413315 0.3645211
000070 3b a6 55 3e fe 77 91 3e 11 6a 2e 3e dc 16 04 3f
       0.20864193 0.2841186 0.17032649 0.5159738
000080 1f b6 ac 3e f0 ca bc 3e e1 be 8c 3e 18 2a a2 3e
       0.33732697 0.3687358 0.2748938 0.3167274
000090 43 73 eb 3d f4 fb d3 3e c4 75 ab 3e f7 8d 84 3e
       0.11496594 0.41403162 0.33488286 0.2588956
0000a0 61 97 b9 3e 38 b5 c0 3e 71 12 61 3e df ea 58 3e
       0.36248305 0.3763826 0.21979691 0.21183346
0000b0 43 00 32 3e 9d 13 51 3e 2c 0f 9b 3e 28 d4 9b 3e
       0.17382912 0.20417638 0.30285013 0.304353
0000c0 3c e4 56 3e 9e 3b 98 3e 73 73 63 3e 8e c5 c5 3e
       0.20985502 0.29732984 0.22212009 0.38627285
0000d0 79 08 64 3e 4c 69 d4 3e 05 5b a6 3e e9 f5 86 3e
       0.22268857 0.41486585 0.32491317 0.2635949
0000e0 ce d0 70 3e f6 eb 5f 3e 34 2e e3 3e d3 e9 6b 3e
       0.23517153 0.21867356 0.44371188 0.23038416
0000f0 4b d4 cb 3e e8 49 90 3e 98 4d bb 3e da dd 6f 3e
       0.39810404 0.28181386 0.36582637 0.23424473
000100 00 0e 6d 3e 9c f7 93 3e 96 b5 57 3e 92 5e fa 3e
       0.23149872 0.28899848 0.21065363 0.48900276
000110 8a c5 5d 3e 43 b9 93 3e f1 b5 a2 3e ab 9b 4d 3e
       0.21657386 0.2885228 0.31779435 0.20078914
000120 57 06 9c 3e c3 2e 63 3e 44 61 5e 3e f5 96 da 3d
       0.30473587 0.22185807 0.21716791 0.10673324
000130 1c 46 89 3e 5b ae 86 3d 9e f4 ab 3e 03 66 7b 3e
       0.26811302 0.065762244 0.33585066 0.24550633
000140 55 e3 a6 3e 63 47 75 3e b0 5b 54 3e c2 10 17 3e
       0.32595316 0.23953013 0.20738101 0.14752486
000150 05 81 b6 3e ad cf 93 3e b6 2a 7b 3e 69 82 e9 3d
       0.3564531 0.28869382 0.24528012 0.11401827
000160 04 09 ca 3d 6b b2 d7 3e be a8 f5 3d 3f b3 4b 3e
       0.09865001 0.4212831 0.11995076 0.19892596
000170 35 70 5f 3e fa b0 6a 3e c7 56 5d 3e 0d ea 3a 3e
       0.21820147 0.22919074 0.21615134 0.18253346
000180 82 04 86 3e bd 9a e0 3e 69 0f a2 3d cf 70 e5 3d
       0.26175314 0.43868056 0.079130955 0.11203157
000190 8e fb ae 3e 8e 45 9d 3e f2 7b b9 3e 15 1d 6f 3e
       0.34176296 0.3071713 0.36227375 0.23350938
0001a0 0c 53 43 3e 37 21 aa 3e b2 db 8f 3e b7 5e 10 3e
       0.19074649 0.33228466 0.28097302 0.14098631
0001b0 74 81 bd 3e 49 37 99 3e aa bb 91 3e 63 2a 84 3e
       0.37012827 0.29924992 0.2846349 0.25813589
0001c0 ce 76 c8 3e 02 84 51 3e e1 e3 3d 3e 15 74 45 3e
       0.3915314 0.20460513 0.1854396 0.19282563
0001d0 28 a0 86 3d d7 19 f2 3d b6 ec 94 3e 80 b8 ba 3e
       0.06573516 0.11821335 0.29086846 0.36468887
0001e0 7a 17 7d 3e 47 cb 3f 3e f4 17 a1 3e 68 42 9e 3e
       0.24715987 0.18729888 0.31463587 0.3091004
0001f0 51 09 4c 3e 81 3c 05 3e 5b 01 e7 3d a7 0b ae 3e
       0.19925429 0.13011362 0.112795554 0.33993265
000200 29 fc 56 3e 8d 29 d0 3d 5b b9 46 3e c5 78 ec 3e
       0.20994629 0.10164175 0.19406645 0.4618589
000210 ab 58 92 3e 60 99 c1 3e 7c 90 87 3e 56 c1 5b 3e
       0.28583273 0.37812328 0.2647742 0.2146047
000220 06 f2 6b 3e f7 c2 e0 3e a6 d0 48 3e eb a2 ba 3e
       0.23041543 0.43898746 0.19610843 0.36452422
000230 cd d3 c6 3e 7c 1d 9c 3e bd e5 b9 3e eb 45 a8 3e
       0.38833466 0.30491245 0.3630809 0.32865843
000240 97 5a aa 3e bd c2 f9 3d ee 4a 99 3e 3c a2 83 3e
       0.3327224 0.121953465 0.2993998 0.25709713
000250 e2 83 91 3e 88 e5 59 3e 71 e2 2e 3e 2d 91 c0 3e
       0.2842093 0.21278965 0.17078568 0.3761076
000260 64 4d 49 3e 82 36 b0 3e 3f bb 9a 3e 87 9d 96 3e
       0.19658428 0.34416586 0.30220982 0.2941706
000270 7c 75 27 3e 49 d2 57 3e 55 24 c5 3e 45 5b 30 3e
       0.1635341 0.21076311 0.38504282 0.17222317
000280 cd 9a 5f 3e a0 e1 a5 3e 69 4e 95 3e 2b cf bb 3d
       0.21836396 0.323987 0.29161385 0.091703735
000290 f8 c1 57 3e 15 ab 8c 3e 87 c8 9b 3e 8c e7 bb 3e
       0.21070087 0.27474275 0.30426428 0.36700094
0002a0 6b ba 94 3e 98 d3 6d 3e b2 85 8f 3e 81 37 7b 3e
       0.29048476 0.23225248 0.2803169 0.24532892
0002b0 08 13 cc 3e a1 85 a4 3e 89 7b 8a 3e 2b b0 24 3e
       0.3985827 0.321332 0.27047375 0.16082828
0002c0 a5 95 19 3e 14 e3 28 3e 53 6b ef 3e 10 b8 fb 3d
       0.14998491 0.16492873 0.4676157 0.122909665
0002d0 a9 0b a1 3e 95 03 61 3e d7 3e 9e 3e b6 c8 1d 3e
       0.31454208 0.21974023 0.30907318 0.15408596
0002e0 5c 3f a5 3e 6f 1b 3e 3e 1a a9 34 3e 81 ea 0d 3e
       0.32274902 0.18565153 0.17642632 0.13858987
0002f0 af ef 66 3d 04 d6 be 3e 84 c9 33 3d b2 22 89 3e
       0.056380924 0.37272656 0.043893352 0.26784283
000300 12 fd 47 3e bc ff 96 3e 2e 63 a8 3d 22 e8 5e 3e
       0.19530132 0.29491985 0.08222042 0.21768239
000310 1f 48 9b 3d 9f 43 c7 3e 9c 62 21 3d 2a ab 85 3d
       0.075821154 0.38918778 0.03940068 0.065267876
000320 ee 18 80 3d 9b a0 7c bc 36 c7 0d bc 0e d1 30 be
       0.06254755 -0.015419151 -0.008653453 -0.17267248
000330 41 3e ff be 73 26 54 be c2 f0 12 3f c8 b9 d8 be
       -0.49852183 -0.20717792 0.5739862 -0.4232924
000340 76 99 07 3f 9a e5 5f 3e 93 53 9f 3e fc 44 d3 be
       0.5296854 0.2186493 0.3111845 -0.41263568
000350 26 71 12 be c0 c3 8d 3d bc d1 30 be a7 8a 8d bd
       -0.14300975 0.06922102 -0.17267507 -0.069112115
000360 1a 13 ed 3e 6b aa 5b 3e 56 53 04 3e 2f cb 83 3e
       0.46303636 0.21451728 0.12922415 0.25740954
000370 42 53 74 3e 08 94 d1 bd dd 92 9a 3d 4d d9 ae be
       0.23859885 -0.10233313 0.07547543 -0.34150162
000380 36 3e 7b be 62 93 bc 3e 8b 62 3a 3e ab 80 3a bd
       -0.2453545 0.36831194 0.18201654 -0.045532864
000390 59 96 38 bf 16 5e 3e 3e d0 f9 08 be 06 b2 0a bf
       -0.7210441 0.18590578 -0.13376546 -0.5417789
0003a0 b0 84 cb 3e 84 de 4a 3e 1e e5 71 3e cc d6 ae be
       0.3974967 0.19811445 0.23622558 -0.34148252
0003b0 13 0c b0 3e 72 e4 c0 be 2c 08 e6 3e ae cc a6 3e
       0.34384212 -0.3767429 0.4492811 0.32578033
0003c0 be d5 9a 3e ff 63 5a 3d 91 d5 14 be 5d a7 0c bf
       0.30241197 0.05331802 -0.14534594 -0.54942876
0003d0 af 3b ce 3d 4a 94 a9 be 94 4c de 3e cb 2d ba 3e
       0.100699775 -0.33120948 0.434178 0.36363062
0003e0 db 16 17 3e cc a0 4b be d6 c4 98 3e f5 4b e2 be
       0.14754812 -0.19885558 0.29837674 -0.44198576
0003f0 57 a4 ce be b2 7e 38 3d ba 9b 07 3f 5f 2f 5b 3e
       -0.40359756 0.0450427 0.52971995 0.2140479

fc2.bias f4 [50]
000000 59 bb fb be b1 9e 8d be db 77 90 3f be bd 19 bf
       -0.49166372 -0.27660134 1.1286577 -0.6005515
000010 16 43 5a 3f c4 30 c3 bd 36 9f 83 be 1f 8e 13 bf
       0.85258615 -0.09530786 -0.25707406 -0.57638735
000020 5f 75 07 bf bc 0a a3 be 76 e5 c5 be 53 e9 ef be
       -0.5291347 -0.31844127 -0.38651627 -0.468577
000030 a2 3b ea be 8a 7e 18 3d cf 7b 1c 3f 03 a8 c9 be
       -0.4574862 0.037230052 0.61126417 -0.39385995
000040 a7 b0 fc be 59 5b 02 bf 65 19 2c 3f 1c 87 ae be
       -0.49353525 -0.50920635 0.6722625 -0.34087455
000050 a1 96 9f be d8 df 7a 3f 84 08 d6 bd c4 10 c5 be
       -0.31169608 0.9799781 -0.10450843 -0.38489354
000060 ce 80 e0 be ef 97 86 3f 0a cb 89 be 6f 5d 31 3f
       -0.4384827 1.0515116 -0.2691272 0.69283193
000070 22 2c b9 be f3 16 82 3d 0a d7 06 bf 92 0b 6f 3f
       -0.36166483 0.063520335 -0.52671874 0.9337703
000080 75 e2 ae be ae 96 a4 be 8b 32 7b 3f 02 e6 9e be
       -0.34157148 -0.3214621 0.98124 -0.31034857
000090 d5 f0 c0 be de 0b c5 be ab 0b 4e 3f f2 82 88 be
       -0.3768374 -0.38485616 0.80486554 -0.26662403
0000a0 45 17 fa be a4 85 32 3f 2f 7b 58 be 40 58 1e 3f
       -0.48845878 0.6973517 -0.21140741 0.6185341
0000b0 6c 8c 72 3f 17 24 aa be 6b ab 19 3f 27 98 11 3f
       0.94745517 -0.3323066 0.6002719 0.5687279
0000c0 e4 e9 a6 be a0 15 e7 be
       -0.3260032 -0.45133686

fc3.weight f4 [1, 50]
000000 35 8e ac 3e df 9e cc 3e c4 28 c2 bf 87 2a c3 3e
       0.33702245 0.3996496 -1.5168691 0.38118383
000010 4e 33 ce bf 82 8f 22 bd 52 da eb 3e 77 f1 cd 3e
       -1.6109407 -0.03968764 0.46065003 0.40223286
000020 2a 84 be 3e 85 96 b4 3e 5e bf bd 3e 25 70 b4 3e
       0.37210208 0.35271087 0.37060064 0.3524181
000030 d7 8d ba 3e 32 cc 04 bc 5b f2 8f bf 36 a3 d2 3e
       0.3643634 -0.008105325 -1.1245836 0.41140145
000040 de 00 b8 3e d7 31 a9 3e a7 96 42 bf cf 0c b4 3e
       0.35938162 0.33045837 -0.7601113 0.35166022
000050 e1 f7 b9 3e 07 07 86 bf 16 15 c9 3b 80 02 e9 3e
       0.3632193 -1.0470895 0.006136547 0.4550972
000060 47 91 b6 3e d3 85 90 bf 41 e1 d6 3e 4d 39 6a bf
       0.35657713 -1.129084 0.4196873 -0.91493684
000070 7b fc d7 3e 70 1a 10 3c 50 26 b4 3e f0 69 e1 bf
       0.42184815 0.008795366 0.3518548 -1.7610455
000080 73 72 c6 3e 3f c0 cd 3e 07 77 b9 bf e6 33 b5 3e
       0.38759193 0.40185735 -1.4489449 0.35391158
000090 3e 05 db 3e 2d e1 b2 3e 2a 68 4d bf 80 2b e3 3e
       0.42777437 0.3493742 -0.80237067 0.44369125
0000a0 9e 88 b7 3e 56 b9 3c bf 45 7c de 3e 48 19 6b bf
       0.35846418 -0.737203 0.43454185 -0.9183545
0000b0 63 d9 a6 bf 97 b8 af 3e 07 d5 a1 bf 79 16 93 bf
       -1.3035091 0.34320518 -1.2643136 -1.1491233
0000c0 d5 7c db 3e 9f f7 bc 3e
       0.42868677 0.3690767
