Radiomics_local_global_framework/models/lasso_feature_selection/Neural_Network_256_dim/global_flair_t1ce___local_flair_t1ce/model.pt (torch, 804456 bytes, 7 tensors)

fc1.weight f4 [256, 621]
000000 db 3f e2 3c 2a 91 c2 3d 91 04 11 bd 18 50 c7 3d
       0.02761834 0.09500344 -0.035404745 0.097320735
000010 6a 7f e4 bc 34 34 8c bd ba 2e b1 3d 5d 75 9b bd
       -0.027892787 -0.068458945 0.086514905 -0.07590745
000020 8b 95 9a bd 33 9c c0 3c cb 2e f2 bd d7 42 bb bc
       -0.07548054 0.023511982 -0.11825331 -0.02285902
000030 83 22 8a 3d 99 35 e8 bd 50 84 23 3d 9f cb b6 bd
       0.06744864 -0.11338348 0.039921105 -0.089255564
000040 37 48 12 bd 3d 7f 4b bd bc df 0d 3c a2 d8 6b 3d
       -0.0357134 -0.04968189 0.008659299 0.057579644
000050 d0 1d d7 3c 4e df ff bd 22 58 00 be f0 b4 c4 3d
       0.026259333 -0.12493764 -0.1253362 0.096048236
000060 3f 28 e5 bb 82 3f cf bc 2d 87 81 bd 02 1b e1 3c
       -0.006993323 -0.025298838 -0.06324611 0.027478699
000070 94 cf c8 bd 07 8e 93 3d bc c5 27 3d 42 b7 6d 3d
       -0.098052174 0.07204824 0.04096006 0.058036096
000080 50 b4 ae 3d 92 0f d2 bd 84 8a a0 bd de d0 17 3d
       0.08530486 -0.10256876 -0.0783892 0.037064426
000090 53 47 68 3c 8e d7 ad bd f1 9f 93 bc 0a da 80 3d
       0.014177161 -0.084883794 -0.018020602 0.06291588
0000a0 27 0e ee bd 83 20 13 3b 04 01 9f bc a9 16 22 be
       -0.11623793 0.0022449798 -0.019409664 -0.15828957
0000b0 f5 fe 23 be df 23 83 3d a8 4c 22 bd b1 84 94 3d
       -0.16015227 0.06403326 -0.039623886 0.072518714
0000c0 21 09 6c 3d d2 92 44 b9 b3 3e 9b 3d a8 62 12 bd
       0.057625894 -0.00018746711 0.07580318 -0.035738617
0000d0 38 24 01 3e 75 2e b5 bc 1d b6 d4 bc e3 c7 6a bd
       0.12611473 -0.022116879 -0.025965745 -0.057319533
0000e0 34 b1 94 bc 5c 53 ae 3b 62 19 be bc 13 2e ae 3d
       -0.018150903 0.005319996 -0.023205463 0.08504882
0000f0 c2 6a 1d be 32 36 48 3b ef 42 ff 3d 83 58 e2 bd
       -0.15372756 0.003054988 0.124639384 -0.110520385
000100 15 70 ba bb e6 4c 93 bd 54 05 d2 39 f0 42 3d bd
       -0.0056896308 -0.071924016 0.0004005829 -0.046206415
000110 1e 95 9f bc 90 00 42 bd b3 b7 1e bd 10 55 8b bd
       -0.019480284 -0.047363818 -0.038749408 -0.06803334
000120 3c f5 f1 3a ac ff da bc 8a 6b d9 3d 33 90 e7 bd
       0.0018459926 -0.026733242 0.106162146 -0.11306801
000130 7d 50 c0 bd 53 4b 84 3d 55 45 f7 3d 82 4a 86 bd
       -0.09390352 0.064596795 0.12073771 -0.0655718
000140 a3 dd c5 3c 76 2f 4b bd fa dd ae bc e1 63 87 bc
       0.024153536 -0.04960581 -0.021346081 -0.016527118
000150 70 82 74 3e 63 d4 9a 3d 29 b0 a2 bd a2 2a c8 bc
       0.23877883 0.07560041 -0.07943756 -0.024434391
000160 a6 5f ad bd 8d ec 47 3c a7 a0 f4 3d 70 e2 de 3d
       -0.08465509 0.012202394 0.119447045 0.10883033
000170 65 bc 26 bd 1f 25 a8 bd 39 ad f6 bd 44 20 4b 3e
       -0.04070701 -0.08210205 -0.12044758 0.19836527
000180 67 2e 00 ba dd 07 29 bd a5 2f 35 be 1d 59 57 3d
       -0.0004889727 -0.041267265 -0.17693956 0.05257522
000190 40 52 4c bd e2 15 69 bd 06 3e 03 3e b4 b8 af bb
       -0.049883127 -0.056905635 0.12816629 -0.0053625945
0001a0 89 f2 8a 3d 99 f2 a7 bd 13 a8 0f be af ba 1e 3b
       0.06784541 -0.08200569 -0.14028959 0.0024220159
0001b0 e6 51 3d 3c 61 f8 eb bd 29 7f 8a 3b dd 53 83 3d
       0.011555171 -0.11521984 0.0042265845 0.0641248
0001c0 5b 14 31 3e 09 e5 a1 3c ee 24 64 3c 5d b5 a8 bd
       0.17292921 0.019762533 0.01392482 -0.08237717
0001d0 9f 45 42 bd f3 b6 1a be 7a d6 48 3d 92 21 d4 3d
       -0.047429677 -0.15108852 0.049032666 0.103579655
0001e0 9a f0 31 bd cb e6 85 bc 15 19 8f bd 90 30 a3 3d
       -0.043442346 -0.016345402 -0.06987206 0.07968247
0001f0 47 be c2 3d 6e e9 b2 3c 3f ae 69 3d c4 b7 64 3d
       0.09508949 0.021839824 0.05705094 0.055839315
000200 eb c3 98 bd 79 90 fe bd a2 f1 c1 3d 43 cf 06 3e
       -0.074592434 -0.124299 0.09469916 0.13165002
000210 73 d3 ab bc 85 5a 4d bd 74 23 12 bc 23 57 1d be
       -0.02097485 -0.050135154 -0.0089195855 -0.15365271
000220 61 55 30 bd 72 99 86 bd af c7 1a bd b1 12 81 3c
       -0.043050174 -0.06572236 -0.03778809 0.015755983
000230 cd f9 9a be 6a 78 ea bd 86 bb 5c 3e d7 01 5b bd
       -0.30268708 -0.114487484 0.2155591 -0.05346855
000240 1a 27 a7 be e5 5b 1c 3d 18 e0 e6 3d 5b 08 04 be
       -0.3264702 0.038173575 0.11273211 -0.12893812
000250 76 9a 44 3e b9 f6 7e bc 99 ec 01 3d 6e 32 ce bd
       0.19199547 -0.015561753 0.031719778 -0.100682124
000260 af 56 a2 3c 25 49 1d bd 50 20 a2 bd 05 e3 66 bd
       0.019816725 -0.038399834 -0.07916319 -0.056368846
000270 b6 ff ae 3d 45 c1 ab bd e7 b0 c2 3c 03 30 72 3c
       0.08544867 -0.083864726 0.023765994 0.014781955
000280 3d 85 15 3d 9d 6f 2e be fc b7 5f bc 4a da 5a 3c
       0.03650402 -0.17034765 -0.013654705 0.013357708
000290 81 57 bd 3d f5 15 61 bd ae ed 17 3c 33 07 2b 3e
       0.09245206 -0.05495258 0.009272976 0.16701965
0002a0 f7 93 d4 bd 63 d2 91 bc fa 37 a4 bd ba ea 22 bc
       -0.103797846 -0.017800516 -0.08018489 -0.0099436585
0002b0 36 c4 e6 3d 69 c9 5d 3d 00 75 ed bc ee 60 47 3d
       0.11267893 0.054147158 -0.028986454 0.048676424
0002c0 6d 50 0d bd a4 7f ce 3d 9c 44 59 3e ba 8e f0 bc
       -0.034500528 0.10082939 0.21217579 -0.029364932
0002d0 8c 88 6b bd 45 40 58 bd eb ad e5 3d ef 69 90 bd
       -0.057503268 -0.052795667 0.11214813 -0.07051455
0002e0 e6 60 92 3d dd fd 80 be f6 e1 d7 bb cf 7d bc 3d
       0.07147388 -0.25193682 -0.006588216 0.092036836
0002f0 31 e1 72 bd ff f1 c5 3c e0 66 1b 3d 4f f5 3b 3c
       -0.05929679 0.024163244 0.037939906 0.01147206
000300 02 31 4d 3c 5a e8 35 bd fd 85 ae 3d 84 69 82 3e
       0.012523891 -0.04441104 0.0852165 0.25471127
000310 97 89 9b bd ab 26 3a be 6e 9b a3 3d be fb b8 3c
       -0.075946026 -0.18178813 0.0798863 0.022580978
000320 38 0c c2 3d 22 e1 49 3e 11 e5 27 3e 1b 19 57 be
       0.09474987 0.19714788 0.16395976 -0.2100567
000330 8c 77 2a bd b9 17 52 bd 24 7b 2b 3d c8 ae b3 bd
       -0.041617915 -0.051292155 0.041865483 -0.08773571
000340 17 68 0d 3e 6b b1 65 bc ba 35 6e bc b7 6d c6 bd
       0.13809238 -0.0140193505 -0.014539177 -0.09688895
000350 35 a8 3b 3c 01 aa bc bd bf 78 1e 3e cd ae 4f bd
       0.011453678 -0.09212113 0.15475748 -0.050703812
000360 4b b6 9f bd af 66 1f be 83 0d 13 3e a4 e6 86 3c
       -0.077984415 -0.15566514 0.14360623 0.0164674
000370 ae c6 08 bc 0e 43 33 bd 7b 69 92 3d 09 4d f9 3c
       -0.00834815 -0.04376512 0.07149025 0.030432241
000380 0c 02 3c bd ce 69 df 3d 8f 2c 13 3d ff 46 c3 bd
       -0.04590039 0.109088525 0.035931166 -0.09535026
000390 86 00 37 3d 7f a5 e1 bb 4a b9 68 bd 17 e2 98 be
       0.044678234 -0.0068861837 -0.05681733 -0.29859993
0003a0 d0 db 62 bc c6 84 d0 3c 1c 58 99 ba 8e b1 98 3d
       -0.013846353 0.025453936 -0.0011699232 0.07455741
0003b0 6f b2 61 be f8 3d e0 3d 83 3e d3 bd f1 81 33 be
       -0.22040723 0.109493196 -0.103146575 -0.17530037
0003c0 c8 4a fb 3e ad f1 59 bd 57 9d 39 be 02 b8 33 3d
       0.4908049 -0.053208996 -0.18126427 0.043876655
0003d0 c4 84 e7 bb 18 12 03 bd 8a dc a0 3b 3d ae c6 bc
       -0.0070653874 -0.031999677 0.004909103 -0.024253005
0003e0 9c b1 19 3d 7f 50 1d 3d 74 bc 0a 3d 15 da 91 bd
       0.037522897 0.038406845 0.03387113 -0.07121674
0003f0 34 fa c9 bd 1a d1 d0 3b b8 5e 99 3d c5 e1 9f be
       -0.098621756 0.006372583 0.07488769 -0.31226936

fc1.bias f4 [256]
000000 a2 30 43 be a9 d2 eb bf 59 90 a4 be 42 fc 4a be
       -0.1906152 -1.8423663 -0.3214138 -0.19822791
000010 54 98 95 bf 05 86 2f bd c0 52 95 be 71 57 d3 bf
       -1.1687112 -0.04285242 -0.29164696 -1.651106
000020 c9 5d bc bf 70 66 0f bf fa 8e 4e be 67 91 82 be
       -1.4716121 -0.5601568 -0.20171729 -0.25501558
000030 98 44 4a be a5 ca 60 be f3 44 b1 be 05 dd 45 be
       -0.19752729 -0.21952303 -0.34622917 -0.19322594
000040 9c 99 65 be 88 c2 07 bf 27 8e 01 bf 4b 68 70 be
       -0.22421879 -0.53031206 -0.5060753 -0.23477285
000050 dd 97 fb bf 2a 2f 7f be e4 eb be be 8d 68 c6 bf
       -1.965572 -0.24920335 -0.37289345 -1.5500656
000060 e7 62 86 bd e2 6e ba be 0d 90 aa bf d9 6c cc be
       -0.06561833 -0.36412722 -1.3325211 -0.39926794
000070 c6 db 61 bf e8 da 9f be 67 c7 a9 be 1c dd 82 bf
       -0.8822597 -0.312217 -0.33159944 -1.0223727
000080 26 dc 02 c0 f1 69 b4 be e5 1e 23 bf d4 0e b6 bf
       -2.0446868 -0.35237077 -0.63719016 -1.4223275
000090 fe e5 e8 bf 0f 6c 82 be 0e 81 6c be 57 98 2c be
       -1.8195188 -0.25473067 -0.23096105 -0.16854988
0000a0 ac 06 b3 be 9d f6 f8 bf 23 10 47 bf 66 02 47 bf
       -0.34966028 -1.945026 -0.77759 -0.77738035
0000b0 aa 76 98 bf cc 70 f0 be d3 a6 65 bf 6e 38 b6 be
       -1.1911213 -0.46961057 -0.8970768 -0.35589927
0000c0 cd 0e ef be 83 11 e4 bf d2 81 44 bf 59 d5 a0 be
       -0.4669098 -1.7817844 -0.7676059 -0.3141277
0000d0 fe af b5 be 24 1a c1 be 67 26 97 bf 1f 6b c5 be
       -0.35485834 -0.37715256 -1.1808594 -0.3855829
0000e0 f5 a8 e3 bf 81 43 54 bf bc 07 6f bf 2c 84 8f bf
       -1.7785937 -0.829155 -0.93371177 -1.1212211
0000f0 16 d5 09 bf 66 36 81 be b7 b2 06 bf d8 71 95 be
       -0.5384077 -0.25236815 -0.5261645 -0.29188418
000100 8e 5b 2a bf 3b 56 50 be 8f 7d a9 be 68 09 ee be
       -0.6654595 -0.20345394 -0.33103606 -0.4649155
000110 7b 35 e3 bf 52 52 8f bf 5d d9 d7 bf 4d 5c de be
       -1.7750696 -1.1196997 -1.6863209 -0.43429795
000120 24 9a 2e bf ce 6e 24 be 7a 8c ed bf b2 83 7a be
       -0.6820395 -0.16057894 -1.8558495 -0.244643
000130 b4 be b9 be 30 df a1 be 5c 1e 39 bf 3e 1f e1 bf
       -0.36278307 -0.3161559 -0.7231195 -1.7587659
000140 f8 87 98 be ea ee 46 be 28 7f 82 be 98 48 05 bf
       -0.29791236 -0.19427076 -0.25487638 -0.52063894
000150 8f 41 a2 be 2b 01 31 bf 72 4c f5 be e4 d4 05 c0
       -0.31690642 -0.6914241 -0.47909886 -2.0911188
000160 98 24 7a be cd c8 bf bf 51 dd b4 be d0 ea c4 be
       -0.24428022 -1.4983155 -0.353251 -0.38460398
000170 51 5a ef bd 54 e4 12 bf cf 02 0a c0 f4 4b d2 bf
       -0.11687148 -0.5737965 -2.1564214 -1.6429429
000180 37 8f dd be ba e7 80 be e7 6d b0 bf b5 89 96 be
       -0.43273327 -0.25176793 -1.378354 -0.29401937
000190 15 da fb be 13 e2 84 bf 43 f0 f4 bf c9 c9 92 be
       -0.4918982 -1.0381492 -1.9135822 -0.28669575
0001a0 6e 15 d5 be 2f a1 07 c0 a5 c0 e9 bf ca 0b ed bf
       -0.41617912 -2.1192129 -1.8261915 -1.8519223
0001b0 d2 6e 6d bf e3 9a c8 be 08 08 9c be 3e 10 db be
       -0.92747223 -0.3918067 -0.30474877 -0.4278583
0001c0 26 ca d6 bf d5 e2 d2 bf 61 74 e3 be 40 26 ae be
       -1.6780441 -1.6475474 -0.44424728 -0.34013557
0001d0 d9 26 d2 bf 33 b1 49 be 8c d2 80 be 89 b9 b1 bf
       -1.6418105 -0.19696502 -0.25160635 -1.3884746
0001e0 75 7f 80 bf f6 ee 99 be f6 f4 7e be 2d 11 bd bf
       -1.0038897 -0.30065125 -0.24898133 -1.4770867
0001f0 d7 b3 85 be e7 a9 24 bf 33 18 d9 be 02 3d c8 bf
       -0.2611377 -0.6432175 -0.42401275 -1.5643618
000200 1b 2f 90 bf f1 42 67 be df 80 30 be b7 5d a1 be
       -1.1264375 -0.2258413 -0.1723666 -0.3151681
000210 8c 3f f8 be e6 d4 d0 be 15 b6 73 be 2d 76 84 bf
       -0.48485982 -0.4078743 -0.23799928 -1.0348564
000220 22 a5 55 bf 3d 7e 73 be 8a b0 18 be 26 ed 74 be
       -0.834551 -0.23778625 -0.14911094 -0.2391859
000230 7d db 8b be 30 b0 fd be f7 ff c2 bf e4 37 82 bf
       -0.27315894 -0.49548483 -1.5234364 -1.0173306
000240 a0 bc 5e bf fa 92 a1 be 48 af f7 bf ea 91 76 be
       -0.8700657 -0.31557447 -1.9350367 -0.240791
000250 86 4c 8d be 9e 39 0d bf 15 f1 df bf 35 dc eb bf
       -0.27597445 -0.5516604 -1.7495447 -1.8426577
000260 b1 2f 35 be b7 28 82 be 80 5b 86 be 57 01 3d be
       -0.17693974 -0.25421688 -0.26241684 -0.18457542
000270 1f 3f 03 bf cc b3 80 be f5 78 b1 be 9e 7f 28 bf
       -0.5126819 -0.25137174 -0.34662595 -0.6581973
000280 47 7f bc be f2 23 08 bf e4 de e8 bf 8b dc f6 bf
       -0.36815855 -0.5317985 -1.8193021 -1.9286054
000290 97 22 a2 be 0f 29 00 c0 4b 6a 02 bf 98 88 5b bf
       -0.31667015 -2.002506 -0.5094344 -0.857553
0002a0 6b b4 2b bf d2 62 e2 be ed 80 47 bf 5a 5c c5 bf
       -0.6707217 -0.4421602 -0.779311 -1.5418808
0002b0 c9 ff 8a bf f7 1b 08 be bb 15 1f bf 81 c8 0c be
       -1.085931 -0.13291918 -0.62142533 -0.13748361
0002c0 7a 9d 72 be 1b f6 17 bf f4 6b 40 bf e9 45 41 bf
       -0.23692885 -0.593599 -0.75164723 -0.754973
0002d0 24 17 d2 bf 88 20 ef bf 91 d0 00 c0 bd 8d d1 bf
       -1.6413312 -1.8681803 -2.01273 -1.637138
0002e0 cc 8f b7 be 56 2b 9f bf be a3 0e bf 8f be b8 be
       -0.35851896 -1.24351 -0.557186 -0.36082885
0002f0 ab 8b 10 be c2 b4 09 c0 0a f4 af be 88 27 8a bf
       -0.14115779 -2.1516576 -0.34365875 -1.0793314
000300 87 39 9a be 75 33 12 bf ff 70 1c bf d1 94 05 bf
       -0.30122015 -0.5710977 -0.6110992 -0.521802
000310 5f d5 76 be 7a e5 3e be c8 2e 29 bf 85 c4 2d bf
       -0.24104832 -0.18642226 -0.6608701 -0.6787799
000320 06 8e 43 bf 13 2c 8b be 65 e6 f1 be 59 d9 9f be
       -0.76388586 -0.27182063 -0.4724609 -0.3122051
000330 16 bd b7 be 53 dc e8 bf 3c 3d d3 be e2 2a cd bf
       -0.3588645 -1.8192238 -0.41257656 -1.6028712
000340 43 f1 1e bf 29 d2 01 c0 90 74 7c be 11 d5 73 bf
       -0.62086886 -2.0284522 -0.2465384 -0.9524699
000350 b6 d9 3e bf dd 2c d7 bf 47 89 da bd 4b 4d 83 be
       -0.7455095 -1.6810566 -0.10670715 -0.25644907
000360 a3 c0 c5 be 60 ea e6 bf 5f 0a 7f bf 72 2b b8 bf
       -0.38623533 -1.8040276 -0.996252 -1.4388258
000370 92 5a ef be 6d 2f 46 be ec 1d a5 bf 3c 8d c7 be
       -0.46748787 -0.19354029 -1.2899756 -0.3897494
000380 84 3c 9c be c9 fa 67 be e4 f3 77 be f5 a7 35 be
       -0.3051492 -0.2265426 -0.2421413 -0.17739852
000390 52 34 f3 bf f6 e0 92 be 67 48 45 bf 2d 3d 8c be
       -1.9000342 -0.28687257 -0.770636 -0.27390423
0003a0 54 fa 98 be 47 11 73 bf d6 9d 83 be 7a 27 57 bd
       -0.29878485 -0.9494824 -0.25706357 -0.052527882
0003b0 c6 89 ec bf 59 4d b7 be f0 a3 68 be 59 28 73 bf
       -1.8479545 -0.358012 -0.22718787 -0.9498344
0003c0 53 68 b8 bf b8 d9 82 bf 15 da 9d be c2 22 ab be
       -1.4406837 -1.0222692 -0.30830446 -0.33424956
0003d0 e2 92 4c bf c6 0b 0d bf 35 4f 05 bf 39 75 04 c0
       -0.79911625 -0.5509609 -0.52073985 -2.0696547
0003e0 b6 e6 a6 be 84 22 c9 bf 48 e5 e8 bd d5 8a cc be
       -0.32597893 -1.5713658 -0.11371857 -0.3994967
0003f0 6d 5d ee bf a6 d1 c5 bf fa 72 11 be 91 87 2f bf
       -1.8622261 -1.5454605 -0.14204016 -0.6856623

fc2.weight f4 [128, 256]
000000 4d 16 f9 3d 4b f4 e9 3c 2e 36 dc 3d de 9b 53 3e
       0.12162457 0.02855887 0.107525215 0.20664927
000010 d3 3e 6b 3d 52 77 15 3e 50 03 1a 3d bf 88 52 bd
       0.05743296 0.14596298 0.037600815 -0.051399942
000020 6b 68 98 bb 74 79 db 3c da f9 43 3e 7a e8 cb 3d
       -0.0046511195 0.026791312 0.1913828 0.09956451
000030 09 35 d4 3d eb a2 2d 3e bd cf 00 3e 3c 8b bf 3d
       0.10361678 0.1695668 0.12579246 0.09352729
000040 d3 51 4b 3e b0 ef 02 3e 08 5a 0e 3d aa c8 6d 3e
       0.19855432 0.12786746 0.03475383 0.23221079
000050 67 60 e2 bc ed 79 ab 3d 2a e6 7e 3c 98 92 96 bc
       -0.027633859 0.08372865 0.015557805 -0.018380448
000060 d9 aa 2e 3e c6 5a 6c 3d b3 ab 11 bc 02 e7 4e 3d
       0.1705736 0.057703756 -0.008891034 0.050513275
000070 af d7 cc 3c 46 27 ec 3d 0b 5c 76 3d c7 8c 06 3d
       0.02500519 0.11530928 0.060146373 0.0328491
000080 cc 70 da 3c 98 47 1c 3e ba e9 b6 3a 03 85 23 3d
       0.026665114 0.15261686 0.0013955154 0.03992177
000090 fd 15 4f bd 2a 5e d0 3c 9a 1b 75 3e f3 fe 50 3e
       -0.05055808 0.025435526 0.2393631 0.20409755
0000a0 b2 ea cb 3d b0 8c 0f 3d f4 e9 3c 3d a2 c2 5e 3d
       0.09956874 0.03504628 0.046121553 0.054384835
0000b0 e2 7f f2 bc e9 0a 94 3d 51 cc 64 3d 73 d0 a7 3d
       -0.029601995 0.072286434 0.055858914 0.081940554
0000c0 57 92 fa 3d 38 6f 43 3a 2f d5 25 3d c7 c8 7e 3d
       0.12234943 0.00074552326 0.04048651 0.062203195
0000d0 fe bb 72 3d 5a 93 1c 3e 9e e6 0d bd 5a d4 08 3e
       0.059261315 0.15290585 -0.03464376 0.13362256
0000e0 c7 b9 7c 3d 52 55 c9 3d de 1e 9d 3d ae 8d 82 bc
       0.06170061 0.09830727 0.07671903 -0.015936699
0000f0 0a aa b5 3d 66 43 1b 3e aa e8 74 3e e5 ae 63 3e
       0.08870323 0.15162429 0.2391688 0.22234686
000100 01 a1 8e 3d 26 5d 18 3e b5 48 f1 3d 84 61 54 bb
       0.06964303 0.14879283 0.11781446 -0.0032406757
000110 e5 da a1 bc 71 03 11 bc 6c 3f c7 bc 26 95 3b 3e
       -0.019757697 -0.008850918 -0.024322234 0.18318614
000120 9d b1 d9 3d d6 8b 08 3e 75 91 e4 3c 25 a9 2a 3e
       0.1062958 0.13334593 0.02790139 0.16666086
000130 61 1e 69 3d 9c 8d c5 3d d0 c6 95 3d 17 1f d5 bc
       0.056913737 0.096461505 0.07313311 -0.026015801
000140 f1 39 b8 3d 80 d0 39 3c 0c c0 21 3e 18 b3 52 3e
       0.089954264 0.011341214 0.15795916 0.20576131
000150 e3 f3 a5 3d f2 c2 0a bd f0 18 14 3c f8 7e c2 bc
       0.08103158 -0.03387732 0.009039149 -0.023742184
000160 22 58 b5 3d 0e 5b 18 3c 51 76 97 3e 16 09 cb 3c
       0.088547006 0.009299053 0.29582456 0.024784606
000170 c3 6b 2c 3e 69 1f bc 3d d1 fb 35 bd 2c 73 8a 3c
       0.16837983 0.091856785 -0.044429604 0.016900621
000180 2f a5 87 3d ab ae 85 3d 08 cd 62 bd 67 43 ad 3d
       0.06623303 0.06527456 -0.055371314 0.084601216
000190 dd b1 53 3c cd b4 19 bd a1 aa 05 bc 37 f0 19 3e
       0.012920824 -0.03752594 -0.008158357 0.15033041
0001a0 22 8a 0e 3c b5 86 03 bc bd 80 91 3d 76 13 88 3d
       0.008699926 -0.008027722 0.07104633 0.06644337
0001b0 12 d0 7b bc 74 e4 b4 3d 6b 03 a0 bb f5 c9 d1 bc
       -0.015369432 0.088326365 -0.00488322 -0.025608996
0001c0 7d 8d 19 3a 35 1f ac 3c 6b 46 ef 3c fe f6 40 3d
       0.000585757 0.021010974 0.029208383 0.04711055
0001d0 a0 cc 84 bc f8 d8 69 3e 41 2a 82 3e 75 f2 40 3d
       -0.016210854 0.22836673 0.25422862 0.047106225
0001e0 0b 22 43 3d dc ab 2a 3e 36 cc 84 3d bf 54 15 bd
       0.047639888 0.16667122 0.06484263 -0.036457773
0001f0 a4 15 dd 3d 19 24 50 3d f9 4a 0f 3d dc 70 d2 bb
       0.10795143 0.050815675 0.03498361 -0.0064221453
000200 ac 8e 0f bb ef 8d 65 3e ea 9b e7 3d ca 0c ca 3d
       -0.0021905107 0.22417425 0.11309035 0.098657206
000210 48 f0 47 3d 7f 09 fa 3c 46 9d 0e 3e dd 9e dd bc
       0.048813134 0.030522106 0.13927183 -0.027053291
000220 80 e5 7e 3d b3 32 d5 3c 40 78 d6 3d 19 fe 15 3e
       0.062230587 0.026025152 0.104721546 0.14647712
000230 ed 6b 7d 3e 06 3c 32 3c 3b 2e 04 bd 90 30 4e 3d
       0.24748202 0.0108785685 -0.03227065 0.05033928
000240 7e 20 e2 bc 5d 05 90 3c b2 5c 52 bd 09 40 35 3e
       -0.027603384 0.017580682 -0.051357932 0.17700209
000250 d5 9c 2c 3d b1 cf 3e bc d1 a8 c4 3c f7 14 1c bd
       0.042141754 -0.011646197 0.02400628 -0.03810593
000260 5d 05 03 3e 1a 9b 91 3c a8 e8 6c 3e c6 9e e6 3d
       0.12795015 0.017774154 0.23135626 0.112607524
000270 0c b2 82 3c 6e 27 bf 3d 38 1d a8 3d d3 70 25 3c
       0.01595404 0.093336925 0.08208698 0.0100977
000280 81 4c e2 3d 16 f7 1f 3e f2 18 83 bc 7d e4 65 3d
       0.11049748 0.156216 -0.016003106 0.056126107
000290 e6 af 47 3e 8f 87 63 bc 1a 83 0f 3e 5d 87 51 3d
       0.19500694 -0.0138873 0.14014855 0.051154483
0002a0 c1 14 53 bd f1 d4 5e 3c 80 bd 55 bc 08 1e 4b 3b
       -0.051533464 0.013600574 -0.013045669 0.0030993242
0002b0 bd c4 47 bd 22 7c 4d 3d e5 ce 1d 3e d3 b3 79 3e
       -0.04877161 0.05016721 0.15410955 0.24385004
0002c0 38 7b e6 3d e8 1b 07 3e 31 77 05 3d 12 36 f7 bc
       0.11253971 0.13194239 0.032584373 -0.03017715
0002d0 84 2c be 3a 7f 8c 4f 3d 92 09 3d 3c f8 84 c1 bc
       0.0014509116 0.050671097 0.011537926 -0.023622975
0002e0 20 7b 89 3d c4 88 ad bc a6 2c 4f 3d 68 29 66 3c
       0.06712937 -0.021183379 0.05057969 0.014047958
0002f0 2b a3 e6 3d 0a 9c f7 3a 04 5c 86 3d 5b 9b 2d 3d
       0.112615906 0.0018891108 0.06560519 0.042384487
000300 6d 4b b2 3d 0b d4 0a bb 18 50 88 3d 90 ef 09 3c
       0.087057926 -0.0021183516 0.06655902 0.008418933
000310 a1 59 f8 3d 4c 99 04 3e 78 52 e4 bc 39 91 48 bc
       0.1212647 0.12949103 -0.027871355 -0.012241655
000320 73 9f 01 3b 4d 71 2f 3e 4d 41 a6 3c d7 71 1c 3c
       0.0019778877 0.17133065 0.02029481 0.009548626
000330 d6 f9 ca 3c be 72 c8 3b 6a 33 31 3d d8 7c 70 3b
       0.024777334 0.006117194 0.043261923 0.0036695506
000340 07 1d 23 3e f3 e6 15 3c d7 1e c8 3d e3 36 49 bc
       0.15929042 0.009149301 0.09771507 -0.012281152
000350 7d e0 2a 3c 06 c7 3f bc 44 da 66 3e 6b 13 3b 3e
       0.010429499 -0.011705166 0.22544199 0.18269126
000360 13 33 c4 3d a7 c9 d6 39 41 71 e9 bc 0e 96 3f bb
       0.09580054 0.00040967503 -0.028496386 -0.0029233727
000370 d8 7e c0 3d a2 92 6e 3d c2 1e 51 bd 25 e3 65 3d
       0.093991935 0.05824531 -0.051054724 0.056124825
000380 8a ca db 3d 8d 35 19 3d 65 ff 92 3d 3a 39 a2 3d
       0.10731991 0.037404586 0.07177619 0.07921071
000390 d0 bd 6d 3d 39 3c 3f 3e 50 a4 9e 3d bd e0 16 3e
       0.058042347 0.18675317 0.07746184 0.14734168
0003a0 ca 08 84 3b 85 2a 45 3d 1c d5 a7 3d 43 34 24 3e
       0.004029368 0.048136253 0.08194944 0.16035561
0003b0 d4 e7 75 3d 4c 40 4a 3e 32 1f 12 3e 3c 4b 1f bd
       0.06003554 0.1975109 0.14269713 -0.03889011
0003c0 72 8f 5b 3d e1 f0 4d 3d 6e 4d 9f 3d 63 74 be 3d
       0.053603597 0.05027855 0.077784404 0.09299543
0003d0 75 ec 9e 3d 24 6d 09 bd cd e5 69 3c f2 ad 0d 3d
       0.07759944 -0.03355135 0.01427598 0.034589715
0003e0 44 59 95 3d 71 09 04 bd 34 e4 23 3e b8 f5 39 3e
       0.07292417 -0.032235567 0.16005021 0.1816014
0003f0 7e 58 4f bc d7 92 ce 3c 6c 79 12 3e f1 70 a5 bc
       -0.0126553755 0.025216503 0.14304131 -0.020195456

fc2.bias f4 [128]
000000 44 b8 3e 3e 5d a1 60 3e 6b e0 41 3e b9 44 ba bd
       0.1862498 0.21936555 0.18933265 -0.09095139
000010 1f 6d f4 3d 14 c2 61 3e bb 73 38 bd 63 d1 84 be
       0.11934876 0.22046691 -0.045032244 -0.25941
000020 f3 51 8c 3e e8 dd 73 3e 03 c9 28 3e 28 9c 5c 3e
       0.27406272 0.2381512 0.1648293 0.21543944
000030 40 a8 d1 bd 7d 40 3f 3e d4 98 5d 3e 1c 60 41 3e
       -0.10237169 0.18676944 0.2164033 0.18884319
000040 29 8e 88 be c5 e4 74 3e 40 2d 93 bd 27 85 5e 3e
       -0.2667096 0.23915394 -0.07186365 0.21730481
000050 b5 49 39 3e 1e fa 85 3e fb b3 7a 3e 00 00 10 3e
       0.18094523 0.26167387 0.2448272 0.140625
000060 43 ab 7a bd 3a a9 88 3e fe 75 65 3e 3f 07 84 3e
       -0.061198484 0.2669161 0.22408292 0.25786778
000070 b5 06 1d be 8e 61 aa bd 7d 05 3d 3e 70 18 d6 3d
       -0.1533459 -0.08319388 0.18459125 0.1045388
000080 56 dc 32 3e 97 dd d2 3e 8d d6 98 bd 03 28 c2 3d
       0.17466864 0.41184685 -0.07462797 0.09480288
000090 a0 e1 2a 3e 81 e8 50 3e 63 39 83 3e cb 39 50 3e
       0.16687632 0.20401193 0.2562972 0.20334546
0000a0 4d 2f 41 3e 90 67 e0 bd 54 a7 ba 3e eb ec fd 3d
       0.188657 -0.10957253 0.36455786 0.12398704
0000b0 ef cf 6b bd da de 49 3e 67 35 60 3e af 5e 85 3e
       -0.057571348 0.19713917 0.21895371 0.260488
0000c0 7c 88 4b 3e aa a4 1f 3e 58 3c 53 3e 31 96 46 3e
       0.19876283 0.15590158 0.20628488 0.19393231
0000d0 b2 de d5 bb ed f7 9b be 6d ae fd 3d ec 67 75 bc
       -0.0065267915 -0.3046259 0.12386785 -0.01497839
0000e0 c8 e3 8b bd 1d 89 60 3e 71 6c dc bd 94 58 39 be
       -0.06830555 0.21927305 -0.10762871 -0.18100196
0000f0 1e 97 d8 bd 89 54 13 3e a9 fc 30 bd 55 02 02 3e
       -0.10575698 0.14387716 -0.043209706 0.12696202
000100 af dc 6c 3e 04 c4 83 3e 0c 49 61 3e 8a 3f 17 3d
       0.23131059 0.25735486 0.22000521 0.03692583
000110 c4 5d 1e be 79 6d fb bc 3f 9e 2e 3e c9 ba 97 3d
       -0.15465456 -0.030691849 0.17052554 0.07408673
000120 0c 02 00 3e 70 07 d5 3e c5 40 5a 3e 9b 57 60 3e
       0.12500781 0.41607237 0.2131377 0.21908419
000130 bd ef 75 3e bd 0f 1d 3e ca b0 8a 3d 0f e9 09 3e
       0.24017234 0.15338035 0.06772001 0.13467811
000140 a5 61 81 3d 38 9b 5c 3e 17 c0 d6 3d c6 15 51 3e
       0.06317452 0.21543586 0.10485857 0.20418462
000150 66 32 47 3e 41 ff 29 3e b6 8d d2 3d 37 13 68 3e
       0.19452819 0.16601278 0.102809355 0.2266358
000160 c8 41 3f bd 92 bc bd 3c 70 62 3d 3e 0c 19 7c 3e
       -0.046693593 0.023161206 0.18494582 0.2461893
000170 37 2e 83 3e 9c 1d 5f 3e b2 6f 5a 3e 59 67 85 3e
       0.25621197 0.21788639 0.21331671 0.2605541
000180 8d 0e b4 be 0e 9d 45 3e 09 a2 6a 3e e2 b2 19 3e
       -0.3516735 0.19298193 0.22913374 0.15009645
000190 39 b1 54 3d 19 f5 80 3e 5b 82 8c 3e 09 ca 03 3e
       0.051926825 0.25186995 0.27443203 0.12870039
0001a0 77 d4 89 bd 45 9f da 3e 1d 5f 4f 3e bc 50 36 3e
       -0.067299776 0.42699638 0.20251127 0.17804235
0001b0 d5 e8 f2 3d 0b 48 56 be 3b 15 52 3e f4 58 2e 3e
       0.118608154 -0.2092592 0.20515911 0.1702612
0001c0 34 39 28 bd e8 85 a2 bd 80 a1 0f 3e c0 fc 0c 3e
       -0.04107018 -0.07935697 0.14026451 0.13768291
0001d0 f5 b5 6e 3e ec 83 63 3e fa 7f f1 3d 97 10 0d 3e
       0.23311599 0.22218293 0.11791988 0.1377586
0001e0 e2 25 86 3d e4 44 87 3e 60 8f 1b 3e ff c5 da 3d
       0.06550194 0.26419747 0.15191412 0.10682296
0001f0 16 11 4b 3e a2 af 45 bd da 99 72 3e 28 8f e5 3d
       0.19830737 -0.0482632 0.23691502 0.112089455

fc3.weight f4 [64, 128]
000000 8c ee 12 3d d2 f7 4b 3d c7 0a cf 3b 3d 35 93 bb
       0.035872027 0.049796887 0.0063184234 -0.0044924305
000010 6a 4e 74 3c d0 ba 4e 3b 5f 60 e2 3c ec de ac be
       0.0149112735 0.0031544454 0.027633844 -0.33763826
000020 d6 04 8b be 66 a0 7f 3c 88 0a d7 3d 7d 6b 66 3d
       -0.27152127 0.015602207 0.105000556 0.056254853
000030 ca f4 ab 3c bd c5 ad 3d c4 f6 d0 3d 9d 06 40 3d
       0.020990748 0.08484981 0.10203317 0.046881307
000040 36 6f 7a 3e 78 21 70 3d a2 b8 ce bc 20 8b 8d 3c
       0.24456486 0.05862567 -0.025234524 0.017278254
000050 5f 4a ce 3c 5f 76 1b 3d 22 85 17 bd e2 e5 e0 3d
       0.025181947 0.037954684 -0.0369922 0.10981347
000060 bc fc 84 bd 52 45 27 3d 03 e6 4f bd c7 4e 62 bd
       -0.06493518 0.040837593 -0.050756466 -0.05525091
000070 46 5f 0d bd b3 93 6a 3c 32 69 b4 3d 45 19 08 bf
       -0.034514688 0.014317441 0.08809127 -0.5316356
000080 54 6f 2a 3b ff e5 37 bf b1 01 d3 bb 23 ce b6 3d
       0.0026006298 -0.7183532 -0.0064394106 0.08926036
000090 e2 bf 84 3c 31 de 76 bd 52 c4 30 3d 76 48 2a 3d
       0.016204778 -0.060270492 0.043155976 0.04157301
0000a0 10 73 30 bd b7 b5 9a 3c 78 5c c6 be 77 c0 8c bd
       -0.043078482 0.018885477 -0.38742423 -0.06872647
0000b0 53 ae a0 bc db ca d3 3d 37 5f e6 3d 0e 37 23 bd
       -0.019614374 0.10341426 0.112486295 -0.039847426
0000c0 a5 71 8e 3d cc b6 b3 3d a1 6e df 3d 21 3c f3 3a
       0.0695527 0.087751 0.10909773 0.0018557349
0000d0 ea cc c9 3c ab de 84 3d a2 12 b9 3c b1 9b c7 be
       0.024633843 0.06487783 0.022591893 -0.3898597
0000e0 3c ff cf bb 61 e0 a5 3c 2e 45 cf 3d 96 21 13 3d
       -0.006347565 0.020248594 0.10120617 0.035920702
0000f0 d2 e3 ec 3b e2 a6 7c 3d 4d 60 6e 3d 3e 34 9f bc
       0.0072293067 0.06168259 0.05819731 -0.01943409
000100 2f 22 c8 3c 9c d7 89 3b 98 60 25 3d 47 90 9a bd
       0.024430363 0.004206611 0.040375322 -0.0754705
000110 ad ef 1b bc 10 7e 0e 3d 86 9c 2f bd 4a 65 b6 bc
       -0.009517592 0.03478819 -0.04287388 -0.022265095
000120 bc cc 46 bf 42 f9 30 bf 0e ce 85 3d 7a 8d 2d bd
       -0.7765615 -0.6913034 0.065334424 -0.04237125
000130 38 0e 4d 3d f9 3a 3a bd e0 af 03 39 27 19 ef bb
       0.05006239 -0.045466397 0.00012558652 -0.0072966996
000140 10 85 c0 bd 44 e7 9e 39 1e 1f 2b 3d c0 87 e9 be
       -0.0940038 0.00030308415 0.041777723 -0.45611382
000150 0b c3 22 3d 3f 10 c1 3d 91 4e b0 bc b0 23 94 3d
       0.03973679 0.09426927 -0.021521838 0.07233369
000160 f2 c4 45 bc 6c 21 a2 3c 08 af b8 3d ba a1 94 bd
       -0.012070881 0.019791327 0.090177596 -0.072574094
000170 cb a5 c5 3d 9f 4d fa be 59 d0 87 3d 6f 1f f0 3d
       0.09650763 -0.48887345 0.06631536 0.117247455
000180 3a 25 80 3e a5 2b ff 3d 64 5a 27 3d 11 9e b9 bc
       0.25028402 0.124594964 0.040857688 -0.02265838
000190 4b 64 aa bd 4e 64 26 bd 92 4b 35 bf 0a 89 46 3c
       -0.083199106 -0.040623 -0.70818436 0.012117634
0001a0 5f ae 0b bd e8 d0 1f 3f 55 bf d1 be 4d c6 9f 3c
       -0.03410184 0.6242814 -0.40966287 0.019503737
0001b0 89 89 86 3d 32 88 a6 bc 98 3e 47 bc 50 bf 0c bc
       0.065692015 -0.020328615 -0.01216092 -0.008590534
0001c0 be 7a 12 bd 64 77 98 3d a5 e8 8d 3d d2 d2 92 3d
       -0.035761587 0.07444647 0.06929139 0.07169117
0001d0 8c 2b 08 bd 4d 95 8a 3d 00 1c 94 3d 68 29 fe bc
       -0.033244655 0.06766758 0.07231903 -0.031025603
0001e0 e7 55 35 3c 61 09 72 bc 20 18 bc be 43 09 75 be
       0.011067844 -0.014772744 -0.36737156 -0.23929314
0001f0 8b 90 20 bd ec b5 61 3c 57 42 cf bb 49 39 0c bf
       -0.039200347 0.013776284 -0.006325047 -0.5477491
000200 71 93 8c 3d 4f 5e 7c 3d 04 33 7d 3d c5 bb 7b bc
       0.0686406 0.061613377 0.06181623 -0.015364592
000210 66 8f 69 3d f2 8a 0b 3e b3 6a 56 bc 15 3d 79 be
       0.05702152 0.13627222 -0.0130869625 -0.24339707
000220 ab 65 b2 be 40 ad 03 3d 9d 74 13 3e 40 27 ae 3d
       -0.34843192 0.032147646 0.14399953 0.0850358
000230 b2 19 83 3d fa 12 23 3c f8 58 8a 3d 8f dc c2 3d
       0.06401385 0.009953255 0.06755251 0.095147245
000240 8e 4a 05 3e 02 65 da 3d fb 85 26 ba e6 28 8b 3d
       0.13016722 0.10663797 -0.0006352362 0.0679491
000250 5b 90 f8 3c 2d fb be 3d 3a d4 13 3e a6 d3 94 3d
       0.030342272 0.09325252 0.14436427 0.07266931
000260 9e 19 9f bd a6 21 fd 3d 35 0a ec ba 92 34 e5 3d
       -0.07768558 0.123599336 -0.0018008413 0.111916676
000270 fe 3b c0 bd d1 a6 60 3d 20 55 96 3c 1d ef 00 bf
       -0.093864426 0.05484659 0.018351138 -0.5036486
000280 e8 a4 f4 3d 6b 71 31 bf f1 25 91 bc d6 d4 97 3d
       0.11945516 -0.6931369 -0.017718287 0.07413642
000290 de f7 f2 3d c7 74 e2 3d f6 43 d3 be 7e d9 d6 3d
       0.11863683 0.1105743 -0.41262788 0.10490702
0002a0 bf b2 47 3d c2 aa fa bc 1a 52 b0 be f3 dc a5 3d
       0.04875445 -0.030599002 -0.3443764 0.08098783
0002b0 25 e5 9c 3d 55 56 8a bc 2d db b7 3d 18 09 e4 3c
       0.07660893 -0.01688687 0.08977351 0.027836367
0002c0 18 82 78 3d ca 5a 95 bb 4f c5 08 3e f5 5a 56 3b
       0.060670942 -0.004557942 0.13356517 0.0032708023
0002d0 c8 ee 71 3d 08 94 5f 3d eb 95 12 bc b7 55 bc be
       0.05906561 0.054584533 -0.008946876 -0.36784145
0002e0 77 8a 4c bb 40 26 d6 ba bf 26 82 3d 66 15 88 bd
       -0.0031210461 -0.0016338304 0.063550465 -0.066447064
0002f0 ad c2 60 3d 9d 7d 55 3d 56 86 f4 3c 3e e3 a6 3d
       0.054873157 0.052121747 0.029849213 0.08148812
000300 a8 7e 87 3d fe a3 90 3d 25 46 25 3e f6 70 63 bd
       0.06615955 0.07062529 0.1614004 -0.05552765
000310 eb 1b 13 3b f2 38 45 bd eb d9 23 3b 2b 00 f9 bc
       0.002244706 -0.04815001 0.0025001715 -0.030395588
000320 28 ea 3c bf 25 7e 2c bf e6 c5 d0 3d f6 27 1a 3d
       -0.73794794 -0.6737998 0.10193996 0.037635766
000330 b5 ea 6a 3c 9e 41 c6 3d a5 04 42 3d ba 5f 05 3e
       0.014338185 0.09680484 0.04736771 0.13024798
000340 13 be 59 3d 16 b1 12 3d c2 92 83 3c 71 81 f7 be
       0.053159785 0.035813414 0.01606119 -0.48340943
000350 e2 a5 8c 3d ce 72 d7 3d 83 42 87 3b ac 30 0e 3e
       0.06867577 0.10519944 0.004127802 0.13885754
000360 8a b9 b3 3d 2e 55 c3 3d 1d 53 48 3d 0d 05 88 3d
       0.08775623 0.09537731 0.048907388 0.06641588
000370 29 b3 f8 3d f7 a0 02 bf d8 8d 10 3e 95 15 e1 3b
       0.12143547 -0.5102686 0.14116609 0.006869028
000380 06 a0 c3 bd a3 71 d5 3d 0e c9 98 3c f2 84 bb bc
       -0.095520064 0.10422065 0.018650558 -0.022890542
000390 bf cb bd 3b c5 6c 98 ba e5 57 7b bf 6a 32 63 3d
       0.0057921107 -0.0011629096 -0.9818099 0.055468
0003a0 27 b8 b2 bd df 26 34 3f 86 ef 85 be 3d 5c 27 3b
       -0.087265305 0.7037181 -0.26159304 0.0025537156
0003b0 61 1e c7 3d 98 86 70 3b 33 8c 42 3c 88 7b 9c 3d
       0.09722591 0.0036701318 0.011874246 0.07640749
0003c0 f3 e5 61 bd 52 fe 85 3d 10 2c d7 3d 86 3d e9 3c
       -0.055150937 0.065426484 0.10506451 0.02847172
0003d0 7a 42 80 3d 57 19 84 3c ae 1d f4 3c 47 de 05 3e
       0.062626794 0.016125364 0.029799309 0.13073073
0003e0 76 20 01 3a c9 b8 d8 3c 6f 78 95 be d2 0d 96 be
       0.00049257965 0.0264553 -0.29193446 -0.2930742
0003f0 3d de a7 3c be 5c ed bb 3e 1f f2 3d 9d db 09 bf
       0.020491714 -0.0072437217 0.11822365 -0.5385073

fc3.bias f4 [64]
000000 d5 b1 c0 3e 7d 38 ca 3e 67 77 8f bd b5 e7 3a bd
       0.37635675 0.39496222 -0.07005196 -0.04563113
000010 1a 47 dd 3e c3 a5 c9 3e 98 dc c6 3e 7e 17 03 3f
       0.4321831 0.3938428 0.38840175 0.5120772
000020 92 d2 96 3e 37 42 c0 bd 85 24 9d bc 3c 6f 2d 3e
       0.29457527 -0.093876295 -0.019182453 0.16936964
000030 17 af 8c bd 79 b3 a2 3e 46 d9 46 bd 0f 21 94 bc
       -0.06869333 0.31777552 -0.04854705 -0.01808217
000040 41 ca c7 bd e0 9e bd 3e 3c 87 e0 3e 14 e8 cc 3d
       -0.09755374 0.37035275 0.43853176 0.10005203
000050 75 03 d4 3c 3e 58 3f 3d f6 18 c0 bd f1 9f bf 3e
       0.025880555 0.046715014 -0.09379761 0.37426713
000060 82 a5 b3 bc bc d3 92 3c 70 61 f6 3e 91 aa e2 3e
       -0.021929506 0.017923228 0.48121214 0.44270757
000070 ff ea d0 3e 6f ab a9 3e 56 f5 ca 3c a7 30 d9 3e
       0.40804288 0.33138606 0.024775188 0.4241993
000080 ca a8 9d bd 72 ab 5f 3d dd 89 c6 3e 81 f5 4e 3d
       -0.076982096 0.054606862 0.38777056 0.0505271
000090 70 e0 03 3d 2c fe c9 3e 8d cc 99 3d 06 04 33 3d
       0.032196462 0.3945173 0.07509718 0.04370501
0000a0 0e 79 d4 3e 97 e7 92 bd a1 61 84 bc 40 36 f1 3e
       0.41498607 -0.071730785 -0.016159834 0.47111702
0000b0 e5 27 a1 3e bc c8 d6 3d 87 50 36 bb fa ec 9f bd
       0.3147575 0.10487506 -0.0027818994 -0.078088716
0000c0 4b b0 8b 3d 0f 0c 36 bd 75 29 aa 3e dc 58 05 bb
       0.068207346 -0.044445094 0.33234754 -0.0020347154
0000d0 71 0c 5c 3e b1 db 41 3d e7 bf 2b 3c d9 3f 30 3d
       0.21489121 0.047328655 0.010482765 0.04302964
0000e0 86 b9 ab 3e cb ee d6 bc 4a 39 50 bd 32 8a 95 3e
       0.3353998 -0.026236912 -0.050835885 0.29206997
0000f0 8e 01 e5 3e ec 07 69 3b 5d dc 95 bd 5c 36 e5 3e
       0.4472775 0.00355577 -0.073174216 0.44768035

fc4.weight f4 [1, 64]
000000 8d 7d de 3c 9d d8 9b 3d 2c 2e 8c 3d 97 cd ab ba
       0.027159477 0.07609675 0.06844744 -0.0013107535
000010 49 7c c5 3d cc 73 63 3d f0 f6 16 3e 33 f1 06 3e
       0.09642846 0.055530354 0.14742637 0.13177948
000020 6f 50 9a 3d 4b 59 cd bd 6a 7d d1 bd 72 f6 f1 38
       0.07534873 -0.10026797 -0.10228999 0.000115376795
000030 00 a7 8a bb c3 03 8f 3d 39 9a 90 bd 69 a2 a7 bc
       -0.0042313337 0.06983139 -0.07060666 -0.020463185
000040 d3 be 4f bd 23 27 ab 3d 4c 14 e1 3d be 30 be bc
       -0.050719094 0.08357074 0.109901994 -0.023216601
000050 21 40 e9 bd 8f af 98 bc 71 9a ae 3d a7 97 e7 3d
       -0.11389185 -0.0186384 0.08525551 0.11308222
000060 4b 1e b4 bd 22 41 a1 3c 52 52 6a 3d a9 80 02 3e
       -0.087948404 0.019684378 0.057207413 0.12744392
000070 92 f0 d7 3d 82 26 04 3d d3 2d de bd 2f 04 df 3c
       0.10543932 0.032263286 -0.10848584 0.027223675
000080 b0 35 50 bc 52 72 b1 bd b7 0c 11 3d bd d7 e9 bd
       -0.012708113 -0.08664383 0.035412516 -0.11418102
000090 b7 34 0f bd 8c e2 34 3d 6c fa e3 bd 3d e2 aa bd
       -0.034962382 0.044161364 -0.111317486 -0.08343933
0000a0 da fa 0c 3e 57 00 ac bd 70 c7 a4 bd 76 89 76 3d
       0.13767567 -0.08398502 -0.08045852 0.060189687
0000b0 3b c9 92 3d 50 e1 4b b8 71 61 33 b9 e0 a9 1c bd
       0.07167288 -4.860881e-05 -0.0001710707 -0.038247943
0000c0 dd f7 81 bc 2a 31 7e 3c 24 8a 96 3d b0 07 4e bc
       -0.01586526 0.015514651 0.07350567 -0.012575075
0000d0 07 4d 36 38 be 53 3d bd f1 2b 91 bd 8e 95 c3 bd
       4.346392e-05 -0.04622244 -0.07088459 -0.0955001
0000e0 46 0d 23 3d 67 90 cc bd ba cf a4 bd 57 b0 0d 39
       0.03980758 -0.0998848 -0.08047433 0.000135125
0000f0 92 7c b1 3d 59 ce db 3c c4 e8 30 bd 05 b2 8b 3d
       0.08666338 0.026831793 -0.043190733 0.06821064
