Radiomics_local_global_framework/models/Stochastic Gates_feature_selection/Neural_Network_128_dim/global_flair_t1ce___local_flair_t1ce/Intersection_mask_1_2/model.pt (torch, 236724 bytes, 5 tensors)

fc1.weight f4 [128, 392]
00000000: fca9 873d 0a72 20be 02f8 3a3e c0ea 12be
00000010: 6f25 c43e 879b bdba 196d 37be bbc5 fdbc
00000020: c994 29bd 34a7 27bc 36f3 a83e 9632 593d
00000030: 1f1d 013e 7cbe 1b3d 74f6 cabd 5e4b ed3c
00000040: b44b 4d3e f61a 86bd 1dd5 11be e59e 71be
00000050: c33a 673e 57e2 92bd 68e3 9a3e a13f dbbc
00000060: fd65 d33c a28f 24be c42b 043c c342 10be
00000070: f61e 823d 912d 013e c5eb 03bc 839f 29bd
00000080: db88 b0b9 5eb1 843e fbc6 403d 57f9 413e
00000090: 8697 d8bd fe33 9abd b6a9 d03d 8bf3 ff3c
000000a0: 46d3 443c 31ca d53d 7aae 7fbe fc00 3fbe
000000b0: 62b6 b73d 3997 953d 54cc 87bd ed5c 373d
000000c0: 30d9 913d dc78 d73d 31e7 b0bd f954 c6bc
000000d0: 186a 8f3b ee2d 8d3d a0a9 9d3d 632d 79bd
000000e0: 3d6a 223d f100 39bd 9286 dd3d b944 bcbb
000000f0: 1b28 1e3e 4887 a6bb 27d0 1d3e 062b 17bd
00000100: c910 693d a4b3 15bc 5aa4 1e3d 8165 83bd
00000110: c055 8abd 7171 d4bd c90a 70bc 9bc1 a2bd
00000120: aff7 55bc d9f5 b2bd d7b7 f9bc 9244 f33d
00000130: 4fc6 563d 0dec 19bb ee36 7fbd 7eab a43d
00000140: c42e df3c a3d6 ddbd 5311 4d3d d855 ec3c
00000150: 737a 8cbd cbe4 223d ee19 6f3d 8491 583d
00000160: dfb1 a3bc ed73 d53c 0aa9 2b3d 3ffa 093c
00000170: c405 653d 32f8 f03d 0311 723d 076b c03c
00000180: 669b 8cbb 6743 98bc eb85 18be 5193 f2bb
00000190: 3859 27be e6ca 473d 3344 edbd 1b6b bf3c
000001a0: 61f6 463d 32df 433d 6ca2 123c c663 323c
000001b0: 03d8 6fbe b5f7 733d 5df8 ff3c 9e3c 473d
000001c0: 7e8b 9a3b 7da8 973d 336f 283d ffa5 4d3d
000001d0: 0b99 f43b 07ee 3b3e 2744 9d3c 7cd9 643b
000001e0: 4b1f 303d 5204 db3c a6da 043d 8cc8 8ebd
000001f0: 7d73 ff39 dfa0 d93a 6ef3 cbbc 53ee 9d3c
00000200: ae60 873c 8417 aabc 38a7 243c a115 863c
00000210: 3dfe 55bd 8caf cc3c fe33 743d 625d c73c
00000220: 5bfb 77bd 779b 873d 1754 a3bc 3f62 683d
00000230: 3fb1 0b3d 33af b03b 607c 9c3c f104 bdba
00000240: 83ab 743d 64d4 fbbe 725e 1cbe 91e3 7cbd
00000250: cdfb b1bc c075 b5bd 5899 94be 5e21 d43d
00000260: bf63 fbbd 53b5 40bd f3da a3bd d5b2 a73d
00000270: 53c6 dabd 0c4f 3bbe d24b de3c 245b 78be
00000280: b9b5 023e dea5 a2be eb13 09be 2038 e2bc
00000290: 97ef a8be 5340 3ebd b573 f0bd b0fb abbd
000002a0: d9f3 83be d0a3 7a3e 25a4 8d3e 895f d5bd
000002b0: 0c02 d7bd c900 abbd 767a 8a3e 6f78 86be
000002c0: ac06 16be 55e8 603d 27ea b73d c53d ddbb
000002d0: bc09 3cbe e7ba f4bd a2a7 1d3d 672d c23e
000002e0: 6076 e5bd 2e9c 1abd ecd6 cc3c 3807 d83c
000002f0: 5a7d 873e 3ef6 b8bd fd6b c63c 73c7 f8bc
00000300: 2a27 e0bd 24bf 8c3d 2ffb b6bd e829 253e
00000310: 8207 b03d 506a c6bd 483f 68be 3cb3 883c
00000320: 8b13 643c 30d8 ecbb d4d6 ebbd 2cbd 96bb
00000330: 28c9 eabc c0c5 0dbe 65cc 24be dfd1 8b3b
00000340: 2b53 d33d ec9b 123d 7a18 86be 9a9c b1be
00000350: a30c a2be ba74 60bd 1544 b13d ab92 26be
00000360: a9e4 83bd bd43 86be 6304 dc3d a354 1abd
00000370: 5d78 813e ac7d d1bc d523 a4bd 469a 15be
00000380: 7402 7fbe 3898 c63b d996 1ebe 2049 c1bd
00000390: cc89 1ebf d464 55bd 6ece 4abe 010c c53e
000003a0: 97f0 5abe 9053 623d 3fa7 2cbe 46d6 b0bd
000003b0: cabd ebbd b488 333e 4d69 213e 19f3 cf3d
000003c0: 3445 13be 1ba8 33be 7887 3fbe 16fa 62bc
000003d0: 1736 473e fc27 e6bc 4f94 1cbd 8355 dc3d
000003e0: 4329 5a3e ea31 d1bd 987a 053e b0fa 00bd
000003f0: 4101 95bd e936 b9bc 2bb5 723d bb2d 8abd
0.06624219 -0.15668502 0.1825867 -0.14347363 0.3830981 -0.0014465906 -0.17912711 -0.030978074
-0.04140166 -0.010232735 0.32998055 0.053026758 0.12608765 0.038023457 -0.099102885 0.028966602
0.2004841 -0.06548111 -0.14241453 -0.2359577 0.2258101 -0.07172077 0.30251622 -0.026763739
0.025805468 -0.16070417 0.008067075 -0.14087968 0.063535616 0.12615038 -0.008051817 -0.041411888
-0.000336713 0.2591657 0.047064763 0.18942772 -0.10575776 -0.07529448 0.1018862 0.03124406
0.012013262 0.104389556 -0.24968901 -0.1865272 0.08970334 0.07304234 -0.06630769 0.044766355
0.07121503 0.10521099 -0.08637846 -0.02421044 0.004376661 0.06893526 0.07698369 -0.0608343
0.039652098 -0.045166913 0.10816683 -0.005745497 0.15444987 -0.0050820448 0.15411435 -0.036906265
0.056900773 -0.009137068 0.038730957 -0.06415845 -0.06754637 -0.103732 -0.014651009 -0.079470836
-0.013059541 -0.08738298 -0.03048317 0.11878313 0.052435216 -0.0023486644 -0.062308244 0.08040522
0.02724398 -0.10831954 0.05006535 0.028849527 -0.06859293 0.039768975 0.058374338 0.05287315
-0.019982276 0.026056254 0.041909255 0.00842148 0.0559137 0.117660895 0.059098255 0.023488535
-0.004290986 -0.018586827 -0.14894836 -0.0074028154 -0.16342628 0.048777483 -0.115852736 0.023366502
0.04857481 0.047820278 0.008949857 0.010888046 -0.23422246 0.059562404 0.031246359 0.048641793
0.004716336 0.074051835 0.041121673 0.050207134 0.007464533 0.18352519 0.019197537 0.003491967
0.042998593 0.026735459 0.032435082 -0.06971845 0.00048723436 0.001660373 -0.02489635 0.01927868
0.016525593 -0.020763166 0.010049634 0.016367735 -0.052244414 0.024986051 0.059619896 0.02433652
-0.060542446 0.066214494 -0.019937558 0.05673432 0.034104582 0.005391979 0.019102275 -0.0014421028
0.05973388 -0.4918548 -0.15270403 -0.06174046 -0.021726513 -0.0886035 -0.29023242 0.10357927
-0.122748844 -0.047047924 -0.080007456 0.081884064 -0.106823586 -0.18291873 0.027135763 -0.24253517
0.12764634 -0.31767172 -0.13386504 -0.027614653 -0.32995293 -0.046448063 -0.11740819 -0.08397615
-0.25771978 0.24476552 0.27664295 -0.104186125 -0.10498437 -0.08349759 0.27046555 -0.2626376
-0.14650983 0.05490907 0.08980208 -0.0067517483 -0.18363088 -0.11949711 0.038489945 0.37925264
-0.11204219 -0.0377466 0.025004826 0.02637063 0.26462823 -0.09031342 0.024221415 -0.030368542
-0.1094497 0.06872395 -0.08934628 0.16129267 0.08595182 -0.09688246 -0.2268039 0.016687028
0.013920675 -0.00722792 -0.115155846 -0.0046001878 -0.028660372 -0.13844967 -0.16093595 0.004266962
0.103185974 0.03579323 -0.2619055 -0.3468979 -0.31650266 -0.05479882 0.08655564 -0.16266887
-0.06440098 -0.26223555 0.10743024 -0.037678372 0.25287142 -0.02557262 -0.08014647 -0.14609632
-0.2490328 0.0060606264 -0.15487231 -0.094377756 -0.6192901 -0.05209811 -0.19805309 0.3848572
-0.2138084 0.055255473 -0.16860674 -0.086346194 -0.11510809 0.17532617 0.15762825 0.10153789
-0.14381868 -0.17544596 -0.18704021 -0.01385357 0.19454227 -0.028095238 -0.038227376 0.107584976
0.21304803 -0.102145985 0.13035047 -0.031489074 -0.0727563 -0.022609191 0.059254806 -0.06747004

fc1.bias f4 [128]
00000000: 1c3e f1bd bb7a 9bbd de2d 3dbe 850a c6bd
00000010: cd33 12be ea95 d2bd d07f 12be cd9c 47be
00000020: 2f3d 8dbe 72a6 11be 29d9 5fbe 1412 16be
00000030: d2d4 5bbe 4afc 33be c11b 07be ad84 6dbe
00000040: 18bd 5cbe ace6 4cbe cc81 35be a85c 27be
00000050: c5a0 84be 43a5 2cbe d692 2bbe 6e4c c0bd
00000060: d44b e2bd 931c b3bd c54f b0be 0221 61be
00000070: def6 bdbd ebcd aabe dd07 9fbd 0b07 60be
00000080: c104 0dbe 5aba 40be 9a0a 24be 2384 48be
00000090: 8765 48be 4269 76be a371 05be 35b1 13be
000000a0: 9604 3dbe 3e26 88be 95a7 3bbe 4325 25be
000000b0: 0767 97be 41d0 4bbe 9d13 9abd c9e5 63be
000000c0: 5eb5 38be ef2f 84bd 8fff 5bbe db98 92be
000000d0: a80e 85be 7562 3ebe 61b0 26be c7df dabd
000000e0: 5cad 9cbd b512 26be 78c5 fdbd fd8c 27be
000000f0: caf8 afbe 3783 7dbe 0778 17be 4d9c 4cbe
00000100: 555c f9bd 0e42 8fbe c0cf 19be 14be 09be
00000110: 134b c5be 31bd 1dbe ec6e 69be 1bbd 85be
00000120: dc05 40be ebe7 e4bd cd68 21be 8cc3 7dbd
00000130: ffba 49be 13f9 16be 0ab8 3ebe f20a 49be
00000140: 7244 77be d2d6 34be 8d35 aabe ff39 7dbe
00000150: 8c77 30be 3e61 6abe 2287 31be 8b3a f2bd
00000160: 4db6 34be 6970 2abe 8519 26be 3770 3ebe
00000170: 2386 8bbc 70ff 38be 5b0d 3bbe 909b bfbe
00000180: 0264 f2bd d2dd 8cbe 8101 92bd 43a4 4dbd
00000190: e2f0 71be 576b efbd a58c 6ebe 4ff3 dfbd
000001a0: 0d83 66be 6850 b7bd 0de9 c4bd e02a 68be
000001b0: df99 a4be 10a5 18be abd6 33be d962 c7bd
000001c0: bef8 2fbe 9622 8bbe 7703 4bbe 7f18 13be
000001d0: 4771 dabe 3ae9 6abe c220 8cbd b45e bbbd
000001e0: aa6e 1bbe 631c 10be cab6 6fbe 3883 bebe
000001f0: ab62 26be fbf8 d9bd 7131 b9bd 0f66 4bbe
-0.117794245 -0.07591768 -0.18474528 -0.09669975 -0.14277573 -0.102825 -0.14306569 -0.19493409
-0.27585742 -0.1422365 -0.21860184 -0.14655334 -0.21467903 -0.1757671 -0.13194181 -0.23195143
-0.21556509 -0.2000987 -0.17725295 -0.1634394 -0.25903907 -0.16859917 -0.16755232 -0.09389578
-0.11049619 -0.087456845 -0.3443586 -0.21985248 -0.09275602 -0.33360228 -0.07765172 -0.21877687
-0.13771345 -0.18821087 -0.16019669 -0.19581656 -0.1956998 -0.2406359 -0.1303163 -0.14423068
-0.1845878 -0.26591676 -0.18325646 -0.16127495 -0.2957079 -0.19903661 -0.07523272 -0.22255625
-0.18037936 -0.06454455 -0.21484207 -0.28632244 -0.25987744 -0.18592246 -0.1627822 -0.106872134
-0.07650253 -0.16218074 -0.1239118 -0.16362377 -0.34369498 -0.24757086 -0.1479188 -0.19981499
-0.12175814 -0.27980083 -0.15020657 -0.13451415 -0.3853384 -0.15404202 -0.2279622 -0.2612084
-0.18752235 -0.11177047 -0.15762635 -0.061954066 -0.1970024 -0.14743452 -0.18624893 -0.19633082
-0.24147204 -0.17660072 -0.3324398 -0.24729155 -0.17233104 -0.22888657 -0.17336705 -0.118275724
-0.17647667 -0.16644444 -0.16220672 -0.18597494 -0.017031735 -0.18066192 -0.18266813 -0.37423372
-0.11835481 -0.27512985 -0.07129193 -0.05020548 -0.23627046 -0.11690395 -0.23295839 -0.10935079
-0.2251093 -0.08950883 -0.096147634 -0.22672606 -0.32148644 -0.14906716 -0.17562358 -0.097356506
-0.17184731 -0.27174824 -0.1982554 -0.14364813 -0.4266455 -0.22940531 -0.068421856 -0.091489226
-0.15178934 -0.14073329 -0.23409572 -0.37209487 -0.16248576 -0.106431924 -0.09042633 -0.19863151

fc2.weight f4 [64, 128]
00000000: 87db 66be c806 a13e 7663 84bd 5918 8c3e
00000010: c578 2ebe 851b e93d 2a79 253e dfc3 04be
00000020: 0c89 82bd 07a0 9cbe bb4c d73d a22c cfbd
00000030: 013d cabe 824a 53be dd03 513e f593 7e3d
00000040: 57db 24be f952 8e3d e6fd 0f3b 6651 573e
00000050: fc20 de3c 034b ce3d 604d adbd 8fb7 a83d
00000060: 482c bbbe 33ac 773e 608d aa3d 8b8c 4b3e
00000070: 4164 093d 391f 853c 5593 923e f2c0 6ebe
00000080: 754c 323d 86a8 b5bc 3df2 973e aa3e dfbe
00000090: cc8f 86bd ed4a 233c 8050 00be 7ddc 0f3e
000000a0: 45a7 af3e 409c aabd 5d65 c3be 4db7 79be
000000b0: a392 86be 27aa 2f3f 2f81 9e3e 4383 4bbe
000000c0: 2a8b e7bc 4692 c5be 99cb 64bc 2230 203e
000000d0: 9e59 36bf 767f 1b3f 2126 8cbe a29c 76be
000000e0: de09 d2be 8275 d0be 937e ec3e 6864 93be
000000f0: e753 16bf c2cc 713e 7b1a 37ba 6b00 ac3e
00000100: 2f60 b8be 3856 fa3c 5894 61bd de4a 1f3c
00000110: 3760 76be 6913 08bd d5e2 d3bd 6023 e4bd
00000120: 3b42 65bc 0698 b7bd 2e17 bfbe 2e56 d4be
00000130: 6f66 1bbe 9a4a febe 933a cfba fb36 b43d
00000140: 53d6 98bd 137e 533e c328 e5bd dc8a 463f
00000150: 4c78 83be e036 4b3e b830 b03c 7569 0fbe
00000160: 3837 d3bd 6e9c e13e e8fc f33e bc6c b9be
00000170: 8bfc 1c3e 97c7 1ebe d55d 1dbe 7143 52be
00000180: 906e 173e 110d d4bd 2efe 373e 2090 823e
00000190: 996c 2fbe def3 023f 95d7 c9bd 8442 6a3e
000001a0: 8221 353d a021 553e 6b9a 8bbe 3f97 91be
000001b0: 875a 0cbe dd58 52be 5ee3 15be 1f95 57be
000001c0: 697d 61be f8c1 b73d 89ca a4bd 9441 22bd
000001d0: df7e 6f3e 5361 26bf 5a06 983e 3bd7 293e
000001e0: 6d43 f8be f62f 703e 4d0b a93e e965 7cbe
000001f0: b74a 0a3e 06f8 8dbe 7b5b abbd f879 02bf
00000200: 3869 39bf 330f 683d 2ef1 b43c ec0a 4fbd
00000210: 23bd c7be dca6 ab3e 0119 91be b7a2 c03e
00000220: aa77 cc3d 2586 23bf 9848 a43d 7011 debe
00000230: a31a 4b3d 1b59 d2bd b969 d5be f8cd eb3d
00000240: 5e09 d03e 1528 f13c bf99 0f3d 9f72 2ebe
00000250: 9575 e23d 0942 febe eee8 d63e 2d0c a53d
00000260: 7c46 d53e 0025 803e e2b9 d43b f9e2 f23e
00000270: 96f7 28bd c991 8b3e a7d2 0e3e db3a a5be
00000280: d872 ca3d 7771 0bbf 5b09 b93e a837 efbe
00000290: 6c2e 8c3e 472c fc3e 6849 bfbd 9adf c6be
000002a0: 0eaa b33e fcf6 b93d 3a64 87bd e071 63be
000002b0: 533f 66be 2c58 08be b4d0 e9bd 8a63 1fbe
000002c0: df1b cabe 26f3 06bf 27b5 d2bd 20ec d53e
000002d0: 0c20 e13c 06dc 8f3e 4298 51bd 832e f1be
000002e0: 8bcb f2be e135 69be c78a 823e 55d4 88be
000002f0: f57b 473c 0370 523e 612f 923c 1bf6 973e
00000300: 26de 21bf 572e d53e 5c49 32bf bb51 b03d
00000310: fad9 58bd edf8 c23e 23e9 7c3c 0f07 133d
00000320: 253d 94bd 7ea0 e8be cde6 3fbf 8b0a 0ebf
00000330: b228 b0be 43dc d53e fc08 18bf 5a8c 303e
00000340: d4c5 843e 9e53 ea3e dc9a a0be d0bb 41b9
00000350: d5a5 45be 751d 9b3e 0ea1 453e 9188 ac3d
00000360: 2699 4f3e 88db ff3e f451 c93e e64a f1be
00000370: 8cc0 c73c f259 083e 0db4 103f 88b6 6e3d
00000380: d873 743d cb50 9b3c 49b1 4dbd 18fa 6f3c
00000390: 5b28 16bf b0ef 523e 942b 01bf 0a67 21bd
000003a0: 1573 023e 60e8 9a3d bd23 053f ce0d 3abf
000003b0: 989d 963e 3060 483e 13bc 03bf 8c72 e2be
000003c0: bcfe 703e 9343 743e 44fd 22be a0dc 2dbe
000003d0: 9922 10bf e6c8 a1be d644 9d3d a491 473e
000003e0: be6d 87be c2de ddbe 113c a83e 8050 85be
000003f0: f8c7 ec3e 93e0 c13d 7855 07bf 7e26 903e
-0.2254468 0.31450486 -0.06464283 0.27362326 -0.17038257 0.11382202 0.16159502 -0.12965344
-0.06373796 -0.3059084 0.10512682 -0.10115935 -0.39499667 -0.20633891 0.2041163 0.06215282
-0.16099297 0.069494195 0.0021971404 0.21027145 0.027115338 0.10072901 -0.08462024 0.08238136
-0.3655722 0.24186783 0.083277464 0.19877832 0.033542875 0.01625024 0.2862803 -0.2331579
0.043529946 -0.022175085 0.29677 -0.43602496 -0.06570396 0.009966594 -0.12530708 0.14048953
0.34307304 -0.083305836 -0.38163272 -0.2438633 -0.2628375 0.68619007 0.30957934 -0.19874291
-0.0282646 -0.3858816 -0.013964557 0.15643361 -0.71230495 0.60741365 -0.2737284 -0.24083188
-0.41023153 -0.4071465 0.46190318 -0.2878754 -0.58721775 0.23613265 -0.0006984842 0.3359407
-0.36010882 0.03055869 -0.055073112 0.00972244 -0.2406014 -0.033221636 -0.10345999 -0.1113956
-0.013992841 -0.08964543 -0.37322372 -0.41472 -0.15175794 -0.4966629 -0.0015810303 0.08799549
-0.07462754 0.20653562 -0.11189415 0.7755563 -0.25677717 0.19845152 0.021507606 -0.14005072
-0.103132665 0.4406466 0.4765389 -0.3621577 0.15330712 -0.15505825 -0.15367825 -0.2053354
0.1478827 -0.10354055 0.17968056 0.25500584 -0.1713127 0.5115336 -0.09855572 0.22876936
0.04422141 0.20813608 -0.2726625 -0.28435704 -0.13706408 -0.20541711 -0.14637515 -0.21052979
-0.22020496 0.089725435 -0.08046443 -0.03961332 0.23388241 -0.64992255 0.29692346 0.1658601
-0.48488942 0.23455796 0.33016434 -0.2464825 0.13505064 -0.2772829 -0.08367058 -0.5096736
-0.72426176 0.05665512 0.02208766 -0.050547525 -0.39011487 0.3352574 -0.2833939 0.37624142
0.099837616 -0.63876563 0.08021659 -0.4337268 0.04958595 -0.10270902 -0.41682222 0.11513895
0.40632147 0.029438058 0.035058733 -0.17035912 0.11057583 -0.49659756 0.41974586 0.08058963
0.41655338 0.2502823 0.0064918855 0.4743879 -0.04125174 0.27259663 0.13947545 -0.32271466
0.09885186 -0.5447001 0.3613995 -0.4672215 0.27379167 0.4925253 -0.09340173 -0.3884247
0.3509068 0.09080312 -0.066109136 -0.22211409 -0.22485094 -0.13314885 -0.1141676 -0.15565315
-0.3947439 -0.52714765 -0.10288458 0.41781712 0.027481101 0.28097552 -0.051170595 -0.47105798
-0.47420916 -0.2277446 0.25496504 -0.26724496 0.01217555 0.20550542 0.017844858 0.2967995
-0.63229597 0.41636917 -0.6964319 0.08609339 -0.052942254 0.3808054 0.0154364435 0.035895403
-0.07238225 -0.45434946 -0.7496155 -0.5548484 -0.34406048 0.4176961 -0.5938871 0.1724104
0.2593218 0.4576692 -0.31368148 -0.0001847588 -0.19301541 0.3029591 0.19299719 0.084244855
0.20273265 0.49972177 0.39320338 -0.47127455 0.024383806 0.13315561 0.56524736 0.058279544
0.05968079 0.018959424 -0.0502179 0.014647029 -0.5865533 0.20599246 -0.5045712 -0.039404906
0.12739213 0.07563853 0.5200766 -0.72677314 0.2941711 0.19567943 -0.51458853 -0.44228017
0.23534673 0.23853903 -0.15916926 -0.16978693 -0.5630279 -0.31598586 0.07679145 0.19489151
-0.26450914 -0.43334013 0.32858327 -0.2603798 0.46246314 0.09466662 -0.5286479 0.28154367

fc2.bias f4 [64]
00000000: de15 1d3f 53d9 f13e 89ba a8bd 8563 8fbd
00000010: 6b68 0f3f dea9 55bc a831 efbc 29c2 a43e
00000020: 041e 143f a548 823c 43ad f23e 6f81 ed3e
00000030: 6cdf eebd a74e 353f 1478 f9bc 72d5 c63e
00000040: 8e53 18be bb5f 823e f9c1 4cbe 7259 ec3b
00000050: a04e 7b3e 1625 22bd 7bd3 c9bc 0c2f e8bd
00000060: 430b 7b3d e5c6 203f 5242 1d3d c593 3dbd
00000070: 0ae2 053f face d63e f103 133b 9602 193f
00000080: 5177 38bd 9019 153f afb2 60bd 2981 303f
00000090: 63ad c1bd dbd5 cfbb 61c2 e23c 6690 163f
000000a0: fcf9 c1bd 2168 a5bd 12d8 3b3f 748e 05bd
000000b0: 1f4f f83a 6a96 233e 16a6 f63e 0aa7 223d
000000c0: f8b8 3abd 25ac c6bd b5a1 91bd a9c8 94bd
000000d0: 4ad1 e33e d367 4cbd 1234 e5bc 49ec fd3e
000000e0: a1b9 9ebd 57dd 473d b167 f5bd 0e70 413c
000000f0: 2219 7c3c 2442 a9bd b4fa 203f 2069 dcbd
0.6136149 0.47236118 -0.08238704 -0.07001404 0.56018704 -0.013040988 -0.029198483 0.32179382
0.578583 0.01590378 0.47397813 0.46387812 -0.11663708 0.7082314 -0.030452766 0.3883472
-0.14875624 0.25463662 -0.1999587 0.007212811 0.24541712 -0.03958615 -0.024636975 -0.113370985
0.061290037 0.6280349 0.038393326 -0.046283502 0.52298033 0.41954786 0.002243277 0.5976957
-0.045035664 0.5824213 -0.054857906 0.6894708 -0.09456899 -0.006342632 0.027680578 0.58814085
-0.09471509 -0.08076502 0.7337657 -0.032606557 0.0018944478 0.15975347 0.4817359 0.039710082
-0.045586556 -0.09700803 -0.07110921 -0.072648354 0.44495612 -0.049903702 -0.02797893 0.49594334
-0.0775025 0.04879507 -0.11982668 0.011806501 0.0153868515 -0.082645684 0.6288254 -0.107622385

fc3.weight f4 [1, 64]
00000000: 403f 69bf 0408 8ebf 7b36 953e 88f2 9d3e
00000010: c9f4 7dbf 7e31 1bbe 7886 b63e ad79 65bf
00000020: 1cb5 7cbf 5dba 9b3e 10f5 68bf f2e7 6dbf
00000030: 5ce1 8b3e df8b 73bf 2da3 7e3e d87b 57bf
00000040: 4f20 823e 8302 3bbf 8c95 873e 1cfd 8f3e
00000050: 34bb 73bf f917 513b e6a4 8b3e 790c ad3e
00000060: a3ae 943a c7fc 4dbf 4d51 ad3e 4a23 ab3e
00000070: ed98 68bf 1a0c 2dbf 820e 8d3e 5ff6 84bf
00000080: 9da4 b23e 380e 6dbf 947a a73e 7366 79bf
00000090: f231 2abc a1c4 a83e 4135 943e 9782 57bf
000000a0: 8ce2 823e 1f9e 993e 7268 8cbf 18c4 8e3e
000000b0: f69c a03e 0916 38bf d82a 4dbf ea7e b33e
000000c0: 8ba2 a13e 4c82 a53e f56f 983e 46f8 b33e
000000d0: 4d34 70bf fe9e 9a3e 08ec b93e cf85 61bf
000000e0: 0a72 a03e c96b af3e 6989 8b3e 1cc9 9c3e
000000f0: fb4a 953e e54e 863e 3e7e 69bf 883b b43e
-0.91112137 -1.1096196 0.29143128 0.308491 -0.9920164 -0.15155599 0.35649467 -0.8963879
-0.9871385 0.3041562 -0.90998936 -0.92932045 0.27320373 -0.951353 0.24866934 -0.84173346
0.25415275 -0.7305071 0.26481283 0.28122795 -0.95207524 0.0031905158 0.27274245 0.33798578
0.001134355 -0.8046383 0.3385109 0.3342536 -0.90858346 -0.6759659 0.2755013 -1.0387686
0.34891215 -0.9259982 0.32710707 -0.9742195 -0.010387884 0.32962516 0.2894688 -0.8418364
0.25563467 0.3000345 -1.0969374 0.27883983 0.31369752 -0.7190862 -0.801435 0.35057765
0.31569323 0.3232597 0.29772916 0.35150355 -0.93829805 0.30199426 0.3631289 -0.880948
0.31337005 0.3426192 0.27253273 0.30622184 0.29158768 0.26232067 -0.91208255 0.3520167
