Radiomics_local_global_framework/models/Stochastic Gates_feature_selection/Neural_Network/global_flair___local_flair/model.pt (torch, 204852 bytes, 5 tensors)

fc1.weight f4 [100, 454]
-0.03961655 0.09095651 -0.20463432 0.010440932 -0.05002727 -0.010758533 0.013258728 -0.10247161
0.15091091 0.21241099 -0.027799148 0.037206896 0.061519414 -0.01640287 -0.05957323 -0.121994175
0.031657692 0.055279672 -0.059739564 0.13298708 -0.24289654 0.12008717 0.10039764 0.019993527
0.12975405 0.05310111 -0.15921892 0.13426426 0.022394028 0.26982507 0.046334665 -0.10792122
0.12482352 0.040000875 0.19593026 0.1477609 -0.026361974 -0.14589576 -0.06925397 0.119931236
-0.3512742 0.08289633 -0.22081243 0.03109494 -0.013193712 -0.008970446 0.30594736 0.03593543
-0.23823595 -0.3336509 0.16627859 -0.14152348 0.31669042 -0.5447733 -0.16016747 0.0023930792
-0.055027287 -0.016552951 -0.0689355 -0.28457737 -0.24008763 0.19759953 0.07326605 -0.26018026
0.16393049 0.35395208 0.03302201 -0.09375745 -0.09623236 -0.065132305 0.18949097 0.22266169
-0.14644682 -0.051638193 0.24158716 -0.16051981 -0.33567148 0.1376076 -0.064735025 -0.04073208
-0.2377346 0.14991714 0.19696964 0.22827776 0.25237882 -0.057812013 0.109247215 -0.0045023523
0.10389488 0.10063355 -0.072618686 -0.03278065 -0.018580826 -0.059745505 -0.16641164 -0.03334548
0.12310627 0.014404917 -0.07484492 0.07271342 0.15227666 0.013300522 -0.019904476 -0.06334367
-0.14074844 -0.054679923 0.12966608 -0.03584785 -0.03294419 0.0110127935 -0.087420344 -0.021832231
-0.009431933 -0.11200516 -0.07326677 -0.041484036 0.055296097 0.006516152 -0.039083783 -0.02230529
-0.059862055 -0.072248116 0.009596722 -0.0670339 -0.034356683 -0.016352087 0.0015774681 -0.042922188
-0.07722242 0.022989906 -0.6153169 0.029189957 -0.07053125 -0.18258592 -0.41236436 -0.23408422
-0.09261885 0.04759101 0.03462281 -0.15995516 0.0027861819 -0.05348773 -0.15021811 -0.30491528
0.25030577 -0.24829842 -0.12312061 0.03246547 -0.1454125 -0.22585993 0.19153291 0.060928218
-0.21083798 -0.16285487 -0.10833998 -0.40486592 -0.3066881 -0.09889457 0.0540464 -0.039114017
-0.052098278 -0.15589271 -0.24023059 -0.02267031 -0.09554709 0.061362304 -0.17249008 -0.046908323
-0.13231476 -0.4747681 -0.113418065 -0.07049289 -0.24883698 0.027193181 -0.032907072 -0.060817454
-0.092958935 -0.107092634 0.29455242 0.19237553 -0.06611499 -0.011233107 0.2762151 -0.055682536
-0.065025225 0.14009038 -0.038458273 -0.12102665 -0.09394543 -0.09013188 -0.1580229 -0.19638014
-0.11214098 0.3274445 -0.18507105 -0.167558 -0.299773 0.04976297 0.016327705 -0.061092734
-0.1523706 -0.29841745 -0.3397663 -0.067678034 0.072964266 -0.13854219 0.22662762 -0.04915879
-0.30904892 -0.33967987 0.19337845 -0.2890901 -0.19755046 -0.102920525 -0.30617666 0.20535345
-0.3199475 -0.3825292 -0.40217322 -0.29165673 -0.09613643 -0.03991206 0.023930708 -0.12237975
0.0365569 0.17039843 -0.08845787 -0.0020284357 -0.45867896 -0.0046040253 -0.0037616359 0.23742013
2.509469e-05 -0.17357942 -0.15522867 0.016781112 0.001770486 -0.23174272 -0.08315261 0.06491971
0.04351022 0.016075386 0.26324975 -0.14942987 0.016712394 0.35610977 -0.004514936 -0.021275382
-0.15678097 -0.05753806 -0.1039525 0.012140707 -0.22848839 0.28504434 0.21436484 0.165388
00000000: f744 22bd 6847 ba3d a98b 51be 7110 2b3c
00000010: 65e9 4cbd 8f44 30bc 233b 593c a3dc d1bd
00000020: 6488 1a3e 4482 593e 0abb e3bc 4266 183d
00000030: c8fb 7b3d 505f 86bc 0f03 74bd 15d8 f9bd
00000040: 7fab 013d f06c 623d 79b1 74bd c42d 083e
00000050: dfb9 78be 43f0 f53d 479d cd3d 77c9 a33c
00000060: 3fde 043e 8d80 593d 490a 23be 927c 093e
00000070: ae73 b73c 8326 8a3e 6bc9 3d3d cd05 ddbd
00000080: 79a3 ff3d f5d7 233d f1a1 483e a24e 173e
00000090: 11f5 d7bc b365 15be 07d5 8dbd 829e f53d
000000a0: 36da b3be 8dc5 a93d a71c 62be d1ba fe3c
000000b0: 702a 58bc c7f8 12bc 22a5 9c3e 0831 133d
000000c0: 20f4 73be 4ad4 aabe ef44 2a3e 88eb 10be
000000d0: 3f25 a23e 4376 0bbf f102 24be 35d5 1c3b
000000e0: 4b64 61bd 0e9a 87bc 0e2e 8dbd 20b4 91be
000000f0: 88d9 75be 8857 4a3e 830c 963d 5936 85be
00000100: 65dd 273e 3539 b53e 1642 073d e803 c0bd
00000110: 7915 c5bd 1664 85bd ec09 423e 6d01 643e
00000120: 28f6 15be 9282 53bd a062 773e 4e5f 24be
00000130: 22dd abbe 02e9 0c3e cc93 84bd aed6 26bd
00000140: b370 73be e183 193e 69b2 493e a5c1 693e
00000150: cc37 813e 4acc 6cbd 01bd df3d 7888 93bb
00000160: d7c6 d43d f618 ce3d 1bb9 94bd 0145 06bd
00000170: d136 98bc b4b7 74bd d067 2abe 4595 08bd
00000180: 241f fc3d 9a02 6c3c 4b48 99bd c6ea 943d
00000190: 6aee 1b3e 6fea 593c b60e a3bc 53ba 81bd
000001a0: 5c20 10be 0ef8 5fbd 2fc7 043e 32d5 12bd
000001b0: 7df0 06bd 016f 343c 7009 b3bd 82d9 b2bc
000001c0: 6588 1abc f662 e5bd e30c 96bd 2aeb 29bd
000001d0: 297e 623d 7285 d53b 5116 20bd 95b9 b6bc
000001e0: ea31 75bd d2f6 93bd 923b 1d3c 1249 89bd
000001f0: 98b9 0cbd d0f4 85bc 0cc3 ce3a 2dcf 2fbd
00000200: ca26 9ebd 5455 bc3c 6985 1dbf c71f ef3c
00000210: b072 90bd cef7 3abe 6c21 d3be c6b3 6fbe
00000220: f4ae bdbd caee 423d a6d0 0d3d 49cb 23be
00000230: 6098 363b f315 5bbd c7d2 19be db1d 9cbe
00000240: 1428 803e f141 7ebe a926 fcbd 83fa 043d
00000250: 04e7 14be d347 67be 3421 443e de8f 793d
00000260: e9e5 57be 6dc3 26be 5ae1 ddbd 964a cfbe
00000270: 3906 9dbe 3c89 cabd c25f 5d3d 0536 20bd
00000280: 0165 55bd 57a2 1fbe 02ff 75be 16b7 b9bc
00000290: 31ae c3bd 0a57 7b3d 3da1 30be f122 40bd
000002a0: 857d 07be ce14 f3be bb47 e8bd 945e 90bd
000002b0: 1fcf 7ebe 3cc4 de3c 91c9 06bd b91b 79bd
000002c0: 4161 bebd 6253 dbbd 93cf 963e 17fe 443e
000002d0: 4c67 87bd 110b 38bc 116c 8d3e 5f13 64bd
000002e0: f22b 85bd da73 0f3e 6c86 1dbd d2dc f7bd
000002f0: 7666 c0bd 1097 b8bd c1d0 21be e017 49be
00000300: 2caa e5bd cea6 a73e 4483 3dbe 5394 2bbe
00000310: d97b 99be 42d4 4b3d aec1 853c 603c 7abd
00000320: 0a07 1cbe 2cca 98be d9f5 adbe c89a 8abd
00000330: 4a6e 953d 01de 0dbe 1211 683e ba5a 49bd
00000340: a93b 9ebe 85ea adbe 0005 463e 9e03 94be
00000350: ab4a 4abe ffc7 d2bd 30c3 9cbe 2d48 523e
00000360: 29d0 a3be deda c3be a6e9 cdbe 0854 95be
00000370: 2de3 c4bd d47a 23bd 550a c43c 3ca2 fabd
00000380: b0bc 153d ed7c 2e3e 6629 b5bd 81ef 04bb
00000390: f8d7 eabe 5ddd 96bb c785 76bb 431e 733e
000003a0: 7082 d237 cebe 31be 44f4 1ebe 8b78 893c
000003b0: a70f e83a f74d 6dbe ea4b aabd a0f4 843d
000003c0: c637 323d 87b0 833c acc8 863e 2504 19be
000003d0: 6ee8 883c 0554 b63e 07f2 93bb b649 aebc
000003e0: 318b 20be 07ad 6bbd 0ce5 d4bd d1e9 463c
000003f0: dcf8 69be 55f1 913e 7582 5b3e 795b 293e

fc1.bias f4 [100]
0.01101906 -0.19141848 -0.058548495 -0.3072447 -0.36061382 -0.2379546 -0.18927473 -0.26756838
-0.030496342 -0.03780829 -0.2660622 0.0054275584 -0.10441588 -0.07809294 -0.1965878 -0.30574456
-0.07857565 -0.13968582 -0.03607282 -0.26039144 -0.1870267 -0.21669252 -0.23419917 -0.21724784
-0.32292488 -0.29896677 -0.24373133 -0.16423279 -0.2134088 -0.13047712 -0.0667128 -0.21349482
-0.11827171 -0.18604964 -0.074870154 -0.12833577 -0.26421902 -0.1973344 0.05148069 -0.2769419
-0.00010275527 -0.032590754 -0.12947665 -0.16913266 -0.23444118 -0.12097812 -0.32088894 -0.3473643
-0.14827582 -0.1299035 -0.06661174 -0.13448821 -0.26781127 -0.33303332 -0.15182601 -0.21948636
-0.25292963 -0.30861992 0.05037152 -0.116741255 -0.22469665 -0.19590338 -0.2892505 -0.06616184
-0.19155452 -0.13517147 -0.35423425 -0.08618757 -0.28712764 -0.13671684 -0.23553652 -0.20690733
0.04890041 -0.3768174 -0.15214744 -0.20818606 -0.2935209 -0.12858124 -0.15393211 -0.13738021
-0.3269524 -0.07068221 -0.36700466 -0.30858222 -0.23666045 -0.2715677 0.004931865 -0.31274092
-0.24268508 -0.22958885 -0.280282 -0.17030378 -0.28139105 -0.092308156 -0.046128463 -0.33058092
-0.25348657 -0.16068427 -0.24607787 -0.14181021
00000000: 4a89 343c 3503 44be 8cd0 6fbd 2d4f 9dbe
00000010: 60a2 b8be 5faa 73be 3cd1 41be b9fe 88be
00000020: 77d3 f9bc dedc 1abd 4e39 88be a9d9 b13b
00000030: fed7 d5bd 31ef 9fbd 504e 49be 8d8a 9cbe
00000040: 45ec a0bd cd09 0fbe 18c1 13bd 0752 85be
00000050: ed83 3fbe a5e4 5dbe e8d1 6fbe 3876 5ebe
00000060: 6956 a5be 2c12 99be b594 79be a42c 28be
00000070: d687 5abe cb9b 05be b8a0 88bd 639e 5abe
00000080: 7038 f2bd cc83 3ebe 8655 99bd 746a 03be
00000090: b747 87be 0712 4abe 6add 523d 54cb 8dbe
000000a0: 517e d7b8 e27d 05bd 8795 04be 1d31 2dbe
000000b0: 5911 70be 60c3 f7bd 8e4b a4be bcd9 b1be
000000c0: 9ed5 17be 6c05 05be bc6b 88bd 47b7 09be
000000d0: 8f1e 89be 5883 aabe 4778 1bbe 08c1 60be
000000e0: fe7f 81be 6e03 9ebe 5e52 4e3d 0a16 efbd
000000f0: e116 66be e59a 48be a418 94be dc7f 87bd
00000100: de26 44be 646a 0abe 315e b5be 1c83 b0bd
00000110: 6502 93be 80ff 0bbe 7c30 71be 84df 53be
00000120: cc4b 483d 36ee c0be 8acc 1bbe ba2e 55be
00000130: 5f48 96be cdaa 03be 61a0 1dbe 66ad 0cbe
00000140: 4e66 a7be d6c1 90bd 09e8 bbbe 7dfe 9dbe
00000150: 1e57 72be ec0a 8bbe 7b9b a13b 941f a0be
00000160: 7082 78be 5719 6bbe 1f81 8fbe 1d64 2ebe
00000170: 7d12 90be 0f0c bdbd 33f1 3cbd e741 a9be
00000180: fec8 81be 6b8a 24be d6fb 7bbe b236 11be

fc2.weight f4 [50, 100]
0.4311893 -0.7731348 -0.3463711 -0.37853068 -0.20493904 -0.26955417 0.12233387 0.040970072
0.3995271 0.08482267 0.41758737 0.26429844 0.26994738 0.3540502 -0.18104312 -0.1593546
0.31522894 0.08754992 0.20096208 -0.3883153 0.06928641 -0.1296865 -0.022721754 0.102216825
-0.29881442 0.010174775 -0.34709418 -0.34578305 -0.033278998 -0.030123655 0.26934654 -0.31828782
0.11599665 0.0065886625 0.37076056 0.54602337 -0.014627498 0.22058296 0.26691356 0.08719373
0.41602764 -0.18297467 0.1894511 0.11485646 -0.12623267 -0.09102631 -0.03336634 -0.27290675
-0.04859143 0.11563618 0.013489637 0.13653447 0.025158117 -0.43917835 0.042251337 -0.2418274
-0.7374354 -0.15257253 -0.102480486 -0.8809862 -0.36064735 0.14119945 0.079763986 0.25935304
-0.11467782 -0.22146381 -0.23998354 0.09055697 -0.27951482 0.13056985 0.34462535 -0.43295977
0.4502911 -0.349795 0.11186944 -0.089937426 -0.0037976662 -0.3586571 0.09627739 0.105023496
0.045467645 0.061393175 -0.5482155 -0.21768424 -0.687587 -0.2050925 -0.12259986 -0.013970616
-0.38722116 -0.566666 0.31248373 -0.038481005 -0.26623732 0.27708533 0.28328505 -0.25810516
-0.43311924 -0.633423 0.45148587 0.064119756 -0.5822514 0.62669706 0.6243079 -0.36184484
-0.042187773 -0.624536 -0.1531141 -0.10880254 -0.5701225 0.22291747 -0.117714815 0.15085253
-0.35500672 -0.14830813 -0.4328786 -0.07325789 -0.4752056 0.48124096 0.48032027 -0.34581888
-0.11232612 0.099791184 0.21012343 -0.61785716 -0.34163666 0.09046751 -0.43236107 -0.58904123
-0.24242672 0.27662227 -0.5027431 0.2847658 0.17088039 -0.32087693 -0.17861831 0.021963883
0.26633066 0.053357054 0.17857157 0.18776645 -0.48632294 0.5770177 0.5675112 -0.11638869
-0.13112822 -0.42658147 -0.10935436 -0.22888629 -0.41894734 0.12146072 0.31198782 -0.19766782
0.105640486 -0.6454305 -0.18902574 -0.35043782 0.18207236 -0.51145196 0.5753531 0.6427475
0.115898386 -0.45146275 0.025394099 0.26565862 -0.50848997 -0.39133996 -0.20471956 0.17954405
0.21859989 -0.30326968 -0.58504426 -0.6062908 -0.45397592 -0.46243483 0.56985253 0.13664366
0.24092585 -0.35946655 -0.6454811 0.3077641 0.24017027 0.036231127 0.30814245 -0.24984996
0.11774237 -0.21839759 -0.18273175 -0.07420194 -0.0229481 0.29269403 -0.10739991 -0.34059685
-0.54846245 -0.43138608 -0.112228125 0.056606002 -0.45422676 0.5728039 -0.048287433 0.040871564
-0.0383119 0.23599467 0.34244412 -0.12758349 0.18340921 0.29581878 0.2572457 -0.100114234
-0.090555154 -0.29942212 -0.051435683 -0.011469403 -0.23717405 0.27626577 -0.25513718 -0.08043577
-0.17578505 0.040993847 -0.28701237 -0.07391565 -0.46940115 0.037591856 0.05657947 -0.1595273
-0.33160493 0.020777343 0.22296794 -0.28742713 -0.17096043 -0.5464137 0.05861675 -0.23725308
-0.16531359 0.14733626 -0.3124688 0.0868917 -0.14993195 0.2804012 -0.3026209 0.22166364
-0.029833095 0.23999402 -0.25914934 0.24992335 -0.111997254 0.25885186 -0.0532455 -0.2722229
0.100698605 -0.49417478 -0.05779588 -0.15348475 0.17253251 -0.3703747 0.09070403 -0.23053491
00000000: d8c4 dc3e 2aec 45bf 8e57 b1be c6ce c1be
00000010: 8adb 51be 0103 8abe 2e8a fa3d 3cd0 273d
00000020: d18e cc3e 82b7 ad3d 03ce d53e 2052 873e
00000030: 8b36 8a3e 1146 b53e 5e63 39be da2d 23be
00000040: b065 a13e 5f4d b33d 01c9 4d3e 43d1 c6be
00000050: 09e6 8d3d 8acc 04be f922 babc 0e57 d13d
00000060: 34fe 98be 19b4 263c 54b6 b1be 7a0a b1be
00000070: 8f4f 08bd e2c5 f6bc cae7 893e 9ff6 a2be
00000080: a78f ed3d b5e5 d73b 54d4 bd3e 30c8 0b3f
00000090: 2ca8 6fbc 80e0 613e e5a8 883e a092 b23d
000000a0: 9301 d53e b65d 3bbe 78ff 413e dd39 eb3d
000000b0: 2343 01be 016c babd 25ab 08bd 6fba 8bbe
000000c0: cf07 47bd a9d2 ec3d a303 5d3c b1cf 0b3e
000000d0: 6518 ce3c fcdb e0be bd0f 2d3d 9aa1 77be
000000e0: 91c8 3cbf f93b 1cbe 4ae1 d1bd 5088 61bf
000000f0: c5a6 b8be 9796 103e 4d5b a33d ecc9 843e
00000100: 34dc eabd 69c7 62be 3fbe 75be ef75 b93d
00000110: 911c 8fbe 1ab4 053e bc72 b03e e7ac ddbe
00000120: 8e8c e63e 5518 b3be ce1b e53d 1d31 b8bd
00000130: 44e2 78bb e7a1 b7be 152d c53d 8f16 d73d
00000140: 483c 3a3d 6977 7b3d da57 0cbf 9ee8 5ebe
00000150: b405 30bf c503 52be a315 fbbd 03e5 64bc
00000160: da41 c6be 0611 11bf defd 9f3e 429e 1dbd
00000170: 4250 88be 21de 8d3e bd0a 913e 5c26 84be
00000180: cec1 ddbe 0228 22bf 2829 e73e 3851 833d
00000190: 6e0e 15bf 386f 203f a4d2 1f3f ba43 b9be
000001a0: 16cd 2cbd 97e1 1fbf f1c9 1cbe ded3 debd
000001b0: 8cf3 11bf 7a44 643e 7714 f1bd 1679 1a3e
000001c0: 71c3 b5be 16de 17be 44a2 ddbe 3c08 96bd
000001d0: 264e f3be 3765 f63e 8aec f53e 2c0f b1be
000001e0: 3d0b e6bd 525f cc3d 992a 573e e32b 1ebf
000001f0: 00eb aebe 0847 b93d 6e5e ddbe 68cb 16bf
00000200: b63e 78be 6fa1 8d3e c6b3 00bf d3cc 913e
00000210: 45fb 2e3e fb49 a4be b8e7 36be 9aed b33c
00000220: 7e5c 883e ed8c 5a3d 77db 363e d945 403e
00000230: 52ff f8be 6fb7 133f 6a48 113f 325d eebd
00000240: 7a46 06be e368 dabe 2ef5 dfbd 2b61 6abe
00000250: 4480 d6be 66c0 f83d debc 9f3e 6f69 4abe
00000260: 0a5a d83d ef3a 25bf f78f 41be 966c b3be
00000270: 2d71 3a3e 84ee 02bf 574a 133f 1a8b 243f
00000280: 225c ed3d 2026 e7be 4907 d03c 6804 883e
00000290: 662c 02bf b65d c8be 01a2 51be 65da 373e
000002a0: a6d8 5f3e 2a46 9bbe 76c5 15bf e035 1bbf
000002b0: 886f e8be 42c4 ecbe dbe1 113f 51ec 0b3e
000002c0: 44b5 763e 000c b8be 403e 25bf 4293 9d3e
000002d0: 32ef 753e 1767 143d d9c4 9d3e abd8 7fbe
000002e0: e922 f13d 9ea3 5fbe 081e 3bbe 30f7 97bd
000002f0: a7fd bbbc fedb 953e 7cf4 dbbd b662 aebe
00000300: 0968 0cbf a3de dcbe dcd7 e5bd b2db 673d
00000310: 6990 e8be 47a3 123f 0bc9 45bd f168 273d
00000320: f0ec 1cbd 96a8 713e d654 af3e 3fa5 02be
00000330: a0cf 3b3e 8f75 973e b5b5 833e b108 cdbd
00000340: fb74 b9bd db4d 99be 39ae 52bd 2aea 3bbc
00000350: c1dd 72be b572 8d3e 57a1 82be 82bb a4bd
00000360: ff00 34be 2ae9 273d 49f3 92be 1761 97bd
00000370: 5955 f0be ebf9 193d e0bf 673d 205b 23be
00000380: 1fc8 a9be 3f35 aa3c b551 643e a629 93be
00000390: 4010 2fbe c5e1 0bbf 1e18 703d 79f2 72be
000003a0: f747 29be 51df 163e e9fb 9fbe 47f4 b13d
000003b0: c387 19be bf90 8f3e 20f1 9abe cbfb 623e
000003c0: 8964 f4bc fec0 753e 39af 84be e8eb 7f3e
000003d0: d15e e5bd 3b88 843e f417 5abd cd60 8bbe
000003e0: 123b ce3d 7a04 fdbe 5fbb 6cbd 1b2b 1dbe
000003f0: 5dac 303e c1a1 bdbe 09c3 b93d 5811 6cbe

fc2.bias f4 [50]
0.80787516 0.5835171 0.55450565 -0.199212 0.77680486 -0.27146828 -0.3771861 0.77402353
-0.21391018 0.7723698 0.84361213 0.7084078 -0.253851 0.6810568 -0.24750549 0.8407954
-0.34072933 0.6199713 -0.3403603 -0.22771415 -0.37084144 -0.34371442 0.8757411 0.6464131
-0.29136923 -0.2921492 0.59497947 0.69350016 -0.16104434 -0.22910473 -0.13741316 -0.29049218
-0.3110045 -0.32389027 0.76382136 -0.3048551 0.71581835 0.68747735 0.7793396 -0.18826377
0.84211063 -0.26939783 0.7602861 -0.22093904 0.7710793 -0.1680459 -0.19988948 -0.33803758
-0.25928146 0.82549095
00000000: e8d0 4e3f 6061 153f 15f4 0d3f 3bfe 4bbe
00000010: afdc 463f e4fd 8abe 891e c1be 6826 463f
00000020: 450b 5bbe 07ba 453f f7f6 573f 375a 353f
00000030: c2f8 81be bd59 2e3f 1472 7dbe 5e3e 573f
00000040: 1374 aebe 70b6 1e3f b543 aebe e62d 69be
00000050: eede bdbe 56fb afbe 9230 603f 547b 253f
00000060: 592e 95be 9494 95be 9350 183f 3a89 313f
00000070: cfe8 24be 6e9a 6abe 09b6 0cbe 64bb 94be
00000080: fb3b 9fbe f2d4 a5be cc89 433f f815 9cbe
00000090: df3f 373f 84fe 2f3f cd82 473f 38c8 40be
000000a0: 9094 573f 83ee 89be 1ca2 423f d83d 62be
000000b0: 7465 453f 3914 2cbe d4af 4cbe 4313 adbe
000000c0: 8ac0 84be 6053 533f

fc3.weight f4 [1, 50]
-1.3292696 -1.3097961 -0.8985177 0.4327503 -0.9631299 0.4562503 0.35275 -1.2513317
0.37764084 -1.2011446 -1.3753523 -1.1472629 0.39895982 -1.3860242 0.37972257 -1.0936612
0.41090104 -1.1223433 0.3581465 0.3521844 0.34314433 0.41147414 -1.0213165 -1.2047088
0.38028386 0.39462698 -1.4437317 -1.2457674 0.46238253 0.44025713 0.4212776 0.42616495
0.3459659 0.36564216 -1.2258706 0.3522907 -0.9220616 -1.3914478 -1.0916418 0.43876606
-1.3119532 0.42367485 -0.9487511 0.43456364 -1.241711 0.44010434 0.4180473 0.3441025
0.4325807 -0.981843
00000000: 8225 aabf 66a7 a7bf 4205 66bf 7391 dd3e
00000010: ae8f 76bf a499 e93e a69b b43e a32b a0bf
00000020: 245a c13e 1bbf 99bf 8b0b b0bf 83d9 92bf
00000030: 7644 cc3e 3e69 b1bf ff6a c23e 17fd 8bbf
00000040: 9f61 d23e f2a8 8fbf fa5e b73e 8451 b43e
00000050: 9db0 af3e bdac d23e 80ba 82bf e633 9abf
00000060: 91b4 c23e 8c0c ca3e 33cc b8bf 4e75 9fbf
00000070: 67bd ec3e 6269 e13e b3b1 d73e 4b32 da3e
00000080: 7122 b13e 7335 bb3e 54e9 9cbf 725f b43e
00000090: 3b0c 6cbf f61a b2bf ebba 8bbf f2a5 e03e
000000a0: 15ee a7bf e9eb d83e 5ae1 72bf 207f de3e
000000b0: 63f0 9ebf 5b55 e13e 4c0a d63e 342e b03e
000000c0: 387b dd3e 105a 7bbf
