Radiomics_local_global_framework/model_og/models/Stochastic Gates_feature_selection/Neural_Network/global_flair___local_flair/model.pt (torch, 409972 bytes, 5 tensors)

fc1.weight f4 [200, 458]
0.027665209 -0.07482588 -0.0862931 -0.1126229 0.01973097 -0.11060846 0.034942184 0.096796684
0.07009074 0.051642787 -0.026802508 0.0720595 0.1514661 0.06480451 0.07500604 -0.01579495
-0.034774564 -0.07154695 -0.012318835 -0.08620019 -0.07368372 -0.072383605 0.02454777 -0.042229407
0.13357604 -0.029827824 -0.011861184 0.12065486 0.15563995 0.14276828 0.35055998 0.002184213
-0.042336408 -0.07869393 -0.04537083 0.115122646 -0.042399243 -0.12733604 -0.15952902 -0.115500286
-0.06992523 -0.040745374 -0.17617777 -0.13209906 -0.23602891 0.07332903 -0.52125484 0.16795059
-0.17169383 -0.009177778 -0.2196437 -0.2370673 -0.12182372 -0.079751015 -0.15924557 0.3352318
0.13511804 -0.12491909 -0.23518795 -0.19169258 0.021269912 -0.010683941 -0.13556135 0.13972203
-0.13051218 -0.10841054 0.0837801 0.050717473 -0.2700418 -0.3598995 -0.12145168 0.30695704
-0.106043436 0.09431004 0.1656752 0.01957063 0.09877177 -0.08502903 -0.018371638 0.072509654
0.22104196 -0.00022447176 -0.09067599 0.117863856 -0.04102254 0.06632406 -0.023796268 -0.03166019
0.11060487 0.0013002303 -0.117807284 -0.05372217 -0.117692456 0.006934372 0.05854012 -0.06217514
-0.08977848 -0.083428755 0.06950122 0.019300627 0.086842336 -0.020283077 0.011068753 -0.10669197
0.04776987 0.13641506 0.027258923 -0.09337974 -0.078908965 -0.10417641 0.07548696 0.04275718
0.14073962 -0.01438866 0.048488606 0.030406412 -0.2079368 0.09759829 -0.03519606 0.03212139
-0.02842296 0.06957186 -0.007858413 -0.020263718 -0.0015317578 0.057211105 0.13600475 0.05853689
0.03861626 0.007243274 -0.5025617 -0.0099866865 -0.015417112 -0.8691842 0.13123739 -0.16149455
-0.2975332 -0.3294116 -0.24055709 0.08692738 0.084777385 -0.0104645165 0.03186321 0.033215612
0.45167798 0.3074966 -0.29596028 -0.24548917 -0.39163765 0.45118287 -0.28293312 -0.025895722
0.39330122 -0.04979949 -0.11554913 -0.08612866 -0.05070004 -0.32808056 -0.14778495 -0.052370362
-0.14630665 -0.19213395 0.038568646 0.0027892466 0.1394569 -0.283786 0.33497557 0.16987815
0.00974452 -0.024605408 0.33148038 -0.26882055 -0.10306823 0.36069047 -0.36225456 0.042518575
0.1265502 0.1258757 -0.008851519 -0.17711507 -0.39984637 0.07477743 0.079785936 -0.09975498
-0.0008426899 -0.27391008 0.09884526 -0.05217007 -0.005048807 0.09701084 0.005118213 0.09202815
0.17161582 -0.041269198 -0.021474823 -0.12585382 0.3878447 -0.0039480333 -0.06605776 0.42377737
0.26959577 0.10184421 -0.6222329 0.047444064 -0.13609707 0.15588413 0.31103438 -0.0028185614
0.077736996 0.2610148 -0.29343185 0.28115675 -0.36078852 -0.14958416 -0.34093568 -0.2926504
-0.722192 -0.52616036 -0.16079985 -0.097458884 0.19846572 -0.07143408 0.034264535 -0.10377084
-0.07554576 -0.027850628 0.06794077 0.10387174 -0.27545133 0.0676518 0.11971945 0.32682586
0.11219257 -0.05906783 0.007972764 -0.17359832 0.0789784 -0.40300718 -0.092772394 0.22274445
-0.19042811 0.058351204 -0.15710947 -0.10441612 0.07288716 0.53975314 -0.19981213 -0.22039022
-0.29892662 -0.29848507 0.04222467 -0.689274 -0.17059109 -0.041821055 -0.25061825 0.07310597
00000000: 26a2 e23c 503e 99bd 70ba b0bd d6a6 e6bd
00000010: d8a2 a13c b086 e2bd 891f 0f3d 573d c63d
00000020: bc8b 8f3d 6387 533d ef90 dbbc ee93 933d
00000030: ee19 1b3e 3ab8 843d c49c 993d 6964 81bc
00000040: c66f 0ebd 3587 92bd f0d4 49bc ba89 b0bd
00000050: 7de7 96bd db3d 94bd 6818 c93c bef8 2cbd
00000060: 28c8 083e 7b59 f4bc 6955 42bc e519 f73d
00000070: 1460 1f3e d931 123e 997c b33e 0325 0f3b
00000080: f168 2dbd 482a a1bd c3d6 39bd 6cc5 eb3d
00000090: d4aa 2dbd 6164 02be 935b 23be 6a8b ecbd
000000a0: f634 8fbd 9fe4 26bd f267 34be fa44 07be
000000b0: 90b1 71be 882d 963d f570 05bf 3dfb 2b3e
000000c0: 82d0 2fbe 645e 16bc 47ea 60be c5c1 72be
000000d0: b77e f9bd 8054 a3bd 4511 23be 81a3 ab3e
000000e0: 625c 0a3e 94d5 ffbd 1cd5 70be 0f4b 44be
000000f0: 3d3e ae3c b20b 2fbc 98d0 0abe 4b13 0f3e
00000100: fca4 05be 5806 debd e794 ab3d 20bd 4f3d
00000110: eb42 8abe bf44 b8be a9bb f8bd 7929 9d3e
00000120: 4d2d d9bd 9f25 c13d c2a6 293e 9652 a03c
00000130: db48 ca3d b323 aebd 1e80 96bc f17f 943d
00000140: d358 623e 2e60 6bb9 55b4 b9bd 9b62 f13d
00000150: 4007 28bd e9d4 873d 64f0 c2bc 1eae 01bd
00000160: ce84 e23d 7d6c aa3a f244 f1bd c70b 5cbd
00000170: be08 f1bd ba39 e33b c4c7 6f3d 5cab 7ebd
00000180: c8dd b7bd b2dc aabd a856 8e3d 591c 9e3c
00000190: 65da b13d b228 a6bc b759 353c 5281 dabd
000001a0: 57aa 433d 64b0 0b3e 1b4e df3c e13d bfbd
000001b0: 069b a1bd 715a d5bd e898 9a3d 2722 2f3d
000001c0: 0c1e 103e 6abe 6bbc fd9b 463d de16 f93c
000001d0: 62ed 54be 9de1 c73d be29 10bd b891 033d
000001e0: 44d7 e8bc b17b 8e3d 93c0 00bc 1900 a6bc
000001f0: 43c5 c8ba 3156 6a3d d444 0b3e 61c4 6f3d
00000200: 152c 1e3d fc58 ed3b e2a7 00bf 339f 23bc
00000210: 0e98 7cbc db82 5ebf 1863 063e d45e 25be
00000220: 4656 98be a3a8 a8be 9954 76be fb06 b23d
00000230: c49f ad3d 5d73 2bbc ff82 023d 180d 083d
00000240: 5642 e73e 3270 9d3e 1b88 97be 8361 7bbe
00000250: bb84 c8be 7101 e73e 9cdc 90be 4423 d4bc
00000260: c75e c93e 8dfa 4bbd 06a5 ecbd 3964 b0bd
00000270: d8aa 4fbd 2dfa a7be f054 17be 4e82 56bd
00000280: 69d1 15be c3be 44be 28fa 1d3d cbcb 363b
00000290: cacd 0e3e 664c 91be eb81 ab3e 8af4 2d3e
000002a0: 7ba7 1f3c 4891 c9bc ccb7 a93e d9a2 89be
000002b0: 7015 d3bd 6cac b83e 6e79 b9be f527 2e3d
000002c0: 6096 013e 8fe5 003e f605 11bc a75d 35be
000002d0: aab8 ccbe e924 993d cf66 a33d 574c ccbd
000002e0: f6e7 5cba f13d 8cbe 626f ca3d 49b0 55bd
000002f0: 7670 a5bb 9fad c63d afb6 a73b 4179 bc3d
00000300: 0fbc 2f3e e409 29bd f8eb afbc d3df 00be
00000310: 9593 c63e 815e 81bb 4a49 87bd 59f9 d83e
00000320: 7508 8a3e b293 d03d a84a 1fbf b554 423d
00000330: 085d 0bbe 17a0 1f3e e63f 9f3e 9db7 38bb
00000340: 9334 9f3d bba3 853e b33c 96be c7f3 8f3e
00000350: 46b9 b8be 972c 19be 1f8f aebe 46d6 95be
00000360: 93e1 38bf 72b2 06bf b7a8 24be 8698 c7bd
00000370: 993a 4b3e 084c 92bd f858 0c3d ce85 d4bd
00000380: bcb7 9abd 0027 e4bc 8824 8b3d b5ba d43d
00000390: f507 8dbe 078d 8a3d 792f f53d b855 a73e
000003a0: 38c5 e53d 1cf1 71bd 32a0 023c c2c3 31be
000003b0: 6dbf a13d f556 cebe 74ff bdbd 1f17 643e
000003c0: 96ff 42be ac01 6f3d 4ee1 20be 1ed8 d5bd
000003d0: dd45 953d 432d 0a3f 8d9b 4cbe f9ad 61be
000003e0: e90c 99be 09d3 98be c7f3 2c3d 4374 30bf
000003f0: 6eaf 2ebe 8e4c 2bbd 0951 80be 95b8 953d

fc1.bias f4 [200]
-0.17120247 -0.30847585 -0.70280606 -0.29470262 -0.6083359 -0.08906439 -0.15597029 -1.44895
-0.5419609 -0.16666685 -0.13838665 -0.077265315 -0.15509984 -0.2063341 -0.17339385 -0.19255121
-0.5498323 -0.23543914 -1.0088503 -0.31845504 -0.5262883 -0.2580369 -0.20347631 -1.5334516
-0.1637207 -0.25989717 -0.40272963 -0.069729425 -0.79392344 -0.41741064 -0.16627298 -0.13611853
-0.4434721 -0.19953616 -0.20878108 -0.6095376 -0.23945707 -0.83250725 -0.19778734 -0.22903569
-0.18956259 -0.15256071 -1.2685802 -0.29021156 -0.25440142 -0.10088731 0.026042363 -0.374237
-0.14567924 -0.2367772 -0.14091088 -0.046232015 -0.19490549 -0.2959562 -0.33547688 -0.18403234
-0.09561864 -0.34064308 -0.08796224 -0.47808212 -0.16447516 -0.5001751 -0.17654765 -0.16195562
-0.076298304 -0.17657778 -0.24904102 -0.22689885 -0.30431464 -0.70737886 -0.2180269 -0.1266596
-0.1627556 -0.19329345 -0.2985307 -0.092613645 -0.16014524 -0.1818585 -0.87423 -0.09932964
-0.11380005 -0.23799385 -0.8370676 -0.3805107 -0.15435489 -0.094444856 -0.26538453 -0.28401893
-0.28234816 -0.22540386 -0.18516535 -0.5993771 -0.12172247 -0.15583974 -0.250455 -0.33373353
-0.34486943 -0.22255503 -0.32591015 -0.19277732 -0.15135759 -0.31168926 -0.19027263 -0.06402894
-0.16822512 -1.2422749 -0.36047578 -1.2238845 -0.22272475 -0.13463677 -0.8392804 -1.3137112
-0.43061715 -0.11925923 -0.43353117 -0.39629778 -0.19905184 -0.58856094 -0.3367138 -0.04703372
-0.16751891 -0.045631956 -0.032295443 -0.13048194 -0.12900065 -0.24623442 -1.4892853 -0.16983956
-0.29632655 -0.14642799 -0.27842417 -0.19897427 -0.29375753 -0.19404536 -0.061046775 -0.32394198
-0.66288656 -0.30668265 -0.34277853 -0.2241236 -0.06576283 -0.71007264 -0.33931008 -0.17872778
-0.25985786 -0.24769787 -0.6826836 -0.47248644 -0.1511942 -0.1890684 -0.2252057 -0.012221404
-0.6014046 -1.5697179 -0.21610992 -0.65051603 -0.29583788 -0.20564792 -0.48756033 -0.133901
-0.33162677 -0.3347993 0.07267112 -0.23148803 -0.18174672 -0.11377256 -0.58432996 -0.26264378
-0.046809617 -0.9788192 -0.13840373 -0.3864696 -0.11112759 -0.43328854 -0.11613519 -0.22205593
-0.5173477 -0.41547856 -0.261528 -0.22659439 -0.47246456 -0.1731185 -0.13120326 -1.112204
-0.23687044 -0.1865407 -0.29664543 -0.18054284 0.0076656216 -0.24168445 -0.05890963 -0.4224966
-0.72566974 -0.17141116 -0.10319644 -1.225003 -0.20294891 -0.4393238 -0.22199152 -0.34504378
00000000: b34f 2fbe 8cf0 9dbe 19eb 33bf 43e3 96be
00000010: e7bb 1bbf 6467 b6bd adb6 1fbe 3277 b9bf
00000020: f3bd 0abf b7aa 2abe 3bb5 0dbe 473d 9ebd
00000030: 7ed2 1ebe 3f49 53be 288e 31be 252c 45be
00000040: cfc1 0cbf f516 71be 0222 81bf 8a0c a3be
00000050: d4ba 06bf 6a1d 84be 185c 50be 2448 c4bf
00000060: 66a6 27be 3e11 85be 9432 cebe 4dce 8ebd
00000070: 913e 4bbf d9b6 d5be 7743 2abe a862 0bbe
00000080: c60e e3be 3553 4cbe b5ca 55be a80a 1cbf
00000090: 3c34 75be 321f 55bf c488 4abe 5588 6abe
000000a0: b21c 42be e038 1cbe d660 a2bf 9c96 94be
000000b0: e740 82be 029e cebd cb56 d53c fe9b bfbe
000000c0: f02c 15be b975 72be f14a 10be c85d 3dbd
000000d0: 4e95 47be 9287 97be a0c3 abbe f972 3cbe
000000e0: b5d3 c3bd c568 aebe 8c25 b4bd 2ec7 f4be
000000f0: 2d6c 28be 7a0b 00bf e8c8 34be b2d7 25be
00000100: 4942 9cbd ced0 34be 9c04 7fbe 2c58 68be
00000110: 21cf 9bbe c816 35bf 7242 5fbe 0eb3 01be
00000120: 67a9 26be b8ee 45be 04d9 98be 39ac bdbd
00000130: 1dfd 23be 1d39 3abe 8acd 5fbf 576d cbbd
00000140: 0010 e9bd a9b4 73be 104a 56bf 4cd2 c2be
00000150: 350f 1ebe 4e6c c1bd 7be0 87be ee6a 91be
00000160: f08f 90be 45d0 66be fc9b 3dbe c770 19bf
00000170: a149 f9bd 7494 1fbe a33b 80be 1fdf aabe
00000180: ba92 b0be 77e5 63be b2dd a6be 6b67 45be
00000190: 7cfd 1abe bc95 9fbe d4d6 42be 9b21 83bd
000001a0: 3543 2cbe dd02 9fbf 4890 b8be 3fa8 9cbf
000001b0: f511 64be 39de 09be 15db 56bf b027 a8bf
000001c0: da79 dcbe 2f3e f4bd ccf7 ddbe 8be7 cabe
000001d0: 3fd4 4bbe eeab 16bf c065 acbe 6ea6 40bd
000001e0: 148a 2bbe 93e8 3abd 3a48 04bd 0f9d 05be
000001f0: bf18 04be e024 7cbe e7a0 bebf 6cea 2dbe
00000200: 1db8 97be 38f1 15be 9d8d 8ebe e9bf 4bbe
00000210: 6367 96be d4b3 46be 2f0c 7abd b9db a5be
00000220: efb2 29bf 8205 9dbe ab80 afbe a880 65be
00000230: aaae 86bd 52c7 35bf 0dba adbe 6a04 37be
00000240: 170c 85be 83a4 7dbe 5ac4 2ebf bee9 f1be
00000250: a7d2 1abe 269b 41be 539c 66be 493c 48bc
00000260: a7f5 19bf 84ec c8bf eb4b 5dbe 3888 26bf
00000270: 1078 97be 5e95 52be 82a1 f9be 581d 09be
00000280: fcca a9be d06a abbe 99d4 943d 330b 6dbe
00000290: d01b 3abe 9701 e9bd a696 15bf 3f79 86be
000002a0: 71bb 3fbd e593 7abf b5b9 0dbe 58df c5be
000002b0: dd96 e3bd ffd7 ddbe 49d8 edbd a162 63be
000002c0: e670 04bf 9bb9 d4be ffe6 85be 5c08 68be
000002d0: e0e6 f1be fa45 31be 265a 06be b35c 8ebf
000002e0: 2a8e 72be 8604 3fbe e9e1 97be 39e0 38be
000002f0: e52f fb3b 217c 77be 394b 71bd 7951 d8be
00000300: 7ec5 39bf 6886 2fbe a858 d3bd e6cc 9cbf
00000310: d7d1 4fbe 0def e0be bf51 63be 94a9 b0be

fc2.weight f4 [50, 200]
-0.019340081 0.0010741118 0.05316153 0.043735188 -0.035480123 0.05684557 -0.022686772 -0.026584907
-0.0072776717 -0.0221178 0.051051497 -0.07582425 0.053567387 -0.06337661 0.056624006 -0.06502105
-0.019224588 -0.039881643 -0.07364191 0.0030951025 0.010576492 -0.06772137 -0.06484115 -0.06674115
-0.03961687 -0.024092695 -0.0427656 0.05052497 -0.043221783 -0.0689414 -0.0509478 0.0072017666
-0.061093125 -0.077270955 0.03814096 -0.07239963 0.029545845 -0.01576795 -0.057735227 -0.0770408
0.026008222 -0.060407527 -0.068753414 0.030087747 -0.0018234279 0.050350033 0.038992196 0.0005073173
-0.006882886 0.03945777 -0.020258317 -0.042596556 0.012948321 -0.016672138 -0.024180545 -0.07725276
0.043337245 0.004253326 -0.081970505 -0.037511595 -0.0074069044 -0.042076502 -0.03412992 0.028075567
0.005653856 -0.03539826 0.02294306 0.01922131 -0.012221387 0.039323453 0.0023829762 -0.029918399
-0.06756025 -0.003206115 -0.069415286 -0.013305379 0.040476847 -0.04746694 0.014479128 0.036520552
0.059207276 -0.0131487595 0.0007136697 0.02172038 -0.059926838 -0.079635896 0.05094611 0.021680985
-0.081691384 0.02333142 0.010417503 -0.03343432 0.004570421 -0.0055768546 -0.050523393 0.053470075
-0.05225571 -0.052491713 0.03986152 -0.02402246 -0.016170258 -0.008091903 0.007837362 -0.039388
-0.006773591 0.048918642 0.0015979838 0.05173936 -0.0726337 -0.018016815 0.00668832 -0.011784534
0.025485769 0.011118072 -0.059058473 0.05405639 -0.06092083 0.020311374 0.005219029 -0.018728307
0.05523906 -0.029417321 -0.007585555 0.048136804 -0.005401433 -0.07687155 -0.06747905 -0.0012520879
0.02980457 0.04603907 -0.06135257 0.047073085 -0.019907512 0.042275123 -0.033279173 -0.07222676
-0.00037243066 0.04118388 0.034425188 -0.029342214 -0.05608389 -0.04743925 -0.05223259 -0.07845239
-0.073920436 0.0533249 0.030415265 0.0185402 -0.06533239 0.021204168 -0.025002358 0.020552477
-0.006745426 -0.029552253 0.043330196 0.020790676 -0.034240823 0.038453087 0.034956146 -0.055527046
-0.02272432 -0.04526785 -0.021513855 0.031964246 -0.04774712 -0.018713549 -0.024011858 -0.062989295
-0.045374975 -0.029837145 -0.050173227 0.0017715268 -0.06208997 -0.018074946 -0.066263035 -0.006895745
0.024032334 0.02352892 -0.038496796 -0.005038392 0.019140357 -0.02378364 -0.005177472 0.052809674
-0.00097641785 -0.025063578 0.008716306 -0.024318755 -0.0750292 0.058408484 0.01182512 0.03190458
0.00249798 -0.024612052 0.020132668 -0.06866127 0.021054456 -0.029072449 -0.079164654 0.01402413
0.14365235 0.39712542 0.22866379 0.11909673 -0.081347 0.03068615 0.2518757 0.097810805
0.30424136 -0.41137165 -0.23770703 -0.41448092 0.0890997 0.034818385 -0.29012707 -0.07822276
0.24275103 -0.16686256 0.029617952 -0.25797918 0.17295426 -1.2840761 0.07795627 0.018986423
0.035293017 0.03172284 0.12909365 -0.4491624 -0.089227945 0.20914195 0.2955785 0.16327158
0.16736686 0.20055793 0.09633574 0.06998308 -0.7098738 0.04741321 -0.4548754 -0.12493341
-0.16308807 0.21741654 -0.013212771 0.011842397 0.008600954 -0.39308116 0.21307316 -0.006257481
-0.055242106 -0.062164396 -0.14080437 -0.46372584 -0.31395304 0.14708056 0.12532194 0.24472174
00000000: 176f 9ebc 36c9 8c3a e8bf 593d ab23 333d
00000010: 9b53 11bd e7d6 683d 9cd9 b9bc 97c8 d9bc
00000020: 8979 eebb 6330 b5bc 601b 513d bf49 9bbd
00000030: 7a69 5b3d 99cb 81bd 93ee 673d c229 85bd
00000040: e27c 9dbc ef5a 23bd 92d1 96bd 34d7 4a3b
00000050: 0649 2d3c 80b1 8abd 70cb 84bd 96af 88bd
00000060: 4d45 22bd 0b5e c5bc fb2a 2fbd 45f3 4e3d
00000070: 5309 31bd 2631 8dbd a4ae 50bd ccfc eb3b
00000080: c93c 7abd 3c40 9ebd b239 1c3d 4246 94bd
00000090: 210a f23c ca2b 81bc c67b 6cbd 91c7 9dbd
000000a0: 320f d53c e26d 77bd 97ce 8cbd 947a f63c
000000b0: 1600 efba d63b 4e3d 48b6 1f3d 7dfd 043a
000000c0: d589 e1bb 789e 213d c5f4 a5bc ba79 2ebd
000000d0: 3225 543c 0294 88bc 4716 c6bc b236 9ebd
000000e0: 6582 313d 7c5f 8b3b 27e0 a7bd c2a5 19bd
000000f0: 9eb5 f2bb 6958 2cbd d1cb 0bbd bbfe e53c
00000100: fb43 b93b c4fd 10bd 16f3 bb3c 0276 9d3c
00000110: 363c 48bc a111 213d b52b 1c3b 6e17 f5bc
00000120: 075d 8abd af1d 52bb 9a29 8ebd cefe 59bc
00000130: 0dcb 253d b26c 42bd dd39 6d3c 9396 153d
00000140: 5483 723d e56d 57bc 9015 3b3a f0ee b13c
00000150: d875 75bd 2518 a3bd deac 503d 529c b13c
00000160: d04d a7bd 8921 bf3c 2dae 2a3c 6df2 08bd
00000170: 78c3 953b 0cbe b6bb 9ef1 4ebd 7003 5b3d
00000180: 150a 56bd 8d01 57bd d545 233d c0ca c4bc
00000190: 7d77 84bc e793 04bc 4768 003c 5055 21bd
000001a0: 00f5 ddbb ea5e 483d 7073 d13a a7ec 533d
000001b0: fac0 94bd 0098 93bc b229 db3b eb13 41bc
000001c0: 88c7 d03c 9328 363c 4ce7 71bd 3c6a 5d3d
000001d0: 1f88 79bd 0a64 a63c 6304 ab3b 1b6c 99bc
000001e0: 5a42 623d 98fc f0bc 3f90 f8bb 192b 453d
000001f0: 81fe b0bb d56e 9dbd 7532 8abd 191d a4ba
00000200: b728 f43c 7793 3c3d d54c 7bbd b5cf 403d
00000210: 1415 a3bc ae28 2d3d be4f 08bd a0eb 93bd
00000220: cc42 c3b9 6eb0 283d 6d01 0d3d 155f f0bc
00000230: 39b8 65bd a94f 42bd d7f1 55bd a6ab a0bd
00000240: 9963 97bd 366b 5a3d 6f29 f93c 9ee1 973c
00000250: fdcc 85bd 5db4 ad3c bfd1 ccbc ab5d a83c
00000260: bc08 ddbb 9117 f2bc 017b 313d 3551 aa3c
00000270: 1b40 0cbd fc80 1d3d 2d2e 0f3d 5470 63bd
00000280: 5a28 babc c86a 39bd d33d b0bc f1ec 023d
00000290: 7c92 43bd 284d 99bc 84b4 c4bc 8800 81bd
000002a0: 1cdb 39bd 076d f4bc 7182 4dbd 9332 e83a
000002b0: 0d52 7ebd e911 94bc eab4 87bd b4f5 e1bb
000002c0: 75df c43c b9bf c03c d1ae 1dbd 1819 a5bb
000002d0: 3dcc 9c3c e8d5 c2bc c8a7 a9bb f54e 583d
000002e0: 4bf6 7fba 2252 cdbc d6ce 0e3c 2038 c7bc
000002f0: e9a8 99bd bc3d 6f3d 26be 413c 60ae 023d
00000300: 26b5 233b 379f c9bc 44ed a43c 489e 8cbd
00000310: 657a ac3c 5829 eebc 1421 a2bd 77c5 653c
00000320: 9a19 133e 0654 cb3e d726 6a3e fde8 f33d
00000330: 4299 a6bd 8561 fb3c daf5 803e 0851 c83d
00000340: 86c5 9b3e 4e9f d2be 7969 73be d836 d4be
00000350: e779 b63d b99d 0e3d 898b 94be 4133 a0bd
00000360: ba93 783e 05de 2abe 59a1 f23c d915 84be
00000370: ec1a 313e 9b5c a4bf 89a7 9f3d 6a89 9b3c
00000380: 698f 103d cfef 013d 2031 043e 9df8 e5be
00000390: 24bd b6bd 4f29 563e 1156 973e aa30 273e
000003a0: 3862 2b3e 0f5f 4d3e ac4b c53d 4a53 8f3d
000003b0: 4aba 35bf 5b34 423d 6ee5 e8be 16dd ffbd
000003c0: 8f00 27be 71a2 5e3e 617a 58bc 9d06 423c
000003d0: 04eb 0c3c ef41 c9be da2f 5a3e 8e0b cdbb
000003e0: 8c45 62bd 18a0 7ebd 052f 10be 796d edbe
000003f0: 74be a0be 499c 163e 6554 003e 5698 7a3e

fc2.bias f4 [50]
-0.04995901 0.25357723 0.1602996 0.102800965 0.06809053 0.077562295 0.121983126 0.044552047
0.06705735 0.48047253 0.36540997 -0.10777414 -0.40346372 0.065855466 0.18757044 0.85868776
0.2688781 0.2986071 -0.01370909 0.14789025 0.27960977 0.49502045 -0.103702694 0.21736816
0.054241978 0.6804677 0.19149897 0.45838055 0.41888133 -0.027741335 0.061351087 0.038544618
0.3421143 0.030120026 0.09713263 0.10412732 0.07496173 0.0035607957 0.092400014 0.1586401
0.24609064 -0.019369157 -0.10999738 0.31576347 0.060479194 0.30520767 0.02668712 0.15887868
0.13792914 -0.056672897
00000000: d2a1 4cbd e0d4 813e 9425 243e 5089 d23d
00000010: 0c73 8b3d fbd8 9e3d 4ad2 f93d 357c 363d
00000020: 5d55 893d 7f00 f63e 0417 bb3e b0b8 dcbd
00000030: cc92 cebe 3bdf 863d 7712 403e f6d2 5b3f
00000040: 64aa 893e 08e3 983e 179c 60bc 8b70 173e
00000050: 0329 8f3e 5273 fd3e 1462 d4bd c295 5e3e
00000060: d62c 5e3d 2233 2e3f 4e18 443e dbb0 ea3e
00000070: 9d77 d63e cc41 e3bc 474b 7b3d f6e0 1d3d
00000080: 9b29 af3e 46be f63c 79ed c63d b440 d53d
00000090: 8985 993d 3d5c 693b 383c bd3d 8d72 223e
000000a0: 2fff 7b3e 11ac 9ebc 4e46 e1bd c0ab a13e
000000b0: 08b9 773d 2e44 9c3e f29e da3c 18b1 223e
000000c0: 4c3d 0d3e d721 68bd

fc3.weight f4 [1, 50]
-0.07514063 -0.5870721 -0.4245577 0.30146846 0.23857537 0.23797141 0.30684516 0.2028785
0.24606301 -0.6188115 -0.3980395 0.015826222 -0.41607964 0.2740257 -0.5465486 -1.2596546
-0.6317234 -0.50922924 0.20914449 0.23773512 -0.6099702 -0.5923108 -0.024782682 -0.71296257
0.19893911 -0.8828672 0.30849552 -0.79504895 -0.74941397 -0.0011245933 0.23000513 0.22426358
-0.6621499 0.1914712 0.30587912 0.28190917 0.28782082 0.19608127 0.25237617 0.252797
-0.39597493 0.2007866 -0.8936989 -0.527185 0.26300216 -0.6922036 -0.016254697 0.27174124
0.31114212 -0.026111275
00000000: 55e3 99bd 5b4a 16bf a05f d9be 135a 9a3e
00000010: 1a4d 743e c7ae 733e cf1a 9d3e 62bf 4f3e
00000020: f1f7 7b3e 6e6a 1ebf d5cb cbbe fea5 813c
00000030: 6408 d5be 194d 8c3e 9cea 0bbf 5d3c a1bf
00000040: a0b8 21bf d95c 02bf f929 563e d670 733e
00000050: 0227 1cbf aea1 17bf 0d05 cbbc b784 36bf
00000060: b2b6 4b3e 9603 62bf 20f3 9d3e 5488 4bbf
00000070: 98d9 3fbf 1767 93ba 7786 6b3e 5aa5 653e
00000080: a882 29bf 0711 443e 309c 9c3e 6656 903e
00000090: 405d 933e 87c9 483e 7337 813e 9c6e 813e
000000a0: 3abd cabe 019b 4d3e 73c9 64bf 99f5 06bf
000000b0: 38a8 863e 4134 31bf 9228 85bc ab21 8b3e
000000c0: 054e 9f3e 50e7 d5bc
