Radiomics_local_global_framework/models_2/Stochastic Gates_feature_selection/Neural_Network/global_flair_t1ce___local_flair_t1ce/model.pt (torch, 705128 bytes, 7 tensors)

fc1.weight f4 [256, 524]
0	0x3df28239	0.11841244
1	0x3db561aa	0.088565186
2	0xbda59411	-0.08084882
3	0xbe0a435c	-0.13502258
4	0x3e7ea3d5	0.24867184
5	0xbe33d889	-0.1756307
6	0x3e93b527	0.28849146
7	0xbc729a69	-0.014807322
8	0xbe80de1a	-0.2516945
9	0x3dcb9e8f	0.09942352
10	0x3e3de902	0.18545917
11	0x3c31a77f	0.010843157
12	0x3d281ea9	0.041044865
13	0x3e2a69f2	0.16641977
14	0x3df05f83	0.117369674
15	0xbcc645d8	-0.024203226
16	0xbdb03b2a	-0.08605035
17	0xbbb2fcef	-0.005462281
18	0xbe013737	-0.12618719
19	0xbd80de0f	-0.06292354
20	0x3d3f315f	0.046677943
21	0x3d9e7bc3	0.077384494
22	0x3e86d7a5	0.263364
23	0xbd4b017f	-0.049561974
24	0xbd7e3e6c	-0.06207125
25	0x3d6cbf45	0.057799596
26	0x3e1f65b2	0.15566137
27	0x3e14bf67	0.14526139
28	0xbc125ddb	-0.00893351
29	0xbdf97143	-0.12179806
30	0xbe5706c7	-0.20998679
31	0x3cc47338	0.023980722
32	0xbdcb92f4	-0.099401385
33	0xbd35e449	-0.044407163
34	0xbd934708	-0.071912825
35	0x3da01622	0.078167215
36	0xbe02e937	-0.12784277
37	0xbdbd9765	-0.09257392
38	0x3d971e32	0.07378806
39	0xbd4040d3	-0.04693682
40	0xbe952dd7	-0.29136536
41	0xbe8f5bb4	-0.2799965
42	0x3e291c34	0.16514665
43	0xbe59efe8	-0.21282923
44	0x3dde063d	0.108410336
45	0x3e8d1d44	0.2756139
46	0xbe06521f	-0.13117264
47	0xbe9f20b7	-0.31079647
48	0x3da5f1fe	0.08102797
49	0xbdfed0b4	-0.12442151
50	0x3df39508	0.1189366
51	0x3e41818f	0.18897079
52	0x3e1ecff6	0.15509018
53	0xbe3ac0ef	-0.18237661
54	0x3dc0857d	0.09400461
55	0xbd5ed06a	-0.054397978
56	0x3ea32741	0.31865886
57	0x3cc557a8	0.02408965
58	0xbd49eb32	-0.049296565
59	0x3e2c02fa	0.1679801
60	0xbde7c25f	-0.1131637
61	0xba59a86f	-0.00083029916
62	0x3e27ca18	0.16385686
63	0xbdb83639	-0.08994717
64	0x3d99f0ee	0.07516657
65	0x3d25be15	0.04046448
66	0x3ca8c26a	0.020600516
67	0x3dac434d	0.08411274
68	0x3da1c7b2	0.07899417
69	0xbd8c11ec	-0.06839356
70	0x3e0283ee	0.1274564
71	0xbd648c0a	-0.055797614
72	0x3c2a54e8	0.01039622
73	0x3df1decc	0.11810073
74	0xbceffcae	-0.029295292
75	0xbdc4a853	-0.09602418
76	0x3d2979d6	0.041375957
77	0xbd7bbc95	-0.061459143
78	0xbe8c9374	-0.27456248
79	0x3e028053	0.12744264
80	0x3e5b4d91	0.21416308
81	0x3bea0e62	0.007142828
82	0x3e7342a6	0.23755893
83	0x3b86ab7b	0.0041097975
84	0xbdb443d5	-0.088020004
85	0xbdc3b160	-0.09555316
86	0xbdd6f037	-0.10495036
87	0x3d784a95	0.060618002
88	0xbda7c6ac	-0.081921905
89	0x3e0b9ae9	0.13633312
90	0x3c5e35fa	0.013562674
91	0xbdc47fa3	-0.09594657
92	0xbd120ae1	-0.035654906
93	0xbd8b0d3b	-0.06789633
94	0x3d2f4dbf	0.042798754
95	0x3da3bbce	0.07994805
96	0xbd33d95d	-0.043908466
97	0xbcbb5529	-0.022867756
98	0xbd20c6a9	-0.039251957
99	0xbe2007a2	-0.15627912
100	0x3e9f149e	0.31070417
101	0x3ce3c677	0.027804596
102	0xbd51d960	-0.051232696
103	0x3e0b97f4	0.13632184
104	0x3d6bc80f	0.057563838
105	0xbce31890	-0.027721673
106	0xbe666184	-0.22498137
107	0x3dda5422	0.10660578
108	0x3de08463	0.10962751
109	0xbca335bb	-0.019923082
110	0x3e13cd9f	0.14433907
111	0x3c18f6c5	0.009336178
112	0xbe35b51f	-0.17744873
113	0x3e683696	0.22677073
114	0xbe83c602	-0.25737005
115	0x3d173152	0.03691227
116	0x3eba9088	0.36438394
117	0xbe250abc	-0.16117376
118	0xbd75f90d	-0.060051966
119	0x3dd103f2	0.10205831
120	0xbdcf26bf	-0.10114812
121	0x3c39df25	0.011344706
122	0xbd712da8	-0.05888143
123	0x3dc29e8c	0.09502897
124	0xbb8d3727	-0.004309553
125	0x3d451a43	0.04812075
126	0xbe389195	-0.18024285
127	0x3e20ad9f	0.15691231
128	0xbd52ac72	-0.051433988
129	0x3d0ebf1b	0.03485022
130	0x3d8842f9	0.06653399
131	0x3d2eec39	0.04270575
132	0xbd830960	-0.063982725
133	0xbdc766d6	-0.09736411
134	0xbc277b7e	-0.010222314
135	0xbcac63c3	-0.021043664
136	0xbd51e902	-0.051247604
137	0x3e38667d	0.18007846
138	0xbdc4696d	-0.09590421
139	0x3c8d1f87	0.017226947
140	0xbd05dc37	-0.032680716
141	0x3de3ca67	0.111225896
142	0x3db5cc04	0.088768035
143	0xbdebbbfa	-0.11510463
144	0x3daf8f73	0.08572283
145	0xbd98c7d1	-0.07459987
146	0xbdd5a2bc	-0.1043143
147	0x3e371d76	0.17882332
148	0x3d8efadb	0.06981441
149	0x3e985e0f	0.2975926
150	0x3db7c8dc	0.08973858
151	0xbe44bcf3	-0.19212703
152	0xbc726d2d	-0.014796537
153	0xbd9495c8	-0.07255131
154	0xbce7a945	-0.028278956
155	0xbb8a0563	-0.004212068
156	0xbb9db8c8	-0.0048132874
157	0x3e205f76	0.15661415
158	0x3d8bc5c7	0.068248324
159	0x3b00336d	0.0019561902
160	0xbdf7daf0	-0.12102306
161	0xbd92412a	-0.07141335
162	0xbbd6d011	-0.006555565
163	0x3b148366	0.0022661327
164	0xbf333828	-0.7000756
165	0x3e3ead65	0.18620832
166	0x3d785d1c	0.06063567
167	0xbd196f15	-0.03745945
168	0xbe28af06	-0.16473016
169	0xbdb99f11	-0.09063543
170	0xbdb2da18	-0.08733004
171	0x3daca068	0.084290326
172	0xbd97a653	-0.07404771
173	0xbdf5a3ad	-0.11994109
174	0xbce4b7d2	-0.027919684
175	0x3d5a0329	0.05322567
176	0x3da5fc60	0.08104777
177	0xbdd6e7da	-0.10493441
178	0xbd2ad39d	-0.041705716
179	0x3ca88b23	0.020574158
180	0x3d9fdc3d	0.07805679
181	0x3e240ea4	0.1602121
182	0xbd22f302	-0.03978253
183	0xbdd78446	-0.10523276
184	0xbda3bfd2	-0.07995571
185	0x3c6ae888	0.014337666
186	0xbd0ffcf3	-0.03515334
187	0xbde08783	-0.10963347
188	0xbddc2ce6	-0.10750751
189	0xbb90274c	-0.004399216
190	0xbc86f486	-0.01647402
191	0x3d8b133b	0.06790777
192	0xbca63007	-0.020286573
193	0xbc28fc22	-0.010314019
194	0x3c0a60a2	0.008445891
195	0xbd9aa8cf	-0.07551729
196	0x3d6be9e4	0.057596102
197	0xbda828c9	-0.08210904
198	0xbdab632a	-0.083685234
199	0xbe3932ea	-0.18085828
200	0x3c4c7e57	0.012481294
201	0x3dd4b9b9	0.10386986
202	0x3d613381	0.05498076
203	0xbe183d7c	-0.14867204
204	0x3ca2cc01	0.019872667
205	0xbbd9fe45	-0.0066526257
206	0x3de8da1a	0.113697246
207	0x3c8d527c	0.017251246
208	0xbd394395	-0.045230467
209	0x3e65a07e	0.22424504
210	0x3e04d931	0.12973477
211	0xbd81e635	-0.06342737
212	0x3ddff098	0.109345615
213	0x3da8f73d	0.08250282
214	0xbdbbdc2f	-0.09172856
215	0x3de6e59c	0.11274263
216	0xbd2e8235	-0.042604644
217	0x3e06d64b	0.13167684
218	0x3e93191c	0.28730094
219	0x3e35b756	0.17745718
220	0x3d5a54b0	0.05330342
221	0xbda7c5df	-0.08192038
222	0xbe08d9a5	-0.13364275
223	0x3d215795	0.039390165
224	0x3d6edec5	0.05831792
225	0x3e20e73a	0.15713206
226	0xbdab53d2	-0.08365597
227	0xbd5fa21d	-0.054597963
228	0x3dd60d9b	0.10451814
229	0x3d86fba6	0.06590967
230	0x3db32e26	0.087490365
231	0x3dc5675e	0.09638856
232	0xbde131cd	-0.10995827
233	0x3cbc8cb8	0.023016319
234	0x3d520cc4	0.051281705
235	0x3dbbddfe	0.09173201
236	0x3d81aeee	0.06332193
237	0x3ddbe5b5	0.107371725
238	0x3dcee30d	0.101019
239	0xbf63fb80	-0.89055634
240	0xbed53fb7	-0.41650173
241	0x3d9073e1	0.07053352
242	0xbbb127b1	-0.005406343
243	0xbdbdabe1	-0.09261299
244	0xbe891826	-0.26776236
245	0xbdc113f1	-0.09427632
246	0xbd288e28	-0.041151196
247	0x3d62aa8c	0.055338427
248	0xbe14b88b	-0.14523523
249	0xbbb16b90	-0.005414434
250	0x3e2f8d00	0.17143631
251	0x3b8c3a70	0.004279427
252	0x3d72a301	0.059237484
253	0x3e7c83dd	0.24659677
254	0xbeee2879	-0.46515253
255	0x3e9b6f07	0.30358145

fc1.bias f4 [256]
0	0xbe60c633	-0.21950607
1	0xbdd87169	-0.10568506
2	0xbeacf1e3	-0.33778295
3	0xbef5df2f	-0.48021838
4	0xbfd9aa35	-1.7005068
5	0xbf0ba5a3	-0.54549617
6	0xbe834093	-0.25635204
7	0xbec7b90f	-0.39008376
8	0xbec17266	-0.37782592
9	0xbf894671	-1.0724622
10	0xbfaae43d	-1.3350903
11	0xbf358ca9	-0.70917755
12	0xbfdf7f03	-1.7460636
13	0xbe9b906c	-0.30383623
14	0xbfe45bbc	-1.7840495
15	0xbeb948c4	-0.36188328
16	0xbe99ec7a	-0.3006323
17	0xbfa94e80	-1.3227081
18	0xbe6bb066	-0.2301651
19	0xbcf12125	-0.02943475
20	0xbf89161d	-1.0709873
21	0xbf06b96f	-0.526267
22	0xbe302f98	-0.17205656
23	0xbebca410	-0.3684392
24	0xbec49d88	-0.38401437
25	0xbf16228e	-0.58646476
26	0xbf6976ad	-0.9119671
27	0xbf4d8ed2	-0.8029605
28	0xbf832bb4	-1.0247712
29	0xbe04288d	-0.12906094
30	0xbef6b04e	-0.48181385
31	0xbe793f4f	-0.24340557
32	0xbe260b4b	-0.16215245
33	0xbeb62e31	-0.35582116
34	0xbe4cbb5d	-0.19993348
35	0xbf84ceb4	-1.0375581
36	0xbf52e90d	-0.8238686
37	0xbe8858bc	-0.266302
38	0xbe5be683	-0.21474652
39	0xbf54c8d5	-0.83118945
40	0xbdf6a108	-0.12042433
41	0xbeb3980f	-0.3507695
42	0xbe0e9543	-0.13924126
43	0xbe563231	-0.20917584
44	0xbebb8dd3	-0.3663164
45	0xbfee0e6d	-1.8598152
46	0xbf32e908	-0.6988683
47	0xbf01e007	-0.50732464
48	0xbecc59e2	-0.39912325
49	0xbeb06bb6	-0.34457177
50	0xbe7fc20d	-0.24976368
51	0xbe13074c	-0.14358252
52	0xbe3cf0e7	-0.18451272
53	0xc0021999	-2.0328124
54	0xbef67a13	-0.4814001
55	0xbf36810b	-0.71290654
56	0xbf0e3a4d	-0.5555771
57	0xbe6923b2	-0.22767523
58	0xbe7a4a52	-0.24442413
59	0xbffbc482	-1.9669344
60	0xbe918b25	-0.2842647
61	0xbe54bff6	-0.20776352
62	0xbeb1cbe6	-0.34725875
63	0xbf13dc47	-0.5775799
64	0xbf88d9d0	-1.0691471
65	0xbf16da79	-0.5892711
66	0xbef1b191	-0.47205785
67	0xbe58a632	-0.21157148
68	0xbedd140b	-0.43179354
69	0xbe4c5238	-0.19953239
70	0xbea57d1f	-0.32322022
71	0xbf239ded	-0.6391285
72	0xbe04d581	-0.1297207
73	0xbebf9dd8	-0.37425113
74	0xbf15ce52	-0.58517945
75	0xbe2585f4	-0.1616438
76	0xbf46e0ac	-0.7768657
77	0xbe435939	-0.19077004
78	0xbecf237a	-0.40456754
79	0xc00076c7	-2.0072496
80	0xbfc35cc6	-1.5262687
81	0xbf049743	-0.5179331
82	0xbe67d26d	-0.22638865
83	0xbec1e2a6	-0.37868232
84	0xbe87f25c	-0.26552093
85	0xbe394cd2	-0.18095711
86	0xbfbbbcec	-1.4667029
87	0xbe81f8bd	-0.25385085
88	0xbe610915	-0.21976121
89	0xbfbe46e6	-1.4865386
90	0xbec0d0f0	-0.37659407
91	0xbeab168b	-0.33415636
92	0xbf70a626	-0.9400352
93	0xbeaf1bf8	-0.34201026
94	0xbea6ced2	-0.32579666
95	0xbed35cfc	-0.4128188
96	0xbe32e497	-0.17470013
97	0xbf99bab7	-1.2010106
98	0xbfbb2fd0	-1.4623966
99	0xbeaec2e1	-0.34133056
100	0xbe9d7a90	-0.3075757
101	0xbf4e807a	-0.8066479
102	0xbefadab7	-0.4899499
103	0xbe844214	-0.25831664
104	0xbddeefcb	-0.10885581
105	0xbe30eee2	-0.17278627
106	0xbe5d4233	-0.21607284
107	0xbe8bef2d	-0.27330914
108	0xbfde6011	-1.7373067
109	0xbe85ac0b	-0.2610782
110	0xbe482253	-0.19544344
111	0xbe5aec64	-0.21379238
112	0xbec20034	-0.3789078
113	0xbf544305	-0.82914764
114	0xbe1986de	-0.14992854
115	0xbf71f6de	-0.94517314
116	0xbe373a87	-0.1789342
117	0xbede1993	-0.43378887
118	0xbe96a95b	-0.29426083
119	0xbfc58f71	-1.54344
120	0xbe7b7c4b	-0.24559133
121	0xbfca97b4	-1.5827546
122	0xbece5074	-0.40295756
123	0xbf557f72	-0.8339759
124	0xbfc35690	-1.5260792
125	0xbff76fca	-1.933099
126	0xbfdc3078	-1.7202291
127	0xbedabb76	-0.42721146
128	0xbec0f195	-0.37684312
129	0xbe60627e	-0.21912572
130	0xbf273425	-0.6531394
131	0xbf6ecfc6	-0.9328579
132	0xbea2699b	-0.31721196
133	0xbfe9c80a	-1.8264172
134	0xbf4155c8	-0.75521517
135	0xbe8fec64	-0.2811004
136	0xbf299293	-0.6623928
137	0xbed04e34	-0.40684664
138	0xbf421402	-0.7581178
139	0xbe585609	-0.2112657
140	0xbf842977	-1.0325154
141	0xbe897fa3	-0.26855192
142	0xbfacffd9	-1.3515579
143	0xbfc70350	-1.5547886
144	0xbe4d0b44	-0.20023829
145	0xbfed94de	-1.8561056
146	0xbfb4e611	-1.4132711
147	0xbf1f849c	-0.6231172
148	0xbef31a25	-0.47480884
149	0xbf5d6996	-0.86489236
150	0xbe72b889	-0.23703207
151	0xbe18f8b3	-0.14938621
152	0xbf1628e7	-0.5865616
153	0xbddea62f	-0.10871541
154	0xbf97e49a	-1.1866639
155	0xbe3ccfc2	-0.18438628
156	0xbfd9417a	-1.6973107
157	0xbef39de6	-0.47581404
158	0xbeb497d3	-0.35272083
159	0xbeb76905	-0.3582231
160	0xbf8e081d	-1.1096226
161	0xbeff2b54	-0.49837744
162	0xbeac5460	-0.33658123
163	0xbe13de6a	-0.14440313
164	0xbfd1ebee	-1.6400125
165	0xbefdb07f	-0.49548718
166	0xbe7d52f5	-0.24738677
167	0xc009b1de	-2.1514812
168	0xbe9c6a40	-0.30549812
169	0xbe9044cd	-0.2817749
170	0xbf1bc044	-0.6084025
171	0xbfe35585	-1.7760473
172	0xbeb8095e	-0.35944647
173	0xbe0e1674	-0.13875753
174	0xbdd1d14e	-0.10245
175	0xbfec53b7	-1.8463048
176	0xbf0f4b0c	-0.5597389
177	0xbe427088	-0.1898824
178	0xbeeafd3e	-0.45896333
179	0xbf3c0899	-0.7345062
180	0xbeb5857d	-0.35453406
181	0xbf08464c	-0.53232265
182	0xbe28b9ef	-0.16477178
183	0xbe282622	-0.16420797
184	0xbfa4804b	-1.2851652
185	0xbec3c320	-0.38234806
186	0xbea9cc4e	-0.33163685
187	0xbf928a24	-1.1448407
188	0xbeab0e92	-0.33409554
189	0xbf2890cd	-0.6584595
190	0xbeef6fe7	-0.46765062
191	0xbf2eac86	-0.68232
192	0xbffe0f8a	-1.9848492
193	0xbe9c1d58	-0.30491138
194	0xbefff0ff	-0.49988553
195	0xbfd21c39	-1.6414863
196	0xbeb7287d	-0.35773078
197	0xc001ea4b	-2.029925
198	0xbf4ed651	-0.8079577
199	0xbe12c7b3	-0.14333992
200	0xbfef7644	-1.8707967
201	0xbfc38eaa	-1.5277913
202	0xbe810f7e	-0.25207132
203	0xbee09785	-0.438656
204	0xbf78b7c3	-0.971554
205	0xbed47739	-0.4149721
206	0xbee21b08	-0.44161248
207	0xbe5d1fdd	-0.21594186
208	0xbed6b110	-0.41931963
209	0xbffed914	-1.9909997
210	0xbe9b0520	-0.30277348
211	0xbe8570d4	-0.26062644
212	0xbe7e8f1a	-0.24859276
213	0xbed3dd5a	-0.41379815
214	0xbeaacf9d	-0.3336152
215	0xbfd24d1e	-1.6429784
216	0xbf634425	-0.88775855
217	0xbfeb3926	-1.8376815
218	0xbe512f9a	-0.20428315
219	0xbd965ebd	-0.07342289
220	0xbf84f8ff	-1.0388488
221	0xbe994778	-0.2993734
222	0xbd21ed10	-0.03953272
223	0xbeac5fd5	-0.33666864
224	0xbe79dc9b	-0.2440056
225	0xbe89a10c	-0.26880682
226	0xbe944597	-0.28959343
227	0xbe7e9d81	-0.2486477
228	0xbe55015d	-0.20801301
229	0xbf37d0c0	-0.718029
230	0xbe37cbaf	-0.17948793
231	0xbe13102d	-0.1436164
232	0xbeecf559	-0.46280935
233	0xbe6c79ec	-0.23093385
234	0xbfd697a1	-1.6765023
235	0xbe8601cf	-0.26173255
236	0xbe9baa29	-0.3040326
237	0xbfefb307	-1.872651
238	0xbe7824db	-0.24232809
239	0xbe29ec77	-0.1659411
240	0xbfcd681f	-1.60474
241	0xbf11f467	-0.57013553
242	0xbe9e0836	-0.3086564
243	0xbf7a3c5a	-0.9774834
244	0xbf12cb1f	-0.5734119
245	0xbe69d9b4	-0.22836953
246	0xbe7e6d84	-0.24846464
247	0xbe83912c	-0.25696695
248	0xbf1ca43d	-0.6118811
249	0xbf12b627	-0.5730919
250	0xbfc534e5	-1.5406767
251	0xbfd72fa8	-1.6811419
252	0xbf8f563b	-1.119819
253	0xbff28624	-1.8947186
254	0xbff526cd	-1.9152466
255	0xbfe44e82	-1.7836459

fc2.weight f4 [128, 256]
0	0x3db1abb1	0.08675326
1	0x3ddb7f24	0.107176095
2	0x3cd58a5b	0.02606695
3	0xbad77c3a	-0.0016440221
4	0xbd46c353	-0.04852612
5	0xbc3eca05	-0.011644845
6	0x3e76327e	0.24042699
7	0x3ded59b2	0.11589374
8	0x3c5377ce	0.012906982
9	0x3d01272a	0.03153149
10	0xbd61c8ea	-0.055123247
11	0xbd371f87	-0.0447078
12	0x3c93420b	0.017975828
13	0x3c3d19d0	0.011541799
14	0xbd0e92a2	-0.03480781
15	0xbd4d5797	-0.05013236
16	0x3de44baf	0.11147248
17	0x3d03ced5	0.032179672
18	0x3db30158	0.08740491
19	0x3dfbba16	0.122913525
20	0x3d171e9d	0.03689443
21	0x3d823a54	0.063587815
22	0xbc8a9a67	-0.016919328
23	0x3df5d0fc	0.12002751
24	0x3d9af215	0.07565705
25	0x3d0f36e3	0.034964453
26	0xbd5e7e35	-0.05431958
27	0xbc6aa128	-0.014320649
28	0xbd14ef34	-0.036360934
29	0x3e2a7e73	0.16649799
30	0xbc7a7262	-0.01528606
31	0x3dc0fdac	0.09423384
32	0x3df15942	0.11784603
33	0x3d27d4cc	0.040974423
34	0x3e197cf6	0.14989075
35	0x3c51b1c2	0.012798728
36	0x3c8a0da2	0.016852204
37	0x3de73807	0.11289983
38	0x3dc21c70	0.0947808
39	0x3d41485d	0.04718815
40	0x3d9b6d70	0.07589233
41	0x3de96dfa	0.113979295
42	0x3e538711	0.20656992
43	0x3dc8bd31	0.098017104
44	0x3d3e9b1b	0.04653464
45	0xbcb433df	-0.02199739
46	0xbd7eb74b	-0.06218652
47	0xbc31b159	-0.010845506
48	0x3e0813b2	0.13288763
49	0x3cc2353c	0.023707025
50	0x3ddf92eb	0.10916694
51	0x3e27ba2c	0.16379613
52	0x3e2886d5	0.16457684
53	0x3ca68521	0.020327153
54	0xbd267f6e	-0.04064887
55	0x3c15f0a2	0.00915161
56	0xbce29a8b	-0.027661582
57	0x3e49d5f2	0.1971052
58	0x3de2202f	0.11041295
59	0xbcc32efd	-0.023826117
60	0x3d9c725b	0.07638999
61	0x3e1ea732	0.15493467
62	0xbd0c24a2	-0.034214623
63	0xbce9e4db	-0.02855151
64	0x3ccfbfb7	0.025359971
65	0x3ab23948	0.0013597393
66	0x3c9fc2ca	0.019502062
67	0x3dddd74d	0.10832081
68	0x3c0aa5af	0.008462354
69	0x3dd7dcf7	0.105401926
70	0x3d9921c1	0.07477141
71	0xba67200b	-0.00088167255
72	0x3db272a4	0.08713272
73	0x3e0183d0	0.12647939
74	0xbd4bae1a	-0.049726583
75	0x3ca5d6d3	0.020244038
76	0xbc050ffd	-0.008121488
77	0x3e331f97	0.1749252
78	0x3dfadcf6	0.12249176
79	0xbcf11722	-0.029429976
80	0x3cca8064	0.024719425
81	0x3dda9bef	0.10674273
82	0x3de785ed	0.11304841
83	0xbcde355f	-0.027125059
84	0x3d6043d8	0.0547522
85	0xbb45b213	-0.0030165955
86	0xbd885ac6	-0.06657939
87	0x3cf7e5c9	0.030260937
88	0x3ce094f0	0.027414769
89	0xbcfd4484	-0.03091646
90	0x3d4c4c16	0.04987725
91	0x3e50f88e	0.20407316
92	0x3c99c60f	0.0187712
93	0x3d4e0208	0.050294906
94	0x3d1568c5	0.03647687
95	0x3d7bfe8c	0.06152205
96	0x3e10a2c8	0.14124596
97	0x3cd66cc9	0.02617492
98	0x3d464dd9	0.048414085
99	0x3db27911	0.08714498
100	0x3de7823f	0.11304139
101	0x3c82e669	0.015979009
102	0xbb99a41e	-0.0046887537
103	0x3dbbaf2c	0.09164271
104	0x3d982fd6	0.07430999
105	0x3d662b63	0.05619372
106	0x3e61c89d	0.22049184
107	0x3d14b249	0.03630284
108	0x3d410852	0.047127075
109	0x3dfcb7df	0.12339758
110	0x3e608578	0.21925914
111	0x3e5220d8	0.20520341
112	0x3e44423a	0.19165888
113	0xbcfde1fc	-0.030991547
114	0x3d8d9f8c	0.06915197
115	0xbacf9c68	-0.0015839459
116	0x3bf84c3a	0.0075774463
117	0x3da4f83e	0.08055161
118	0x3da3d782	0.08000089
119	0xbd579c37	-0.052639212
120	0x3dab1895	0.08354298
121	0x3badac17	0.0053000557
122	0xbce50dbc	-0.02796065
123	0xbd6ce5dd	-0.057836402
124	0x3d182b83	0.03715087
125	0xbceb64b3	-0.02873454
126	0xbb952d54	-0.0045525227
127	0x3d9c482d	0.07630954
128	0x3c8c6c5f	0.01714152
129	0x3e027d16	0.12743029
130	0xbc862db3	-0.016379213
131	0x3ccd0af3	0.025029635
132	0x3d31ce4e	0.043409638
133	0xbc4fdbb4	-0.012686659
134	0xbc80d8f9	-0.01572846
135	0x3af0dad8	0.0018375767
136	0xbd4fc0a9	-0.050720844
137	0x3e58efb6	0.21185192
138	0x3bfff777	0.0078114825
139	0x3d3ee248	0.046602517
140	0x3d538118	0.051636785
141	0x3e6b1924	0.22958809
142	0xbccb1797	-0.024791522
143	0x3d0acdd4	0.0338877
144	0x3cee42e7	0.029084636
145	0x3d4793ef	0.048725065
146	0x3d1477a7	0.036246922
147	0x3c3a302d	0.011364025
148	0xbd235ff6	-0.039886437
149	0x3d128ef2	0.035780855
150	0x3e6a4d25	0.22880991
151	0x3ca7a00a	0.020462055
152	0x3d3a817c	0.045533642
153	0x3e8c8ab9	0.27449587
154	0x3d29142f	0.041279014
155	0x3e089f32	0.13341978
156	0x3c1c6014	0.009544391
157	0xbd27b666	-0.040945433
158	0x3e23ee14	0.16008788
159	0x3e36c304	0.1784783
160	0x3d267b70	0.040645063
161	0x3daf4250	0.0855757
162	0x3cb83e23	0.022490567
163	0x3e0fdd39	0.14049233
164	0x3d078d9e	0.03309404
165	0xbd02b4cc	-0.031910703
166	0x3d84a324	0.06476429
167	0x3caeb7e5	0.021327922
168	0x3e028e03	0.12749486
169	0x3e44a846	0.19204816
170	0x3d93e584	0.07221511
171	0x3c3ffec9	0.01171846
172	0xbd3efe08	-0.04662898
173	0x3d958dc5	0.07302431
174	0xbb09bb53	-0.0021016195
175	0xbd8e7ca4	-0.06957367
176	0x3cf13233	0.029442882
177	0x3dbfe1bc	0.09369227
178	0xbd113dd8	-0.03545937
179	0x38f3d89c	0.000116274896
180	0x3df52540	0.119699955
181	0x3d3a9c25	0.045559067
182	0x3c7ce594	0.015435595
183	0x3e8da88c	0.27667654
184	0x3cb6cf44	0.022315629
185	0x3d630718	0.055426687
186	0x3de44889	0.111466475
187	0xb9995e78	-0.0002925282
188	0x3d491802	0.04909516
189	0x3c99b08d	0.018760944
190	0xbc585e81	-0.013206125
191	0x3c72cd8b	0.014819513
192	0xbd782bfb	-0.060588818
193	0xbc85df7b	-0.016341915
194	0x3d2b817f	0.041871544
195	0x3d28491e	0.041085355
196	0x3d65dfca	0.056121625
197	0x3af14e91	0.0018410255
198	0x3bf1149e	0.007357194
199	0x3e0c1167	0.13678513
200	0xbd1b1618	-0.037862867
201	0xbcb065f3	-0.021532988
202	0x3d95f3c9	0.07321889
203	0x3cd80dc3	0.02637375
204	0xbd222798	-0.03958854
205	0x3dcc2efb	0.09969898
206	0x3e0df72d	0.13863821
207	0x3e047913	0.12936811
208	0xbba388c0	-0.004990667
209	0x3d246792	0.040137835
210	0x3cc5aa55	0.024129072
211	0x3e2936cc	0.1652481
212	0x3e154eee	0.1458089
213	0x3d2fd329	0.042925987
214	0xbd2cb41f	-0.042163964
215	0x3d077ad4	0.033076122
216	0x3cd397ce	0.025829222
217	0x3d37e865	0.044899363
218	0x3d4fcca0	0.050732255
219	0x3e2471e0	0.16059065
220	0x3d1859c7	0.037194993
221	0x3deaeac6	0.11470561
222	0x3de96014	0.113952786
223	0x3e988d2e	0.29795212
224	0x3c4143ba	0.011795932
225	0x3d75061e	0.059820287
226	0x3ce408ab	0.027836164
227	0x3cf859c4	0.030316241
228	0x3d9b952d	0.075968124
229	0xbd40806a	-0.046997465
230	0x3dc84e6b	0.09780582
231	0x3e122e4f	0.14275478
232	0x3d073d05	0.033017177
233	0x3da57840	0.080795765
234	0xbd4a3d29	-0.049374733
235	0x3d0404b0	0.032231033
236	0xbc008c04	-0.007845882
237	0xbd0f4048	-0.034973413
238	0x3d3fe09f	0.046845075
239	0x3bd0eda3	0.0063759848
240	0x3cf416dd	0.029796058
241	0xbcc0f2f5	-0.023553351
242	0x3c210923	0.0098288385
243	0xbd547346	-0.051867746
244	0x3d8bd239	0.06827206
245	0x3e4eefa5	0.20208605
246	0x3dd6ec9f	0.10494351
247	0x3d8f7196	0.07004087
248	0xbd627bcf	-0.055293854
249	0x3cc713f5	0.024301508
250	0x3d39d04a	0.045364656
251	0x3c96fb16	0.018430274
252	0x3d2bc09b	0.04193173
253	0xbcff5750	-0.031169564
254	0xbd447fe4	-0.04797353
255	0xbd709e98	-0.058744997

fc2.bias f4 [128]
0	0x3e086e6c	0.13323373
1	0x3db800e3	0.08984544
2	0xbda26b8d	-0.0793067
3	0x3e2b1d70	0.16710448
4	0x3e73ee4e	0.23821375
5	0x3e700740	0.23440266
6	0xbd9cd6da	-0.07658167
7	0x3e8ac01a	0.27099687
8	0x3e500182	0.20313075
9	0x3e2af62e	0.16695473
10	0xbca2199a	-0.019787598
11	0x3e4baa1e	0.19889113
12	0x3e252239	0.16126336
13	0x3e2b7349	0.16743197
14	0x3e80da48	0.25166535
15	0x3e464696	0.19362864
16	0x3e36f5ed	0.1786725
17	0xbdddff66	-0.10839729
18	0x3e063510	0.13106179
19	0x3df75990	0.120776296
20	0x3e355400	0.17707825
21	0x3e6cd33e	0.23127457
22	0x3dec4d03	0.11538126
23	0xbcdb6f2a	-0.026786406
24	0x3e706bc2	0.23478606
25	0x3e480dd6	0.19536528
26	0x3e415472	0.1887987
27	0xbca35adc	-0.019940786
28	0xbe0d51d5	-0.13800748
29	0xbddd2cca	-0.107995585
30	0x3d443855	0.047905285
31	0x3e3ba6ec	0.18325394
32	0x3e21dc67	0.15806733
33	0x3e44fe33	0.19237594
34	0x3e3269cd	0.17423172
35	0x3d8cfbe8	0.06883985
36	0xbed6dd8a	-0.41965896
37	0xbddea5f1	-0.108714946
38	0x3dbd0c83	0.09230902
39	0xbcfe8600	-0.031069756
40	0xbccefaf9	-0.025266157
41	0x3e58b702	0.21163562
42	0x3e654756	0.22390494
43	0x3e5a99f7	0.21347795
44	0x3e554a5f	0.20829152
45	0x3e188285	0.14893539
46	0x3e2b0dbe	0.16704461
47	0x3d6eaea5	0.058272023
48	0x3e0dbb92	0.13841084
49	0x3decad7d	0.11556528
50	0x3e66a0be	0.22522256
51	0x3eb4c526	0.35306662
52	0x3e177074	0.14788991
53	0x3e24ab72	0.16081026
54	0xbe9dd891	-0.3082929
55	0xbe7afff9	-0.24511708
56	0x3e4e4391	0.20142962
57	0x3e07ac7f	0.13249396
58	0x3eb1f75c	0.34759033
59	0x3de14b30	0.11000669
60	0xbd3a2103	-0.04544164
61	0x3ec43ffc	0.38330066
62	0x3d8c6de5	0.06856898
63	0x3e3db153	0.18524675
64	0x3e366b52	0.17814377
65	0x3d20d466	0.03926506
66	0x3e48db28	0.19614851
67	0x3de125da	0.10993548
68	0x3e5e2bfd	0.21696468
69	0x3e5fe94e	0.21866342
70	0xbec41b75	-0.38302198
71	0xbcfcde20	-0.030867636
72	0x3e80d8d9	0.25165442
73	0x3d130218	0.03589067
74	0x3dd70150	0.10498297
75	0x3e16a21e	0.1471028
76	0x3e6be8ab	0.23037975
77	0x3e620018	0.22070348
78	0x3e28ab9e	0.16471717
79	0x3e802b78	0.25033164
80	0x3e01b147	0.12665282
81	0x3e6c2e94	0.23064643
82	0xbdaada62	-0.083424345
83	0x3e54d76b	0.207853
84	0x3da77b80	0.08177853
85	0x3e5edcc4	0.21763903
86	0xbde373b0	-0.1110605
87	0x3e364aab	0.17801921
88	0x3e3abe16	0.18236575
89	0x3ea025ad	0.31278744
90	0x3e38c36d	0.18043299
91	0x3e16eb5a	0.14738217
92	0xbe87388f	-0.26410338
93	0x3e0282f7	0.12745272
94	0x3e3e8727	0.18606244
95	0x3f3c722f	0.7361173
96	0x3cb90fe4	0.022590585
97	0xbd4940e1	-0.04913414
98	0x3e86d279	0.26332453
99	0x3dab9b08	0.08379179
100	0xbc94ba8e	-0.018155362
101	0xbe827a6f	-0.25484034
102	0x3e61bdc5	0.22045048
103	0x3e910346	0.2832281
104	0x3e4bf30d	0.19916935
105	0x3e46cbe8	0.19413722
106	0x3e1cab79	0.15299787
107	0x3e09531c	0.1341061
108	0x3e7621e9	0.24036373
109	0x3d9f1ad1	0.07768787
110	0x3e204c39	0.15654077
111	0x3e1e4dc0	0.15459347
112	0x3e6d32a4	0.23163849
113	0x3e55800e	0.2084963
114	0x3ed9161b	0.42399678
115	0x3c3d3fd9	0.011550867
116	0x3e71c42f	0.23609994
117	0x3ddd9e8a	0.108212546
118	0x3e876cd9	0.26450232
119	0x3e4c14aa	0.19929758
120	0x3e3e63da	0.18592778
121	0x3e5919cf	0.21201251
122	0x3e443898	0.19162214
123	0x3ddfdc86	0.109307334
124	0x3e309daa	0.17247644
125	0x3e83e510	0.25760698
126	0x3e5a74f0	0.2133367
127	0x3e601a4c	0.21885031

fc3.weight f4 [64, 128]
0	0x3b332777	0.0027336755
1	0x3c0472fd	0.008084056
2	0xbda17df6	-0.07885353
3	0xbd02a89a	-0.031899072
4	0x3d04872d	0.032355476
5	0x3d4bcaf2	0.04975409
6	0xbd814ecd	-0.06313858
7	0xbc0e2c8f	-0.008677616
8	0xbd8c2c4c	-0.068443865
9	0x3cbc4830	0.02298364
10	0xbb30c6c0	-0.0026973933
11	0x3d909135	0.07058946
12	0x3d3627dd	0.04447161
13	0xbc0c7f19	-0.008575224
14	0x3c1de263	0.009636494
15	0xbd96e45f	-0.07367777
16	0xbc6c534b	-0.0144241555
17	0x3da0e40e	0.07855998
18	0x3d09cab5	0.033640582
19	0xbcf7bcbf	-0.030241368
20	0x3d8e1b18	0.069387615
21	0x3d5ac87e	0.05341386
22	0xbd878240	-0.0661664
23	0xbd46b89f	-0.048515912
24	0xbdb707b0	-0.08937013
25	0xbd1d5b7a	-0.038417317
26	0xbcd0698d	-0.025440956
27	0x3d4f901b	0.05067454
28	0xbd0b13f4	-0.033954576
29	0xbcec11ad	-0.028817022
30	0xbd195cc9	-0.037442002
31	0x3d2546c3	0.040350687
32	0xbd1cfeb6	-0.03832885
33	0xbd8017eb	-0.06254562
34	0x3a33e69d	0.0006862672
35	0xbd608c0d	-0.054821063
36	0x3cc07b1e	0.023496207
37	0x3d4a7908	0.04943183
38	0xbd14ee49	-0.03636006
39	0xbd9cb9f6	-0.07652657
40	0xba42446c	-0.00074107083
41	0xbcb3c71f	-0.021945534
42	0x3c5d6925	0.013513838
43	0x3d69e9d6	0.05710777
44	0x3d23d7d3	0.040000748
45	0xbdc56dc5	-0.096400775
46	0xbd92c147	-0.07165771
47	0x3ca13424	0.019678183
48	0xbc4f1b55	-0.012640794
49	0x3d2dcbd9	0.042430732
50	0xbdb2944b	-0.08719691
51	0xbd0d27a1	-0.03446162
52	0xbda811e5	-0.08206538
53	0x3c98e52b	0.018663963
54	0xba0f609b	-0.00054694124
55	0x3b0148c1	0.0019727203
56	0x3d17a57b	0.03702305
57	0xbd7f1748	-0.062278062
58	0xbc56f54e	-0.013120009
59	0x3d83115f	0.06399798
60	0x3cc358ac	0.023845993
61	0x3b29537f	0.002583712
62	0x3d4e3dc3	0.05035187
63	0xbd9ed58d	-0.07755575
64	0x3b9288d5	0.004471878
65	0xbcf50252	-0.029908333
66	0xbdab656c	-0.08368954
67	0x3d549e2d	0.05190866
68	0xbda9d256	-0.082920715
69	0x3c0be4a9	0.008538404
70	0xbd0e00c6	-0.034668706
71	0x3d4bf5c0	0.049794912
72	0x3cef984c	0.029247425
73	0x3c1aba7a	0.009443874
74	0xbd6cb174	-0.05778642
75	0xbd2da37a	-0.04239223
76	0xbb941664	-0.0045192707
77	0x3c2df45f	0.010617345
78	0xbd10cfa1	-0.03535426
79	0x3d0495ff	0.03236961
80	0x3be0fea4	0.006866293
81	0x3b2cb5e1	0.0026353525
82	0x3c63a051	0.013893203
83	0xbd942ada	-0.07234736
84	0x3da2caab	0.07948812
85	0xbaa20fee	-0.0012364367
86	0x3da04813	0.07826247
87	0x3bd531ef	0.0065061967
88	0xbc936fa0	-0.017997563
89	0x3cde0d1d	0.027105862
90	0xbd428db0	-0.047498405
91	0xbdb86eb3	-0.09005489
92	0xbca03c19	-0.019559907
93	0xbd8b7929	-0.06810219
94	0xbdc6e5a6	-0.09711771
95	0xbc0f499e	-0.008745579
96	0x3d0fc3f6	0.035098992
97	0xbd615412	-0.055011816
98	0x3cabb663	0.020960992
99	0x3d97323b	0.073826276
100	0x3c68cfb0	0.014209673
101	0xbc3be3ff	-0.011467933
102	0x3bf9ddaf	0.0076253037
103	0x3d47acde	0.048748843
104	0x3bf99c5f	0.007617518
105	0x3d446d89	0.047956023
106	0x3d99d821	0.075119264
107	0xbd9aa4da	-0.07550974
108	0x3d6acc18	0.057323545
109	0xbd4c9566	-0.049947165
110	0x3d90d0e7	0.07071095
111	0x3cb5db0e	0.02219918
112	0x3d60021f	0.054689523
113	0xbca5f76d	-0.020259583
114	0xbd070d75	-0.032971818
115	0x3d422adb	0.04740415
116	0xbce753a9	-0.028238134
117	0x3d2450f2	0.040116258
118	0xbcc773d5	-0.024347225
119	0xbd595d9e	-0.053067796
120	0x3d918f12	0.071073666
121	0xbd38afe1	-0.045089606
122	0xbd83a806	-0.06428532
123	0xbdcb0085	-0.099122085
124	0x3c0aa052	0.008461075
125	0x3d03349d	0.032032598
126	0xbc017aa1	-0.007902772
127	0xbc8c6ac7	-0.01714076
128	0xbcc35862	-0.023845855
129	0x3d914a81	0.070942886
130	0xbd120654	-0.035650566
131	0x3b2c7626	0.002631554
132	0x3d4464c9	0.04794768
133	0x3d9d23c9	0.07672841
134	0x3d233e4d	0.039854337
135	0x3b6a59cb	0.0035759087
136	0x3d635844	0.0555041
137	0x3d7c1d4b	0.061551373
138	0x3d79fb9d	0.061030973
139	0x3d0b9174	0.03407426
140	0xbd2f4a51	-0.042795483
141	0xbdb90bb2	-0.09035434
142	0xbcc086d8	-0.023501799
143	0x3d8801ae	0.066409454
144	0xbbac33b6	-0.005255188
145	0x3d45edc3	0.04832245
146	0xbd878df9	-0.06618876
147	0xbd0bd7e9	-0.034141455
148	0xb9c28392	-0.0003710059
149	0xbd8e70cd	-0.06955109
150	0xbca621cd	-0.02027979
151	0x3b2f1761	0.0026716816
152	0xbc92c24e	-0.017914917
153	0xbd3c3ded	-0.045957495
154	0xbd943663	-0.07236936
155	0xbd3f5c95	-0.046719152
156	0xbd4572d4	-0.04820521
157	0xbd987683	-0.07444479
158	0xbd6cea49	-0.05784062
159	0x3d9335ab	0.07187971
160	0x3d6ebc1b	0.05828486
161	0x3c8d0c33	0.017217731
162	0xbd9d5250	-0.076817155
163	0xbd0edd0f	-0.034878787
164	0xbd80ae56	-0.06283252
165	0x3c9307fc	0.017948143
166	0xbd132797	-0.035926428
167	0x3d503417	0.050830927
168	0x3d6832d3	0.056689095
169	0xbacd79ad	-0.0015676521
170	0x3d741528	0.05959049
171	0xbdacf115	-0.0844442
172	0x3d928fe3	0.071563505
173	0x3d03e0f9	0.032196973
174	0x3ca8b750	0.020595223
175	0xbc80d144	-0.015724786
176	0x3d73870a	0.059454955
177	0xbca63f5b	-0.020293882
178	0x3d98f6c3	0.07468941
179	0xbd80f4cb	-0.062966906
180	0xbd3b4168	-0.045716673
181	0x3cc0fbdf	0.023557601
182	0x3d4ee6cf	0.050513085
183	0xbd0cdc55	-0.034389812
184	0xbc3a5197	-0.011371992
185	0x3d7a411f	0.06109726
186	0x3ce0fc76	0.027464133
187	0xbd9c6af3	-0.076375864
188	0x3d65223b	0.055940848
189	0xbd1ce54f	-0.038304623
190	0x3d604645	0.054754514
191	0x3d469dd9	0.04849038
192	0xbcedb717	-0.029017968
193	0xbd44270c	-0.0478888
194	0xbd014d86	-0.031568073
195	0x3b925d80	0.0044667125
196	0xbd807f71	-0.062743075
197	0xbce6cea2	-0.028174702
198	0x3c754cda	0.014971936
199	0x3cfc797a	0.030819643
200	0x3ca932c7	0.020654095
201	0x3cb4acdd	0.022055084
202	0xbd172906	-0.036904357
203	0xbd99046f	-0.07471549
204	0x3b6bc8bc	0.0035977801
205	0xbc5c9c6f	-0.013465031
206	0xbd1850fe	-0.037186615
207	0x3cef43f5	0.02920721
208	0xbd6597bf	-0.05605292
209	0xbd9b215b	-0.075747214
210	0x3d5ca212	0.0538655
211	0xbc4562b5	-0.012047459
212	0xbc1ca697	-0.0095612025
213	0xbd1611a6	-0.036637925
214	0xbd597a0f	-0.05309492
215	0x3c7c64ff	0.015404939
216	0xbcd575e9	-0.0260572
217	0xbd9bc980	-0.076067924
218	0xbcc3403a	-0.023834337
219	0x3c8b9633	0.017039394
220	0x3d4d9ace	0.05019646
221	0xbd904d10	-0.070459485
222	0x3d4d5870	0.05013317
223	0xbd9120cc	-0.07086334
224	0xba40e228	-0.00073579187
225	0x3d534e46	0.05158832
226	0xbd111e55	-0.035429318
227	0xbca64a8e	-0.020299222
228	0x3d00da09	0.031457935
229	0x3d995f1b	0.07488843
230	0x3cb2382d	0.021755302
231	0x3d95f79a	0.07322617
232	0xbdb8fc32	-0.090324774
233	0x3be0a422	0.0068555037
234	0xbdb5ebcd	-0.08882866
235	0xbd15242b	-0.036411446
236	0xbd9d0dcc	-0.07668647
237	0x3d8748b6	0.066056654
238	0x3d65e17e	0.05612325
239	0xbdbb14c5	-0.09134821
240	0x3cf2a633	0.029620266
241	0x3d2418f8	0.040062875
242	0x3c5e4228	0.013565578
243	0xbd8027a7	-0.06257563
244	0x3c45a061	0.012062163
245	0x398b0c25	0.00026521194
246	0x3d98f6b3	0.07468929
247	0xbd6a847c	-0.057255253
248	0xbd64282f	-0.055702385
249	0xbcfc387e	-0.030788656
250	0xbd2e21ff	-0.04251289
251	0xbd2c813e	-0.042115442
252	0x3d998da6	0.074977204
253	0x3d511ab8	0.05105087
254	0x3d944e04	0.07241443
255	0xbd93d2e8	-0.072179615

fc3.bias f4 [64]
0	0x3cd9b772	0.026576731
1	0x3d20ef20	0.039290547
2	0x3ec4df81	0.3845177
3	0xbc9619ed	-0.01832291
4	0x3ee54333	0.4477783
5	0x3c8a3fb7	0.016876085
6	0xbd1fe9a1	-0.039041165
7	0x3d941b93	0.07231822
8	0x3ea8c360	0.3296156
9	0x3ee33eeb	0.4438394
10	0xbd7f5965	-0.062341113
11	0xbca410ab	-0.02002748
12	0x3efea57c	0.4973563
13	0xbdb42b36	-0.08797304
14	0x3d7618a6	0.0600821
15	0x3e8bce05	0.27305618
16	0x3bbcb2bc	0.0057586115
17	0x3d9829c5	0.07429842
18	0xbd24527b	-0.040117722
19	0x3d7c69a2	0.061624177
20	0x3e8bbba9	0.2729161
21	0x3ecc233f	0.3987064
22	0xbd5df2b1	-0.054186527
23	0x3eaf95b3	0.342939
24	0x3da07fb7	0.0783686
25	0xbdae912c	-0.08523783
26	0x3e1a9558	0.15096033
27	0xbdc89424	-0.097938806
28	0xbc9c8cdc	-0.019110136
29	0x3d8b2687	0.06794458
30	0x3ccc9436	0.024973016
31	0x3ed1306b	0.40857252
32	0x3ed2ce9c	0.41173255
33	0x3ed3c8ba	0.4136408
34	0x3e37e32f	0.17957757
35	0xbd9692b1	-0.07352198
36	0x3cb27937	0.021786315
37	0x3d9ae9bc	0.075641125
38	0x3d92a28c	0.071599096
39	0x3e6032ab	0.21894328
40	0x3d9157bd	0.07096813
41	0x3bef778c	0.0073079523
42	0x3eea9d29	0.4582303
43	0x3ed08a3d	0.40730467
44	0xbdc62517	-0.09675043
45	0xbb8bc2cf	-0.0042651664
46	0x3e6e73cd	0.23286362
47	0x3ea2a67b	0.3176764
48	0x3ed2f353	0.41201267
49	0x3ebc5c87	0.36789343
50	0x3e8242fe	0.25441736
51	0x3edc0b43	0.42977342
52	0x3cef3cb6	0.029203754
53	0x3eb79ff2	0.35864216
54	0xbd9891d4	-0.074496895
55	0x3d4d54da	0.05012975
56	0x3e683417	0.2267612
57	0x3ed14f7c	0.40880954
58	0x3e10444b	0.14088552
59	0x3c202143	0.009773555
60	0xbc78fb93	-0.015196699
61	0x3d9f81a2	0.07788397
62	0xbd98e5b2	-0.07465686
63	0x3ea0994f	0.31366965

fc4.weight f4 [1, 64]
0	0xbd7ed4c1	-0.062214617
1	0xbdd38318	-0.103277385
2	0x3dcd6969	0.10029871
3	0xbc85bb64	-0.016324706
4	0x3db2981a	0.08720417
5	0xbd829489	-0.06375987
6	0xbbf6a123	-0.007526533
7	0xbd0bda06	-0.03414347
8	0x3de40037	0.111328535
9	0x3db4f2d1	0.08835376
10	0xbd9c476d	-0.07630811
11	0x392d9ea2	0.00016557661
12	0x3e1a4206	0.15064248
13	0xbcba1027	-0.02271278
14	0xbd665f3b	-0.056243163
15	0x3cfa0528	0.030520037
16	0xbd8b35d3	-0.067973755
17	0xbdc02738	-0.093824804
18	0xbc813754	-0.015773453
19	0x3a8995fd	0.001049697
20	0xb8ec3b47	-0.00011264398
21	0x3dde3c36	0.10851328
22	0xbb4bf52e	-0.003112148
23	0x3d4c68df	0.0499047
24	0xbda5031f	-0.08057236
25	0xbd18c7e3	-0.0373
26	0x3bbad657	0.005701821
27	0xbd7c5868	-0.06160775
28	0xbd8bab79	-0.06819815
29	0xba9c8fb7	-0.0011944686
30	0xbd8454fa	-0.064615205
31	0x3d9a55fe	0.07535933
32	0x3dbc7333	0.0920166
33	0x3e0cb79b	0.13741915
34	0xbaf8c405	-0.0018979317
35	0xbc634967	-0.013872481
36	0xbcbd06e7	-0.02307458
37	0xbd0d7892	-0.034538813
38	0xbbf37d3b	-0.0074307
39	0x3a2c39d9	0.0006569899
40	0xbcd66c70	-0.026174754
41	0xbde2d348	-0.11075455
42	0x3dd4321c	0.1036112
43	0x3de337c9	0.110946245
44	0xbd519412	-0.0511666
45	0xbdd93eec	-0.106077045
46	0x3af74549	0.0018865253
47	0x3d874fef	0.06607043
48	0x3d379ee4	0.044829264
49	0x3d541e7e	0.051786892
50	0x3cc7c87b	0.024387589
51	0x3dd02344	0.101629764
52	0xbdba3988	-0.090930045
53	0x3e0da753	0.1383336
54	0xbc9a8272	-0.01886103
55	0xbde757d8	-0.11296052
56	0x3aaeaec5	0.0013327232
57	0x3d88225d	0.06647179
58	0xbcfae84c	-0.030628346
59	0x3d17dcd5	0.037075836
60	0xbd429f72	-0.04751534
61	0xbdd49e5d	-0.10381768
62	0xbd80941d	-0.0627825
63	0x3dd1c1cb	0.10242041
