Radiomics_local_global_framework/models/Stochastic Gates_feature_selection/Neural_Network/global_flair_t1ce_t2___local_flair_t1ce_t2/model.pt (torch, 451572 bytes, 5 tensors)

fc1.weight f4 [200, 510]
00000000: f9b1 df3d 6b62 93bc 1318 0bbe bd61 67bd
00000010: 53b8 24be 1f01 c13c 9340 8ebd af41 0e3e
00000020: e1d1 bb3a 8755 2e3c 917c 013e bf6d 7cbd
00000030: 9414 6d3d 7206 e3bd 60ea 003e 3fb3 9bbc
00000040: 284a 87bd 893a bfbd db49 63be f30a f3bd
00000050: afe6 7ebd db64 a1bd 478d ca3c f717 f83b
00000060: 22eb 1e3d eeae 673d 8ed8 353e 2a02 89be
00000070: ad3d 173e 5b1b f33d 3de3 14bd 232c 75be
00000080: f913 d03d 0e26 103e a57c 933d 7f4e fe3d
00000090: 7178 c5bd 4017 16be ee60 a8bd 9487 d4bc
000000a0: 49cc 87be 21e4 5dbe 811b a3bd 99a0 1b3e
000000b0: 18cd c8bd 4bd6 2bbd 15ef 543e eb77 483e
000000c0: 315a d83b a984 69be 48af 383d 0f36 d43d
000000d0: b01d 2fbe 0e28 98bc b47d d03d 4fe1 343c
000000e0: 2c30 de3e 1936 19be bab4 0cbe 3c90 a9be
000000f0: d574 45be 7402 07be 7cf1 813e 542e 393e
00000100: 9646 44be 6d5c 923e 0210 cabe e8a8 283e
00000110: 217e 8c3e d855 19bd c28a d93b 11df 043f
00000120: 82db a4bd fd7c 78bd ca12 6d3e 90bf 793d
00000130: 4ac8 76be 242a ad3e 83ac 9dbd 0f2e 903d
00000140: 7231 fd3d f365 35bc c2e5 3fbb e412 9abd
00000150: f3cb d9ba 7955 243d 4dba 35bd b96b 0dbe
00000160: 5d8e 46bc cf0c 833d 6a34 313d c0fa 793d
00000170: 2385 3f3d 3efc 073e c391 af3c 8a19 fcbb
00000180: f894 503c cc1f 4bbc 2290 e8bb d1e5 e5bd
00000190: 7b61 8c3e 4e02 2dbd d50c 4a3d 42fa 06be
000001a0: 1732 303d 6b7e 65bd ea21 643d 67b4 bc3c
000001b0: 6133 403d f10d 8cbd 2f61 bc3c 2b05 2dbd
000001c0: 8641 653c 55a5 6dbc 2f21 12bd 7f27 a0bd
000001d0: a5e5 503d 3701 26bd 9a7b 82bd 24a9 993c
000001e0: 0dd2 373d 7a89 b5bd bd50 0a3c 6644 10bb
000001f0: 72ee ecbc 4eaa e2ba e5db fabc cab3 533d
00000200: 8823 ab3c 59c4 673d 581a 6a3c 9bdc f33c
00000210: 0859 7fbd 4427 2bbd 7415 703d 7889 45bc
00000220: 99d1 3abc 9184 113d 1b6b 753e 9b32 73bd
00000230: 6a19 993d 0ed9 853b ec28 963d 1631 3fbd
00000240: 2a6d 2c3d 3944 113d c2d8 2f3d 3d94 7abd
00000250: fd39 723d 4cde 5ebd 1a39 db3d fbd8 db3c
00000260: 3f3a 3ebc f5aa 093c 5b36 e33c b393 9bbc
00000270: fa6c 0e3d 96e6 273d 4b4c a13c 53f0 6b3b
00000280: 9e35 2a3c 9eec d63d 5330 0c3e c9ce a33d
00000290: 4e14 b73d 9767 2a3d 78e4 f5bc f785 5cbc
000002a0: e6ee 7b3c ba91 33bd f6ec 313d 89be d2bd
000002b0: 9de5 b83d c174 b53d 73d9 db3d e2e7 493d
000002c0: 4d33 ad3d adc2 6d3d 0caf 83bc ef5e 713d
000002d0: b84a 06be bda3 5bbd 646c 383d 9fb8 51bd
000002e0: 28a9 22be e37d b63d 85a5 563d 457d da3c
000002f0: da67 1d3d e518 b23c 6b85 28be 4580 b8bd
00000300: a645 46be 4e6b 983e 6657 7b3d a655 9e3d
00000310: 727b 773c facd 733d e488 053d fa58 ab3d
00000320: de15 523a 9162 d7bd c77d a0bd eaf5 15be
00000330: 240e d83c 2e9a 3dbb 209f 153d 874d 933d
00000340: 9bbe 553d 9b80 ce3c c094 113b 67a7 403d
00000350: 175f 483d 49fa de3c cc77 723d fed4 5e3d
00000360: a325 4cbd 8b97 83bf 456c 0c3e 1325 d5bd
00000370: 060c a2be b9ab cebc 9554 21bd 96e7 cc3b
00000380: abd4 2e3d bc5b eabc da8f ce3d af31 e93e
00000390: d976 683e 3a13 a2be f629 333d 7d31 28bf
000003a0: 55b6 a53e 4b47 5a3d 1c84 fe3c 2ccd d7bc
000003b0: 4e6f 0e3d db70 963e e80d eebe 180e a83d
000003c0: 155c c9bc 2eec 1fbf 95ed 1abd 698e 683d
000003d0: b201 1d3f f3c7 72be b5aa cf3e ab10 aa3e
000003e0: 5a8e 63bc e367 743d 55e9 cabd 6292 9e3e
000003f0: 5730 32bf a5ee 0cbe e3b2 9cbd 8ae5 83bd
0.109226175 -0.017991265 -0.13583402 -0.056489695 -0.16085939 0.023560105 -0.0694591 0.13892244
0.0014329517 0.0106405085 0.12645175 -0.0616281 0.057880953 -0.11085214 0.12589407 -0.01900637
-0.06605941 -0.093373366 -0.22196142 -0.11867323 -0.062231716 -0.07880565 0.02472557 0.007571216
0.03879846 0.05656331 0.1775839 -0.26759464 0.14769621 0.11870452 -0.036349524 -0.23942618
0.101600595 0.14077017 0.072015084 0.12417316 -0.09642113 -0.14657307 -0.08221613 -0.025943555
-0.26523045 -0.21669056 -0.0796423 0.15197982 -0.098047435 -0.041952413 0.20794328 0.19576995
0.0066025485 -0.22804512 0.045089036 0.10361873 -0.17101169 -0.018573787 0.10180226 0.011040046
0.43396127 -0.14962043 -0.13740817 -0.33117855 -0.19282849 -0.1318453 0.2537955 0.18084079
-0.19167551 0.2858614 -0.39465338 0.16470683 0.2743998 -0.037435383 0.0066388557 0.5190287
-0.0804968 -0.060666073 0.23151699 0.060973704 -0.24099842 0.33821213 -0.076989196 0.07040035
0.123629466 -0.01107167 -0.0029281233 -0.07523134 -0.0016616568 0.040120576 -0.044367123 -0.13810624
-0.012118903 0.063989274 0.043262877 0.06103015 0.04675783 0.13279817 0.02143181 -0.007693474
0.012730829 -0.012397718 -0.00709726 -0.112254746 0.27418122 -0.042238526 0.049328644 -0.13181403
0.04301652 -0.056028765 0.055696405 0.023035241 0.046924 -0.068385966 0.02299556 -0.042241257
0.013992673 -0.01450475 -0.035676178 -0.07820033 0.051000256 -0.040528502 -0.063712314 0.01875741
0.044878054 -0.08864112 0.008442101 -0.0022013425 -0.028922293 -0.0017293186 -0.030622432 0.051685132
0.020890966 0.056583736 0.014288507 0.029768279 -0.062340766 -0.041785493 0.05861421 -0.012056701
-0.011402511 0.035526816 0.23966639 -0.059374433 0.074755505 0.004084713 0.07332024 -0.04667767
0.042096294 0.035465453 0.042931326 -0.061176527 0.059137333 -0.054411218 0.10704251 0.026836863
-0.011610567 0.008402576 0.02773588 -0.018991327 0.034771897 0.04099139 0.0196897 0.0036001399
0.01038876 0.1049435 0.13690309 0.079984255 0.0893942 0.041602697 -0.030016169 -0.013459674
0.015376782 -0.043840148 0.043438874 -0.10290248 0.0902817 0.0886016 0.107348345 0.049293406
0.084570505 0.058046985 -0.01607468 0.058928426 -0.1311444 -0.05362295 0.045025244 -0.05120146
-0.1588484 0.0891073 0.052403945 0.026671061 0.03842912 0.021740386 -0.16457145 -0.090088405
-0.19362506 0.29769367 0.061362647 0.0773118 0.015105115 0.059522606 0.032601252 0.0836658
0.0008014123 -0.10516847 -0.0783649 -0.1464459 0.02637393 -0.002893101 0.036528707 0.071925215
0.05218373 0.025207808 0.0022213906 0.047034647 0.04891881 0.027218955 0.05919628 0.054402344
-0.04984058 -1.0280622 0.13713177 -0.10407462 -0.31649798 -0.025228368 -0.039387304 0.006253193
0.042683285 -0.028608195 0.10086031 0.45545718 0.22701587 -0.31655294 0.04374119 -0.65700513
0.3236567 0.053290647 0.031068854 -0.02634295 0.034774117 0.29382977 -0.46494985 0.08205813
-0.024580041 -0.62469757 -0.037824232 0.056776438 0.6133071 -0.23709087 0.40559927 0.33215842
-0.01388892 0.059669387 -0.09907786 0.30971056 -0.6960501 -0.1376291 -0.076513074 -0.064402655

fc1.bias f4 [200]
00000000: 6c6c 17be d34f 9abe 948a 4abe 8e36 aebd
00000010: 3ab8 39be 3f76 b5be 56eb 63be 9f0a 16be
00000020: fcbd 77be 6b18 1bba f244 4abd a4fa e9be
00000030: f985 5ebe 0bae 6ebe 1be4 85be 4132 b4be
00000040: 027e bbbe 97bd c2be bc2a d2be 64e3 80be
00000050: a0ef b5be 3073 6fbe d2a7 0dbe 450c eabd
00000060: 964e 7cbf ae95 50be ae1b cebe d1a8 bebe
00000070: 39b6 b7be aa4c 49be 758b 23be 0b98 20be
00000080: f83c 83be 63b3 51be abf3 a7be ef06 afbd
00000090: 8f1d abbe 8036 94be 7dfa edbe 69b7 a0bd
000000a0: 57cb 1dbf 6c1a 7dbe 2b8a 23bf 064d de3b
000000b0: 7469 33be e6ac e9be 6cef c9be 2a54 99be
000000c0: 389f 96be 99e0 0ebd 30b0 eebd 149b c6bf
000000d0: 63e8 8abe 77af d0be f9b0 afbf 7143 32be
000000e0: 56f5 7ebe c167 45be ba7c 66be 1a53 42bf
000000f0: 50e5 00bf b837 47be c5f1 91be dc29 59be
00000100: 4416 63bf 9f4e aebe 8167 19bf ab70 02c0
00000110: adbb 84be 4602 84bc e614 08bd 620c 34be
00000120: cbe5 07be c5eb c9be 37b9 a1be 516d 91bf
00000130: 756b 47bf fe91 abbe b165 84be 30ef a5be
00000140: d703 fabd 3442 e6bf 0850 f2be 2984 5cbe
00000150: 46ef 0fbf f026 c4bd 9025 b0be 9032 33bf
00000160: 64e9 0cbe a4a4 bfbe 70a7 14bd 1a17 64be
00000170: b217 4fbe 81e3 8ebe 2258 44be 23e4 09be
00000180: 51d4 9fbe 7622 58be 0f0b 34be 245c aabe
00000190: 6c3e 81be 2f3e c8be 5d48 a6be 6e71 e6bd
000001a0: 3a25 25be 0ded 93bf 0414 8cbe 59df 09bf
000001b0: d433 4dbf 7056 04be 1bb6 25bf 44f8 a5be
000001c0: d472 b2be d78e 74be d03d 9fbe d5a9 9cbe
000001d0: e49d 86bb c4f8 e6be 9733 89bd 3e7e 09bf
000001e0: 4ebc a4be c883 5ebe 02d1 29bf 6043 6bbe
000001f0: e8ef 80be ec1e 2dbf cd72 0f3b 2854 fabf
00000200: ca4d e2be f2db c9be 022e 22bf 12a7 1cbe
00000210: 5b27 85be 84d4 edbe 97a5 52be 15db 00be
00000220: 65a4 9fbe 8338 28be ccbf 0ebf 9760 01c0
00000230: b9cf f7be c31d 30be 6df6 13bf 5f7c efbd
00000240: acd3 a8bd b391 8abe 0aa8 28bd e471 c1be
00000250: a3b1 30be 9582 9dbe 1d45 71be 8b66 e0bd
00000260: a17b c3be 937b 1abc 0777 90be 2387 99be
00000270: a4a5 87be d150 6dbf 18bc 2abf 0937 95bd
00000280: 29cc 19bf 4d09 c5bf a323 43be c66a c4be
00000290: a0eb d4be e063 15bf 4f72 f1bc da3c 1fbe
000002a0: c051 5abe d98d 09be 84a4 23bf 565c 99be
000002b0: 9402 03bf ed0b 6fbc d35a 94be f4f0 dfbe
000002c0: 6b84 b6bf a1f1 9dbe 1ab6 2fbe e560 abbf
000002d0: 3915 70be d6c7 1ebe 9c37 1bbe 2bca 6abe
000002e0: 7928 b2be 8ae6 02bf fa2e bdbe bb16 b5bd
000002f0: bc33 31bf 29fd 78be 6f9c 56be 8d47 54be
00000300: df30 3fbe 1235 7abe e6af 23be 488e 17be
00000310: 93b6 83be fd06 dcbe 73d9 70be ccb3 8dbe
-0.14787453 -0.30139026 -0.19779426 -0.08506499 -0.18136683 -0.35441777 -0.22257742 -0.14652489
-0.24193567 -0.00059164193 -0.049382158 -0.45699036 -0.21730794 -0.2330858 -0.26150593 -0.3519459
-0.36619574 -0.3803527 -0.4104823 -0.25173485 -0.35534382 -0.23383784 -0.1383355 -0.114281215
-0.9855741 -0.20369598 -0.40255493 -0.37238172 -0.35881212 -0.19658151 -0.15971167 -0.15683
-0.25632453 -0.20478587 -0.3280309 -0.08546244 -0.3342099 -0.2894783 -0.4648017 -0.07847483
-0.61638397 -0.2471711 -0.638827 0.0067840843 -0.17520696 -0.45639724 -0.39440477 -0.29947025
-0.2941835 -0.03488216 -0.11654699 -1.5516076 -0.27130422 -0.4075887 -1.3725883 -0.1740854
-0.24898276 -0.1927786 -0.22508517 -0.7590805 -0.50349903 -0.19454849 -0.28504768 -0.21207374
-0.8870585 -0.34044358 -0.5992356 -2.0381267 -0.25924435 -0.016114365 -0.033223055 -0.17582849
-0.13271253 -0.3943769 -0.3158662 -1.1361486 -0.7789834 -0.3350982 -0.25858834 -0.32409048
-0.12207764 -1.7988954 -0.47326684 -0.2153479 -0.5622448 -0.09577739 -0.34403658 -0.6999903
-0.13760906 -0.37430298 -0.036292493 -0.22274438 -0.20223883 -0.27907947 -0.19174245 -0.13465934
-0.31216672 -0.21106896 -0.17582344 -0.33273423 -0.25242937 -0.39109942 -0.32477084 -0.11252104
-0.16127482 -1.1556717 -0.2735902 -0.53856426 -0.8015721 -0.12923598 -0.64730996 -0.32415974
-0.34853232 -0.23882614 -0.31101847 -0.30598322 -0.0041081775 -0.45111668 -0.06699293 -0.53708255
-0.32174915 -0.21729958 -0.66334546 -0.2297492 -0.25183034 -0.6762531 0.0021888495 -1.9556932
-0.44199973 -0.39425617 -0.6335145 -0.15298107 -0.26006588 -0.464512 -0.2057098 -0.12583573
-0.3118011 -0.16427808 -0.5576141 -2.0215204 -0.48400667 -0.17198853 -0.5779789 -0.11693644
-0.08243498 -0.27064285 -0.04117588 -0.37782204 -0.17255263 -0.3076369 -0.23561521 -0.109570585
-0.3818026 -0.009428876 -0.2821581 -0.29985914 -0.2649356 -0.9270144 -0.6669326 -0.07285888
-0.6007715 -1.5393463 -0.19056563 -0.38362712 -0.41586018 -0.5835552 -0.029473452 -0.15550557
-0.21320248 -0.13433017 -0.63922906 -0.2995326 -0.5117581 -0.014590246 -0.28975543 -0.4373852
-1.4259161 -0.3084841 -0.1715931 -1.3388945 -0.23445596 -0.15505919 -0.15157932 -0.22928683
-0.34796503 -0.51133025 -0.36949903 -0.08842226 -0.69219565 -0.24315323 -0.20958112 -0.2073042
-0.18670987 -0.24434307 -0.15985069 -0.1480037 -0.2572523 -0.42974082 -0.2352045 -0.27676237

fc2.weight f4 [50, 200]
00000000: a22f 3e3e 24fc 133e f665 093e c73b 373e
00000010: fb90 043e 2b0a 3a3e 94d9 033e f7a6 c33d
00000020: c181 bd3d 7a2b d23e b847 a63d 56f9 2d3e
00000030: a523 f53d 6eed f43d 0a52 cf3d dcf9 613e
00000040: 309e a43d cf36 593d a9aa 853e 4bc6 f23e
00000050: 080c d93d 28ef 2f3e ade3 763e 631c 453e
00000060: 35b0 91bc d66c 803e 18b3 253e f30e bf3c
00000070: 28b8 663e 4331 073e 5ddb 373e 9ac3 303e
00000080: 552c 523e c8bc 563e 06a6 ff3d dd87 f13d
00000090: 7144 4f3e b061 453e edc4 183e 94a5 103e
000000a0: b949 a53d 0ab3 2c3e 7761 253e cd24 a23e
000000b0: a8ef 213e 8951 0d3e 94e7 613e ffe8 ae3d
000000c0: e4e3 9a3e b8e2 333e d22d 7f3e 1e4e 993d
000000d0: b85b 6f3e 4058 943d cbb0 2f3d 7a46 4e3e
000000e0: 900b e1bc e6f0 a03d 9b2f d43d ce58 263e
000000f0: 2e36 d83d 8782 513e 1184 333e a48e a23e
00000100: b207 a83d 0470 9f3d 781a 2f3e 48ab 59bd
00000110: d884 f93d 1c20 2a3e 2c2c ba3d 5aa6 4c3d
00000120: 3e15 423e c578 503d c4ac 1b3e c1a9 043e
00000130: cefd 0a3e 70f6 593e dfe5 3a3d 4929 183e
00000140: 1647 383e d51d 28bd eef9 7c3e 5036 013e
00000150: 3095 533e fe3c 253e 4f66 273e 454c f1bc
00000160: a866 533e 0870 573e 7af0 103e 679f a33d
00000170: 6ea6 733e fcc7 593d 5dac 3f3e a33e 8c3e
00000180: fce0 c43d 339e 593e 2133 173e dbe8 af3d
00000190: 5099 1cbb 2c0b cfbc 3cca de3e 8679 be3d
000001a0: a5a4 073e 6d16 b83d 2f96 cf3d 9d56 883e
000001b0: 7ae7 593c 6b01 da3d 092c 2a3e 4981 9c3d
000001c0: 1e37 b33d 964a db3d f574 90bc 5f65 283d
000001d0: 991a 653e 69f5 c33e 1fcd fd3d 71cb 173e
000001e0: 0ce1 2a3d b6a1 f23d 8e4f 093d 2dbb 0e3d
000001f0: 3f6f 9f3e 7cb2 5d3e 2bf0 3f3e 1542 443d
00000200: b265 3c3e da45 043e 8dc1 483e b45f ef3d
00000210: 6cfe 373e 4400 8a3d b2d3 ee3c 8485 3e3e
00000220: b999 9b3e 4edd 083e 04d7 003e 8779 ad3d
00000230: 1222 da3d 7e96 e03d 57d4 113e 2a0a 9b3d
00000240: 2e07 513e 7742 6e3c 6a38 683e 73d6 423c
00000250: 9330 773e 7754 c73e e2ea 393e 6375 3a3e
00000260: 2b50 313e 4fb8 293e 0dbc 783e f2d4 f73d
00000270: 79b1 6c3e 440e 4f3d 288f 983c d995 f23d
00000280: 6ee8 5d3e bd08 ac3d 0468 c23e affe 053d
00000290: dad4 f73d 635d 223e a5c6 8a3e 7c25 4a3e
000002a0: b9ca 793e 0e4c b93e e396 473e d779 6d3e
000002b0: 68f9 3d3e 4ff3 373e 1317 a13d 1715 1abd
000002c0: 61da ac3d 7874 8f3e 346c f73d 8b88 813d
000002d0: fe72 e73d 9809 ad3e efc0 223e 1a87 3b3d
000002e0: cb04 cd3e 5e4a 6a3c 7da6 e73d 9044 c63d
000002f0: 54f5 b43d a6b8 bd3e c22e 4c3d 985f 203e
00000300: f911 a53d 7475 d53d 9e51 b03e 92af 923e
00000310: 6e0b 7c3e dcc3 043d 0faa 4e3e 254b 133d
00000320: 1da5 af3d 51d7 c3be a030 2abe c327 07bf
00000330: 59b6 82bc 5f9a 873e 67fe ffbe 79a2 80be
00000340: a902 29be 18d3 973e 0f64 81be b046 393e
00000350: c5a5 d63d 61d4 df3b e35d 88be 3c42 0b3e
00000360: ff7c 09be dc5f b73d dd3e b23d f93f 31bd
00000370: 3e36 b6be 7e4a 7d3e 7388 ab3e 1963 19be
00000380: 6a47 ba3d 2d1d a53e 52c3 623d 50c0 053e
00000390: eba1 be3e 8e79 cdbe fb84 87be 45df 62be
000003a0: ac9f 42bd 557f 52be e07e 873d 38e6 a8bb
000003b0: de14 283e d836 b43e 8b8a 213d e286 0a3e
000003c0: b276 d93d ce1a a8bd 1d06 693e 1bf1 a03e
000003d0: e9bf ecbe 187c c43e 5fdd ac3e f8e3 073e
000003e0: 2356 9abc d524 febe ca58 ecbe 1e34 f93d
000003f0: e729 d23d b052 b63e c094 1b3e 37ab 50bd
0.18572858 0.14451653 0.13417801 0.17893897 0.1294593 0.18167941 0.12875968 0.095533304
0.09253264 0.41048795 0.08119148 0.16989645 0.11969689 0.119593486 0.101230696 0.2206797
0.08037984 0.053030785 0.26106766 0.4741691 0.10597998 0.17181075 0.24110289 0.1924911
-0.017784217 0.25083035 0.161816 0.023322558 0.22531188 0.13202386 0.17954774 0.17262116
0.20524724 0.20970452 0.12482838 0.11793492 0.20240952 0.19275546 0.14918871 0.14125663
0.08070702 0.16865173 0.16150461 0.31668702 0.15814078 0.13800634 0.22060996 0.08540534
0.30251992 0.17566955 0.24919823 0.07485603 0.23374832 0.07243395 0.042893212 0.20144072
-0.027471334 0.07858448 0.103606425 0.16244814 0.10557209 0.20459948 0.17530848 0.3174945
0.08204593 0.07785037 0.17099941 -0.053141862 0.12183541 0.16613811 0.09090456 0.049963333
0.18953416 0.050896425 0.15202624 0.12955381 0.13573381 0.21285415 0.04562938 0.14859499
0.17995867 -0.041044075 0.24704716 0.12618375 0.2066238 0.16136548 0.16347621 -0.029455313
0.20644629 0.2103883 0.14154235 0.07989388 0.23793957 0.053169236 0.18718095 0.27391538
0.09613225 0.21251754 0.14765598 0.085893355 -0.0023895092 -0.025273882 0.43513668 0.093005225
0.132464 0.089886524 0.10136067 0.2662858 0.013299817 0.10644802 0.1661836 0.07641847
0.08750747 0.107075855 -0.017633894 0.0411123 0.22373427 0.3827317 0.12392639 0.148237
0.041718528 0.1184725 0.033523135 0.034846473 0.31139562 0.21650118 0.1874396 0.047914583
0.18398169 0.12917271 0.19605084 0.11688176 0.17968148 0.06738332 0.029153679 0.1860562
0.3039072 0.13365671 0.12582022 0.08470445 0.1065103 0.10966204 0.14241157 0.07570298
0.20412895 0.014542214 0.2267777 0.011891949 0.24139623 0.3893163 0.18156007 0.18208842
0.17315738 0.16574214 0.24290486 0.12101163 0.23114575 0.050550714 0.01862295 0.118449874
0.21670696 0.08400104 0.37969983 0.03271359 0.12101145 0.15855937 0.2710468 0.19740862
0.24393739 0.36190838 0.19491152 0.2319101 0.18552172 0.17963909 0.07865729 -0.03761777
0.0844009 0.28018546 0.12081185 0.06324872 0.1130123 0.33796382 0.15893911 0.04578314
0.4004272 0.014299957 0.11311052 0.09681046 0.08835855 0.37054938 0.04984928 0.15661466
0.08060069 0.10422793 0.3443727 0.28649575 0.24613735 0.03241335 0.2018206 0.035960335
0.08576415 -0.3825021 -0.16620111 -0.52795047 -0.01595609 0.26484963 -0.4999878 -0.25123957
-0.16504921 0.2965324 -0.2527165 0.18093371 0.10480837 0.0068307375 -0.2663413 0.13599485
-0.13426588 0.089538306 0.087033965 -0.0432739 -0.35588259 0.24735448 0.3350254 -0.14979209
0.090956524 0.32248822 0.055362053 0.13061643 0.3723291 -0.401318 -0.26468644 -0.22155483
-0.047515556 -0.20556386 0.06615996 -0.0051543973 0.1641421 0.35198092 0.039438765 0.13528016
0.106183425 -0.082082376 0.22756238 0.3143395 -0.46240166 0.38375926 0.33762643 0.13270557
-0.018839901 -0.49637476 -0.4616149 0.12168144 0.102618985 0.3560996 0.15193462 -0.050944533

fc2.bias f4 [50]
00000000: f988 243d e00b 733e 979c 4abd 5348 dd3c
00000010: 4afe ebbb fb3f 08bc ec40 533f 0c42 843e
00000020: a0d5 343c b1d6 313e 9414 fc3c a2e1 a4bd
00000030: cf04 5c3d dc03 7d3d 7fd6 c9bd 9a91 483f
00000040: 0c26 fd3d 82ef a93d f965 cb3d b289 ea3e
00000050: e8b4 fe3d 4505 5a3d 42f2 213e 0e1e 2d3e
00000060: a56d da3d 081b 233e af8c b43d 028c 8c3d
00000070: f70e 963d 862b ec3d 3496 c7bc 25f8 85bd
00000080: 800e 793d c651 20be 9e5e 973d 05fb 94bb
00000090: 1680 ab3c afa5 053d 6570 f53d 9258 c33e
000000a0: 8603 d8bc cd74 5cbd 84fa b43e 95f2 fb3c
000000b0: f18d 70bd 1c5d 23bd 09f6 efbc 9be2 143f
000000c0: 6350 853d 6221 653f
0.04016969 0.23734999 -0.049465742 0.027012026 -0.0072019445 -0.008316035 0.8252094 0.2583164
0.01103726 0.17367055 0.030771531 -0.080508485 0.053715523 0.06177126 -0.09855365 0.7834717
0.123607725 0.082976356 0.09931559 0.45808178 0.12436849 0.05322768 0.1581507 0.16905996
0.10665444 0.1592828 0.08815896 0.06862642 0.07327073 0.11531739 -0.024363615 -0.065414704
0.060804844 -0.15656194 0.07391094 -0.0045465254 0.0209351 0.03262871 0.11984328 0.3815351
-0.026368868 -0.053822327 0.35347378 0.03075532 -0.058729116 -0.039883718 -0.029292123 0.5815827
0.06509473 0.89504063

fc3.weight f4 [1, 50]
00000000: 6752 6f3e 792b c1be b7a6 cc3c db34 843e
00000010: 8ab2 543e 554f 4a3e 9683 8bbf 2c9c 1dbf
00000020: bced 053c cc86 55bf 960c 6e3e e1d3 51bd
00000030: 1fcf 6a3e f6ba 7f3e 5593 093b c686 2abf
00000040: 9424 823e f873 933e 6adc 673e c33b 66bf
00000050: f885 863e 759a 563e 750b 56bf 2276 913e
00000060: f1a5 943e f653 59bf f822 9a3e d94c 4cbf
00000070: 8d25 903e d2ab 8e3e 234d 5d3e 38f2 563e
00000080: dbf4 873e d16e 5ebb 8d3a 713e da10 d8bc
00000090: 4233 783e 5041 a1bd 7d5e 943e 66fa 30bf
000000a0: b9d6 1bbd 4c61 9dbd 389d 46bf 5d2a 57bd
000000b0: f347 d5bd f74e 223b 76a6 4e3e 5335 4abf
000000c0: 8753 993e 48a1 8cbf
0.23371278 -0.3772848 0.02498184 0.25821576 0.20771232 0.19756825 -1.0899532 -0.61566424
0.008174356 -0.8340881 0.23246989 -0.051227454 0.22930573 0.24973664 0.0020992358 -0.666119
0.25418532 0.28799415 0.22642675 -0.8993494 0.26274085 0.20957358 -0.8361123 0.2841044
0.29032853 -0.8489374 0.30104804 -0.7980476 0.2815365 0.27865463 0.21611457 0.20990837
0.26553997 -0.0033940563 0.23557492 -0.026375223 0.24238303 -0.078737855 0.2897834 -0.6913208
-0.038046572 -0.076845735 -0.77583647 -0.052530635 -0.10414114 0.0024766305 0.20180687 -0.78987616
0.2994654 -1.0986719
