Radiomics_local_global_framework/models/Stochastic Gates_feature_selection/Neural_Network/global_flair_t1ce_t2___local_flair_t1ce_t2/model.pt (torch, 223668 bytes, 5 tensors)

fc1.weight f4 [100, 501]
00000000: 19b4 9f3c 0179 0e3d b830 5c3d 0aec 823d
00000010: e13c c03c b621 9e3d b40e d43c bc4c dd3c
00000020: 6531 c73c 12d4 8f3d 1a33 d5bb 0de4 13bd
00000030: a17a 403d 8b6a 523c e858 de3d f911 bc3d
00000040: 3afb 933d a7e0 51bd 56aa 083d 1bd9 263d
00000050: 102f 3dbe cf96 64bd 6067 7d3d dab9 9fbc
00000060: cbf9 ccbc 7f7b 0abd fabf afbd 1918 603d
00000070: 0396 a2bd 34d3 433d dba2 d1bd 7fd0 89bb
00000080: b60a 2dbd f953 d9bd 3a7a fcbc 0385 c73b
00000090: aa68 463d d53b e23d 673d 4bbe 6304 883e
000000a0: 9816 14be 6a33 fcbd 463f 88bc 5aa3 eebd
000000b0: 1ade 2d3e f327 97bd 5807 e3bd 42a1 0cbc
000000c0: b803 44bd 55b5 183e 2c6b 21bd 3ffb 883c
000000d0: 354f 88bd fed9 91bc 3ad3 8d3e e3b9 0b3e
000000e0: 3d4c 07be 8d4b d9bd 665a d13d fdf9 53bd
000000f0: 7be1 d5bd 7165 a5bb aa9c 33bd f92a 96bd
00000100: 3f4c 393d cabd 63bc b04c 6d3d 51d5 fa3c
00000110: 96ba ff3c 39e9 6cbd f3a5 973e d5af 94bc
00000120: 0f4d afbd 96e9 843d c3da 36bd 78e4 19be
00000130: 79f3 3a3e 9b8c 223d 4ba6 a63d b769 453c
00000140: 6ab2 2e3d 3e01 183d 6579 beba 6cd1 02bd
00000150: f690 cebc b303 13bd 8459 1c3d 9569 1fbd
00000160: 669d 5d3d 48e5 3abc 8c2d 99bd 72b0 793d
00000170: 139f c3bd 377a ae3c 6628 c93d 1542 bf3c
00000180: fa34 33bd 11e8 e13c 0d59 483d f42c b93c
00000190: a5c6 0fbd 72aa bb3c 25be e5bd ade7 b7bc
000001a0: c26c 1d3d fc40 153d d450 fc3d 8872 98bd
000001b0: 088f c13d 2bc3 f6bc b6a6 863b 1cba 8a3b
000001c0: dc54 2e3d 29b8 7c3d b62a e33c 6649 053d
000001d0: 060e 803c 3398 c53c 908c 3c3b 608d b73d
000001e0: a6e0 8cbc 4113 ffbd e61d 98bc 2c80 ae3d
000001f0: dcae b83c 6482 60bc 9bab b93c 5581 4f3d
00000200: a8dd c3bd 20dd d43c 88b1 463d 63c2 bfbd
00000210: 8394 e13d 74a2 053e 9c5e 1b3d 31ce 483d
00000220: 2b6e 8bbd 5be4 7a3c 8b7b 0d3b 3b75 893c
00000230: 295c 1e3d 1649 853e f261 363e 31ff a8bb
00000240: e4bb 9b3c d158 e4bb 3f5c 11bb 555f 533d
00000250: 0cfc a83d 7893 a03d 0a87 b73c 622d 99bd
00000260: e68f 84be ca87 ae3d 23b9 c6bc 3276 bc3c
00000270: 0f9f d33d 8ef0 0a3d c1e4 8a3d 447d 453d
00000280: b488 e1bc 2b74 e13c 6c76 333e 3933 c93b
00000290: e94a 163c 8733 7e3d aa02 acba aa71 633d
000002a0: 178b 86bc 9623 f73d 96b3 5c3c 0bff 743d
000002b0: 076e a3bd 8406 82bc ed53 3abe 0b94 a5bd
000002c0: 1840 2dbd a4d5 3ebd 92e1 09be a04b 6abd
000002d0: db24 b9bc 06cb b93d 84f2 30bd eeb2 19be
000002e0: abbd c4bd ff98 2d3e 7453 cf3d 7e30 2b3c
000002f0: d26e e13d 7aee cabc d0a6 91bc 1d80 813c
00000300: 1ebb 84be efef 02be eba5 40be f69a d93b
00000310: 48ad 193d a8e2 283d caed f4ba 6b99 99bb
00000320: cbda 74bd f5b3 36bd 1ced 90bc bee3 c83c
00000330: e100 7bbc 2703 6a3d abc0 0b3d 687a 12bd
00000340: 8a7f 0ebd 92d4 f53b 888f 25bf fd8f 093e
00000350: 9be0 71bd 3925 303d 2e8f 31be 8485 54be
00000360: c6ea c03d 61f8 7cbd 2390 c93d 5d47 d03d
00000370: b2bd 86bd 8604 2dbd 8313 25bb b2d2 aebd
00000380: ec62 4abe 1950 25be 9eb6 e7be 697f 54bb
00000390: 254e 923e cac5 01bd ae5c 0bbd 3ec8 79bd
000003a0: d344 d9bd f352 65be a1ee 023d 2e81 14bd
000003b0: 8f35 80be 57bc 19bc 67cf 903d b632 8dbe
000003c0: 568c 6cbe 59fe 0bbc f3a8 33bd e8b1 193d
000003d0: 98bc 5cbd 1f07 fdbe af8e 8ebd 7ec5 193e
000003e0: 66d1 02bd 73f7 123e 6406 f63c 79ba a5bd
000003f0: d67a 6f3c d515 ebbe 748a 54be dd0c 43bd
0.019495057 0.034783367 0.0537574 0.06392677 0.02346653 0.077212736 0.025885917 0.027014129
0.024315545 0.07022871 -0.006506336 -0.036106158 0.046991948 0.012842785 0.10856801 0.091831155
0.07225652 -0.051239636 0.03336557 0.04073439 -0.18474984 -0.055807885 0.061866164 -0.0194978
-0.025021454 -0.03380918 -0.085815385 0.05471048 -0.07938769 0.04780884 -0.1023614 -0.004205763
-0.042246543 -0.1061172 -0.03082 0.0060888543 0.04843966 0.11046568 -0.19847642 0.26565847
-0.14461744 -0.12314494 -0.016631734 -0.116522506 0.16979256 -0.073806666 -0.11085385 -0.008583369
-0.04785511 0.14912923 -0.039408848 0.016721366 -0.066557325 -0.017804142 0.27700216 0.13645129
-0.13212676 -0.10610113 0.1022232 -0.05175208 -0.104433976 -0.005047493 -0.04385058 -0.07332415
0.04523873 -0.01390023 0.057934463 0.030619295 0.0312169 -0.057839606 0.29618797 -0.01815025
-0.0855962 0.064898655 -0.04464222 -0.1502856 0.1825694 0.039684873 0.081371866 0.01204913
0.042650618 0.03711056 -0.0014532028 -0.031938 -0.025215607 -0.0358922 0.038171306 -0.03891905
0.054105185 -0.011407204 -0.074793905 0.060959287 -0.095518254 0.021298511 0.098221585 0.02334694
-0.043751694 0.027576478 0.04891305 0.022604443 -0.03510155 0.022908423 -0.11217908 -0.022449339
0.038433798 0.036438927 0.12320104 -0.0744372 0.09451109 -0.03012236 0.004109229 0.0042336117
0.042561397 0.061699066 0.027730327 0.0325407 0.015631687 0.024120426 0.0028770305 0.08962512
-0.017196964 -0.12454844 -0.018568944 0.085205406 0.022544317 -0.013702963 0.022664836 0.05066045
-0.09563762 0.025984347 0.04850915 -0.09363248 0.110146545 0.13050252 0.037932023 0.049024764
-0.06808122 0.015313233 0.002158853 0.016779533 0.03866211 0.26032323 0.178108 -0.0051573743
0.019010492 -0.0069685956 -0.0022180227 0.051604588 0.08251199 0.078406274 0.022403259 -0.07479359
-0.25891036 0.085219935 -0.024258202 0.023005579 0.103330724 0.033920817 0.067819126 0.048215166
-0.027531005 0.027521214 0.17525643 0.0061401394 0.009173133 0.06206086 -0.0013123353 0.05552832
-0.016423745 0.12067334 0.013470551 0.05981354 -0.079799704 -0.015872248 -0.18196078 -0.080848776
-0.042297453 -0.046590462 -0.13464954 -0.057201028 -0.022600582 0.09071927 -0.04320003 -0.15009663
-0.09606489 0.16952895 0.10123339 0.010448573 0.110074654 -0.024771918 -0.017779738 0.01580816
-0.2592401 -0.1278684 -0.18813293 0.0066407872 0.03751877 0.04123178 -0.0018686589 -0.0046874783
-0.05977897 -0.044605214 -0.017691188 0.024522658 -0.015320034 0.057131913 0.03411929 -0.035761267
-0.0347896 0.007502147 -0.64672136 0.13433833 -0.05905209 0.04300425 -0.17339775 -0.20754057
0.094197795 -0.06176031 0.09841945 0.101698615 -0.0657915 -0.042240642 -0.0025188632 -0.08536281
-0.19764298 -0.16143836 -0.45256513 -0.0032424575 0.28575245 -0.031682767 -0.034023933 -0.06098198
-0.1060883 -0.22394924 0.031965856 -0.036256008 -0.25040862 -0.009383283 0.07070809 -0.27577752
-0.23100409 -0.008544528 -0.043862294 0.03752318 -0.053890795 -0.49419495 -0.069608085 0.15016744
-0.03193798 0.14352207 0.030032344 -0.080922075 0.014616689 -0.45915094 -0.2075594 -0.04761969

fc1.bias f4 [100]
00000000: 211c b0be a1c3 41be 0202 15bf 7e79 aabe
00000010: f501 dabe b022 4bbe 62b8 08bf 34e6 cebe
00000020: d948 a3be f95f 84be 5f78 d7be aa98 9bbe
00000030: 0ee2 a7be 1675 b3be 47fc d9be c633 abbd
00000040: 2012 d4be 82bd c4be 89d3 2dbe e7c6 99be
00000050: ec5c f3be 6a0d d2be 03f8 cfbe a72f babe
00000060: c5d0 14bf a65d 9ebe aa4d 8fbe c44a d7be
00000070: d28f 35be a6e2 28be f9f8 30be e673 adbe
00000080: 9888 b8be 6f9d 16be fba3 84be 7b4d 65be
00000090: abf7 cfbe d9ff d2be c044 70be 25c8 f9be
000000a0: ead7 b0be ac85 adbe a137 b0be 254a c7be
000000b0: 3831 e1bd ed8f 40be 3a81 aabe bc4c 5cbe
000000c0: 1e82 0fbe c5a7 c9be e69c 9bbe 8267 c2be
000000d0: ba23 1cbe 5133 87be 4976 c8be c6fb c6be
000000e0: f347 a1be 41c1 cbbe 6fdb d4be f8ca bbbe
000000f0: 9603 e2be efcc 36be c7fd 45be 1b97 e5be
00000100: 4d77 02bf c60f 64be c4fa ccbe 68f8 65be
00000110: a78f afbe e663 efbe 7521 70be 5ab4 d2be
00000120: e809 19bf 16bd d5be 272f e4be 7479 c9be
00000130: a623 8bbe 1b3d f7be 8d69 eebe fc9f 38be
00000140: 7b68 debe 80d1 c1be 0949 cbbe 3e3f c4be
00000150: 44fc 8abe 0752 65be edb8 2fbe ed75 cfbe
00000160: b71a d9bd 31cf e1be 5b6e c7bd 2c22 90be
00000170: 1f57 babe 67b4 c7be b556 fbbe cba0 aabe
00000180: 15c1 91be 4422 2abe 37f0 01bf a1cd cabe
-0.3439646 -0.18922283 -0.5820619 -0.33295816 -0.42579618 -0.19837451 -0.53406346 -0.40410006
-0.31891516 -0.2585447 -0.42084023 -0.3038991 -0.32789654 -0.35050267 -0.42575285 -0.083594844
-0.41420078 -0.38425833 -0.16975226 -0.30034563 -0.4753183 -0.4102586 -0.40618905 -0.3636448
-0.5813106 -0.30930823 -0.2798894 -0.4204923 -0.17730644 -0.1649271 -0.17282476 -0.33877486
-0.36041713 -0.14708494 -0.25906357 -0.22392838 -0.40618643 -0.4121082 -0.23463726 -0.4878551
-0.3453973 -0.33891046 -0.3441744 -0.38923755 -0.10995716 -0.18804903 -0.33301717 -0.21513647
-0.1401448 -0.3938581 -0.30393142 -0.37969595 -0.15248004 -0.2640634 -0.39152744 -0.38863963
-0.31500205 -0.3979588 -0.41573665 -0.3667829 -0.4414336 -0.17851613 -0.1933509 -0.44841847
-0.5096329 -0.22271642 -0.4003507 -0.2245804 -0.34289286 -0.46755904 -0.23450263 -0.41153222
-0.5978074 -0.41745824 -0.44567224 -0.39350474 -0.27175635 -0.48288807 -0.46564904 -0.18029779
-0.43439087 -0.37855148 -0.3970416 -0.383295 -0.27145588 -0.22394572 -0.17160387 -0.40519658
-0.106007986 -0.44103387 -0.097378455 -0.2815107 -0.36394593 -0.39004824 -0.4908959 -0.333258
-0.28467622 -0.16614634 -0.50757164 -0.39610007

fc2.weight f4 [50, 100]
00000000: 8365 12be bb0c 8d3e 3ac8 013f de8d 33bf
00000010: fd99 edbd c4bc 07bd 8348 48be 9901 debe
00000020: 0279 0ebf da10 aabe 690f a93e 48bd e63d
00000030: a45d 70be 2b18 313e f6c4 8f3e a822 03bf
00000040: c6d1 a63e 9918 8a3e d542 b6be 31fa ac3e
00000050: db61 083e 8bcc e7be f93b b53e 45b8 a0be
00000060: 059a 51be 0be5 6a3e dd7f 93be 8907 043e
00000070: d28d 30bf 150a d4be 72a2 12be caac abbe
00000080: a8f7 d3bb cca2 5ebf 6de7 ae3e 5d18 303e
00000090: 38e4 4d3e 03d1 c03d 4566 d53e 0c3d 633e
000000a0: 30d9 acbe 4dda 2fbf 9f01 b33e 6eb9 99be
000000b0: 71dd 973e fb2a fc3d 408d 2dbf 3e4c 31bf
000000c0: 4b57 f73e e059 cdbe ee45 ae3e 6674 de3e
000000d0: 71bc a7be 672d bcbe c253 18be 858b 10bc
000000e0: 208b f8be 9d0e 823b cab1 963e 4e9e ba3d
000000f0: a0e6 8b3e 9f4a 413e f470 44bf 4b99 803e
00000100: 7e33 b2bd 3ced 823c 1c52 b1bd e351 edbe
00000110: 03db 3abd ceb9 16be 7866 b83e 3098 103e
00000120: 57ac 9ebe b3de abbe 85d6 303e 80f3 503e
00000130: 528e bbbc 4c0e 12be 3fdd b03d 296c a53e
00000140: e3fe 643d a242 a03e 6b2f e63d 1e1b 7c3e
00000150: 8007 8cbe e2e2 b03e 2c3a 4c3e 8c7c f5bd
00000160: 7c1b 1bbf dde5 ac3e 05fe 2cbf 5e00 33bf
00000170: f2fb 283d e581 3d3e 81b3 0ebe 0003 193e
00000180: 93c9 0bbf 5e70 0d3f 81b1 663e 2c11 d8bd
00000190: eb83 00be f94f ed3e 40af cdbc 96fa cdbe
000001a0: cbfb 27be 6500 aabe fa5d 973c c485 bebe
000001b0: 6059 24be 0930 3bbd 33cb a43d 9118 cbbd
000001c0: 2853 27be cd59 a2bc 9847 8bbd 1689 f8be
000001d0: 0ecc 013e 4867 f13b 43e1 18bf 28c5 c4be
000001e0: 1d0b 383e bbdd b53c d8ef ca3e 7394 78be
000001f0: 0736 b23a 0f5f a83d 187e b9be c8e1 54be
00000200: c385 e9be 8ded 83be 2ab4 083e 26e9 f1bd
00000210: ed5b 09bd 89ff d4be 6b43 78be fff5 d0be
00000220: 84c7 7abe 5a57 a4be ca7f a2be 9149 26be
00000230: 7f7a a7be 6dc7 aebe 25e1 55be 0390 8abe
00000240: 62da 8e3e a0c5 d63e 7458 27be 6a6a c5be
00000250: f0c4 b53e fd2c 5fbd cbf3 93be 48cc 5dbe
00000260: 969a edbe c69c afbe 5eee 2ebe ac2e fbbe
00000270: 3acf 8ebe 9aee 18be 0972 873d 9c01 bfbc
00000280: fa67 d53d c1dc 1bbd 3c2e 03bf 82ab 0abb
00000290: 1a30 59be 1736 6ebe c455 d7bd a645 d0be
000002a0: 3aec 3dbe 9da1 7ebe 31b4 7fbe bd49 313e
000002b0: a5bc 95be 082a 87be a95e 20be afc4 16be
000002c0: 519a 213e 6be9 efbd 2a35 7a3c de07 c53e
000002d0: 95c0 abbd 3f68 eb3d f1f0 893c 86f2 8ebe
000002e0: 9ae8 8d3d 8049 ad3e eead e03e b1af 66be
000002f0: 1de0 b3be ba4f 233e ed24 98be 55a2 cfbe
00000300: 0aa1 b8bd f563 f2bd f4f0 6fba 81fb 6cbd
00000310: 89d3 3cbe 7000 f23e e392 babd d7a8 71be
00000320: 4d5b 883e 7a5c c03e faa4 ea3e 18a3 7f3e
00000330: 20c5 a73e 8657 813e d273 aa3e 2dd1 423e
00000340: df7c e83d 1977 9e3e 070a ae3e 200a 8a3e
00000350: c371 ba3e c2e4 a63d fe75 923e 8cb5 6a3e
00000360: 8cc0 8d3e f697 d53e 422e 3a3e 746c 263e
00000370: 1709 043f 145f 7d3e 1f82 013f 2760 513e
00000380: 6ae5 b33e 45c0 6b3e 6f86 083e d75e eb3d
00000390: 60c4 683e c0bb 863e 94fd f53e cbf8 a13e
000003a0: f7c5 863e 8190 a13e 41e8 6e3d 9fba 953e
000003b0: c568 a83e 0992 683e f220 343e 65dc 933e
000003c0: ea6a 4f3e 0057 7b3e 9202 653e 544a 5c3e
000003d0: 2734 a23e 42d2 c93e 9e07 bb3e f4e4 5f3e
000003e0: 2ff9 943e 024b cd3e 310e 5e3e b7c3 6f3e
000003f0: d2e7 523e 9c3c 2e3e 4fde c43e 2621 093f
-0.14296536 0.27548775 0.50696146 -0.7013835 -0.116016366 -0.033139005 -0.19558911 -0.43360594
-0.55653393 -0.33215982 0.3301957 0.11266571 -0.23473221 0.17294376 0.28079957 -0.51224756
0.3258192 0.26971892 -0.35597864 0.3378463 0.13318579 -0.4527324 0.35397318 -0.31390586
-0.2046891 0.22938935 -0.2880849 0.128935 -0.689664 -0.41413942 -0.1431978 -0.33530265
-0.006468732 -0.8696716 0.3416094 0.17196794 0.2010659 0.09414866 0.41679588 0.22191256
-0.3375945 -0.68692476 0.34962174 -0.30024284 0.29661134 0.123128854 -0.67793655 -0.6925696
0.48308787 -0.40107632 0.34037727 0.4344818 -0.32760957 -0.3675339 -0.14875701 -0.008822327
-0.48543644 0.003969027 0.29432517 0.091122255 0.2732439 0.18876122 -0.7673485 0.25116953
-0.087012276 0.015982263 -0.08658239 -0.46351537 -0.045619022 -0.14719316 0.36015677 0.14120555
-0.3099086 -0.33568344 0.17269333 0.20405388 -0.022895012 -0.14263266 0.08635949 0.32309082
0.05590714 0.31300837 0.11239513 0.2461972 -0.27349472 0.34548098 0.19944066 -0.11986646
-0.6058881 0.33769122 -0.67575103 -0.69922435 0.0412559 0.18506582 -0.13935663 0.1494255
-0.5460445 0.55249584 0.2252865 -0.1055015 -0.12550323 0.46350077 -0.02510798 -0.40230244
-0.16404645 -0.33203426 0.018477429 -0.3721143 -0.16049719 -0.045700107 0.0804657 -0.09916795
-0.16340315 -0.019818211 -0.06800765 -0.48542088 0.12675497 0.0073670484 -0.5971872 -0.38431668
0.1797299 0.022200456 0.3963611 -0.24275379 0.0013596424 0.08221256 -0.36229014 -0.20789254
-0.45609865 -0.25767174 0.13349977 -0.11812048 -0.033534933 -0.41601208 -0.24244468 -0.4081268
-0.24490172 -0.32097894 -0.3173812 -0.16239001 -0.32710645 -0.34136525 -0.20886667 -0.27062997
0.27900988 0.4194765 -0.16342336 -0.3855775 0.35501814 -0.054486264 -0.28896937 -0.21659958
-0.46407002 -0.34299296 -0.17083117 -0.49059045 -0.27892476 -0.1493477 0.06613547 -0.023316197
0.104202226 -0.038052324 -0.51242423 -0.0021159356 -0.21209756 -0.23262821 -0.10514405 -0.40678138
-0.18547145 -0.24866338 -0.24971081 0.17313285 -0.29245487 -0.26399255 -0.1566111 -0.14723466
0.15781523 -0.11714443 0.015271464 0.38482565 -0.083863415 0.11494493 0.016838523 -0.27919406
0.06929131 0.3384514 0.43882698 -0.22527958 -0.35131922 0.15948382 -0.29715672 -0.40553537
-0.09015091 -0.118354715 -0.0009153031 -0.05785704 -0.1844007 0.4726596 -0.09110048 -0.23599564
0.26632157 0.37570554 0.45828992 0.24964559 0.32767582 0.25262088 0.3329149 0.19025107
0.11351942 0.3095024 0.33992025 0.2696085 0.36414918 0.08149101 0.28605646 0.22920817
0.27685964 0.417175 0.18181708 0.16252309 0.5157637 0.247433 0.50589174 0.20446835
0.35135967 0.23022564 0.13332532 0.11492699 0.22731161 0.26315117 0.48045027 0.31635126
0.2632291 0.3155556 0.058326963 0.29243943 0.32892433 0.22711958 0.17590693 0.28879085
0.20255628 0.24544907 0.22364262 0.21512729 0.31680414 0.39418226 0.3652925 0.21864682
0.29096362 0.4009629 0.21685101 0.23414503 0.20596245 0.17015308 0.38450858 0.53566206

fc2.bias f4 [50]
00000000: 9fae 1a3f 1c11 bd3e baf6 e9be bc57 dd3e
00000010: cf56 0ebf aca2 a8be 9a53 153f 9209 d7be
00000020: fcf8 c13e b4ac ffbe f570 053f 1478 893e
00000030: 0837 f7be 5777 05bf 303e 873f 94b2 efbe
00000040: b8b7 ad3e 6d86 da3f 9611 b5be 01fd 1e3f
00000050: 1c8b 8e3f 843f d5be 9f5b 07bf f488 223f
00000060: d5db 0bbf 9682 9b3f a186 12bf ad26 01bf
00000070: 7bfb d5be dd93 3f3f 75ca 4c3f 5a2f e0be
00000080: 496f 963e b449 efbe 76f2 c13e 92e4 cebe
00000090: 53f9 adbe c326 dcbe 18ec ecbe af10 efbe
000000a0: 41d7 c83e 6816 ffbe 1092 9c3e 0180 1abf
000000b0: 3df8 eabe f77e 973e 180c f4be 810e ccbe
000000c0: ac1f a1be 3aea 213f
0.604227 0.36927116 -0.4569605 0.43231 -0.5560121 -0.3293661 0.5833069 -0.4199949
0.37885273 -0.4993645 0.52125484 0.26849425 -0.48284173 -0.52135223 1.0565853 -0.46815932
0.3392923 1.7072273 -0.3536498 0.62104803 1.1136203 -0.4165002 -0.5287418 0.63490224
-0.5463231 1.2149227 -0.5723668 -0.5044964 -0.41793427 0.74834996 0.79996425 -0.43786126
0.2938178 -0.4673592 0.37880296 -0.4040876 -0.33979282 -0.42998323 -0.46273875 -0.46692416
0.39226726 -0.49821782 0.30580187 -0.6035157 -0.45892516 0.29589054 -0.47665477 -0.39854816
-0.31469476 0.63248026

fc3.weight f4 [1, 50]
00000000: fcf3 47bf 14f9 5bbf 2049 f33e 93cf 72bf
00000010: 7508 be3e ce13 e73e 42ab 79bf 1d54 f73e
00000020: b094 48bf 3a2a c83e f9a2 53bf d381 60bf
00000030: b7c2 c83e b481 d83e ec64 b0bf a453 ce3e
00000040: 29ab 5abf 047c ebbf 268b f13e 6cb4 7abf
00000050: f290 aabf 96b9 d43e fb62 bc3e 154c 97bf
00000060: 2ff9 d13e 0d66 8dbf 213b be3e cd04 de3e
00000070: 9b82 f33e 233c 40bf 5dd5 34bf 4f81 c93e
00000080: af44 64bf de2e d83e 750a 5bbf d1ea d73e
00000090: 95f3 df3e e112 003f 4598 c63e 8803 c33e
000000a0: 221f 76bf 8141 d53e 9b07 73bf b6bf ba3e
000000b0: a40e ef3e 3ffe 6abf e024 de3e 8192 ee3e
000000c0: c5dc e13e abd2 68bf
-0.78106666 -0.8592694 0.47516727 -0.94847983 0.37115827 0.45132297 -0.97526944 0.4830636
-0.7835188 0.39094716 -0.8267055 -0.87698096 0.39211056 0.42286456 -1.3780799 0.40298188
-0.8541742 -1.8397222 0.47176474 -0.9793155 -1.3325484 0.4154784 0.36794266 -1.1820093
0.41010424 -1.1046768 0.37154487 0.43363038 0.47560582 -0.7509176 -0.70638067 0.39356467
-0.891673 0.42223257 -0.8556283 0.42171338 0.43740526 0.50028807 0.38788047 0.38088632
-0.96141255 0.41651538 -0.9493348 0.3647439 0.46690857 -0.917942 0.43387508 0.4659615
0.44113746 -0.90946454
