Radiomics_local_global_framework/models/lasso_feature_selection/Neural_Network/global_flair_t1ce_t2___local_flair_t1ce/model.pt (torch, 564404 bytes, 5 tensors)

fc1.weight f4 [200, 651]
000000 5e 6f 04 bd 13 c1 56 3e 8f da fb bc 88 5d 59 bd
       -0.03233277 0.2097209 -0.030743865 -0.053067714
000010 f0 cb 0e 3d 16 9d 93 3d b3 5e 40 bb 28 3e 4e 3d
       0.03486246 0.07207696 -0.002935332 0.050352246
000020 24 de 7f 3b 7c 89 4b bc c1 ff e6 3d 0e 8c a5 bd
       0.0039042318 -0.012422916 0.1127925 -0.08083354
000030 cc 9f 4f bd 57 ef 57 bd cc 1f ce bc 56 6b 1e 3d
       -0.050689504 -0.052718487 -0.025161646 0.038676582
000040 0c 7e e4 bd 8e 15 fe bd d4 6a 23 bd 77 de da 3c
       -0.11156854 -0.12406455 -0.0398968 0.026717408
000050 23 99 04 bd 86 d5 16 bd 9c 52 77 3c 49 ac 7d bd
       -0.032372605 -0.036824726 0.015095379 -0.061931882
000060 44 36 1d bc 05 3b 7f bd 4c fd 16 3b fd c1 e0 3d
       -0.009595457 -0.062312145 0.002303916 0.109745
000070 00 99 b4 3c 4a e9 a4 bd bc cf d2 3c 88 56 de bc
       0.022045612 -0.08052309 0.025733821 -0.02714087
000080 56 62 54 3d d3 37 89 3c 71 c5 35 bd 34 2a 87 3d
       0.051851593 0.016750252 -0.044377748 0.065998465
000090 ae bd 65 3d 88 00 26 bd 36 e6 5a bd 5a 28 40 3b
       0.056089096 -0.04052785 -0.053442203 0.0029320926
0000a0 d5 b6 9b 3b 49 97 99 bd ef 94 7d 3c 86 f1 76 3d
       0.00475202 -0.074995585 0.015477403 0.06028893
0000b0 78 4d 8e 3d e8 1e e7 bd 62 ac 78 bd 1a 03 aa 3d
       0.0694837 -0.11285192 -0.060711272 0.08301373
0000c0 0e 7a 30 3d f8 dd ed bd ea c3 39 be ec cc 96 3a
       0.04308515 -0.11614603 -0.18141142 0.0011505163
0000d0 fb d2 74 3d 6b 80 7d bd 1d 52 e7 bd b8 64 b9 3b
       0.05977152 -0.061890047 -0.11294959 0.0056577586
0000e0 2e 6c d2 bc 39 51 91 bc 49 44 75 bd 34 81 d9 3d
       -0.02568635 -0.017738925 -0.059879575 0.10620347
0000f0 9a bf 56 3d 22 93 98 bb ee 64 e2 bd 0e a7 24 bd
       0.05242882 -0.0046562115 -0.11054407 -0.04019838
000100 c2 08 89 3d b3 ec bc bd 1f 4b 68 3b f2 fc e1 bc
       0.066911235 -0.09224834 0.0035445166 -0.027586434
000110 41 6b 75 3c 94 a2 35 bd f4 a3 d6 bc 7e 21 4e 3e
       0.014979185 -0.0443445 -0.026201226 0.20129964
000120 ae 6d 49 bd 42 84 fd 3d 1a 8c ad 3c 62 44 4a 3d
       -0.049176864 0.12378742 0.02118497 0.04938162
000130 6a 7c f3 bc b2 5f f8 3b 96 8f 96 bd 8f 86 54 bc
       -0.029722411 0.007579767 -0.073516056 -0.012971534
000140 7e 57 c4 3d 02 1d 57 bc eb a8 86 be 7c 58 3e be
       0.09587 -0.013129475 -0.2630075 -0.18588442
000150 cd ad 3d 3d 72 b7 1e 3e fa c8 b6 3d 29 20 95 3c
       0.046308327 0.15499666 0.08925052 0.018203812
000160 8d 68 0d bd 06 be 3e be 8e 84 2c 3d b0 c5 40 bd
       -0.034523536 -0.18627176 0.0421186 -0.04706353
000170 22 28 5d 3d ce ae 49 bd ec 53 34 3c 98 d4 a7 bd
       0.05399335 -0.049238972 0.011006337 -0.08194846
000180 b7 34 ae 3d 70 cf 90 3d fd fc 87 3d c1 0f 98 3d
       0.08506148 0.070708156 0.066400506 0.0742488
000190 8f 84 4f bd af a0 20 bd d1 2c 87 bc 37 aa 15 3d
       -0.050663527 -0.03921574 -0.016500862 0.036539283
0001a0 5b b3 5b bd 92 52 63 3d 57 a1 f5 bc 2d 27 e7 bd
       -0.053637844 0.055498667 -0.02998416 -0.11286769
0001b0 e9 ca 37 3c cd bd 0f 3c e3 d4 5c 3d ae 88 5c be
       0.011217811 0.008773279 0.053913962 -0.21536514
0001c0 b7 c4 de 3c 3e 15 33 3c 51 59 4a 3d 7c 58 be 3c
       0.02719341 0.0109303575 0.049401585 0.023235552
0001d0 e5 43 d4 bd bd 5f 36 bd 8c 01 14 bd 88 6b 3c bd
       -0.10364512 -0.044524897 -0.036134288 -0.046000987
0001e0 af 70 9c bc dc 03 5c 3e 1e 56 7d 3e 8d 5c 41 3d
       -0.0190967 0.21485847 0.24739882 0.047207404
0001f0 45 a7 23 bd b6 2e 63 3d 0b 43 02 bc bc 1b e7 bc
       -0.039954443 0.05546447 -0.007950555 -0.028211467
000200 b0 05 02 3e 20 4e 38 bd f3 39 5a 3d 67 6b 86 bc
       0.12697482 -0.04499638 0.05327792 -0.016408635
000210 d6 e6 45 3d 0c 6d 5a be 2c 68 b9 3d 7e a8 62 bd
       0.048315845 -0.2133066 0.09053072 -0.055336468
000220 ad 71 18 be 78 60 86 bd 47 be 88 bc c8 47 85 bc
       -0.14887114 -0.06561369 -0.016692294 -0.01626958
000230 f6 ee 74 bd aa 5e e3 bd af 68 0c 3d db 88 12 bc
       -0.059798203 -0.1110204 0.03427952 -0.008943762
000240 7a 9d 8e 3d f0 46 94 bd 77 9f 71 bd 24 f1 90 bc
       0.0696363 -0.07240093 -0.05898997 -0.01769311
000250 95 18 27 3d ba 8d 07 bd 94 3e b2 3d e7 6b 17 bd
       0.040794928 -0.033094145 0.08703342 -0.036968138
000260 8f 79 dc 3d 51 78 00 3d ae c3 05 3e a1 dd 50 3e
       0.10765373 0.031364743 0.13062927 0.20397045
000270 b4 cc 56 3b 53 ca df bb fc bd 6c bb d3 1e 46 ba
       0.0032775821 -0.006829539 -0.0036123982 -0.0007557694
000280 f3 63 38 bd 84 81 57 3c e2 00 05 3c 77 0a 8e 3d
       -0.045017194 0.0131534375 0.008117886 0.0693559
000290 93 a5 2a be d2 fe b2 bb 4a 43 13 3d 74 10 ce bc
       -0.16664724 -0.005462506 0.035952844 -0.02515433
0002a0 ee 36 fe bc 6b 99 dc 3b 30 30 aa bc 35 19 f0 3c
       -0.031032052 0.006732156 -0.02077493 0.029308895
0002b0 96 91 4e bc e1 17 a7 3d 84 6c 98 3d 94 0a ab 3d
       -0.012607953 0.081588514 0.07442573 0.08351627
0002c0 f5 97 fa 3c 1a 73 1f 3e 1c 7f 40 3e 89 9b 95 3b
       0.030590037 0.15571252 0.18798488 0.0045656604
0002d0 3c 46 8d bb 56 2b de ba b4 7a 08 bd cd f5 23 3d
       -0.004311351 -0.0016950171 -0.033320144 0.040029336
0002e0 91 1a 8e 3d 73 79 25 3d 20 d9 35 3c e9 96 44 bc
       0.06938661 0.040399026 0.01109913 -0.01199887
0002f0 9e d8 c7 3d 45 f1 cb bb 4e 16 b5 3c 97 df 3e 3d
       0.09758113 -0.00622383 0.022105362 0.04659995
000300 44 bb 8c bd a9 60 5c 3d 4e 21 1f bd 60 97 4c bc
       -0.068716556 0.05380312 -0.03885012 -0.0124872625
000310 2f 94 87 3b 81 ee a8 3c 38 de 79 bd fa fd 0e be
       0.004137538 0.02062154 -0.06100294 -0.13964072
000320 2d 12 cd bc de 50 39 3c 9a 64 c5 3c 89 9d 4f 3c
       -0.025033081 0.011310784 0.024095822 0.012671837
000330 56 b6 47 3d 2c d5 18 bc 30 53 bd 3c 93 f6 3e be
       0.048757873 -0.009328168 0.023110956 -0.18648748
000340 9c 4b ce bc b9 85 01 bd 7b 5b 31 bd 37 1e 9f 3e
       -0.025182538 -0.03162167 -0.043300133 0.3107774
000350 a6 2a 10 3e dc f4 bc bc 46 79 8f 3d 55 33 67 3d
       0.14078769 -0.023065977 0.07005553 0.05644544
000360 75 0c 06 be 24 05 45 be a3 c9 3c be 64 b2 1e 3c
       -0.1309069 -0.19240242 -0.18436293 0.009686086
000370 1e cc 03 be 60 73 b1 ba c1 18 50 3d 70 bb 15 be
       -0.12870833 -0.0013538413 0.050804857 -0.14622283
000380 6e 38 47 bd df 80 77 bd f6 b6 64 bd 0a c4 71 bd
       -0.0486378 -0.060425635 -0.055838548 -0.059024848
000390 fa 2b c2 3c ea 0f ac 3d 12 8e c9 bc 75 95 94 bd
       0.02370261 0.08401473 -0.024603877 -0.07255069
0003a0 9a d7 cf bd ca ba be 3a f6 b3 ff 3d ae 97 4e be
       -0.101485446 0.0014551517 0.12485497 -0.20175049
0003b0 ff 74 0a bd 56 64 ba 3c be 7e de 3b 34 f2 88 bd
       -0.033802982 0.022752922 0.006790011 -0.066868216
0003c0 e5 86 9f 3b a8 d2 8c 3d 05 96 02 3d f2 26 22 bd
       0.0048683756 0.06876117 0.03188135 -0.039587922
0003d0 b4 19 55 3d 34 ae 4d bd 4c 41 e5 3d 5d b7 99 bd
       0.052026466 -0.05021496 0.11194095 -0.07505677
0003e0 6d c5 bb 3c 48 91 96 3c 6e 29 05 be 89 03 d5 3c
       0.022921288 0.018379822 -0.13004085 0.026002662
0003f0 10 4e ef bd f6 5f d2 bd 07 f1 53 be e9 68 26 bc
       -0.11684811 -0.10272209 -0.20697413 -0.0101568485

fc1.bias f4 [200]
000000 b1 1c 83 bf 1c e9 55 be 9e b7 a5 be 3e c4 1c bf
       -1.0243131 -0.20889705 -0.3236665 -0.6123694
000010 39 ad 56 bf 43 fc 32 be e8 13 b0 be 55 47 a2 be
       -0.83858067 -0.17479043 -0.34390187 -0.31695047
000020 87 de 0e be 48 70 ca be e6 9d 1f be 38 ff cd bd
       -0.13952075 -0.3953879 -0.15587577 -0.10058445
000030 ea 83 27 bf e3 b7 1b be 66 ac 46 be c3 2e 9e be
       -0.6543566 -0.15206866 -0.19401702 -0.3089505
000040 d4 a1 b2 be 5d f1 2a bf 87 1a 88 be 81 b6 43 be
       -0.3488909 -0.6677454 -0.2658274 -0.19112588
000050 9a 7c 05 bf d3 cf 85 be 52 6c c6 bd d3 32 81 bd
       -0.5214325 -0.2613512 -0.09688629 -0.06308522
000060 ef 1f 9d bd 9b 06 63 be 55 cf 90 bd d1 6b 76 be
       -0.076721065 -0.22170489 -0.070707954 -0.24064566
000070 24 a1 89 bf 78 ba 96 be f4 3c a2 bd d2 ac 0d bf
       -1.0752301 -0.2943914 -0.07921782 -0.5534183
000080 84 0f d0 be 87 d0 9f bd 7c 5d 38 be fe 86 04 bb
       -0.40636837 -0.07803445 -0.18004411 -0.0020222063
000090 78 10 a9 3d 2a 5b 70 bf 4d 2f 03 bd c4 05 78 be
       0.08255094 -0.93889105 -0.03202753 -0.2422095
0000a0 ed 0f 86 be 80 40 44 be 09 85 c8 bc 93 1f 25 be
       -0.26184025 -0.1916523 -0.024477499 -0.16125326
0000b0 60 c9 52 bf 69 1e 89 bd c1 5e cf be b3 f7 5e bd
       -0.82338524 -0.066952534 -0.4050198 -0.054435443
0000c0 4e 90 16 be 07 9a 36 be f4 d7 a3 bd b8 94 d3 be
       -0.14703485 -0.17832194 -0.08000174 -0.413244
0000d0 ac 47 f9 be 28 f6 48 be 0a 9e 7c be 08 62 ff be
       -0.48687494 -0.19625151 -0.24669662 -0.4987948
0000e0 b0 91 3a bd 09 17 71 be 4e 63 4a bf 95 b9 e9 bf
       -0.045549095 -0.23543943 -0.79057777 -1.825976
0000f0 a2 7e 1d be bb 05 d9 bd be 1b bd be b9 2f 00 be
       -0.15380338 -0.10596796 -0.36935228 -0.12518205
000100 81 d9 f1 bd 5b 47 35 be b7 36 48 be 7b d5 92 be
       -0.11809064 -0.17703001 -0.19552122 -0.28678498
000110 b1 b4 5e be 1f 46 10 be ef 50 5a be 74 49 36 be
       -0.21748616 -0.14089249 -0.21319936 -0.17801458
000120 83 31 00 bf 59 89 ac be a4 74 25 bf b5 0e 89 be
       -0.5007555 -0.33698538 -0.64631104 -0.26769033
000130 34 a5 bc be 80 94 bd be c5 68 aa be f9 55 8e be
       -0.3684479 -0.3702736 -0.33283058 -0.27799967
000140 52 5f 97 bf 93 c4 cc be d0 4a fc bd a3 87 d7 bd
       -1.1825964 -0.39993724 -0.12318957 -0.105239175
000150 c4 19 a6 be 16 40 58 bf 9b 12 58 be 16 98 90 be
       -0.32441533 -0.8447279 -0.21100847 -0.28241032
000160 c6 76 b9 be d6 10 e5 be bf 53 b0 be cb 3a 60 be
       -0.3622343 -0.44739407 -0.34438893 -0.21897428
000170 76 2e 87 bd ac b1 51 be 8e b6 49 bd c0 9f 1e bd
       -0.066006586 -0.20477933 -0.049246363 -0.03872657
000180 1a ac 00 be 13 d0 42 bf 99 c1 0b be e5 90 52 bf
       -0.12565652 -0.76098746 -0.1364807 -0.8225234
000190 06 66 3d bf a5 89 16 be 56 ed ee bc 4c 84 19 be
       -0.739838 -0.14700945 -0.029165905 -0.14991874
0001a0 47 bf d3 bd 91 4b e6 be 42 3f 81 bf 68 aa 90 bc
       -0.10339218 -0.44979528 -1.009743 -0.017659381
0001b0 6d c4 48 be e6 27 f2 bd 57 e0 a4 bd 7b e0 a5 bf
       -0.1960618 -0.11824016 -0.08050602 -1.2959131
0001c0 02 8a a7 bd d0 59 cb bd 04 e3 5b be 09 11 c7 bd
       -0.0818062 -0.0992924 -0.21473318 -0.09720046
0001d0 41 a7 94 be 8b 4b 6a bd fa eb 99 be a2 29 99 be
       -0.29033855 -0.05720095 -0.30062848 -0.29914576
0001e0 73 be 4c be e3 41 84 bd e0 8e a7 be 07 df 88 be
       -0.19994526 -0.064578794 -0.32726192 -0.26732656
0001f0 50 c8 83 bd 29 ec ed be 6d b3 6e be 0a 7c 07 be
       -0.06434691 -0.46469238 -0.23310633 -0.13230911
000200 e6 51 b7 be f5 d8 89 bd 8d 14 6f be 0c d3 87 bd
       -0.3580467 -0.067308344 -0.23347683 -0.06632051
000210 8d 63 72 be 89 4b 07 be 70 03 1e bf 71 0d 30 be
       -0.23670788 -0.13212408 -0.61723995 -0.17192627
000220 fe 37 75 bd 97 44 1e be 56 ea 99 3a 98 25 bf bd
       -0.05986785 -0.15455852 0.0011742811 -0.09333342
000230 61 ac 88 be 9d f9 42 be d9 e9 04 bf a7 37 e6 bd
       -0.26694015 -0.19040532 -0.51919323 -0.112410836
000240 e0 07 83 be c7 de 0e be 24 2f 27 be 17 0d 15 be
       -0.25591946 -0.1395217 -0.16326576 -0.14555775
000250 4a 2a 11 be 64 57 83 bf 63 b0 f3 3b 9b 75 67 be
       -0.14176288 -1.0261045 0.0074367984 -0.22603457
000260 23 f0 e8 bd c1 d8 55 be 15 9f c5 bb 3f 9e 43 be
       -0.113739274 -0.20883466 -0.006030927 -0.19103335
000270 03 fd 91 bd 94 d9 9a bd 55 1f f6 be 1f 66 ad bf
       -0.07128336 -0.07561031 -0.4807078 -1.354679
000280 96 08 bd bd 6c a3 7e be 36 8a 80 be 6e bb 39 be
       -0.09230153 -0.24867028 -0.25105447 -0.18137905
000290 b7 41 48 be 15 c5 35 be 32 84 64 be 37 6d 0e be
       -0.19556318 -0.17750962 -0.22316054 -0.1390885
0002a0 0a e8 57 bd 83 11 6e be bc 45 c3 be 16 32 9d be
       -0.052711524 -0.23248868 -0.3813914 -0.30702275
0002b0 50 63 da 3d 50 2f 82 be 5b 38 31 bd 2d de 96 bf
       0.106634736 -0.25426722 -0.043266635 -1.1786553
0002c0 f7 c1 ef bd 53 37 07 be e1 fc fb bd 85 62 5c bf
       -0.11706918 -0.13204698 -0.12304092 -0.8608783
0002d0 c2 40 c9 bd b2 fb c8 be 6c e8 7e be be 4d 6b bf
       -0.09826805 -0.39254528 -0.2489335 -0.919155
0002e0 c7 79 9c bd 83 5b 84 be e7 57 3c bf 32 af f6 be
       -0.07640415 -0.25851068 -0.7357163 -0.48180538
0002f0 13 88 74 be c4 f7 99 be 96 11 87 bf 41 cd 6b bf
       -0.23880033 -0.30071843 -1.0552242 -0.9211007
000300 50 3c d9 bd 7a a2 d7 bf dd 92 f7 bc de 6c 9f 3d
       -0.10607207 -1.6846459 -0.030221397 0.07784437
000310 00 ba 38 be 0a 25 7b be 96 76 0d bf 19 e4 ae 3c
       -0.18039703 -0.24525848 -0.5525907 0.021349

fc2.weight f4 [50, 200]
000000 b6 fe 9a 3d 4c c1 5a 3e 2c f1 52 3d 78 c5 8d 3c
       0.075681135 0.213628 0.05149953 0.017306075
000010 f5 c8 36 3c 5a 9f 9e 3e 72 86 b6 3d 4e c5 14 3e
       0.01115631 0.3098095 0.08912362 0.14528391
000020 44 42 87 3d 44 a6 2b 3e 3f 57 39 3e ed a7 8e 3e
       0.06604436 0.16762644 0.18099688 0.27862492
000030 79 7c 2b 3d 1c 53 8a 3d f0 14 c3 3d 5e 05 f0 3d
       0.041866753 0.06754133 0.09525478 0.11719774
000040 01 80 bd 3c db 66 a1 3d fe 4f 0f 3b 5c 40 77 3e
       0.023132326 0.07880946 0.0021867747 0.24145645
000050 40 49 1b 3e 13 b0 be 3d f9 31 32 3e 78 37 53 bc
       0.15164661 0.09310927 0.17401876 -0.012891643
000060 57 25 14 3e 2b b6 73 3e e0 1b 15 3e a5 e9 63 3e
       0.14467369 0.2379996 0.14561415 0.22257097
000070 18 fe 05 3e a7 25 5e 3e 42 b1 48 3e b8 a0 10 3e
       0.1308521 0.2169405 0.19598868 0.1412381
000080 36 14 e0 3d 6b 8f 21 3e fd 52 1b 3e 32 e9 0b 3e
       0.10941355 0.15777366 0.15168376 0.13663176
000090 c6 c1 a2 3d b1 0f 05 3e ea a6 50 3e 8e 03 5e 3d
       0.079471156 0.12994267 0.20376173 0.05420261
0000a0 dc c9 6f 3e 6e 8b 31 3e 94 cf b0 3e 4f 94 af 3e
       0.23416847 0.17338344 0.3453337 0.34292838
0000b0 66 11 9d 3d 69 1a 43 3e 81 37 01 3e 47 d2 63 3e
       0.07669334 0.19053043 0.1261883 0.22248183
0000c0 9f 8f 35 3e c3 24 a8 3d e7 5c 40 3e a0 31 66 bc
       0.17730568 0.08210137 0.1878544 -0.014049917
0000d0 db cd a0 3d 7f 4e 03 3e cf a6 84 3e 7b 67 25 3e
       0.07851764 0.12822913 0.25908515 0.16152756
0000e0 3c 7d 54 3e ba f8 57 bd 75 45 5f 3e 47 a1 ae bb
       0.20750898 -0.05272744 0.2180384 -0.0053292844
0000f0 43 1e 47 3e 4a 20 52 3e cd 97 73 3d 70 9b 15 3e
       0.19445138 0.2052013 0.05947094 0.14610076
000100 8a 67 d5 3d 65 c4 8a 3e c0 77 c8 3d 42 cd bc bc
       0.10420139 0.27102962 0.097884655 -0.023047093
000110 5d 22 8a 3e 6f b6 84 3e f9 76 2a 3e 30 97 a4 3e
       0.26979342 0.25920436 0.16646947 0.32146597
000120 1e 41 26 3e d6 81 46 3e 4d ce 84 3b 6d 5b 86 3e
       0.16235778 0.19385466 0.0040529133 0.26241627
000130 ed 5c 6d 3e db e6 38 3e 2a a0 b8 3d 5d 99 58 3e
       0.2317998 0.18056814 0.09014924 0.21152253
000140 69 c9 c7 3d db 82 6a 3e 80 b7 d0 3e 7e bd 2d 3d
       0.09755213 0.2290148 0.40765 0.042417042
000150 2d 2d 98 3d 61 12 63 3d 30 4f 0d 3e 03 18 0f 3e
       0.074304916 0.05543745 0.13799739 0.13974003
000160 06 a9 47 3c fb 94 2c 3d dc ba 70 3d b9 9d 33 3e
       0.012186294 0.042134266 0.058771953 0.17540635
000170 89 fb bc 3d 19 19 38 3e 4d 73 95 3e ac b5 2b 3e
       0.09227664 0.17978324 0.2918953 0.16768521
000180 bb b2 33 3e f4 36 8f 3c 78 6a 2e 3e bd f3 05 3e
       0.17548649 0.017482258 0.17032802 0.1308126
000190 34 32 bd 3d 93 84 5d 3d 16 30 23 3e 9d ed 0c 3e
       0.09238091 0.05408151 0.15936312 0.13762517
0001a0 e5 d2 0b 3e 16 fd 28 3d dd e6 5e 3d 8b b6 fe 3d
       0.13654669 0.041256987 0.054419387 0.12437161
0001b0 30 1f 03 3e cf 28 e6 3c 88 7f 15 3e c7 bc 9c 3d
       0.12804866 0.02809563 0.1459943 0.07653194
0001c0 fa 20 fa 3d e4 ad 3f 3e 79 ab 46 3d 15 69 d7 3d
       0.12213321 0.18718678 0.048503373 0.1051809
0001d0 bc b4 3d 3e 1e 57 57 3d 5c e3 83 3d 69 79 1a 3e
       0.18525976 0.052573316 0.0643985 0.15085377
0001e0 f9 fd d8 3d 19 d7 0e 3e 11 17 28 3e 2e 7c 0e 3e
       0.105953164 0.1394924 0.16415049 0.13914558
0001f0 66 46 fa 3d 7e 0e 53 3d 5e a1 0a 3e 8e 6c 83 3e
       0.12220459 0.051527493 0.13538119 0.25668758
000200 0a 87 76 3e 58 6a 43 3e 3a a5 ca 3d 75 79 1e 3e
       0.24074951 0.19083536 0.09894796 0.1547602
000210 a6 af 8e 3d 21 2f 6b 3e 5e 62 05 3e 94 07 16 3e
       0.06967096 0.22967197 0.13025805 0.14651328
000220 e0 d6 d7 3d 62 ae c7 3d 91 7b 3b 3e 22 e8 1a 3e
       0.10539031 0.09750058 0.18308856 0.15127614
000230 66 cd 39 3e 03 d4 40 3e 9c fc c7 3d e6 ab a5 3d
       0.1814476 0.18830876 0.09764978 0.08089428
000240 da 1d 9d 3e e8 5a 41 3e cd 47 a1 3d d4 54 33 3e
       0.30686837 0.18882334 0.07875023 0.17512828
000250 93 39 f4 3d f4 e3 8b 3d 01 d9 73 3d 5c 04 4c 3d
       0.11925044 0.06830588 0.059533123 0.049808845
000260 4c fd 69 3e d2 7a 33 3e 6e c1 9e 3e cd 40 92 3e
       0.22850531 0.17527321 0.3100695 0.28565064
000270 f5 1d 45 3e 05 5b 37 3e 35 50 a3 3d d6 b6 ff bc
       0.19249709 0.17905815 0.07974283 -0.031215113
000280 4f 33 aa 3e 7a c4 1a 3e 87 50 e4 3d 31 4d 81 3e
       0.3324227 0.15114012 0.11148172 0.25254205
000290 59 d7 26 3e f5 a5 a2 3e c8 62 1f 3e 42 fe d0 3d
       0.16293086 0.3176724 0.15565026 0.10204746
0002a0 9c 5c 18 3e d4 e7 d2 bc 05 28 c8 3d ed 59 8b 3d
       0.14879078 -0.02574531 0.09773258 0.06804261
0002b0 61 c5 7e 3e 34 57 c7 3d 08 16 8c 3d 0d 3c 67 3d
       0.24879982 0.097334296 0.068401396 0.056453753
0002c0 b9 0a e7 3e d8 f4 54 3e e5 11 29 3e ea b5 34 3d
       0.45125368 0.20796525 0.16510732 0.0441188
0002d0 04 eb 85 3e eb 5f 3a 3d 24 cd 7c 3e ab b4 eb 3d
       0.26155865 0.04550163 0.2468763 0.11509069
0002e0 0c 55 aa 3e 36 e5 70 3e 28 bf ca 3d 61 b9 07 3d
       0.3326801 0.23524937 0.098997414 0.033135775
0002f0 33 55 2a 3c a9 ea cf 3d b0 0e 06 3e 8c 6f ed bc
       0.01039629 0.1015218 0.1309154 -0.028983854
000300 ed a7 39 3e 5a 5f 3c 3d 40 98 ec 3d cf b4 62 3d
       0.18130465 0.04598937 0.11552477 0.055348214
000310 34 44 05 3e 8b 87 07 3e c8 04 28 3d 3a e8 18 3e
       0.13014299 0.132353 0.041020185 0.14932337
000320 0e de a1 3d 2f 3a 7c 3e d7 02 99 3d 1f 01 80 3d
       0.07903682 0.2463157 0.07471245 0.06250214
000330 fc d5 0c 3d 01 cf 7d 3e e1 67 2a 3d cf a4 0a 3e
       0.03438376 0.24785997 0.041602973 0.13539432
000340 84 95 9f 3d af ba 5c 3e e0 26 3e 3e 0d c7 32 3e
       0.0779219 0.21555589 0.18569517 0.17458744
000350 e9 de 5f 3d 46 f6 c3 3d 16 85 0a 3d 29 9d 19 3e
       0.054655943 0.09568457 0.033818327 0.15001358
000360 45 56 b7 3d 48 bb 17 bc e7 53 e3 3c 63 d5 5b 3e
       0.089520015 -0.00926096 0.027749969 0.2146812
000370 b0 9b ad 3d b8 f5 39 3e d0 ee e4 3d 64 d5 9b 3d
       0.08476961 0.1816014 0.11178362 0.076090604
000380 43 aa 08 3e 1a 64 5c 3e 34 c9 6f 3e cc 48 18 3e
       0.133462 0.2152256 0.23416597 0.1487152
000390 f3 f0 44 3d 60 6a 15 3e 85 1c 3e 3e 13 c0 f2 3d
       0.04808135 0.1459136 0.18565567 0.118530415
0003a0 73 b8 ac 3d 4c 0f 6a 3e 27 17 66 3e d0 01 64 3d
       0.084336184 0.22857398 0.2246977 0.05566579
0003b0 c1 82 4c 3d 30 c9 db 3d 16 10 aa 3d 21 1a 1d 3e
       0.049929384 0.10731733 0.083038494 0.15341999
0003c0 67 af 3f 3e d2 8d 91 3e d8 57 96 3e 3f c0 8d 3e
       0.18719254 0.28428513 0.29363894 0.27685735
0003d0 e7 7f a4 3d 0f 42 2b 3e 08 25 25 3e 0f 01 20 3e
       0.08032208 0.16724418 0.16127408 0.15625404
0003e0 6d c6 0d 3e fd 90 60 3d 30 7b 6a 3e 15 24 a9 3d
       0.13845225 0.05482577 0.22898555 0.08258835
0003f0 7a 4f 74 3d 23 fd 01 3e 00 2a 51 3e 94 83 ad 3d
       0.059646107 0.1269422 0.20426178 0.08472362

fc2.bias f4 [50]
000000 82 60 6e 3e 20 ae 8b 3e 29 20 1b 3f ce 92 a1 3e
       0.23279002 0.27281284 0.6059595 0.31557316
000010 67 68 59 3e 73 1b b0 bd 66 6a 64 3e 11 4d 1a 3e
       0.21231233 -0.085989855 0.22306213 0.15068461
000020 6c fe 86 3e f8 b0 18 bb 9d f5 37 3e 86 59 8f 3e
       0.26365983 -0.002329884 0.17964788 0.27997988
000030 da 0d 92 3e f9 f4 a8 3e 4d 42 84 3e f2 08 28 3e
       0.28526193 0.329994 0.25831833 0.16409662
000040 07 14 ea 3e a7 12 b5 3e a5 e9 58 3e c2 c9 a4 3e
       0.45718405 0.35365793 0.21182878 0.3218518
000050 a0 91 75 bd 6e 02 26 3f 7f cb 52 3e 78 21 8e 3e
       -0.059953332 0.6484746 0.2058544 0.2775991
000060 bb e9 06 3e 5e 04 68 3e 4c 57 45 3d c1 bc 33 3e
       0.13175099 0.22657916 0.048178956 0.17552473
000070 a5 fc e7 3e 76 45 fd 3d 0e fc 8e be ea 3d 6c 3e
       0.4530994 0.12366764 -0.27926677 0.23070493
000080 15 fe 86 3e 64 3a 8f 3e 6b 49 95 3d 4a 3e 06 3e
       0.26365724 0.27974236 0.07289394 0.13109699
000090 55 f3 0b 3e 2b 65 ba be eb 77 b7 3e 8b 01 67 3e
       0.13667043 -0.3640531 0.35833678 0.22559182
0000a0 3d 62 85 3e 7d 20 aa 3c 60 f9 45 bb 04 7d 92 3e
       0.26051512 0.020767445 -0.0030208454 0.28611004
0000b0 65 21 67 bd f6 f6 f1 3e 2e 94 32 3f b2 46 31 bc
       -0.056428332 0.4725873 0.69757354 -0.010820078
0000c0 f1 61 a3 3e ef c5 4f 3e
       0.3191066 0.2029035

fc3.weight f4 [1, 50]
000000 ee db 55 3e 8f a3 41 3e a2 cc 6b bf 24 7d 63 3e
       0.20884678 0.18910049 -0.9210912 0.22215706
000010 05 96 23 bf 34 be 24 bd e4 df 83 3e 89 89 10 bf
       -0.63900787 -0.040220454 0.25756752 -0.5645986
000020 ba 37 87 3e 06 e4 b9 bc 88 7e 36 3e 6f 66 7f 3e
       0.26409703 -0.022691738 0.17821705 0.24941419
000030 5c ea 5b 3e 44 f0 5e 3e 51 fb 34 3e 55 5e 32 3e
       0.2147612 0.21771342 0.17673995 0.17418797
000040 86 47 56 bf 70 c3 37 bf 34 8d 06 bf 58 93 7e 3e
       -0.83702886 -0.7178259 -0.5255921 0.24860895
000050 1c 75 1a bf 24 06 52 bf 84 3b 5d bf c5 e1 57 3e
       -0.60334945 -0.8204062 -0.8641894 0.21082218
000060 33 24 36 bf e6 37 7a 3e 79 3b 3e 3e 05 5f 24 3e
       -0.71148986 0.24435386 0.18577375 0.16051872
000070 b3 3e 2e bf 64 7d 24 3e 91 c3 14 bf 01 9a 60 3e
       -0.6806442 0.16063458 -0.5811091 0.21933748
000080 96 b2 6a 3e 1c 76 12 bf 7c 8b ef be 6f 16 2e 3e
       0.22919688 -0.5721147 -0.46786106 0.17000745
000090 72 e5 36 3e dc 25 de be dd f7 9b be e8 ab 65 3e
       0.17860964 -0.4338826 -0.30462542 0.22428858
0000a0 3d 99 57 3e 64 1a 20 bf 0d a1 b3 be 9a b0 6b 3e
       0.2105455 -0.6254027 -0.3508381 0.23016587
0000b0 91 99 ff bd 02 32 34 bf 30 a3 d3 3f 52 fa 15 3c
       -0.12480462 -0.70388806 1.6534176 0.009153919
0000c0 81 73 87 3e 51 9b 4c 3e
       0.2645531 0.19981124
