Radiomics_local_global_framework/model_og/models/Stochastic Gates_feature_selection/Neural_Network/global_flair_t1ce___local_t2/model.pt (torch, 459572 bytes, 5 tensors)

fc1.weight f4 [200, 520]
0	0xbd800846	-0.06251578
1	0xbdb47139	-0.08810658
2	0xbb17b5c7	-0.002314912
3	0x3d028430	0.031864345
4	0xbd82e5ba	-0.06391473
5	0x3e2cd699	0.16878738
6	0x3d819baa	0.06328519
7	0xbd9ccf64	-0.07656744
8	0xbdecf5a0	-0.11570287
9	0x3d45f4b3	0.048329066
10	0xbd8bf2c7	-0.068334155
11	0x3d1cc03c	0.038269266
12	0xbd78550a	-0.060627975
13	0xbc6ef6c9	-0.014585205
14	0x3e0e6ca1	0.13908626
15	0x3c7b8117	0.015350602
16	0xbd9b4cb9	-0.07582993
17	0x3bc2e47a	0.0059476467
18	0x3c559085	0.013034944
19	0x3d15a565	0.036534686
20	0x3de4b9af	0.11168229
21	0xbb2c72c3	-0.002631352
22	0xbd8f61aa	-0.0700105
23	0x3c6d7589	0.014493355
24	0x3d637b81	0.055537704
25	0x3dccc309	0.099981375
26	0xbca63f75	-0.02029393
27	0x3d0a3349	0.033740316
28	0x3c0ba2cd	0.008522701
29	0xbddca4f1	-0.107736476
30	0xbc8a7951	-0.016903551
31	0x3dfd810a	0.12378128
32	0x3d56fbe8	0.05248633
33	0x3cddab1e	0.027059134
34	0xbd5c99ed	-0.053857733
35	0x3daa28c8	0.0830856
36	0x3c976ba6	0.018483948
37	0xbd3ab759	-0.04558501
38	0xbcff8bcd	-0.031194592
39	0x3dacd764	0.0843952
40	0x3c9447c3	0.018100625
41	0x3dc70eed	0.09719644
42	0x3b8d20df	0.004306897
43	0xbdeb4f5f	-0.11489748
44	0xbe01cb70	-0.12675261
45	0xbd31b905	-0.04338934
46	0xbaae9c28	-0.0013321685
47	0xbd3567a2	-0.044288285
48	0xbd83eb36	-0.06441347
49	0x3b84143d	0.004030733
50	0x3d2f01c9	0.04272631
51	0xbd78430f	-0.060610827
52	0xbd58ec06	-0.052959464
53	0xbbf8d01b	-0.0075931675
54	0x3d0e4b9c	0.034740075
55	0x3d893d06	0.067010924
56	0xbdce3cab	-0.10070165
57	0xbbb1e76a	-0.005429198
58	0xbd0a30ee	-0.03373807
59	0x3c39331d	0.01130369
60	0xbd0b2835	-0.03397389
61	0x3e430893	0.1904624
62	0xbd709336	-0.05873414
63	0x3c26dacb	0.010184
64	0x3cfb0434	0.030641653
65	0xbbae7d21	-0.005324975
66	0x3daa4541	0.083139904
67	0xbd6eb323	-0.058276307
68	0x3d52c129	0.051453743
69	0x398651bb	0.00025619366
70	0xbae2e851	-0.0017311667
71	0x3bc18687	0.0059059295
72	0xbd1bac08	-0.03800586
73	0x3db2cf41	0.08730937
74	0x3c13ab44	0.009013001
75	0x3d6d6827	0.057960656
76	0x3d41f578	0.047353238
77	0x3db0a507	0.086252265
78	0x3c2872f6	0.010281315
79	0x3c884955	0.01663653
80	0x3d4d8017	0.050170984
81	0xbd12d94d	-0.035851765
82	0xbdc90450	-0.09815276
83	0x3deabba1	0.114615686
84	0x3c6fd5b4	0.014638353
85	0x3c209602	0.00980139
86	0xbda05ca4	-0.0783017
87	0xbc3d818b	-0.01156653
88	0x3cf1b5ba	0.0295056
89	0x3bb19e75	0.005420501
90	0xbdbffc6a	-0.09374316
91	0xbca9f8c2	-0.0207485
92	0xbd77aa8e	-0.060465388
93	0x3c857ff5	0.016296366
94	0xbd8db7ca	-0.069198206
95	0x3e26db72	0.16294649
96	0x3d050f17	0.032485094
97	0xbd165ee7	-0.0367116
98	0xbcf07c28	-0.029356077
99	0x3ca74b19	0.020421552
100	0x3b36923e	0.0027858163
101	0x3de48353	0.111578606
102	0x3e1dd934	0.15414888
103	0x3c3d7a72	0.011564838
104	0x3daa9bf8	0.0833053
105	0x3d03ec2d	0.032207657
106	0xbd63a8ae	-0.055580787
107	0xbc7b3967	-0.01533351
108	0x3e2dfc2c	0.16990727
109	0x3e632629	0.22182526
110	0xbd00dd32	-0.03146095
111	0xbcfd8dd3	-0.030951416
112	0xbd81561a	-0.06315251
113	0xbb6a7f83	-0.003578157
114	0x3e471db1	0.1944492
115	0xbd1b4011	-0.037902895
116	0xbd4ee504	-0.050511375
117	0x3c9fea07	0.019520773
118	0xbdd34cac	-0.103173584
119	0x3c4d0e04	0.012515549
120	0x3bee1f88	0.0072669424
121	0xbdf786f8	-0.1208629
122	0xbd20f8c9	-0.03929976
123	0xbde2ce6d	-0.11074529
124	0xbd81a2bd	-0.06329868
125	0xbc093280	-0.008373857
126	0xbcd10b43	-0.025518065
127	0xbdc19731	-0.094526656
128	0xbe5b5cc7	-0.2142211
129	0x3de122ad	0.10992942
130	0x3db4a7c4	0.08821061
131	0x3c4632ef	0.012097104
132	0x3dd900d9	0.10595865
133	0xbccd1703	-0.025035387
134	0xbcfc5a9d	-0.030804927
135	0x3a1802b0	0.00057987403
136	0xbd6f4571	-0.058415834
137	0xbd73f822	-0.05956281
138	0xbdb294ff	-0.08719825
139	0xbe66886c	-0.22512978
140	0x3e08c85a	0.13357678
141	0xbd0569f3	-0.032571744
142	0x3c836f86	0.01604439
143	0x3c4584f3	0.012055623
144	0x3d591d55	0.05300649
145	0x3ccdfe61	0.025145711
146	0x3c942f1e	0.018088873
147	0xbdf1a3ea	-0.11798842
148	0xbcff8c74	-0.031194903
149	0xbdcd3dba	-0.10021539
150	0x3c06b47c	0.008221742
151	0x3c421307	0.011845357
152	0x3e0c1d48	0.13683045
153	0x3d9945be	0.074840054
154	0x3d941359	0.07230253
155	0xbc8ee707	-0.017444147
156	0x3e41f617	0.18941532
157	0x3c24bad1	0.010054306
158	0xbd75adcd	-0.059980202
159	0xbd31752d	-0.04332464
160	0x3e6b5510	0.22981668
161	0x3ce8e71b	0.028430512
162	0xbc995448	-0.018716946
163	0x3c4727dd	0.0121555
164	0x3cb96ad3	0.022633946
165	0xbcdbcb2f	-0.026830284
166	0xbe21e822	-0.15811208
167	0xbd822540	-0.06354761
168	0xbda5c8fe	-0.08094977
169	0x3bce4d21	0.0062958156
170	0x3c7a2af3	0.015269029
171	0xbce3952d	-0.027781093
172	0xbe49565c	-0.1966185
173	0x3d1ab3f9	0.03776929
174	0x3daaf988	0.083483756
175	0x3d91761f	0.07102608
176	0x3c810f3e	0.015754338
177	0xbc830439	-0.015993224
178	0xbe4c9292	-0.19977787
179	0xbda4489d	-0.080216624
180	0x3b7639c3	0.003757105
181	0x3c84a956	0.016194027
182	0xbce3c4bc	-0.027803771
183	0x3d7d5bab	0.061855
184	0xbd876c55	-0.066124596
185	0xbc3ef716	-0.01165559
186	0xbc2083be	-0.009797035
187	0x3e115ee5	0.14196356
188	0x3ca4dd61	0.020125093
189	0x3daed38c	0.08536443
190	0xbcba8fc9	-0.02277364
191	0xbd625510	-0.055256903
192	0x3e8c8dd3	0.27451953
193	0xbd8747f8	-0.06605524
194	0x3d97a27f	0.074040405
195	0xbb7d6400	-0.003866434
196	0x3d31c1a5	0.043397564
197	0x3db78f1b	0.08962842
198	0x3d15018a	0.03637842
199	0xbb5ec938	-0.0033994447
200	0xbc7598f7	-0.014990083
201	0xbbc95faa	-0.0061454372
202	0x3d55fb6c	0.052241728
203	0x3d4c6948	0.04990509
204	0x3dde79be	0.10863064
205	0x3d30aa05	0.043130893
206	0x3c2afa49	0.010435649
207	0xbb10a869	-0.0022073037
208	0x3d7abdef	0.06121629
209	0xbda25832	-0.07926978
210	0x3d938299	0.07202644
211	0x3de46747	0.11152511
212	0x3cc35492	0.023844037
213	0xbeadf5f4	-0.3397671
214	0x3e558c26	0.20854244
215	0xbdc137c4	-0.094344646
216	0xbd444b52	-0.047923394
217	0x3dbab6ff	0.09116935
218	0xbec6342b	-0.38711676
219	0xbe8503cf	-0.25979468
220	0x3e53a8ef	0.20669912
221	0xbe2c6ebf	-0.16839121
222	0x3e0d9420	0.13826036
223	0xbe5d8a7b	-0.21634857
224	0xbe1c12d6	-0.1524156
225	0x3e2900ff	0.16504286
226	0xbd451fdb	-0.048126083
227	0xbef59fef	-0.47973582
228	0xbdd43351	-0.1036135
229	0xbe42723d	-0.18988891
230	0x3de6d822	0.11271693
231	0x3dec65e1	0.11542869
232	0x3e42d0d7	0.19024979
233	0xbd4d6709	-0.05014709
234	0xbdd40686	-0.10352807
235	0x3eaaee3b	0.3338488
236	0xbe9d7db3	-0.30759963
237	0x3d9cb3a8	0.07651454
238	0x3d5d126d	0.05397265
239	0x3dafd0fa	0.08584781
240	0xbc698f9c	-0.014255431
241	0xbc4ef215	-0.012630959
242	0x3eb549a5	0.3540775
243	0xbeec5b53	-0.46163425
244	0x3e5b1782	0.21395686
245	0x3dd81a68	0.105519116
246	0xbd79a9e6	-0.060953043
247	0x3cd7e17b	0.026352635
248	0xbe2cd430	-0.16877818
249	0x3ed42d30	0.41440725
250	0x3d4cabb7	0.049968448
251	0x3c9a3d5f	0.018828092
252	0xbda9d1b8	-0.08291954
253	0x3d94802c	0.07251009
254	0x3d9c58f5	0.07634155
255	0x3c818b68	0.015813544

fc1.bias f4 [200]
0	0xbf82b939	-1.0212775
1	0xbe8d3390	-0.27578402
2	0xbe8ce3fd	-0.2751769
3	0xbe44a1d2	-0.19202355
4	0xbe86e917	-0.26349708
5	0xbe7640b3	-0.24048118
6	0xbe1ca67f	-0.15297888
7	0xbe5e6f76	-0.21722206
8	0xbeb871e6	-0.36024398
9	0xbef8f66c	-0.48625505
10	0xbea14de3	-0.31504735
11	0xbec0aaa4	-0.37630188
12	0xbfbcc0b1	-1.4746305
13	0xbe397fe1	-0.18115188
14	0xbe8b6d15	-0.2723166
15	0xbeb7c645	-0.35893455
16	0xbf1c3279	-0.61014515
17	0xbea06b5b	-0.31331906
18	0xbe95a501	-0.2922745
19	0xbda9558b	-0.08268269
20	0xbfddf6fc	-1.7340999
21	0xbf3149b4	-0.6925309
22	0xbff3cfb0	-1.9047756
23	0xbe76881a	-0.24075356
24	0xbe133d5b	-0.14378874
25	0xbec3f05e	-0.38269323
26	0xbe7c10dd	-0.24615808
27	0xbe87c749	-0.2651923
28	0xbe9f2cef	-0.3108897
29	0xbf04cd8e	-0.5187615
30	0xbe8ad111	-0.2711263
31	0xbe59591f	-0.21225403
32	0xbde117e3	-0.10990884
33	0xbf64cee9	-0.8937822
34	0xbecc11cf	-0.39857337
35	0xbe7a9c92	-0.2447379
36	0xbeb70dce	-0.3575272
37	0xbe003503	-0.12520222
38	0xbec0d27f	-0.37660596
39	0xbf2e4080	-0.6806717
40	0xbfac80bb	-1.3476785
41	0xbea4105d	-0.32043734
42	0xbe85cd41	-0.2613316
43	0xbeabcb14	-0.33553374
44	0xbe9504a9	-0.29105118
45	0xbe0fc804	-0.14041144
46	0xbfacef0b	-1.351045
47	0xbe9b85ea	-0.30375606
48	0xbe990a6c	-0.29890764
49	0xbeb61aff	-0.3556747
50	0xbe92e3b4	-0.2868935
51	0xbe873bd6	-0.2641284
52	0xbe88c420	-0.26712132
53	0xbe95b471	-0.29239228
54	0xbfe95380	-1.8228607
55	0xbe97c31e	-0.2964105
56	0xbeee8940	-0.46589088
57	0xbee71634	-0.45134127
58	0xbebeaa86	-0.37239474
59	0xbec1692c	-0.37775552
60	0xbec1d39a	-0.37856752
61	0xbdb1917c	-0.08670327
62	0xbebf8004	-0.37402356
63	0xbedca024	-0.43090928
64	0xbe0c8ed3	-0.13726358
65	0xbefbcedc	-0.4918126
66	0xbdfc89e2	-0.123309866
67	0xbecaabf2	-0.3958431
68	0x3d9465b6	0.07245962
69	0xbe8f2dac	-0.27964532
70	0xbf7a0631	-0.976657
71	0xbe847ed0	-0.25878
72	0xbe6a0bb5	-0.22856028
73	0xbf74293f	-0.95375437
74	0xbf0038c0	-0.50086594
75	0xbf143212	-0.578889
76	0xbdf98d2a	-0.12185128
77	0xbee37d0e	-0.44431347
78	0xbe30c360	-0.1726203
79	0xbea6a9bc	-0.32551372
80	0xbee7415d	-0.45167056
81	0x3ab1f47b	0.0013576889
82	0xbe98d6e3	-0.29851446
83	0xbe110068	-0.14160311
84	0xbe409190	-0.18805528
85	0xbf2437cc	-0.6414764
86	0xbe632f3e	-0.2218599
87	0xbf2ae4cc	-0.66755366
88	0xbe7208fa	-0.23636237
89	0xbebb3a7c	-0.36568058
90	0xbf113781	-0.5672532
91	0xbf37517e	-0.7160872
92	0xbe955e41	-0.29173473
93	0xc00df07f	-2.2178037
94	0xbdbd4d3e	-0.092432484
95	0xbed6f52f	-0.41983935
96	0xbe62cc66	-0.22148284
97	0xbecfa999	-0.4055908
98	0xbec8e361	-0.39235976
99	0xbf97587e	-1.1823881
100	0xbf342f9f	-0.70385164
101	0xbed6c4ad	-0.41946927
102	0xbed262b7	-0.41090938
103	0xbf02eb0e	-0.51139915
104	0xbe8c08d5	-0.27350488
105	0xbeff293d	-0.4983615
106	0xbe675307	-0.22590266
107	0xbe6d1157	-0.23151146
108	0xbec0292e	-0.37531418
109	0xbed14700	-0.4087448
110	0xbf23fc1e	-0.64056575
111	0xbf4134f8	-0.7547145
112	0xbec59c39	-0.3859575
113	0xbdb9eb0e	-0.09078036
114	0xbe8d2c8f	-0.27573058
115	0xbf4c31aa	-0.7976328
116	0xbea5fab4	-0.32417834
117	0xbe1be37c	-0.15223497
118	0xbf0141f1	-0.50491244
119	0xbe230155	-0.15918477
120	0xbf1a9638	-0.60385466
121	0xbe4e168e	-0.20125791
122	0xbef518eb	-0.47870573
123	0xbf055152	-0.5207721
124	0xbea45cec	-0.32102144
125	0xbef24cb3	-0.47324142
126	0xbe80248b	-0.2502788
127	0xbfa03826	-1.2517135
128	0xbe580e27	-0.21099149
129	0xbec509c0	-0.38484
130	0xbeb69dba	-0.3566721
131	0xbea2001b	-0.31640705
132	0xbf08314f	-0.5320024
133	0xbe517024	-0.20452935
134	0xbeb5f991	-0.35541967
135	0xbe6f4419	-0.23365821
136	0xbeaa2713	-0.33232936
137	0xbe858ce2	-0.26084048
138	0xbebface4	-0.37436593
139	0xbec5274e	-0.3850655
140	0xbe602796	-0.21890101
141	0xbf3cc050	-0.73730946
142	0xbeb2a0cf	-0.34888312
143	0xbe39923a	-0.18122187
144	0xbedb2bd2	-0.4280687
145	0xbdbbcd87	-0.091700606
146	0xbfaa47a2	-1.3303111
147	0xbdcfc5f7	-0.10145181
148	0xbe1b9455	-0.15193303
149	0xbe77f70b	-0.24215333
150	0xbebb0d3d	-0.36533538
151	0xbed3a4c4	-0.41336644
152	0xbe81230e	-0.25222057
153	0xbe1f1615	-0.15535767
154	0xbe912ac2	-0.28352934
155	0xbdd29e45	-0.10284094
156	0xbde5a15a	-0.11212416
157	0xbe605d1f	-0.21910523
158	0xbe39cfcb	-0.18145673
159	0xbeffb4e1	-0.49942687
160	0xbec9034f	-0.39260337
161	0xbf6cd7ca	-0.9251677
162	0xbe35caae	-0.17753097
163	0xbf09573b	-0.5364873
164	0xbf5d179d	-0.86364156
165	0xbe400f50	-0.18755841
166	0xbe61980f	-0.22030662
167	0xbe2862aa	-0.16443887
168	0xbe461f37	-0.19347845
169	0xbeb4d692	-0.35319954
170	0xbf0d2508	-0.5513463
171	0xbf0b2c93	-0.5436489
172	0xbdd303d9	-0.10303468
173	0xbe2e105b	-0.16998427
174	0xbeb19393	-0.34682903
175	0xbe840af6	-0.25789613
176	0xbf087ec5	-0.53318435
177	0xbe73494b	-0.23758428
178	0xbe68cd69	-0.22734608
179	0xbf42aad8	-0.76041937
180	0xbfb238cc	-1.3923583
181	0xbe49936b	-0.19685142
182	0xbee7abf3	-0.45248374
183	0xbe656c0f	-0.22404502
184	0xbec28703	-0.3799363
185	0xbe7a403d	-0.24438567
186	0xbe86a57d	-0.26298133
187	0xbe96827a	-0.2939642
188	0xbf544833	-0.8292267
189	0xbecc770e	-0.39934582
190	0xbf00b0b5	-0.50269634
191	0xbf177b08	-0.59172106
192	0xbe21b59d	-0.15791936
193	0xbeca85c9	-0.39555195
194	0xbed13722	-0.40862375
195	0xbfac165f	-1.3444327
196	0xbe25d64b	-0.16195028
197	0xbde5ffb3	-0.112304114
198	0xbec0829d	-0.3759965
199	0xbfa039bb	-1.2517618

fc2.weight f4 [50, 200]
0	0x3cb619e9	0.022229152
1	0xbd9fee32	-0.07809104
2	0xbd87916a	-0.066195324
3	0xbd977b53	-0.07396569
4	0x3d528646	0.051397584
5	0xbcb71144	-0.0223471
6	0xbc28939c	-0.010289099
7	0x3d10aa5e	0.035318725
8	0x3d064bde	0.032787196
9	0x3bbf688f	0.005841322
10	0x3d199e77	0.03750464
11	0xbd368501	-0.044560436
12	0x3c8fba6c	0.017544948
13	0xbd706a60	-0.058695197
14	0xbc0e991e	-0.008703498
15	0xbd15df64	-0.036589995
16	0xbcfd8710	-0.030948192
17	0x3b2e806b	0.0026626836
18	0xbd626df3	-0.055280637
19	0xbd014f02	-0.03156949
20	0xbd9dd372	-0.077063456
21	0x3cb28fda	0.02179711
22	0xbc3aa186	-0.011391049
23	0xbd33816f	-0.04382461
24	0xbd3f70e0	-0.046738505
25	0xbc212ad9	-0.009836876
26	0xbc8fd217	-0.017556233
27	0x3d2ea29a	0.042635538
28	0xbd1f93bb	-0.038959246
29	0x3cc5fde9	0.024168925
30	0x3d011a26	0.031519078
31	0xbd805db3	-0.06267872
32	0x3d086ec5	0.033308763
33	0x3d0792d0	0.033098996
34	0xbda3ec0a	-0.08004005
35	0xbd18555a	-0.037190773
36	0xbd0f6973	-0.035012674
37	0xbd5fa711	-0.054602686
38	0xbc93ba14	-0.018033065
39	0x3d0f2d76	0.034955464
40	0xbd81c43f	-0.06336259
41	0x3caa71f1	0.020806285
42	0x3c3c7131	0.011501596
43	0xbad43861	-0.0016191119
44	0xbd650925	-0.055916924
45	0xbc9b1428	-0.01893051
46	0xbd02f0e7	-0.031968024
47	0xbd413d91	-0.047177855
48	0x3d15bca6	0.036556862
49	0xbd4fc58b	-0.0507255
50	0x3d23362c	0.039846584
51	0xbc4fc259	-0.012680613
52	0x3d1b0667	0.037847903
53	0xbd61ba9c	-0.055109605
54	0xbda70cc7	-0.08156734
55	0x3c9c1c49	0.019056456
56	0x3cbc5bf7	0.022993071
57	0x3d12a8ab	0.035805386
58	0xbd6b23c2	-0.05740715
59	0x3d1c3faa	0.038146652
60	0x3bb41546	0.0054957
61	0x3d2acb1c	0.041697606
62	0xbd860808	-0.065445006
63	0x3d267d4a	0.04064683
64	0x3c2eb84b	0.010664056
65	0x3d006c14	0.03135307
66	0x3cc3544a	0.023843903
67	0xbc144e65	-0.009051894
68	0xbcdf61dc	-0.027268343
69	0xbd9fd3d6	-0.078040764
70	0xbb317a91	-0.0027081112
71	0xbc5309c6	-0.012880748
72	0x3d383fa3	0.044982564
73	0xbd9be5f7	-0.07612222
74	0x3cba9219	0.022774743
75	0x3ce9fce6	0.028562974
76	0xbd5dfc7a	-0.05419586
77	0x3d133398	0.035937876
78	0xbcbf466f	-0.023349015
79	0x3d097382	0.033557422
80	0x3cbe561f	0.023234425
81	0xbd1fa718	-0.038977712
82	0xbd25ea77	-0.040506806
83	0xbd75e6b8	-0.060034484
84	0xbd365ae8	-0.04452029
85	0x3a34e335	0.00069003116
86	0xbcb30398	-0.0218523
87	0x3cdd5c1b	0.027021458
88	0x3d025acf	0.031824883
89	0x3ba14072	0.0049210126
90	0xbc94c4d1	-0.018160256
91	0x3d562b64	0.052287474
92	0xbda8c72f	-0.08241116
93	0xbd75acbc	-0.059979185
94	0x3bd902e8	0.006622661
95	0xbd746628	-0.059667736
96	0xbd46a847	-0.048500326
97	0xba10ed04	-0.0005528482
98	0x3bf60efc	0.0075091105
99	0xbc91ba16	-0.017788928
100	0xbcd7ed66	-0.026358318
101	0xbd963ce6	-0.07335834
102	0x3bb25d8e	0.0054432815
103	0xbd6324aa	-0.055454887
104	0x3c691474	0.014226068
105	0x3d651010	0.05592352
106	0x3cb5b090	0.022178918
107	0x3d98c7da	0.07459994
108	0xbcd4f76f	-0.025996892
109	0xbd407c97	-0.046993818
110	0xbd9d24b2	-0.07673015
111	0x3c736e5a	0.014857853
112	0xbd638853	-0.05554993
113	0xbd602f26	-0.054732464
114	0xbd3c40a4	-0.045960084
115	0x3c5c197c	0.01343381
116	0xbc356138	-0.011070542
117	0x3c6f6b73	0.01461302
118	0x3d458c10	0.048229277
119	0x3c6d869d	0.014497426
120	0xbd0045f8	-0.031316727
121	0x3d4cc16c	0.04998915
122	0xbd958c53	-0.07302155
123	0xbdbd2c71	-0.09236992
124	0x3c19d272	0.009388553
125	0x3d43f5f4	0.04784198
126	0xbd35492d	-0.04425924
127	0xbbf4fdc7	-0.0074765417
128	0x3c85cb8e	0.016332414
129	0x3d419195	0.04725798
130	0xbc8bb665	-0.017054746
131	0x3bfb5fdb	0.007671339
132	0xbcd95b14	-0.026532687
133	0xbd0f9b62	-0.035060294
134	0x3cb71dad	0.022353018
135	0xbb7fcd19	-0.003903216
136	0xbd4e344c	-0.050342843
137	0xbd499f2a	-0.049224056
138	0xbda08158	-0.0783717
139	0xbd34034b	-0.043948453
140	0xbc48b93a	-0.012251193
141	0xbc8c866a	-0.017153937
142	0xba7cf36b	-0.0009649309
143	0x3d523667	0.051321413
144	0xbd0ff619	-0.035146806
145	0xbd555458	-0.05208239
146	0x3d538164	0.05163707
147	0xbd593fa0	-0.053039193
148	0xbda02407	-0.07819372
149	0x3d39456b	0.045232218
150	0x3ce9cc76	0.028539877
151	0x3ccd26a3	0.025042837
152	0x3d4a2168	0.049348265
153	0xbd4cb4fe	-0.049977295
154	0x3b5803b5	0.0032961194
155	0xbd8e7345	-0.0695558
156	0xbcfbb89d	-0.030727679
157	0x3d0e8793	0.034797262
158	0xbda85af0	-0.0822047
159	0x3c80038e	0.015626695
160	0xbc90da02	-0.01768208
161	0xbd14578e	-0.03621631
162	0x3d2dd51a	0.042439558
163	0xbd902541	-0.070383556
164	0x3ce55adb	0.027997425
165	0xbd615c04	-0.055019394
166	0x3d00550d	0.03133111
167	0xbd9e7704	-0.07737544
168	0x3cdc31b2	0.026879165
169	0xbcc3cc2b	-0.023901066
170	0xbda0eb38	-0.078573644
171	0x3cf958be	0.030437823
172	0xbbc25429	-0.005930443
173	0xbd160cc8	-0.036633283
174	0xbc401f4b	-0.011726211
175	0xbc8d3dcb	-0.01724138
176	0x3c8bc9d0	0.017064005
177	0xbc711765	-0.01471505
178	0x3d599974	0.05312486
179	0x3c4a8184	0.0123599805
180	0x3d664671	0.056219522
181	0xbb5d68d8	-0.0033784416
182	0xbc06d9c6	-0.008230632
183	0xbc96d973	-0.018414235
184	0x3d5a5954	0.053307846
185	0xbd1ed4c9	-0.038777146
186	0xbd72b65e	-0.05925595
187	0x3c7c6b9a	0.015406514
188	0xbd532a6f	-0.05155414
189	0x3c26f49b	0.010190154
190	0x3ca6eea1	0.020377459
191	0x3ccb09de	0.024784978
192	0x3cffbba4	0.031217404
193	0xbd86e716	-0.06587045
194	0x3d77d0b5	0.060501773
195	0xbd592e75	-0.05302282
196	0xbd72b05b	-0.059250217
197	0x3d4f9d34	0.05068703
198	0xbd226efc	-0.039656624
199	0x3d0286e2	0.031866916
200	0xbd4f4d20	-0.05061066
201	0xbf98449b	-1.1895937
202	0xbdabf0c7	-0.08395534
203	0xbef503f7	-0.47854587
204	0xbeab7835	-0.33490148
205	0xbe2b050e	-0.16701147
206	0xbefaa792	-0.4895597
207	0xbe0ad019	-0.13555945
208	0xbdacf68a	-0.08445461
209	0xbd964600	-0.0733757
210	0xbcc5121b	-0.024056485
211	0xbecb8b5d	-0.39754763
212	0xbd45396d	-0.04815047
213	0x3d6b26e1	0.057410125
214	0xbe7dc17f	-0.24780844
215	0xbda220d2	-0.07916416
216	0xbe5f2fdc	-0.217956
217	0xbe19630e	-0.14979193
218	0xbd149a0a	-0.036279716
219	0xbe8ed473	-0.2789646
220	0xbe924e60	-0.2857542
221	0xbdffbc03	-0.12487032
222	0xbdfc0c8c	-0.123070806
223	0xbe00c21e	-0.1257405
224	0x3c9b9349	0.01899113
225	0xbde00605	-0.10938648
226	0xbdd74a0b	-0.105121695
227	0xbec05216	-0.37562627
228	0x3d901120	0.07034516
229	0xbdb053da	-0.086097434
230	0x3dee7fab	0.116454445
231	0x3cf50cdd	0.02991336
232	0xbb31c113	-0.0027123138
233	0xbe17e21f	-0.14832352
234	0xbf57c789	-0.8428884
235	0xbcda6e62	-0.026663963
236	0xbe3a97b5	-0.18221934
237	0xbf340f49	-0.70335823
238	0xbe47c954	-0.19510394
239	0x3c87b95f	0.016567884
240	0xbd98eb86	-0.074667975
241	0x3e23dfdf	0.16003369
242	0xbdaf83c4	-0.08570054
243	0xbc9b3fa9	-0.018951254
244	0xbd7c1e3d	-0.061552275
245	0x3d9e750f	0.07737171
246	0xbe6fe9cd	-0.23429032
247	0xbedbe96c	-0.42951524
248	0xbd758b32	-0.0599472
249	0xbd6943fb	-0.056949597
250	0xbeb3a04e	-0.3508324
251	0xbdaa2b4e	-0.08309041
252	0xbedf1f8d	-0.4357876
253	0xbe122030	-0.14270091
254	0xbf0e676a	-0.5562655
255	0xbd3a5555	-0.045491535

fc2.bias f4 [50]
0	0xbd6f93c0	-0.058490515
1	0x3e07ae6f	0.13250135
2	0x3e233836	0.15939412
3	0xbc16668f	-0.009179725
4	0x3d9f21da	0.077701285
5	0xbaeae3d5	-0.0017920682
6	0xbce27307	-0.02764274
7	0x3cb0d462	0.021585647
8	0x3ebf481c	0.37359703
9	0x3e8d627a	0.27614194
10	0x3d0e96fe	0.034811966
11	0x3e13ff73	0.14452915
12	0x3dced8e9	0.10099966
13	0x3e73eff1	0.23821999
14	0x3cce6272	0.025193427
15	0x3d4b11cc	0.04957752
16	0x3e0ed347	0.13947783
17	0xb9b2d45e	-0.00034109032
18	0x3dd74cf6	0.10512726
19	0x3ef0ab11	0.47005513
20	0x3ce3304e	0.027732994
21	0x3dd940c6	0.10608058
22	0x3d18fe83	0.037352096
23	0xbd0b2c7e	-0.033977978
24	0x3d12992c	0.035790607
25	0x3ca04ff3	0.019569373
26	0x3ee7b99d	0.452588
27	0x3ed737df	0.42034814
28	0x3f06b471	0.5261908
29	0x3ef7d6c7	0.4840605
30	0x3e113e68	0.14183962
31	0xbc9c3110	-0.019066364
32	0x3d372b4a	0.044719018
33	0x3db2bca5	0.08727387
34	0x3d172e26	0.036909245
35	0xbd91d41e	-0.07120536
36	0xbcb0feb2	-0.021605823
37	0x3e040d8e	0.12895796
38	0x3d570650	0.052496254
39	0x3d8d7892	0.069077626
40	0x3f1e9f1c	0.6196153
41	0x3f3059a4	0.6888678
42	0x3f16065d	0.5860346
43	0x3de11dea	0.10992034
44	0x3c9a6232	0.018845651
45	0x3f3af90f	0.73036283
46	0x3efc9e17	0.49339363
47	0x3d8e7ee8	0.06957799
48	0x3c5f4652	0.0136276055
49	0x3d1b52e1	0.037920836

fc3.weight f4 [1, 50]
0	0xb8c3fb45	-9.345127e-05
1	0x3f620da4	0.88302064
2	0x3e8d6c0e	0.27621502
3	0x3c8756b4	0.016520835
4	0x3e3c76bf	0.18404673
5	0xbda784f3	-0.08179655
6	0xbe955593	-0.2916685
7	0x3e2a49ae	0.16629669
8	0xbf1fc926	-0.62416303
9	0xbf18dc0b	-0.5971076
10	0xbd744c58	-0.05964312
11	0x3e821959	0.25409964
12	0x3e64d8ed	0.22348376
13	0xbf0cc1b5	-0.54983073
14	0x3e61ecd7	0.22063003
15	0x3e7a9e6b	0.24474494
16	0xbf0d25fa	-0.5513607
17	0xbeaeff56	-0.3417918
18	0x3e53f608	0.20699322
19	0xbf346262	-0.7046262
20	0x3e2979b4	0.16550332
21	0x3e4ce748	0.20010102
22	0xbc95984c	-0.018261097
23	0xbf164693	-0.5870144
24	0x3e48de12	0.19615963
25	0x3e528998	0.205603
26	0xbf21795c	-0.63075805
27	0xbf135d42	-0.57564175
28	0xbf4346d6	-0.7627996
29	0xbf296f10	-0.6618509
30	0x3e817467	0.2528412
31	0x3e4afda6	0.19823322
32	0x3e231c65	0.159288
33	0x3e2ced27	0.16887341
34	0x3e61c7cc	0.22048873
35	0xbdf26e02	-0.118373886
36	0xbef9612b	-0.48706946
37	0x3e70ed62	0.23528054
38	0x3e84fea0	0.25975513
39	0x3e4bf178	0.19916332
40	0xbf406852	-0.7515918
41	0xbecaf5da	-0.39640695
42	0xbf368387	-0.71294445
43	0x3e82ebba	0.2557047
44	0x3e3af56b	0.18257682
45	0xbf17c260	-0.5928097
46	0xbf288e28	-0.65841913
47	0x3e377fbd	0.17919822
48	0x3e5364d1	0.20643927
49	0x3e8574ac	0.26065576
