Radiomics_local_global_framework/models/lasso_feature_selection/Neural_Network/global_flair___local_flair/model.pt (torch, 265652 bytes, 5 tensors)

fc1.weight f4 [100, 606]
000000 98 6e 80 3c fe db 38 bc 0d 2f 62 bc 60 0f 99 3c
       0.015677735 -0.011282919 -0.013805163 0.01868409
000010 df cf b1 3c 07 8c 62 bc d2 b7 36 bc 47 38 3a 3b
       0.021705566 -0.01382733 -0.011152225 0.0028414892
000020 23 c3 87 3d 07 72 06 be 72 42 0b 3c e8 4b a7 bc
       0.06629016 -0.13129435 0.0084997285 -0.020421937
000030 d0 87 ea 3a 28 e6 54 3e 94 8e 3a 3c 89 c0 28 bc
       0.0017893258 0.20790923 0.011386532 -0.01029981
000040 30 26 74 bb 80 e6 db bc c7 3a 81 3d 95 0b be bc
       -0.0037254207 -0.02684331 0.06310039 -0.023198882
000050 72 80 14 3c 55 1b 03 bd 74 d3 ff 3b fe 9f 91 bd
       0.009063827 -0.032008488 0.0078071896 -0.07110594
000060 59 85 f7 3c 30 62 13 be 4c c2 11 3d ab fd 44 bd
       0.030214952 -0.14392924 0.035585687 -0.04809348
000070 58 de 83 3c b5 81 84 bc 07 bf dc 3c ac 25 c8 3b
       0.016097233 -0.01617513 0.026946558 0.0061080065
000080 44 16 cf bd e1 4c c7 ba b3 47 9a bd 89 84 b6 3d
       -0.10111669 -0.0015205407 -0.07533207 0.08911998
000090 36 f9 89 bc 5b c4 b4 3d 35 3d ec 3d 8a 80 1f bd
       -0.016842466 0.08826514 0.11535112 -0.038940944
0000a0 e4 52 05 3d 5d a7 71 3d d6 5f 25 bd 5e e1 1b 3e
       0.032549754 0.0589975 -0.0403746 0.1522269
0000b0 85 09 d2 bd 16 b9 ff 3c 51 ec d7 3c e4 70 01 3d
       -0.10255722 0.031216186 0.026357802 0.0316018
0000c0 e0 93 2c 3e e3 dd 12 3d 69 e9 fe bc a3 fd b6 3b
       0.16853285 0.03585614 -0.031117158 0.005584435
0000d0 0a bf 30 bd dc ac 0c bd 2a 4f 52 3d b9 1f e6 bd
       -0.04315094 -0.03434454 0.051345028 -0.11236519
0000e0 73 9b eb 3c 4a 61 ff bd 40 1b 60 3d dd 1f 19 3d
       0.028760647 -0.12469728 0.054713488 0.037383903
0000f0 e7 d3 77 bb 5a 55 50 3d b8 b8 11 bd 5e a6 24 bc
       -0.0037815513 0.050862648 -0.035576552 -0.010049431
000100 23 bd bc bc 6d 8c 98 3b 44 1f af 3c 86 42 f1 bb
       -0.023039406 0.004655412 0.021377213 -0.0073626665
000110 99 84 1a 3c 48 00 12 bc f8 cc b9 bc d2 c9 22 3d
       0.009431028 -0.0089112 -0.022680745 0.039743252
000120 e7 17 58 3e ac 2c d7 3c ce fe d1 bc 05 14 5c be
       0.21102868 0.026266418 -0.025634196 -0.21492012
000130 03 85 4e bd cd 92 08 3c 31 68 0e bd 1a 4f 88 3c
       -0.05041982 0.008335781 -0.034767333 0.016639281
000140 ff db 6a 3d 54 1c 9a bb b3 a1 80 3d 8c 6b 16 3c
       0.05733871 -0.004703084 0.06280842 0.009180915
000150 5f df 4c 3c aa 8c c6 3b e9 ef 53 bd 0d a2 01 3e
       0.012504428 0.006059249 -0.051742468 0.12659474
000160 e5 e1 6b 3c b8 36 45 3c 20 92 c0 3c 7d ef a4 3d
       0.014397119 0.012036972 0.023507178 0.08053491
000170 4f 80 fc bd 05 40 a0 be 67 f7 a4 3b 20 d3 06 bd
       -0.123291604 -0.31298843 0.0050343755 -0.03291619
000180 ef c1 72 bc 25 04 1c bd de 5d 82 3d 45 09 58 be
       -0.014816745 -0.03808989 0.0636556 -0.21097286
000190 f2 1f 6d bd af 11 13 bc 42 8d e0 b9 79 03 25 3c
       -0.057891794 -0.008976384 -0.00042829855 0.010071629
0001a0 fb f4 99 3d a0 7e d2 3c e2 59 39 bd 21 41 8f bd
       0.075174294 0.025695145 -0.045251735 -0.06994844
0001b0 f7 c3 1e 3a 69 8c ae bd b4 cc 21 bb dd 24 8d 3d
       0.0006056423 -0.08522875 -0.0024688663 0.06891797
0001c0 95 07 e2 bd 8f 4e 22 3d 26 e6 44 3e a4 36 d5 bb
       -0.110366024 0.0396257 0.1922842 -0.006506758
0001d0 8f f5 a4 3d 84 c7 2b 3c fd 32 e0 3d cf d2 54 3d
       0.08054649 0.01048458 0.10947225 0.051958855
0001e0 3f 90 dd 3c 1c b1 6d bc 74 5a e3 3d 88 1d 97 bc
       0.027046321 -0.014507558 0.11101237 -0.018446699
0001f0 fc cc 83 3b 2a f2 d0 bc 81 4a 98 bd ba cc 7f 3e
       0.004022239 -0.025506098 -0.074360855 0.2498044
000200 1d d4 a5 bd 45 1f 80 3c df 23 ab 3d 54 10 19 3d
       -0.08097098 0.01563991 0.08356451 0.037369087
000210 13 a1 c3 3c 3c 19 86 ba 14 c2 7f 3c 7e 9e 03 3d
       0.023880517 -0.0010230909 0.015610237 0.03213357
000220 b5 df 17 3d 77 72 fa bc 48 0d 71 3d dd a4 f4 bb
       0.037078578 -0.03057216 0.058850557 -0.0074659423
000230 4b bd d5 bd 31 af 4d 3d 03 c7 d4 bc fe 19 6c bd
       -0.104364954 0.050215904 -0.025973802 -0.057641976
000240 85 df 8c bd 84 e9 9b 3d b6 bf 22 3c 37 23 9f bc
       -0.068785705 0.07612899 0.009933403 -0.019425971
000250 c5 0b 8d 3d e8 46 91 3c d5 76 53 3d e9 6e fd ba
       0.068870105 0.017734006 0.051627 -0.0019335422
000260 26 9e a0 bd 8a c4 51 3d ea 35 54 3d 68 38 3e bc
       -0.078426644 0.051212825 0.05180923 -0.011610128
000270 27 4f 84 3c e2 e3 9b 3c 08 f6 7d bd 2d 5f ba bd
       0.016151024 0.019029561 -0.06200221 -0.091001846
000280 2d 08 a4 bc 66 d3 84 ba 30 25 02 3d d6 d7 8c 3b
       -0.02002343 -0.0010133802 0.031773746 0.0042981906
000290 4a 48 73 bd 3c a3 e6 bc b7 cf b8 bc e1 c1 bc 3c
       -0.059395112 -0.028154008 -0.022559984 0.023041667
0002a0 5d 26 6d 3d 09 18 02 bc d6 21 bd 3d aa d1 ce bb
       0.057897914 -0.007940301 0.09234969 -0.006311615
0002b0 7e 34 ba 39 3b 7d 14 bc 26 1e e6 3c 1c 33 21 bd
       0.00035515794 -0.00906306 0.028090548 -0.039355382
0002c0 ca 44 34 be 85 5f 0c 3e 09 6e 45 3d 18 fc be bc
       -0.17604366 0.13708313 0.04820064 -0.023313567
0002d0 ad ec 6c 3e c6 5d 37 be d2 97 05 bd 13 c9 84 3c
       0.2313716 -0.17906865 -0.03261549 0.01620916
0002e0 3b 1f 4c bd fa 96 7d 3b e0 4e a1 3c 74 24 99 3d
       -0.04983447 0.0038694725 0.01969093 0.07477656
0002f0 9f e2 60 3d 95 3a 6d 3c 8a 34 a0 bc 79 0d 81 3c
       0.054903623 0.014479299 -0.019556303 0.015753495
000300 ba 42 c7 3d 0b d5 09 bd 91 2c 67 3d f5 76 9e 3b
       0.09729524 -0.03365044 0.056438986 0.004835958
000310 8d 1c 28 bc e6 1e 1e bc 03 fc 4f bd 0c e4 90 bc
       -0.010260713 -0.009650921 -0.050777446 -0.017686866
000320 8a 82 0c bc f9 f4 e3 bc 44 e0 a2 3d bd 39 8b 3d
       -0.008576045 -0.027826773 0.079529315 0.06798122
000330 1e 9a eb 3c c6 17 74 bc f0 d6 f3 39 ca c5 48 3d
       0.028760012 -0.014898246 0.00046508713 0.04901675
000340 b0 05 66 bb 86 9f 95 bc 2d 47 0f bd a1 f3 9f 3d
       -0.0035098605 -0.018264543 -0.034979988 0.078101404
000350 24 b2 0a 3d 42 2e db bc 43 7b 6d bd 04 25 8a 3a
       0.033861294 -0.026755456 -0.05797888 0.0010539596
000360 72 09 00 3e 40 b1 8a 3a ee 6c 79 bc ac a1 8f 3d
       0.12503603 0.0010581389 -0.015223725 0.07013258
000370 41 42 32 bc 05 77 8b 3c 69 d9 4e 3e 20 24 70 bb
       -0.010880054 0.017024526 0.20200123 -0.0036642626
000380 13 cb 2e bd c4 b0 66 3c 11 a1 70 3c 68 9c a1 3c
       -0.042674135 0.01408023 0.014686839 0.0197279
000390 52 2c 8d 3c 2e b6 05 3b 4d bb 1e bc 3f 42 70 3c
       0.017233048 0.0020402777 -0.009688211 0.014664232
0003a0 76 b0 78 3a 37 b9 c0 bc 80 4c 75 3c e7 07 2b be
       0.0009486744 -0.023525817 0.014971852 -0.16702233
0003b0 33 d4 0f 3e 9c 68 d9 3b ce 5e 31 3c 50 03 20 bc
       0.14045791 0.006634785 0.010825826 -0.009766415
0003c0 b8 47 f2 bd bd 75 7a bb 7a 3b 04 3d 9b 5d 9e 3d
       -0.118300855 -0.003821715 0.032283284 0.077326976
0003d0 9f db b4 bc 22 cd fe bc b9 07 76 3c 2a ab 02 3d
       -0.02207738 -0.031103674 0.01501649 0.031901516
0003e0 54 08 ae bc 68 eb 2a 3d cd 58 9d 3d 1d 78 cf 3c
       -0.021244206 0.041728407 0.07682953 0.02532583
0003f0 16 4b 31 3b 82 66 0a bd 64 25 8c bc 80 9d d4 bb
       0.0027052811 -0.033789165 -0.017107673 -0.006488502

fc1.bias f4 [100]
000000 ea a4 26 be a4 ce 3e be 9c 8d 97 be 73 c7 82 bd
       -0.16273847 -0.18633515 -0.29600227 -0.06385698
000010 5f 2b e5 bd 9a 8e 08 be db 7c 85 be 7a c8 99 bd
       -0.11189913 -0.13335648 -0.2607182 -0.07508941
000020 37 dc 9e be c5 25 0f be 17 a2 14 bd cb e8 6f be
       -0.31027386 -0.13979252 -0.036287393 -0.23428647
000030 99 17 2d be d2 14 9c be 03 25 01 bd 88 67 86 be
       -0.16903533 -0.30484635 -0.031529438 -0.26250863
000040 8c d1 94 bd 1c 17 c4 bd 7e 08 4f be f4 ea b1 be
       -0.072665304 -0.0957472 -0.20218083 -0.34749568
000050 92 55 22 bd a8 97 95 bd 27 e5 07 be b1 51 4b be
       -0.039632387 -0.07304317 -0.13271008 -0.19855382
000060 8d 94 53 be f6 89 96 bd 4f 4c 75 bb b8 ee 53 be
       -0.20662136 -0.07350533 -0.0037429517 -0.20696533
000070 98 43 9e be 19 75 1a be b2 7f fb bc c0 e2 8d be
       -0.30910945 -0.15083732 -0.030700538 -0.2771206
000080 3b 12 75 bd bd 0d 72 be c7 82 0f be 04 08 37 be
       -0.05983184 -0.23638053 -0.14014731 -0.17874151
000090 8a 26 37 be 5d b9 41 be d3 30 40 be 5e 8a f5 bd
       -0.17885795 -0.18918367 -0.18768625 -0.11989282
0000a0 c2 fc 5f bd 0d 02 b5 bd 2d 5d 42 be ed c0 23 bd
       -0.054684408 -0.08838282 -0.18980856 -0.03997891
0000b0 f7 64 75 be 29 f8 bb bd dc 3f d5 bd 24 da 8e be
       -0.23964296 -0.09178192 -0.10412571 -0.27900803
0000c0 cc 95 af be c7 7e 31 be 11 22 c0 3b a1 0f 2b be
       -0.34293973 -0.17333518 0.005863436 -0.1670518
0000d0 da 19 8b bd 95 ff f2 3c f7 23 1c be 3d a9 43 be
       -0.0679204 0.029662887 -0.15248094 -0.19107528
0000e0 d9 f7 b8 be 4c 41 b8 bd 4c 2a 12 be ef 13 15 be
       -0.36126593 -0.089968294 -0.14273947 -0.14558385
0000f0 29 53 a2 be 05 a7 dd 3c 37 fd 31 be 79 5a 52 be
       -0.3170407 0.02705718 -0.1738175 -0.20542325
000100 b3 7b be bd de b7 b3 bd 61 18 82 be b9 00 a2 be
       -0.093009375 -0.08775304 -0.25409225 -0.31641176
000110 50 77 23 be b3 df 92 bd c5 ea 3f 3d d5 c3 ec bd
       -0.15963483 -0.071715735 0.046854753 -0.115607895
000120 27 7a 79 bd 6a b3 60 be 2b d9 1c bc 81 e2 d6 bd
       -0.06090751 -0.21943441 -0.009573261 -0.10492421
000130 0f 6c be bd e2 40 7e be 4a 56 7b be 3e 97 23 be
       -0.09297954 -0.24829438 -0.24544635 -0.15975663
000140 ac 22 16 be 33 86 1a 3c 16 5a 56 be af fd 81 be
       -0.14661664 0.00943141 -0.20932803 -0.25388858
000150 2d 3b 51 bd 5a a2 06 be 8c a4 17 be c8 45 26 be
       -0.051081825 -0.1314787 -0.14808863 -0.16237557
000160 95 fd 91 be e0 41 74 bd 83 03 2c be a4 12 68 be
       -0.2851378 -0.059633136 -0.16798215 -0.22663361
000170 4f 0c 26 be b5 17 aa be 3d 4a 49 be d4 36 ef bd
       -0.16215633 -0.33221212 -0.19657226 -0.116803795
000180 fa e9 38 be 4c 01 ad bd 7a e8 61 be c4 53 a8 bd
       -0.18058005 -0.08447513 -0.22061339 -0.08219102

fc2.weight f4 [50, 100]
000000 77 5e d6 3d e9 7e 7f bd 0e ae 1f 3d c3 77 88 3e
       0.104672365 -0.06237689 0.03898435 0.2665387
000010 6b ba 9d 3e 06 f9 ce 3d 8e cf 37 be ff 69 33 3e
       0.30806288 0.10106091 -0.1795027 0.17520903
000020 21 c6 a2 be 9a f8 1d bf 7d 2b 3d be 5f 5a 38 bf
       -0.31791785 -0.6170746 -0.1847362 -0.72012895
000030 0c 3f a4 be 1a 8d 0d be 54 04 77 3e 46 d0 b1 3d
       -0.3207935 -0.13823357 0.24122745 0.08682303
000040 94 76 a0 3e 8a 85 e0 3d 48 3c d8 bd 6e 09 90 3d
       0.31340468 0.109629706 -0.10558373 0.070330486
000050 bc cd e5 bb e5 87 92 3e 56 e4 e8 be e6 c4 9b be
       -0.007013051 0.28619304 -0.45486706 -0.3042366
000060 01 69 12 3e 96 37 8f 3e e4 8a 04 3e 10 18 09 bf
       0.14297868 0.27972096 0.12943608 -0.5355234
000070 a1 1c 54 3e a1 f3 fe 3d 1f 48 50 3e b0 a1 61 3d
       0.20714046 0.12448812 0.20340012 0.055085838
000080 ba 7a 02 3e ef 5b f1 3d 11 5e 27 3d de d9 68 bd
       0.12742129 0.11785113 0.040861193 -0.0568484
000090 2c 18 53 3d f0 6f ff bc d8 0f b9 3d 08 60 2a 3e
       0.051536724 -0.031181306 0.09036225 0.16638196
0000a0 55 28 ad be 5d 56 3c 3e 44 ce e6 be 6f 63 16 3d
       -0.33819833 0.1839232 -0.45079243 0.03671592
0000b0 97 f1 9d be 3e 87 20 3e 0f 21 ba be 7a 74 ed be
       -0.3084838 0.15676591 -0.36353347 -0.46377927
0000c0 35 bc 22 bf ba d1 97 3d 1b 88 a5 bd b3 af a1 be
       -0.6356843 0.07413049 -0.08082601 -0.3157936
0000d0 33 81 14 3e 15 65 ab 3e b0 69 a3 bc d2 05 b1 be
       0.1450241 0.33475557 -0.019947857 -0.34574753
0000e0 73 18 81 be 7a 64 c0 bc 82 d6 4d 3e 2e ee 48 3d
       -0.25213966 -0.023485411 0.2010136 0.04905527
0000f0 6d 2e 22 be e1 5b 46 3e de 64 94 3e 52 96 a8 3c
       -0.15838023 0.19370987 0.28983206 0.02057949
000100 d4 9f 2b 3e 48 0a 12 3d c7 17 e0 bd 18 17 92 be
       0.16760188 0.035654336 -0.10942035 -0.28533244
000110 2f 66 5e bd e0 0f 36 bf 8c b3 b1 3e 4f 23 9d 3e
       -0.05429667 -0.71117973 0.34707296 0.30691
000120 66 be 41 bf 1d 34 2e bd 1c 37 00 3e c5 04 ad 3e
       -0.7568115 -0.042530168 0.12521023 0.337927
000130 e1 25 af 3d 8b c5 95 be 13 6c 50 3e a6 85 c9 bd
       0.08552147 -0.29252276 0.20353727 -0.098399445
000140 d6 25 eb 3d 97 6e 22 3e 7b 4f 18 bf 7f 24 2d bd
       0.11481826 0.15862499 -0.5949628 -0.042271134
000150 e5 37 7a 3d dc 49 f8 bd dd 4a a7 be eb 12 3a be
       0.06108846 -0.121234626 -0.32674304 -0.18171279
000160 70 cb 2a bf fb 6f 16 bf c3 75 05 bf 3c f0 41 3e
       -0.6671667 -0.5876462 -0.52132815 0.18939298
000170 c4 1d d0 3d 8d 59 e3 3d 92 4d 84 bd 1b 9e 5c be
       0.10161927 0.11101065 -0.06460108 -0.21544687
000180 cb 2b f9 bd a5 e5 9a 3e 55 f4 1f bf b2 0b 44 be
       -0.12166556 0.3025333 -0.62482196 -0.19145086
000190 8a 4e 8d 3e a4 ed 82 3e 83 30 7a 3e e0 e2 68 3e
       0.27598983 0.2557193 0.24432568 0.22742796
0001a0 52 7f b6 3e b0 b0 97 3e 0d d4 03 3f 15 37 8b 3e
       0.35644013 0.2962699 0.5149544 0.27190462
0001b0 f1 67 b9 3e 75 ff 05 3e bd 20 48 3e 4c f8 13 3f
       0.36212113 0.1308573 0.19543739 0.57800746
0001c0 93 b2 ad 3e 64 ba 9f 3e fc 95 12 3e dc 9f 3e 3e
       0.33925304 0.31196892 0.14315027 0.18615669
0001d0 62 4e 15 3f 6b 44 15 3e 41 10 76 3e 6d 83 a1 3e
       0.5832273 0.1457688 0.24029638 0.31545582
0001e0 8f d5 42 3e 2f 8f 3f 3e a4 40 8e 3e 5f ab 3c 3e
       0.19026779 0.18706964 0.27783692 0.18424748
0001f0 91 2e 82 3e 8b 26 4f 3e 68 ef a7 3e f6 4c 34 3e
       0.25426152 0.20229547 0.3279984 0.17607483
000200 b2 a2 34 3e 34 ed ae 3e 9b 0c 4a 3e 3b 2c f1 3d
       0.17640188 0.34165347 0.19731371 0.117760144
000210 57 da 92 3e d8 f3 29 3e 1f 72 87 3e bd 3b a8 3e
       0.28682205 0.16596925 0.26454255 0.32858077
000220 5f 86 54 3e 18 ec 42 3e 79 0a 20 3e b7 10 b5 3e
       0.20754384 0.19035375 0.15628995 0.35364315
000230 59 85 84 3e 45 d8 0b 3e 42 02 55 3e 3b 2b 97 3e
       0.25882986 0.13656719 0.20801643 0.2952517
000240 aa 68 a0 3e fa ee 82 3e 96 63 62 3e c7 63 93 3e
       0.31329852 0.2557295 0.22108302 0.28787062
000250 d5 ff 9c 3e 2b c5 2b 3e 42 39 df 3d ba 64 a5 3e
       0.30663934 0.16774432 0.10899593 0.3230341
000260 03 d8 98 3e be 7a 88 3e 0b 5a c5 3e 65 c9 9c 3e
       0.29852304 0.26656145 0.3854526 0.30622402
000270 ac 8a 83 3e e9 d2 bb 3e 0f 2b 60 3e d3 b4 c3 3e
       0.25691736 0.3668435 0.21891426 0.38223895
000280 83 97 dd 3e 2e 74 43 3e ab fa 55 3e 2b 68 52 3e
       0.43279657 0.19087288 0.20896403 0.2054755
000290 49 13 9a 3e 5b 39 fc 3d ef 66 51 3e 53 0b 87 3e
       0.30092838 0.12315627 0.20449422 0.26375827
0002a0 1c c0 3e 3e de 3e 87 3e f9 6d 6d 3e 27 65 a2 3e
       0.18627971 0.2641515 0.23186482 0.31717798
0002b0 ef b2 78 3e a5 31 92 3e bd 8b 85 3e 9f 27 92 3e
       0.24287008 0.285535 0.26083174 0.28545853
0002c0 88 d4 0f 3e 04 a3 a5 3e 7d b6 87 3e 36 e7 4a 3e
       0.14045918 0.32350934 0.26506415 0.19814762
0002d0 ad 92 84 3e e3 af 72 3e c7 9f c4 3e 93 7d 63 3e
       0.25893155 0.23699908 0.3840315 0.22215872
0002e0 53 ce 52 3e 87 4e 11 3e fa 58 c4 3d d8 af 62 3e
       0.20586519 0.14190112 0.095872834 0.22137392
0002f0 0c 16 8d 3e 0c 9b 40 3e ea 67 66 3e 0f 20 b5 3e
       0.27555883 0.18809146 0.22500578 0.3537602
000300 1d 0b 1d 3e 77 01 63 3e 80 58 8d 3e e7 fa 12 3e
       0.1533627 0.22168528 0.27606583 0.14353524
000310 9a 68 a2 3e 89 36 71 3e 1a 0e 88 3e 2e ff 56 3e
       0.3172043 0.2355596 0.2657326 0.20995781
000320 dd 7d bd 3e 74 d1 18 3e 71 07 11 3e 02 1b 1a 3e
       0.3701009 0.1492365 0.14162995 0.15049365
000330 b1 92 99 3e d1 2c 35 3e 54 7c e6 3e 6e 44 a4 3e
       0.2999473 0.17692877 0.4501673 0.32083458
000340 c6 db fd 3e ae dc 30 3e 3d 52 2e 3e 85 7e 19 3f
       0.49581736 0.17271683 0.17023559 0.5995868
000350 ba c5 94 3e a4 0f 45 3e 8f 7c 12 3e 08 6e ea 3d
       0.29057103 0.19244248 0.14305328 0.11446768
000360 fe 2b 02 3f 08 87 1e 3e ac c2 94 3e 0e c0 9d 3e
       0.50848377 0.15481198 0.29054773 0.3081059
000370 39 28 21 3e 67 c4 8a 3e 78 4e a5 3e 55 0d 18 3e
       0.15738 0.27102968 0.3228643 0.14848836
000380 34 13 5e 3e 0a ab 24 3e 2e 33 9c 3e 9e 8c dd 3d
       0.21687013 0.16080871 0.30507797 0.10817836
000390 7a e7 2b 3e 90 89 5f 3e cc 36 a0 3e 7a fe 5c 3e
       0.1678752 0.2182982 0.31291807 0.2158145
0003a0 8e d4 3d 3e ed 6b 7a 3e f6 a6 5d 3e c2 b2 be 3e
       0.18538114 0.24455233 0.21645722 0.37245756
0003b0 9a d8 09 3e 4b 85 31 3e fa af 26 3e 7a 00 66 3e
       0.13461533 0.17336003 0.16278067 0.2246112
0003c0 85 62 fd 3d 6a 3a df 3d e4 7e c6 3e 9b 7a e4 3e
       0.12372307 0.108998135 0.38768685 0.4462479
0003d0 f4 94 84 3e e1 40 d7 3d ff 66 0a 3e 3c 97 a4 3e
       0.25894892 0.105104215 0.13515852 0.32146633
0003e0 14 2c b5 3e 28 99 9b 3e ed 16 fa 3d 83 bf ac 3e
       0.3538519 0.30390286 0.12211404 0.33739862
0003f0 fa 09 ca 3d fd cc 82 3e 9b 97 8f 3e 35 43 7a 3e
       0.09865184 0.2554702 0.28045353 0.244397

fc2.bias f4 [50]
000000 45 24 5f 3f 9b f3 4e be 29 55 90 be 39 51 20 be
       0.8716472 -0.20210116 -0.28189972 -0.15655984
000010 e9 2f 76 3f 3a 40 17 3f 6a c9 1c 3f f2 c1 43 be
       0.96166855 0.59082377 0.61244833 -0.19116953
000020 33 4f 43 3f 2f 51 36 be ad cc ea bd 37 28 9c be
       0.76292723 -0.17804407 -0.1146482 -0.30499431
000030 cb 3d 7c be 16 3c 63 3f 63 ff e5 3e 95 bc 08 3f
       -0.24632947 0.8876356 0.44921407 0.53412753
000040 7f f3 29 3f 03 80 21 3f 4b 57 82 be 1e 9c 40 be
       0.6638717 0.63085955 -0.25457224 -0.18809554
000050 16 bc ae be f1 8f 22 3f 66 58 6a be 08 2b 3f be
       -0.34127873 0.6350089 -0.22885284 -0.18668759
000060 55 07 16 3f ad e6 28 be 6e 22 3d 3f 82 57 2f 3f
       0.5860494 -0.16494246 0.7388066 0.684929
000070 8e 1b 38 3d 9c 2c 6c be 3b 9c ed be 4c 85 1f 3f
       0.044948153 -0.23063892 -0.46408257 0.6231277
000080 61 8d 4f 3f 6f 4d 5a 3f 5c 44 24 be b8 b4 c9 bd
       0.810751 0.85274404 -0.16041702 -0.098489225
000090 29 2c 8f 3d 08 75 32 be 22 c2 3a 3f 9d fc 23 be
       0.06990845 -0.17427456 0.72952473 -0.16014333
0000a0 82 e9 6e 3b cb b8 90 be f5 97 7e be 71 c7 05 3f
       0.00364551 -0.28265986 -0.24862655 0.5225745
0000b0 ec e3 6e be 16 61 61 be e4 6b ed bd de de bf bd
       -0.23329133 -0.22009692 -0.11592844 -0.093686804
0000c0 ca c1 64 be 91 ca 67 3f
       -0.2233955 0.90543467

fc3.weight f4 [1, 50]
000000 2d 8e ae bf 1f c2 bc 3e 03 85 b4 3e de 93 d9 3e
       -1.3637139 0.36866853 0.3525773 0.42495626
000010 73 1d b1 bf 09 0e 7e bf 97 37 7e bf 89 89 bc 3e
       -1.3837112 -0.99240166 -0.99303573 0.3682368
000020 56 d0 96 bf 42 97 a8 3e 0c aa c5 3e 55 81 a6 3e
       -1.1782329 0.329279 0.38606298 0.32520548
000030 1f bc ab 3e 55 84 a0 bf cd b7 85 bf 5e 00 af bf
       0.33541963 -1.2540385 -1.0446717 -1.3671987
000040 f5 df 8d bf 23 b3 91 bf e1 fc b7 3e ca f2 cd 3e
       -1.1083971 -1.1382793 0.3593512 0.40224296
000050 69 f4 af 3e 63 c2 79 bf 16 72 d5 3e fc 8e e3 3e
       0.34366158 -0.97562236 0.41688603 0.44445026
000060 02 54 9f bf c6 6a cf 3e b9 b5 af bf a9 31 41 bf
       -1.2447512 0.4051115 -1.3727332 -0.754664
000070 26 16 b2 bc b6 17 c1 3e 97 70 b8 3e 12 d4 8e bf
       -0.021739077 0.37713403 0.360234 -1.1158469
000080 04 8d 2b bf a0 b8 b5 bf e4 74 e1 3e 40 73 d0 3e
       -0.6701205 -1.4196968 0.44034493 0.4071293
000090 73 36 ed bd 3e 89 c7 3e a4 48 9e bf ba a8 cc 3e
       -0.11582651 0.38971895 -1.2365918 0.39972478
0000a0 97 68 cc bc 98 ff a8 3e 47 6c da 3e 98 18 96 bf
       -0.024952216 0.33007503 0.42660734 -1.1726255
0000b0 32 9f ac 3e 9c 90 c9 3e e3 59 b7 3e 64 76 c6 3e
       0.33715206 0.3936814 0.35810766 0.387622
0000c0 d1 47 ca 3e d6 71 9c bf
       0.39507917 -1.222224
