Radiomics_local_global_framework/models/lasso_feature_selection/CoxPH/global_flair_t1ce___local_flair_t1ce/model.pt (torch, 92606 bytes, 13 tensors)

weight f4 [32, 621]
-0.058962386 0.05779427 -0.0056135436 0.029934071 -0.022892943 0.038727116 -0.035011303 0.0671009
0.053211574 -0.0016618642 0.102241725 0.06760733 0.08933861 -0.052929398 -0.048944857 -0.0043095164
0.032803595 0.025043707 -0.06338997 0.0101213325 -0.019330248 -0.026159251 0.08537496 0.09048293
-0.15471525 0.0010780735 -0.0154269375 -0.02409855 0.00094313064 -0.03719436 -0.01606402 0.0016076766
-0.037725206 0.077558525 0.09132969 -0.06542383 0.10213778 -0.04060716 0.05511257 0.030230317
0.054373674 0.05107361 0.045092504 0.030882109 -0.06166819 0.032936826 0.057061147 -0.017375063
-0.04356765 -0.0033461023 -0.049577378 -0.012638264 -0.029268177 0.083798565 0.095216244 0.00045314454
-0.05780313 -0.09227529 -0.026305424 0.079936534 0.034813035 0.013415154 -0.015945993 -0.035486612
0.03509982 -0.10388313 0.01682437 0.021518836 -0.008259735 0.022514358 0.021442847 -0.068919234
-0.03404462 0.042032473 -0.07490355 -0.03795001 -0.034396313 -0.094697766 -0.01451127 -0.024258008
-0.03492339 -0.07906462 0.065908864 -0.031929895 -0.056719013 0.025712205 -0.088782825 -0.1721491
-0.0073028044 -0.10769963 -0.05562817 -0.017423838 0.016630033 0.027356235 0.017724704 0.055054154
0.026481614 0.03873229 -0.016185291 0.015563127 -0.06686245 0.017142259 0.049175564 -0.10525914
-0.0068901693 -0.026426164 0.02766338 -0.029072167 0.051199984 0.14146598 -0.032211054 0.09040742
-0.042872462 0.010175409 0.041841645 0.030255822 0.0076830727 -0.015246325 -0.08195596 0.011296406
-0.0026174719 -0.051310677 0.0019105579 -0.0042332895 0.02169044 -0.055081632 0.047956828 -0.0898405
0.064444035 0.033077452 0.09135133 0.019301577 -0.0666632 0.0070995064 -0.045279186 -0.048368517
0.04352377 0.016557356 0.0021184955 0.07672695 0.06896942 -0.038736254 0.078216136 -0.09618094
0.0710256 -0.05817006 0.05912726 0.012557968 0.047615368 -0.01613127 -0.05928174 -0.05307314
0.024418319 -0.040100176 0.037729144 -0.07830042 0.07216978 0.0061789444 0.01368185 -0.0033818863
-0.12733823 0.11192044 0.012037622 -0.028604044 0.035435896 0.016381128 -0.027942806 0.00013313977
0.11934509 0.014717833 0.0092037255 0.0047023464 0.0059269737 -0.107068285 -0.08803487 -0.10600287
-0.03379582 -0.11000544 -0.012963048 0.05605357 0.051035535 0.023601418 0.0627436 0.058790773
-0.047954664 0.011733104 -0.009019223 0.010812161 0.12320129 0.051201157 -0.029992573 0.037104435
-0.049975518 -0.039600205 0.0011503459 -0.021832766 -0.10938544 -0.007919749 -0.014350953 -0.014257992
-0.040762022 0.080475636 0.09391738 0.0028597529 -0.042261615 0.03424124 -0.0382939 0.06368704
0.06893464 0.0049340944 0.054654066 0.08079169 -0.05055471 0.038292915 0.06533701 -0.11805943
0.012948048 -0.006785737 0.09604836 -0.015013644 -0.0032397194 0.056677576 -0.07967045 0.10138314
0.018428043 -0.086683325 0.006371439 0.0663028 -0.03626503 0.01867613 -0.08630035 0.04949135
-0.0072348425 0.0007955256 0.109929964 0.029879935 -0.012360323 -0.0037098478 -0.054487623 0.010448472
0.029297903 0.019761093 -0.02422009 0.043575972 -0.039086748 -0.020108955 0.019073492 -0.1071934
0.09677088 0.03381024 -0.06951245 0.010443758 -0.038785484 -0.016298627 -0.075318545 0.009300532
00000000: 8b82 71bd afb9 6c3d d1f1 b7bb 4c38 f53c
00000010: fb89 bbbc 53a0 1e3d 0368 0fbd 326c 893d
00000020: 61f4 593d e9d2 d9ba 1c64 d13d b675 8a3d
00000030: 29f7 b63d 7fcc 58bd 677a 48bd d836 8dbb
00000040: 105d 063d 7628 cd3c 9ad2 81bd f2d3 253c
00000050: 785a 9ebc ed4b d6bc 11d9 ae3d 1d4f b93d
00000060: ad6d 1ebe 254e 8d3a 44c1 7cbc 536a c5bc
00000070: 6d3c 773a 1d59 18bd b198 83bc adb8 d23a
00000080: bf85 1abd 01d7 9e3d 0f0b bb3d eefc 85bd
00000090: 9d2d d13d b253 26bd b8bd 613d 92a5 f73c
000000a0: eeb6 5e3d 9032 513d ebb2 383d 7afc fc3c
000000b0: c997 7cbd c4e8 063d f3b8 693d 2656 8ebc
000000c0: fe73 32bd 484a 5bbb a611 4bbd b910 4fbc
000000d0: d1c3 efbc 959e ab3d bc00 c33d 0894 ed39
000000e0: fac2 6cbd d4fa bcbd 797e d7bc c4b5 a33d
000000f0: 1d98 0e3d 3ccb 5b3c 2ca1 82bc 695a 11bd
00000100: d4c4 0f3d aec0 d4bd 43d3 893c 4548 b03c
00000110: d753 07bc 0870 b83c e9a8 af3c 8725 8dbd
00000120: 5f72 0bbd 3e2a 2c3d 0867 99bd 7871 1bbd
00000130: 26e3 0cbd e7f0 c1bd aec0 6dbc bbb8 c6bc
00000140: d40b 0fbd a2ec a1bd 3afb 863d ecc8 02bd
00000150: 3252 68bd 67a2 d23c c5d3 b5bd db47 30be
00000160: 5d4c efbb a091 dcbd 5dda 63bd 70bc 8ebc
00000170: b53b 883c 2f1a e03c 6633 913c 7780 613d
00000180: f8ef d83c c0a5 1e3d 0497 84bc 7cfc 7e3c
00000190: 2eef 88bd ec6d 8c3c 516c 493d 1b92 d7bd
000001a0: eec6 e1bb af7b d8bc 509e e23c c128 eebc
000001b0: 13b7 513d 75dc 103e bdef 03bd 8727 b93d
000001c0: 099b 2fbd c2b6 263c 2562 2b3d 0fdb f73c
000001d0: 49c2 fb3b b9cb 79bc 87d8 a7bd 9014 393c
000001e0: e489 2bbb 252b 52bd af6b fa3a 68b7 8abb
000001f0: 26b0 b13c 479d 61bd 616e 443d 4cfe b7bd
00000200: 3cfb 833d 397c 073d 6816 bb3d 571e 9e3c
00000210: b786 88bd faa2 e83b ab76 39bd 111e 46bd
00000220: fb45 323d 4ba3 873c 75d6 0a3b 0523 9d3d
00000230: d73f 8d3d e8a9 1ebd c82f a03d 83fa c4bd
00000240: df75 913d bb43 6ebd 6d2f 723d efbf 4d3c
00000250: 5508 433d ba25 84bc 69d1 72bd 3963 59bd
00000260: ed08 c83c 1540 24bd e089 1a3d f85b a0bd
00000270: c0cd 933d be78 ca3b d729 603c a3a2 5dbb
00000280: f464 02be 8b36 e53d 7239 453c 0753 eabc
00000290: 3b25 113d b731 863c 50e8 e4bc 6f9b 0b39
000002a0: 336b f43d 1123 713c 39cb 163c 2416 9a3b
000002b0: 0f37 c23b 9e46 dbbd a04b b4bd 0818 d9bd
000002c0: 7c6d 0abd 884a e1bd f762 54bc 6e98 653d
000002d0: a30a 513d c357 c13c b77f 803d 98ce 703d
000002e0: 1c6c 44bd 343c 403c 5dc5 13bc 7d25 313c
000002f0: f550 fc3d 4eb8 513d fcb2 f5bc d2fa 173d
00000300: 21b3 4cbd d333 22bd 34c7 963a a1da b2bc
00000310: 7905 e0bd d6c1 01bc 4220 6bbc 5a9a 69bc
00000320: 14f6 26bd 69d0 a43d c157 c03d b16a 3b3b
00000330: 841a 2dbd 8b40 0c3d 11da 1cbd 5a6e 823d
00000340: 9b2d 8d3d 2fae a13b f1dc 5f3d 1d76 a53d
00000350: 7512 4fbd 08d9 1c3d 69cf 853d 24c9 f1bd
00000360: 0d24 543c e35a debb 01b5 c43d c9fb 75bc
00000370: 7951 54bb bf26 683d 432a a3bd f7a1 cf3d
00000380: 68f6 963c 0787 b1bd 81c7 d03b c3c9 873d
00000390: a48a 14bd affe 983c 3dbe b0bd 71b7 4a3d
000003a0: 4212 edbb d28a 503a f622 e13d c4c6 f43c
000003b0: f482 4abc eb20 73bb 6a2e 5fbd 1130 2b3c
000003c0: 2802 f03c 04e2 a13c 3669 c6bc b87c 323d
000003d0: 6d19 20bd 89bb a4bc 0340 9c3c 3788 dbbd
000003e0: d02f c63d 9b7c 0a3d 8b5c 8ebd 4c1c 2b3c
000003f0: 87dd 1ebd b384 85bc 9c40 9abd 4261 183c

bias f4 [32]
0.012450628 0.022548167 0.03406989 -0.034439206 -0.030880302 -0.012397385 0.038909417 0.012798681
0.008098036 0.019533103 -0.026307067 -0.013048204 0.024465451 -0.024066811 -0.032049783 0.009741813
-0.013012153 -0.03425033 -0.038854595 0.028295552 -0.022797713 0.008377299 -0.007668187 -0.019953055
0.035136346 -0.029124845 -0.025075082 0.014639967 -0.0013637814 -0.014082196 0.029724 -0.026269892
00000000: b8fd 4b3c efb6 b83c de8c 0b3d 2010 0dbd
00000010: b0f8 fcbc 671e 4bbc 7b5f 1f3d 8fb1 513c
00000020: a0ad 043c e303 a03c eb81 d7bc 22c8 55bc
00000030: c56b c83c c327 c5bc a246 03bd 209c 1f3c
00000040: ed30 55bc 134a 0cbd ff25 1fbd 13cc e73c
00000050: 45c2 babc f040 093c 6a45 fbbb 9774 a3bc
00000060: 21eb 0f3d 3a97 eebc 426a cdbc 79dc 6f3c
00000070: e9c0 b2ba 03b9 66bc bf7f f33c f533 d7bc

weight f4 [32]
1.0 1.0 1.0 1.0 1.0 1.0 1.0 1.0
1.0 1.0 1.0 1.0 1.0 1.0 1.0 1.0
1.0 1.0 1.0 1.0 1.0 1.0 1.0 1.0
1.0 1.0 1.0 1.0 1.0 1.0 1.0 1.0
00000000: 0000 803f 0000 803f 0000 803f 0000 803f
00000010: 0000 803f 0000 803f 0000 803f 0000 803f
00000020: 0000 803f 0000 803f 0000 803f 0000 803f
00000030: 0000 803f 0000 803f 0000 803f 0000 803f
00000040: 0000 803f 0000 803f 0000 803f 0000 803f
00000050: 0000 803f 0000 803f 0000 803f 0000 803f
00000060: 0000 803f 0000 803f 0000 803f 0000 803f
00000070: 0000 803f 0000 803f 0000 803f 0000 803f

bias f4 [32]
0.0 0.0 0.0 0.0 0.0 0.0 0.0 0.0
0.0 0.0 0.0 0.0 0.0 0.0 0.0 0.0
0.0 0.0 0.0 0.0 0.0 0.0 0.0 0.0
0.0 0.0 0.0 0.0 0.0 0.0 0.0 0.0
00000000: 0000 0000 0000 0000 0000 0000 0000 0000
00000010: 0000 0000 0000 0000 0000 0000 0000 0000
00000020: 0000 0000 0000 0000 0000 0000 0000 0000
00000030: 0000 0000 0000 0000 0000 0000 0000 0000
00000040: 0000 0000 0000 0000 0000 0000 0000 0000
00000050: 0000 0000 0000 0000 0000 0000 0000 0000
00000060: 0000 0000 0000 0000 0000 0000 0000 0000
00000070: 0000 0000 0000 0000 0000 0000 0000 0000

running_mean f4 [32]
0.0 0.0 0.0 0.0 0.0 0.0 0.0 0.0
0.0 0.0 0.0 0.0 0.0 0.0 0.0 0.0
0.0 0.0 0.0 0.0 0.0 0.0 0.0 0.0
0.0 0.0 0.0 0.0 0.0 0.0 0.0 0.0
00000000: 0000 0000 0000 0000 0000 0000 0000 0000
00000010: 0000 0000 0000 0000 0000 0000 0000 0000
00000020: 0000 0000 0000 0000 0000 0000 0000 0000
00000030: 0000 0000 0000 0000 0000 0000 0000 0000
00000040: 0000 0000 0000 0000 0000 0000 0000 0000
00000050: 0000 0000 0000 0000 0000 0000 0000 0000
00000060: 0000 0000 0000 0000 0000 0000 0000 0000
00000070: 0000 0000 0000 0000 0000 0000 0000 0000

running_var f4 [32]
1.0 1.0 1.0 1.0 1.0 1.0 1.0 1.0
1.0 1.0 1.0 1.0 1.0 1.0 1.0 1.0
1.0 1.0 1.0 1.0 1.0 1.0 1.0 1.0
1.0 1.0 1.0 1.0 1.0 1.0 1.0 1.0
00000000: 0000 803f 0000 803f 0000 803f 0000 803f
00000010: 0000 803f 0000 803f 0000 803f 0000 803f
00000020: 0000 803f 0000 803f 0000 803f 0000 803f
00000030: 0000 803f 0000 803f 0000 803f 0000 803f
00000040: 0000 803f 0000 803f 0000 803f 0000 803f
00000050: 0000 803f 0000 803f 0000 803f 0000 803f
00000060: 0000 803f 0000 803f 0000 803f 0000 803f
00000070: 0000 803f 0000 803f 0000 803f 0000 803f

weight f4 [32, 32]
0.19429827 0.035723846 -0.3682756 -0.108026326 0.14478418 -0.29442775 0.024976665 0.08485881
0.15247594 -0.6234347 0.09918472 0.09414445 -0.3347086 0.15932274 -0.18021768 0.21876146
0.035970174 0.041886456 -0.067394026 0.24618474 0.05163124 -0.6870079 0.058192402 -0.3359055
-0.34196857 0.17476568 0.5189174 0.04680399 0.20654613 -0.024765674 0.2597021 -0.2548455
-0.050738562 0.38978475 -0.6343143 -0.03224953 -0.016484391 -0.19840963 -0.092299715 0.18473111
-0.58591974 -0.42362252 0.26133096 0.2437632 -0.09103237 -0.007368056 -0.23689072 0.23174874
-0.36406642 0.12518698 0.14676392 -0.03257787 0.18654698 -0.08418791 0.0645637 -0.23019977
-0.22924669 0.36884132 -0.16387853 0.008311253 -0.16651432 -0.32136685 0.44732887 0.14262289
0.4318881 0.13718979 0.1574826 0.040704727 0.18439671 0.066722 0.22405307 0.0022163766
0.25428957 0.10152191 0.25322148 -0.09019049 0.43405235 -0.43947765 0.17617166 -0.33235618
0.266985 0.6144263 0.048557978 0.059259042 0.10509234 0.000883319 0.21035758 0.0048186947
-0.14621724 -0.44074276 0.42107394 0.021343697 -0.060413215 0.10857966 -0.16531694 0.34524572
0.34184435 -0.18686394 0.29812345 0.08825702 0.20280531 0.06324593 0.24009262 0.018205553
-0.017210577 0.023379574 0.48481148 0.4198064 0.07657942 0.14072248 0.57315534 -0.12675008
-0.16466296 0.046565656 0.02768212 -0.09920581 0.14568882 -0.3613035 -0.16356586 0.0046237614
-0.3253903 0.4258675 -0.1271382 0.08639546 0.27477476 0.0336996 0.15288001 0.39195248
-0.114212096 -0.08127979 0.20704871 0.15598507 0.74864674 0.10804469 0.3870279 -0.13544339
-0.52930987 -0.13908559 -0.26382914 -0.1360679 -0.13494684 -0.2501112 0.089249395 0.1637882
-0.2926374 0.003131737 -0.15967259 0.7238866 0.15584753 0.5787736 -0.34754816 0.31986848
-0.4142579 0.4533098 -0.29856512 0.347751 -0.23985265 0.08345793 0.36737585 0.23367408
-0.62898034 -0.20272599 0.2768079 0.2971259 0.058691043 0.23269247 -0.010951428 -0.061495826
-0.03861623 0.23593979 0.15855269 -0.35290557 -0.1537365 0.0159201 0.14557381 -0.038665716
0.0015526225 0.008288496 0.46725056 -0.11383565 0.015786706 0.43977875 0.19935958 0.3860766
-0.0053800875 -0.13351963 0.18877125 -0.36584863 0.08330206 -0.080940545 0.01613053 -0.0058413655
0.25401324 -0.35788068 -0.041186336 -0.4339032 -0.5237692 0.13564503 -0.12709123 0.08751584
0.04382583 -0.14901745 0.14662665 0.07915136 0.23643123 -0.11893239 0.3558948 0.098832056
-0.063272655 0.38094795 0.03985513 -0.0036377232 -0.084473185 -0.33865508 0.0662485 0.11637538
0.04174328 -0.26022455 -0.42037138 0.4125866 0.04683409 -0.104858816 0.58465016 -0.053560387
0.1752762 -0.007434591 -0.07354624 0.29158342 -0.18496306 -0.63641995 -0.3940891 0.14212912
-0.3381699 0.009174703 0.13955133 -0.14397001 -0.22714613 -0.48004892 0.12505524 -0.19161473
-0.149737 -0.21607783 -0.22216606 -0.106676675 0.5152208 -0.11069248 0.0026796358 0.24366064
0.32329664 0.2699227 0.07023598 -0.08518339 -0.15326849 -0.2668151 -0.1709452 0.09131924
00000000: 20f6 463e 2b53 123d 9f8e bcbe e83c ddbd
00000010: 4e42 143e 3cbf 96be dd9b cc3c 75ca ad3d
00000020: a722 1c3e 6b99 1fbf 5c21 cb3d cece c03d
00000030: ed5e abbe 8025 233e fc8a 38be 0103 603e
00000040: 7655 133d 2291 2b3d e105 8abd da17 7c3e
00000050: 477b 533d c0df 2fbf 285b 6e3d cefb abbe
00000060: 8116 afbe c6f5 323e c5d7 043f 8ab5 3f3d
00000070: d480 533e 62e1 cabc acf7 843e 1c7b 82be
00000080: 3dd3 4fbd de91 c73e 6c62 22bf 1518 04bd
00000090: 460a 87bc e52b 4bbe a207 bdbd 272a 3d3e
000000a0: d6fe 15bf 0de5 d8be 2ccd 853e 0f9d 793e
000000b0: 2e6f babd bc6f f1bb 7b93 72be 8b4f 6d3e
000000c0: ea66 babe 0431 003e 4849 163e 5f70 05bd
000000d0: 2c06 3f3e b66a acbd f939 843d 7db9 6bbe
000000e0: a5bf 6abe c5d8 bc3e c6cf 27be ec2b 083c
000000f0: bb82 2abe 328a a4be 4a08 e53e bc0b 123e
00000100: 7020 dd3e 7b7b 0c3e 1e43 213e 00ba 263d
00000110: 7ed2 3c3e 8ba5 883d 2b6e 653e a140 113b
00000120: 3e32 823e b8ea cf3d 3fa6 813e cbb5 b8bd
00000130: 1c3c de3e 3703 e1be 5866 343e 972a aabe
00000140: 42b2 883e 0b4b 1d3f bbe4 463d 9cb9 723d
00000150: a73a d73d 898e 673a fa67 573e 24e6 9d3b
00000160: f9b9 15be 09a9 e1be 0197 d73e fad8 ae3c
00000170: d973 77bd 035f de3d d848 29be 0cc4 b03e
00000180: 3906 af3e 4359 3fbe a3a3 983e 19c0 b43d
00000190: 32ac 4f3e 1587 813d d7da 753e d023 953c
000001a0: 32fd 8cbc 8586 bf3c 3639 f83e ddf0 d63e
000001b0: acd5 9c3d 8e19 103e 4fba 123f c6ca 01be
000001c0: 689d 28be a1bb 3e3d 9dc5 e23c 6a2c cbbd
000001d0: 732f 153e c6fc b8be cf7d 27be ec82 973b
000001e0: 8f99 a6be 4e0b da3e 8430 02be 1af0 b03d
000001f0: 47af 8c3e 9708 0a3d 948c 1c3e ffad c83e
00000200: 08e8 e9bd 0576 a6bd 9404 543e 8dba 1f3e
00000210: 50a7 3f3f 8946 dd3d 8528 c63e acb1 0abe
00000220: da80 07bf 746c 0ebe 9d14 87be 6255 0bbe
00000230: 812f 0abe 930e 80be 63c8 b63d 18b8 273e
00000240: 92d4 95be d43d 4d3b 3681 23be a250 393f
00000250: 7f96 1f3e 822a 143f d5f1 b1be cdc5 a33e
00000260: 9d19 d4be 3918 e83e 87dd 98be 6b0c b23e
00000270: ef9b 75be feeb aa3d b018 bc3e 4248 6f3e
00000280: db04 21bf 6797 4fbe c4b9 8d3e e320 983e
00000290: 0566 703d ef46 6e3e 9e6d 33bc 0ce3 7bbd
000002a0: 0d2c 1ebd 339a 713e a35b 223e 0ab0 b4be
000002b0: 1a6d 1dbe df6a 823c 4d11 153e f15f 1ebd
000002c0: 5e81 cb3a 79cc 073c 773b ef3e aa22 e9bd
000002d0: 1f53 813c ae2a e13e eb24 4c3e d5ab c53e
000002e0: 724b b0bb 5fb9 08be 404d 413e 8350 bbbe
000002f0: 459a aa3d 28c4 a5bd 2c24 843c ed68 bfbb
00000300: 060e 823e 233c b7be 01b3 28bd 8f28 debe
00000310: bd15 06bf 88e6 0a3e 3424 02be 813b b33d
00000320: b782 333d 0898 18be 4c25 163e 1c1a a23d
00000330: 071b 723e d392 f3bd d837 b63e 7668 ca3d
00000340: 1895 81bd 9c0b c33e 223f 233d de66 6ebb
00000350: 4700 adbd 3364 adbe 4bad 873d 3756 ee3d
00000360: 00fb 2a3d 273c 85be eb3a d7be 8d3e d33e
00000370: 1ad5 3f3d 38c0 d6bd a2ab 153f 2362 5bbd
00000380: 9b7b 333e df9d f3bb 699f 96bd 6c4a 953e
00000390: f566 3dbe 6bec 22bf 0cc6 c9be 4c8a 113e
000003a0: 9b24 adbe 7e51 163c 8be6 0e3e e06c 13be
000003b0: ff98 68be f9c8 f5be 7b0e 003e a736 44be
000003c0: a854 19be 8243 5dbe 807f 63be 4d79 dabd
000003d0: 83e5 033f bdb2 e2bd d49c 2f3b 2d82 793e
000003e0: 2387 a53e 4f33 8a3e e2d7 8f3d a174 aebd
000003f0: 6af2 1cbe fd9b 88be 420c 2fbe 9505 bb3d

bias f4 [32]
-0.13984086 -0.13414764 -0.06634702 -0.11956768 0.048533466 -0.04433214 -0.09488522 -0.10670539
-0.1404138 0.0520408 0.14488643 0.0007099637 -0.1542334 -0.06414536 0.12274115 -0.12555933
0.027925026 -0.146164 -0.07706488 0.109212995 0.15872893 0.07726651 0.10920261 0.05186376
-0.1290069 -0.031410422 -0.029543107 -0.13367179 0.10882954 -0.06873238 0.066838786 -0.1340384
00000000: 7132 0fbe 005e 09be f2e0 87bd e6df f4bd
00000010: 07cb 463d 9e95 35bd 2f53 c2bd 5b88 dabd
00000020: a3c8 0fbe bc28 553d 1c5d 143e db1c 3a3a
00000030: 5cef 1dbe a45e 83bd b65f fb3d a092 00be
00000040: 06c3 e43c 04ac 15be 31d4 9dbd 10ab df3d
00000050: d689 223e e73d 9e3d 9ea5 df3d 186f 543d
00000060: 631a 04be 37a8 00bd 6304 f2bc 42e1 08be
00000070: 06e2 de3d 90c3 8cbd c6e2 883d 5d41 09be

weight f4 [32]
1.0 1.0 1.0 1.0 1.0 1.0 1.0 1.0
1.0 1.0 1.0 1.0 1.0 1.0 1.0 1.0
1.0 1.0 1.0 1.0 1.0 1.0 1.0 1.0
1.0 1.0 1.0 1.0 1.0 1.0 1.0 1.0
00000000: 0000 803f 0000 803f 0000 803f 0000 803f
00000010: 0000 803f 0000 803f 0000 803f 0000 803f
00000020: 0000 803f 0000 803f 0000 803f 0000 803f
00000030: 0000 803f 0000 803f 0000 803f 0000 803f
00000040: 0000 803f 0000 803f 0000 803f 0000 803f
00000050: 0000 803f 0000 803f 0000 803f 0000 803f
00000060: 0000 803f 0000 803f 0000 803f 0000 803f
00000070: 0000 803f 0000 803f 0000 803f 0000 803f

bias f4 [32]
0.0 0.0 0.0 0.0 0.0 0.0 0.0 0.0
0.0 0.0 0.0 0.0 0.0 0.0 0.0 0.0
0.0 0.0 0.0 0.0 0.0 0.0 0.0 0.0
0.0 0.0 0.0 0.0 0.0 0.0 0.0 0.0
00000000: 0000 0000 0000 0000 0000 0000 0000 0000
00000010: 0000 0000 0000 0000 0000 0000 0000 0000
00000020: 0000 0000 0000 0000 0000 0000 0000 0000
00000030: 0000 0000 0000 0000 0000 0000 0000 0000
00000040: 0000 0000 0000 0000 0000 0000 0000 0000
00000050: 0000 0000 0000 0000 0000 0000 0000 0000
00000060: 0000 0000 0000 0000 0000 0000 0000 0000
00000070: 0000 0000 0000 0000 0000 0000 0000 0000

running_mean f4 [32]
0.0 0.0 0.0 0.0 0.0 0.0 0.0 0.0
0.0 0.0 0.0 0.0 0.0 0.0 0.0 0.0
0.0 0.0 0.0 0.0 0.0 0.0 0.0 0.0
0.0 0.0 0.0 0.0 0.0 0.0 0.0 0.0
00000000: 0000 0000 0000 0000 0000 0000 0000 0000
00000010: 0000 0000 0000 0000 0000 0000 0000 0000
00000020: 0000 0000 0000 0000 0000 0000 0000 0000
00000030: 0000 0000 0000 0000 0000 0000 0000 0000
00000040: 0000 0000 0000 0000 0000 0000 0000 0000
00000050: 0000 0000 0000 0000 0000 0000 0000 0000
00000060: 0000 0000 0000 0000 0000 0000 0000 0000
00000070: 0000 0000 0000 0000 0000 0000 0000 0000

running_var f4 [32]
1.0 1.0 1.0 1.0 1.0 1.0 1.0 1.0
1.0 1.0 1.0 1.0 1.0 1.0 1.0 1.0
1.0 1.0 1.0 1.0 1.0 1.0 1.0 1.0
1.0 1.0 1.0 1.0 1.0 1.0 1.0 1.0
00000000: 0000 803f 0000 803f 0000 803f 0000 803f
00000010: 0000 803f 0000 803f 0000 803f 0000 803f
00000020: 0000 803f 0000 803f 0000 803f 0000 803f
00000030: 0000 803f 0000 803f 0000 803f 0000 803f
00000040: 0000 803f 0000 803f 0000 803f 0000 803f
00000050: 0000 803f 0000 803f 0000 803f 0000 803f
00000060: 0000 803f 0000 803f 0000 803f 0000 803f
00000070: 0000 803f 0000 803f 0000 803f 0000 803f

weight f4 [1, 32]
0.08284483 0.04321896 0.13120727 0.0728641 0.0051999306 0.054143507 0.047767173 -0.1219142
0.08530242 -0.106574014 -0.165425 -0.13016674 -0.046789724 -0.17012084 0.014593367 -0.10791268
-0.01261019 -0.08684088 0.10096788 0.1137268 -0.08454346 -0.07048249 -0.041729867 -0.067850016
0.08393707 -0.045119297 0.11038232 0.058816727 0.06237253 -0.12143788 -0.0476115 0.11327277
00000000: 8daa a93d 5d06 313d 335b 063e c639 953d
00000010: 2e64 aa3b 95c5 5d3d 83a7 433d 27ae f9bd
00000020: 09b3 ae3d 7a43 dabd 2c65 29be 6e4a 05be
00000030: 95a6 3fbd 2834 2ebe 0519 6f3c 5301 ddbd
00000040: f89a 4ebc a2d9 b1bd 3fc8 ce3d 99e9 e83d
00000050: 1f25 adbd 2059 90bd f0ec 2abd f3f4 8abd
00000060: 33e7 ab3d 03cf 38bd 2010 e23d cfe9 703d
00000070: 577a 7f3d 6cb4 f8bd 4704 43bd 8efb e73d
