Radiomics_local_global_framework/models/lasso_feature_selection/Neural_Network_128_dim/global_flair_t1ce___local_flair_t1ce/model.pt (torch, 353972 bytes, 5 tensors)

fc1.weight f4 [128, 621]
-0.05431139 -0.022376398 0.026250992 0.09863318 -0.21630655 -0.08163483 0.028388143 -0.030577602
-0.10895123 0.1119326 -0.09421833 -0.045413785 0.07551159 -0.1288024 0.09745275 -0.09683705
-0.15818499 -0.01512701 0.025984416 0.05789265 -0.03506661 -0.07334051 -0.055642076 0.015484662
0.028674953 0.027052531 -0.028333852 -0.06560155 0.001965645 0.09072978 0.0011378528 0.014719932
0.15676533 -0.008836612 -0.2386768 -0.054152586 -0.044955783 -0.104940385 -0.043623626 0.1196943
-0.06278543 -0.056097195 -0.017296435 -0.061743967 -0.033389315 0.016463682 0.023552774 -0.006294071
-0.044819627 0.07566096 -0.035383537 -0.0037761026 -0.027290389 -0.011762874 -0.012264912 -0.03678516
0.054357644 -0.12135158 -0.09642161 0.18023211 -0.09796304 0.02757232 0.0193686 -0.019117106
0.0873623 0.055436097 0.0945412 -0.019488243 -0.02775887 -0.034919467 -0.0147629995 -0.32089946
0.028076077 0.0068528214 0.049122747 -0.23345439 -0.062880866 -0.028640501 0.02571954 0.013210388
-0.01689961 -0.010411199 -0.062543385 -0.064083934 0.035032384 -0.022069547 -0.047085676 -0.00010241853
-0.080333576 0.001678363 -0.15966377 0.13206622 -0.13612063 -0.014187622 -0.07114869 0.24347319
0.04757487 0.051834747 -0.19591428 0.025701357 -0.0890768 -0.00030061792 0.07664826 -0.06658876
0.0039599324 -0.01322447 -0.029125134 -0.09392287 -0.0678038 -0.01859113 0.021504361 0.08717128
0.1820762 -0.042705547 0.06725898 -0.33489177 -0.019529874 -0.02695114 0.07202616 0.012068444
-0.03692412 0.22046085 -0.08773529 0.06009795 -0.04963028 0.18525888 0.039197117 -0.0060839443
-0.0036053811 -0.09871588 -0.13921504 0.09427816 0.024142954 -0.17844355 -0.054427415 -0.10514284
-0.05198883 -0.054550122 0.010840158 -0.035399146 -0.18559746 -0.12583153 0.11321536 -0.0018075571
-0.082049355 -0.0029071353 -0.0036893745 -0.08994347 0.048285045 0.0024833572 0.117991425 0.033916168
0.057102967 -0.08293474 0.01899049 -0.019046035 0.049955416 -0.085329756 -0.012172377 0.04708583
-0.0028315522 -0.1618397 0.057517357 -0.066662244 -0.0051517077 0.01816075 0.123497635 0.14733148
-0.2906058 -0.090355635 -0.20973887 -0.00071613264 0.15057547 0.02662962 -0.0062262365 0.020514807
-0.054244116 0.11867009 0.1791228 -0.010233948 0.03311975 0.03772447 0.11989482 -0.032178454
0.09039643 -0.17954536 -0.039036654 0.047587626 0.015305872 0.023335507 -0.010066245 -0.055700164
0.024798453 -0.014626156 -0.008761043 0.08216283 0.0772539 -0.0145469 0.021473369 0.028064346
0.042635746 0.09581914 -0.023775741 -0.24304709 -0.019766197 -0.014536591 0.002352056 -0.021522416
0.21217917 0.012430436 -0.026055742 -0.029499102 0.024329104 0.0040267 0.28292707 -0.013390319
-0.033541396 -0.07169916 0.17929006 0.10418595 0.001033916 -0.08038345 -0.024506561 0.107573
0.09651212 0.16110295 0.09344666 0.013469554 -0.051150486 0.05970608 -0.007110403 0.20535041
-0.06547111 0.0893412 0.061397225 -0.05458202 -0.050733127 0.10645223 0.056786075 -0.08783613
-0.13840917 0.0108902585 0.18066362 0.06928577 -0.0687812 0.0035683638 0.053060353 0.05164656
0.13268292 0.07446837 0.07867131 -0.043817937 -0.044218775 0.08317657 0.19349566 -0.57476085
00000000: 9f75 5ebd b54e b7bc 520c d73c 3100 ca3d
00000010: 777f 5dbe 2930 a7bd 408e e83c e17d fabc
00000020: d321 dfbd eb3c e53d 8af5 c0bd ce03 3abd
00000030: d2a5 9a3d c7e4 03be 4f95 c73d 8152 c6bd
00000040: 3ffb 21be 47d7 77bc 45dd d43c d820 6d3d
00000050: 01a2 0fbd 8d33 96bd f2e8 63bd 61b3 7d3c
00000060: bce7 ea3c 459d dd3c 651c e8bc 1b5a 86bd
00000070: 0dd2 003b 89d0 b93d 0124 953a df2b 713c
00000080: 1787 203e 70c7 10bc b167 74be 1acf 5dbd
00000090: 8e23 38bd fcea d6bd b0ae 32bd 4922 f53d
000000a0: a695 80bd 2cc6 65bd 41b1 8dbc 3ee7 7cbd
000000b0: 3cc3 08bd d8de 863c bff1 c03c 7f3e cebb
000000c0: c994 37bd 22f4 9a3d 54ee 10bd 7d78 77bb
000000d0: 1890 dfbc 12b9 40bc c5f2 48bc 09ac 16bd
000000e0: 1fa6 5e3d 2d87 f8bd b178 c5bd c48e 383e
000000f0: d9a0 c8bd 59df e13c e6aa 9e3c 7a9b 9cbc
00000100: 01eb b23d f610 633d d19e c13d cfa5 9fbc
00000110: 9266 e3bc b707 0fbd 82e0 71bc ef4c a4be
00000120: cdff e53c a28d e03b ef34 493d ab0e 6fbe
00000130: afc7 80bd 7c9f eabc c9b1 d23c 6270 583c
00000140: 0d71 8abc bc93 2abc bf16 80bd 703e 83bd
00000150: 1e7e 0f3d 32cb b4bc e9dc 40bd 88c9 d6b8
00000160: ee85 a4bd 84fc db3a e67e 23be 5e3c 073e
00000170: 3563 0bbe 3373 68bc 68b6 91bd 0951 793e
00000180: dedd 423d ac50 543d c19d 48be a78b d23c
00000190: e66d b6bd 419c 9db9 c3f9 9c3d b05f 88bd
000001a0: 52c2 813b 73ab 58bc d597 eebc a25a c0bd
000001b0: b8dc 8abd 6d4c 98bc ea29 b03c db86 b23d
000001c0: 2f72 3a3e 03ec 2ebd 13bf 893d ef76 abbe
000001d0: 1dfd 9fbc a3c8 dcbc 7482 933d b9ba 453c
000001e0: bf3d 17bd 7dc0 613e 8fae b3bd 4529 763d
000001f0: 1f49 4bbd 81b4 3d3e 288d 203d d35b c7bb
00000200: 4248 6cbb 8d2b cabd 638e 0ebe e814 c13d
00000210: 72c7 c53c e8b9 36be 48ef 5ebd 2155 d7bd
00000220: 3df2 54bd f36f 5fbd eb9a 313c b2fe 10bd
00000230: 430d 3ebe fbd9 00be 74dd e73d 8deb ecba
00000240: 7e09 a8bd a385 3ebb 6fc9 71bb 4834 b8bd
00000250: 8ac6 453d d2bf 223b 7da5 f13d aeeb 0a3d
00000260: cde4 693d b0d9 a9bd f291 9b3c 6e06 9cbc
00000270: 0d9e 4c3d 5ec1 aebd a66e 47bc 12dd 403d
00000280: 9091 39bb 4eb9 25be 5297 6b3d 3786 88bd
00000290: a8cf a8bb dac5 943c 54ec fc3d 10de 163e
000002a0: 49ca 94be 600c b9bd c9c5 56be d9ba 3bba
000002b0: 7530 1a3e 5c26 da3c 7505 ccbb ab0e a83c
000002c0: 142f 5ebd 4e09 f33d f86b 373e 4aac 27bc
000002d0: 93a8 073d f984 1a3d 6a8b f53d 8ecd 03bd
000002e0: c321 b93d bdda 37be e6e4 1fbd 3eeb 423d
000002f0: 7bc5 7a3c 1b2a bf3c e4ec 24bc db25 64bd
00000300: 2026 cb3c 8ba2 6fbc 7a8a 0fbc fc44 a83d
00000310: 4b37 9e3d 1f56 6ebc ebe8 af3c 33e7 e53c
00000320: d2a2 2e3d d33c c43d 58c5 c2bc 56e1 78be
00000330: b8ec a1bc e22a 6ebc f424 1a3b c74f b0bc
00000340: 7f45 593e 07a9 4b3c da72 d5bc 1aa8 f1bc
00000350: d44d c73c 68f2 833b d1db 903e 1263 5bbc
00000360: b462 09bd 02d7 92bd d097 373e 715f d53d
00000370: 7784 873a 14a0 a4bd fcc1 c8bc 3c4f dc3d
00000380: 25a8 c53d 2cf8 243e f660 bf3d 67af 5c3c
00000390: 2c83 51bd 5d8e 743d 62fe e8bb 6147 523e
000003a0: b815 86bd 85f8 b63d a87b 7b3d 6591 5fbd
000003b0: 8acd 4fbd a003 da3d 8498 683d 6ee3 b3bd
000003c0: 22bb 0dbe 0e6d 323c e2ff 383e b3e5 8d3d
000003d0: 28dd 8cbd 36db 693b d055 593d 588b 533d
000003e0: 08de 073e df82 983d 6c1e a13d 707a 33bd
000003f0: bf1e 35bd 7a58 aa3d ba23 463e 8723 13bf

fc1.bias f4 [128]
-0.22213104 -0.21981914 -0.22585441 -0.12429258 -0.7700149 -0.18827799 -0.16831256 -0.25401497
-0.1894625 -0.41591904 -0.965967 -0.3569851 -0.26678437 -0.4549995 -0.4031606 -0.2957836
-0.37699884 -0.27299422 -0.09662002 -0.21449673 -0.40542924 -0.34053886 -0.49397814 -0.24168013
-0.08155665 -0.3169038 -0.057713263 -0.3661971 -0.6166184 -0.3329353 -0.16008705 -0.3306977
-0.23405975 -0.31796747 -0.5631002 -0.14200246 -0.10204362 -0.28851599 -0.32790017 -0.19271266
-0.2688858 -0.23882787 -0.3487293 -0.20551893 -0.3383493 -0.22417024 -0.37688977 -0.35005462
-0.43075785 -0.07363298 -0.36090237 -0.50741816 -0.26179385 -0.57126254 -0.023107557 -0.39751735
-0.15573189 -0.2406687 -0.34229118 -0.30426493 -0.37364167 -0.053535644 -0.62985635 -0.24754082
-0.25817946 -0.06482421 -0.09800087 -1.2641248 -0.38017014 -0.4010296 -0.348662 -0.2506922
-0.16688211 -0.04931749 -0.4155632 -0.24257892 -0.22342244 -1.5393316 -0.112660624 -1.5582494
-0.30077073 -0.57875264 -0.05670835 -0.39154947 -0.23933952 -0.10024504 -0.07338307 -0.12723978
-0.1264101 -0.2714116 -0.22659272 -0.18685049 -0.12887019 -0.08912221 -0.21118547 -0.046104793
-0.3820764 -0.06293905 -0.49755508 -0.13930081 -0.16543847 -0.28959402 -0.68523586 -0.54027104
-0.2016394 -0.16780168 -0.12623371 -0.24006788 -0.20865172 -0.17823647 -0.3559782 -0.46124336
-0.20654532 -0.24892515 -0.5763279 -0.5089256 -0.3714165 -0.16594796 -0.11182368 -0.2680242
-0.2557799 -0.23689337 -0.89544004 0.021628555 -0.3049569 -0.014803379 -0.16913472 -0.40269682
00000000: 5276 63be 4518 61be 6146 67be 1c8d febd
00000010: b21f 45bf f2cb 40be 215a 2cbe 400e 82be
00000020: 7502 42be 57f3 d4be 9d49 77bf c0c6 b6be
00000030: f697 88be b2f5 e8be 116b cebe f370 97be
00000040: fe05 c1be e6c5 8bbe b8e0 c5bd 08a5 5bbe
00000050: 6c94 cfbe 1c5b aebe b4ea fcbe ff7a 77be
00000060: 2c07 a7bd 3741 a2be be64 6cbd 307e bbbe
00000070: b4da 1dbf 7f76 aabe dced 23be 3551 a9be
00000080: 5cad 6fbe a2cc a2be 5627 10bf 1869 11be
00000090: 3ffc d0bd 5eb8 93be 88e2 a7be 7856 45be
000000a0: 66ab 89be 4b8f 74be a68c b2be 8e73 52be
000000b0: 1f3c adbe e28c 65be b2f7 c0be 5c3a b3be
000000c0: 4b8c dcbe e3cc 96bd 32c8 b8be 28e6 01bf
000000d0: d809 86be 433e 12bf 0f4c bdbc 6587 cbbe
000000e0: 2e78 1fbe db71 76be ca40 afbe 9dc8 9bbe
000000f0: f64d bfbe 3148 5bbd 443e 21bf 577b 7dbe
00000100: 1930 84be 8ec2 84bd aeb4 c8bd d7ce a1bf
00000110: a9a5 c2be c053 cdbe d383 b2be ba5a 80be
00000120: 25e3 2abe 2301 4abd b3c4 d4be 9c66 78be
00000130: dac8 64be d108 c5bf 9dba e6bd b774 c7bf
00000140: 9ffe 99be 2229 14bf 0447 68bd 2c79 c8be
00000150: 6b15 75be 464d cdbd dd49 96bd 254b 02be
00000160: a671 01be 76f6 8abe ec07 68be bc55 3fbe
00000170: 8cf6 03be b585 b6bd 0141 58be 61d8 3cbd
00000180: 859f c3be 30e6 80bd 8abf febe dfa4 0ebe
00000190: b468 29be ab45 94be 9e6b 2fbf 344f 0abf
000001a0: 8f7a 4ebe 34d4 2bbe 6943 01be 5bd4 75be
000001b0: cca8 55be 9f83 36be c642 b6be 1728 ecbe
000001c0: 9e80 53be 3ce6 7ebe 3a8a 13bf f348 02bf
000001d0: 4e2a bebe 43ee 29be d003 e5bd 783a 89be
000001e0: 95f5 82be 2d94 72be 8f3b 65bf 5e2e b13c
000001f0: 5023 9cbe df89 72bc a731 2dbe 472e cebe

fc2.weight f4 [64, 128]
0.25700188 0.17310224 0.20045617 0.26155603 0.069119506 0.2348351 0.20312701 0.16334586
0.3988445 0.241094 0.12894873 0.173348 0.11537375 0.07509783 0.19022694 0.2219964
0.18426809 0.07141725 0.06726054 0.08248074 0.15384068 0.14823438 0.03247 0.2325723
0.108482994 0.19817732 0.25459793 0.056626298 0.10461288 0.15162633 0.1467837 0.122956574
0.14737691 0.14172651 0.020547537 0.21773475 0.23749427 0.113584384 0.16719618 0.22409768
0.2378437 0.094735965 0.14673257 0.20079477 0.3193643 0.20360446 0.17908113 0.32224715
0.22304712 0.13724856 0.023799691 0.06549025 0.30751163 0.20479432 0.1304593 0.098202236
0.33559114 0.12909304 0.017891048 0.19181947 -0.030355582 0.18714449 0.094825156 0.23972231
0.21369685 0.23626386 0.33113828 0.09298859 0.06830861 0.12869515 0.294615 0.16439204
0.15885426 0.31547952 0.20384745 0.14502692 0.1540221 0.06857964 0.1333576 -0.024283374
0.15403041 0.066052474 0.18067575 0.09629728 0.13096783 0.33035383 0.23301959 0.33685514
0.09909137 0.12719877 0.2131654 0.2623602 0.18344653 0.116689295 0.19620414 0.18716416
0.11989511 0.32215935 0.14126474 0.15894483 0.23101418 0.081854574 0.055644225 0.1329269
0.30054367 0.22663085 0.25770432 0.1301428 0.14856368 0.09926656 0.13115686 0.052905746
0.36637092 0.31474876 0.08565942 0.054579966 0.13260525 0.093178466 0.27659586 0.3314444
0.0997501 0.2541546 0.010851212 0.32163185 0.23129982 0.21356553 0.3336071 0.17979364
0.18972999 0.26883346 0.30049086 0.2795933 -0.0050684432 0.27771023 0.12619561 0.06253738
0.28875583 0.20672373 0.09392748 0.18212533 0.22645809 0.21006379 0.091764525 0.26080012
0.24058904 0.16750483 0.20108297 0.10679177 0.020628726 0.29612997 0.077881664 0.22501153
0.1728157 0.22873874 0.24836111 0.046231993 0.09988046 0.21469791 0.16967216 0.0858021
0.14812565 0.1875368 -0.018045194 0.11541357 0.17672855 0.20643021 0.09568975 0.26207712
0.18242405 0.10156027 0.103706494 0.12428195 0.42479855 0.21011393 0.1067675 0.22709337
0.25668 0.062707014 0.103311084 0.097488046 0.27077544 0.11861418 0.22283438 0.06182792
0.47433728 0.10292003 0.029790523 0.16146849 -0.00806018 0.23911999 0.11137189 0.2797288
0.200639 0.2858308 0.34839696 0.0037221534 0.050378583 0.11987945 0.21761125 0.2047225
0.25828087 0.23362885 0.24151573 0.030592918 0.19170274 0.006203554 0.06916979 0.07202196
0.17428641 0.13057546 0.2815146 0.089109115 0.12892964 0.29058737 0.18472035 0.23061386
0.111812696 0.15889136 0.16341327 0.3125697 0.20348525 0.24535419 0.25624675 0.10679699
0.16388594 0.26196468 0.14312741 0.21178973 0.24353074 0.21953417 0.08801467 0.1665243
0.32734734 0.08438905 0.21764207 0.1674795 0.008747538 0.12696594 0.14249872 0.09488275
0.41296688 0.2665458 0.12226524 0.12839554 0.22241798 0.21815681 0.3241948 0.27796647
0.26859993 0.23751363 0.01936872 0.34126666 0.24030522 0.09542831 0.26365656 0.24058574
00000000: c095 833e b741 313e 6244 4d3e acea 853e
00000010: 878e 8d3d 9d78 703e 8700 503e 2344 273e
00000020: 5935 cc3e 58e1 763e 230b 043e 2382 313e
00000030: 1349 ec3d e4cc 993d daca 423e 0653 633e
00000040: c6b0 3c3e 3543 923d e5bf 893d aaeb a83d
00000050: 6988 1d3e c1ca 173e 43ff 043d 6f27 6e3e
00000060: 552c de3d ffee 4a3e a95a 823e faf0 673d
00000070: 473f d63d ef43 1b3e 774e 163e a8d0 fb3d
00000080: f9e9 163e c120 113e 4f53 a83c dcf5 5e3e
00000090: b331 733e ee9e e83d 7a35 2b3e dd79 653e
000000a0: 4d8d 733e ee04 c23d 1041 163e 259d 4d3e
000000b0: b883 a33e b07d 503e 0b61 373e 94fd a43e
000000c0: 7766 643e e38a 0c3e 92f7 c23c c11f 863d
000000d0: 2a72 9d3e 9ab5 513e 1f97 053e 411e c93d
000000e0: 9ad2 ab3e f730 043e 3f90 923c 536c 443e
000000f0: 45ac f8bc cea2 3f3e b133 c23d c479 753e
00000100: 59d3 5a3e 27ef 713e f58a a93e cd70 be3d
00000110: 62e5 8b3d a9c8 033e c7d7 963e 6356 283e
00000120: b1aa 223e 8886 a13e 63bd 503e f081 143e
00000130: f8b7 1d3e 7b73 8c3d e58e 083e eded c6bc
00000140: 26ba 1d3e 8546 873d 1003 393e 8237 c53d
00000150: 6e1c 063e 2324 a93e b09c 6e3e 4778 ac3e
00000160: 6bf0 ca3d 6540 023e 0848 5a3e 1354 863e
00000170: 68d9 3b3e ccfa ee3d bde9 483e f6a7 3f3e
00000180: 918b f53d 12f2 a43e b4a7 103e 6fc2 223e
00000190: fb8e 6c3e 5fa3 a73d 33eb 633d fd1d 083e
000001a0: dce0 993e eb11 683e d2f1 833e 2744 053e
000001b0: 1421 183e 444c cb3d fc4d 063e b2b3 583d
000001c0: f894 bb3e c026 a13e 356e af3d 3e8f 5f3d
000001d0: acc9 073e 5ad4 be3d f99d 8d3e 15b3 a93e
000001e0: c849 cc3d 8d20 823e 48c9 313c eeac a43e
000001f0: dcd9 6c3e ecb0 5a3e 8dce aa3e d31b 383e
00000200: 9448 423e 8aa4 893e f0d9 993e da26 8f3e
00000210: 2f15 a6bb 0930 8e3e 6c39 013e 9913 803d
00000220: ced7 933e 63af 533e 0d5d c03d 107f 3a3e
00000230: a1e4 673e f61a 573e 0aef bb3d 9887 853e
00000240: f95c 763e 6386 2b3e b2e8 4d3e a5b5 da3d
00000250: 93fd a83c 599e 973e 6c80 9f3d 6c69 663e
00000260: 99f6 303e 7d3a 6a3e 6052 7e3e c25d 3d3d
00000270: 208e cc3d c5d9 5b3e 8abe 2d3e 03b9 af3d
00000280: 40ae 173e a609 403e 84d3 93bc f35d ec3d
00000290: 54f8 343e 7162 533e fdf8 c33d f92e 863e
000002a0: 5fcd 3a3e d5fe cf3d 1264 d43d 8987 fe3d
000002b0: 327f d93e 1b28 573e eba8 da3d 2a8b 683e
000002c0: 906b 833e 896c 803d c394 d33d d0a7 c73d
000002d0: 14a3 8a3e feeb f23d b22e 643e 463f 7d3d
000002e0: 56dc f23e bdc7 d23d 410b f43c ff57 253e
000002f0: d80e 04bc dfdb 743e f216 e43d 9d38 8f3e
00000300: 4f74 4d3e 6a58 923e 1661 b23e 5fef 733b
00000310: c659 4e3d 5b83 f53d 7cd5 5e3e c6a2 513e
00000320: 643d 843e 673c 6f3e e64f 773e 009e fa3c
00000330: b94d 443e 2f47 cb3b e4a8 8d3d 4080 933d
00000340: 2378 323e 93b5 053e af22 903e d77e b63d
00000350: 2206 043e dec7 943e 5527 3d3e 0a26 6c3e
00000360: 0efe e43d 6bb4 223e cf55 273e 2309 a03e
00000370: 705e 503e 213e 7b3e c632 833e 61b8 da3d
00000380: b7d1 273e 3c20 863e fe8f 123e 68df 583e
00000390: 1f60 793e 91cd 603e 0941 b43d 5985 2a3e
000003a0: 129a a73e 2bd4 ac3d 90dd 5e3e bf7f 2b3e
000003b0: d551 0f3c 5c03 023e 2feb 113e e351 c23d
000003c0: 6570 d33e b178 883e 3366 fa3d 1f7a 033e
000003d0: 8ac1 633e 8064 5f3e dcfc a53e 9f51 8e3e
000003e0: ee85 893e c636 733e 26ab 9e3c 81ba ae3e
000003f0: 9212 763e eb6f c33d fefd 863e 1c5c 763e

fc2.bias f4 [64]
0.17874303 0.02516574 -0.09674241 0.0428256 0.30732557 0.14176567 0.25949407 -0.049778588
0.4633286 0.14575873 0.28139785 0.20508298 0.23829983 0.10980522 -0.20777299 0.24332845
0.4887603 0.17164332 0.21828645 -0.03556042 0.14721109 0.15936829 0.05286279 -0.48177826
0.18034403 -0.10505821 0.25300995 0.17203166 0.013684088 -0.047571346 0.21030219 0.4085999
0.17198852 0.46067563 -0.012297643 0.40150204 0.122567475 0.18458615 0.24238557 0.3787589
0.42215994 0.27196732 0.54381835 0.18744516 0.6432346 0.39334625 0.07509484 0.29842064
0.17123723 0.10949394 0.40952057 0.39592183 0.1273629 0.12227253 0.23112705 0.5287607
0.32147056 0.023469305 0.11258056 -0.4532169 0.1116962 0.17048174 0.085444935 0.48096284
00000000: 6a08 373e 6228 ce3c e220 c6bd e569 2f3d
00000010: c759 9d3e 052b 113e 68dc 843e a2e4 4bbd
00000020: 6839 ed3e c741 153e 6113 903e 4601 523e
00000030: df04 743e 8fe1 e03d 71c2 54be 182b 793e
00000040: ca3e fa3e 44c3 2f3e 7c86 5f3e cea7 11bd
00000050: 81be 163e 7131 233e a786 583d a4ab f6be
00000060: 1bac 383e c228 d7bd 858a 813e 1129 303e
00000070: 3a33 603c 2cda 42bd 7559 573e 0234 d13e
00000080: c21d 303e addd eb3e 0e7c 49bc ad91 cd3e
00000090: a804 fb3d 2704 3d3e ec33 783e b0ec c13e
000000a0: 5925 d83e 4d3f 8b3e ae37 0b3f a0f1 3f3e
000000b0: 06ab 243f ae64 c93e 53cb 993d 97ca 983e
000000c0: d058 2f3e 5c3e e03d aeac d13e 44b6 ca3e
000000d0: 6c6b 023e 056a fa3d 92ac 6c3e dc5c 073f
000000e0: ca97 a43e b342 c03c a390 e63d 0c0c e8be
000000f0: fac0 e43d c492 2e3e c1fd ae3d c340 f63e

fc3.weight f4 [1, 64]
0.28267685 0.19879656 -0.57793015 0.22729935 -0.5243496 0.19542383 0.26288888 0.19859771
-0.40317342 -0.6698036 -0.58454895 0.24808185 -0.5844106 -0.66484624 -0.07462862 0.23939487
-0.9737989 0.26635718 0.22367176 -0.025572618 0.21823983 -0.43112397 -0.103427164 -0.38476017
-0.6190068 0.031197 0.28789836 0.2456601 -0.7727614 0.0034876333 0.21754022 -0.3541577
0.21560985 -0.5267347 -1.0710428 -0.8120232 -0.7077216 -0.69583225 0.22789566 -0.9527227
-0.77753776 0.28574336 -0.3780454 -0.577512 -0.93423 -0.6576911 -0.04456247 -0.4013301
0.2011769 0.20778185 -0.50101984 -0.7148211 0.21826546 0.19336325 0.24535535 -1.1350214
-0.4506085 -0.07644038 0.25779533 0.25762525 0.254582 0.23162836 0.20029081 -0.3248352
00000000: 05bb 903e 5391 4b3e 3bf3 13bf 29c1 683e
00000010: c63b 06bf 2f1d 483e 5f99 863e 335d 4b3e
00000020: bf6c cebe 4078 2bbf 00a5 15bf 2b09 7e3e
00000030: ef9b 15bf 5d33 2abf e4d6 98bd ee23 753e
00000040: e24a 79bf f85f 883e 360a 653e ab7d d1bc
00000050: 437a 5f3e 48bc dcbe 9fd1 d3bd 49ff c4be
00000060: 3b77 1ebf da90 ff3c 6a67 933e 528e 7b3e
00000070: b1d3 45bf c790 643b ddc2 5e3e 2854 b5be
00000080: d4c8 5c3e 16d8 06bf ee17 89bf c1e0 4fbf
00000090: 3e2d 35bf 1022 32bf 7b5d 693e a3e5 73bf
000000a0: b70c 47bf f44c 923e 2b8f c1be d4d7 13bf
000000b0: b329 6fbf 725e 28bf 2387 36bd 247b cdbe
000000c0: 5101 4e3e c4c4 543e d642 00bf 84fe 36bf
000000d0: fb80 5f3e 0401 463e 6f3e 7b3e 6248 91bf
000000e0: 28b6 e6be c68c 9cbd c0fd 833e 75e7 833e
000000f0: 9258 823e fc2f 6d3e 0919 4d3e cd50 a6be
