Radiomics_local_global_framework/models_2/Stochastic Gates_feature_selection/Neural_Network_try_2/global_flair_t1ce___local_flair_t1ce/model.pt (torch, 304820 bytes, 5 tensors)

fc1.weight f4 [128, 525]
-0.025722995 0.025388949 -0.014594048 0.022520248 0.06333346 0.009587726 0.08686209 0.1839054
0.019576715 -0.033941384 -0.03219461 -0.029954802 -0.03076215 -0.031015879 -0.063486114 -0.09453097
0.08895219 -0.0042176093 0.109088205 0.050998535 0.04258368 -0.024562676 0.05136986 0.1489179
-0.036669705 0.06535567 -0.03132493 0.0532811 -0.045625024 0.040266156 -0.122793265 0.034179017
-0.030857233 0.044726063 0.06467455 0.1790703 0.028295543 -0.009889667 -0.10779962 -0.1899556
-0.16224982 -0.0200789 -0.03804481 0.028073534 0.08529019 0.039005652 0.16601895 -0.018007345
-0.055645965 -0.07251652 -0.043304812 0.011075567 -0.07030274 -0.016550144 0.026591334 0.026410602
0.04864851 0.040071115 -0.064225845 -0.04676696 -0.12876281 0.10130174 0.08377317 0.1223408
0.13422716 0.11017288 -0.03119104 0.069072045 0.07196955 0.044438455 -0.02454037 0.042396177
-0.04358686 -0.058566168 -0.039042387 -0.039149333 0.08949037 -0.08965224 0.005632544 -0.02688989
-0.0588236 0.08719416 0.12555338 0.13084283 0.10145623 -0.011472842 0.07025617 0.06755166
0.10968937 0.094204895 0.074011475 0.11728571 -0.0061710873 0.1885999 0.02362492 -0.07471745
-0.00031932467 0.08169842 0.023491401 -0.022543902 -0.07187446 0.0942205 0.011282097 0.050154977
-0.19246136 -0.06754685 -0.07614166 -0.023773303 -0.030821532 -0.22149694 0.03627973 -0.0058030956
0.02501191 -0.048048977 0.0135891745 0.006872724 0.18504441 -0.12863372 0.046162426 0.015320151
-0.00406395 0.067826316 -0.005249984 0.101364866 -0.09113 0.12767689 -0.035601493 -0.003324042
0.09651629 0.12382832 0.057008345 0.025709396 0.033998128 -0.021031419 0.010819378 0.14150299
0.22069287 -0.0055670156 -0.055257946 0.108639784 -0.116237976 0.06667744 0.20627558 -0.048055463
-0.04795766 -0.03396999 0.024749296 -0.048392218 0.103067905 -0.26131463 0.006349081 -0.059557807
-0.21451494 0.011012818 -0.35384664 -0.058275033 0.035609458 0.1487587 0.082628734 -0.20337349
0.0443478 0.03866685 -0.13514137 0.20411482 0.3664408 -0.010879221 0.13464926 0.18544938
0.007590064 -0.036261186 -0.07241772 0.015634341 0.33999342 -0.041187447 -0.28965405 -0.013850231
-0.049800266 -0.08054546 0.022753326 0.05774478 0.22178425 0.059478443 0.11326206 -0.107253306
-0.02845253 -0.023999678 0.037220173 -0.13674666 -0.4829205 0.07529071 -0.031509716 0.03698475
0.092095114 0.10692881 -0.48289573 0.025355991 -0.006732829 -0.27193296 0.16726866 0.14537275
0.02717303 0.07971186 -0.006996225 0.20214613 0.12570061 0.029904496 0.10526489 0.17221552
-0.35173577 0.08456995 -0.021194631 -0.058793567 0.11939305 -0.021447625 -0.29628396 0.16809046
0.09611166 0.25263575 0.11331127 -0.01726527 0.087065645 -0.25253144 0.06277068 0.007439129
0.031962316 0.20980875 0.056654505 0.21927932 0.077461235 -0.027777182 -0.07111948 0.08232803
0.08060373 -0.012224358 0.052486263 0.038676497 -0.013658174 -1.1475686 0.021400142 -0.07247202
-0.12507454 -0.11354307 -0.2141836 -0.03902515 -0.20332113 0.08824043 -0.187986 -0.057781342
0.3353324 0.07705044 0.037768975 -0.0006733988 -0.761855 -0.039049827 0.23897742 0.09353171
00000000: 08b9 d2bc 7cfc cf3c e01b 6fbc 627c b83c
00000010: f9b4 813d d615 1d3c c0e4 b13d b251 3c3e
00000020: 595f a03c 1f06 0bbd 7fde 03bd c663 f5bc
00000030: e800 fcbc 0315 febc 0205 82bd 7499 c1bd
00000040: 912c b63d df33 8abb a369 df3d d7e3 503d
00000050: 3a6c 2e3d aa37 c9bc 3469 523d ef7d 183e
00000060: f932 16bd 32d9 853d 924e 00bd 483d 5a3d
00000070: 4ee1 3abd 20ee 243d 097b fbbd 4cff 0b3d
00000080: 4fc8 fcbc ad32 373d 1774 843d 345e 373e
00000090: 0ecc e73c 4508 22bc 0cc6 dcbd b983 42be
000000a0: d124 26be 817c a4bc e0d4 1bbd 78fa e53c
000000b0: a0ac ae3d 64c4 1f3d df00 2a3e 2484 93bc
000000c0: 06ed 63bd 8b83 94bd 6360 31bd 4c76 353c
000000d0: e2fa 8fbd 2b94 87bc 12d6 d93c 0c5b d83c
000000e0: a943 473d 9c21 243d d788 83bd b68e 3fbd
000000f0: 66da 03be 4977 cf3d 4591 ab3d d08d fa3d
00000100: d872 093e 52a2 e13d 5a84 ffbc a575 8d3d
00000110: c564 933d 1905 363d e308 c9bc 9da7 2d3d
00000120: 2388 32bd 14e3 6fbd e9ea 1fbd 0d5b 20bd
00000130: ba46 b73d 989b b7bd 3491 b83b 3048 dcbc
00000140: 04f1 70bd da92 b23d 1191 003e aafb 053e
00000150: 49c8 cf3d 96f8 3bbc 78e2 8f3d 8658 8a3d
00000160: d2a4 e03d 7fee c03d 5493 973d 7e33 f03d
00000170: d536 cabb 5520 413e 0c89 c13c 7605 99bd
00000180: 086b a7b9 8051 a73d 0a71 c03c fdad b8bc
00000190: eb32 93bd adf6 c03d 8bd8 383c 4e6f 4d3d
000001a0: 9714 45be 0156 8abd 29f0 9bbd 3bc0 c2bc
000001b0: 707d fcbc 18d0 62be 0e9a 143d e527 bebb
000001c0: c7e5 cc3c 01cf 44bd 21a5 5e3c 9634 e13b
000001d0: 487c 3d3e 8fb8 03be d014 3d3d 5f01 7b3c
000001e0: e22a 85bb 86e8 8a3d 0f08 acbb 6298 cf3d
000001f0: 5ea2 babd bbbd 023e dfd2 11bd 2cd8 59bb
00000200: 55aa c53d b499 fd3d 9581 693d 839c d23c
00000210: 9f41 0b3d 154a acbc c343 313c 29e6 103e
00000220: 50fd 613e 836b b6bb 2856 62bd 897e de3d
00000230: 2d0e eebd 2f8e 883d e839 533e ced5 44bd
00000240: 406f 44bd 1e24 0bbd 09bf ca3c eb36 46bd
00000250: 4415 d33d 08cb 85be f40b d03b e3f2 73bd
00000260: cea9 5bbe 1b6f 343c 632b b5be cdb1 6ebd
00000270: 39db 113d 3354 183e 4139 a93d 2441 50be
00000280: 0aa6 353d 2261 1e3d 8062 0abe 7a03 513e
00000290: 219e bb3e c33e 32bc 7fe1 093e 71e6 3d3e
000002a0: 12b6 f83b 9c86 14bd be4f 94bd 9713 803c
000002b0: 9e13 ae3e 2bb4 28bd 894d 94be 14ec 62bc
000002c0: 5dfb 4bbd 05f5 a4bd 2f65 ba3c ca85 6c3d
000002d0: 691b 633e ab9f 733d f0f5 e73d 9fa7 dbbd
000002e0: 4815 e9bc f99a c4bc 2e74 183d 5107 0cbe
000002f0: 5b41 f7be 0432 9a3d 5510 01bd 527d 173d
00000300: 5d9c bc3d 7efd da3d 1c3e f7be 5eb7 cf3c
00000310: 109f dcbb cc3a 8bbe 7a48 2b3e 98dc 143e
00000320: f999 de3c f93f a33d 9740 e5bb 65ff 4e3e
00000330: a9b7 003e 46fa f43c 1e95 d73d 4459 303e
00000340: b616 b4be 0333 ad3d 5da0 adbc 86d1 70bd
00000350: 5884 f43d eeb2 afbc 88b2 97be e81f 2c3e
00000360: 31d6 c43d 7959 813e bd0f e83d e56f 8dbc
00000370: 794f b23d cd4b 81be ea8d 803d f0c3 f33b
00000380: ebea 023d 1bd8 563e 8e0e 683d c28a 603e
00000390: ffa3 9e3d f98c e3bc 17a7 91bd 999b a83d
000003a0: 9213 a53d ac48 48bc d6fb 563d 3f6b 1e3d
000003b0: 89c6 5fbc 87e3 92bf 5a4f af3c 366c 94bd
000003c0: 8a13 00be 4589 e8bd f252 5bbe d6d8 1fbd
000003d0: 6a33 50be 66b7 b43d 677f 40be 21ac 6cbd
000003e0: b0b0 ab3e 9fcc 9d3d a4b3 1a3d 0787 30ba
000003f0: ee08 43bf b6f2 1fbd 7fb6 743e 8e8d bf3d

fc1.bias f4 [128]
-0.41615322 -0.21777563 -0.14502665 -0.55648625 -0.2935882 -0.1686755 -0.21057606 -0.36146486
-0.12966456 -0.16836525 -0.34659222 -0.12625748 -1.2771455 -0.16036695 -0.648741 -0.3878685
-0.5485376 -0.18451864 -0.37489516 -0.15721096 -0.7832987 -0.18624957 -0.12737057 -0.16779754
-0.56431514 -0.3669957 -0.32723638 -0.35458022 -0.47466347 -0.5740994 -0.56522715 -0.10189806
-0.325961 -0.29496184 -0.30198216 -0.1673875 -0.29213005 -0.6904964 -0.50020385 -0.32222658
-0.2597892 -0.35451353 -0.8122462 -0.33078152 -0.2691367 -0.30126524 -0.64764833 -0.20581983
-0.21528916 -0.20303753 -0.2093731 -0.18423899 -0.4374151 -0.21892013 -0.17994387 -0.1855724
-0.29034504 -0.16875513 -0.73471594 -0.5221453 -0.25188267 -0.20652264 -0.19373026 -0.17919086
-0.0937182 -0.4698301 -0.22166777 -0.09065755 -0.2158654 -0.33287266 -0.16134597 -0.5588727
-0.4206886 -0.46556506 -1.2830929 -0.34740463 -0.79109967 0.04720623 -0.9722931 -0.2595504
-0.4259699 -0.44041526 -0.058205504 -0.015479851 -0.24973403 -0.47763819 -0.48410323 -0.019238252
-0.20781739 -0.2666697 -0.5333226 -0.2403274 -0.28971043 -0.86629725 -0.28798267 -0.17786573
-0.43896088 -0.35203093 -0.43445966 -0.1893839 -0.4873103 -0.18109792 -0.32758617 -0.15266351
-0.31869295 -0.12680644 -0.5135663 -0.38734904 -0.55719364 -0.49220142 -0.051117603 -0.20814253
-0.4862613 -0.25287434 -0.35616165 -0.5538771 -0.21010719 -0.8053511 -0.868432 -0.3459619
-0.28116027 -0.30876952 -0.6215116 -0.294528 -0.19465902 -0.19281565 -0.12806538 -0.17619471
00000000: 0912 d5be 9300 5fbe de81 14be e275 0ebf
00000010: 3151 96be 45b9 2cbe 40a1 57be ec11 b9be
00000020: c9c6 04be f167 2cbe 8974 b1be a449 01be
00000030: 8179 a3bf 3c37 24be e413 26bf b396 c6be
00000040: f66c 0cbf 74f2 3cbe 42f2 bfbe e9fb 20be
00000050: 4386 48bf 35b8 3ebe 6e6d 02be 1ed3 2bbe
00000060: f576 10bf dce6 bbbe 878b a7be 8a8b b5be
00000070: 1707 f3be 2ef8 12bf bab2 10bf eeaf d0bd
00000080: 5ce4 a6be 3d05 97be 689d 9abe a167 2bbe
00000090: 1292 95be 5fc4 30bf 5c0d 00bf e2fa a4be
000000a0: 1703 85be cc82 b5be 5eef 4fbf 325c a9be
000000b0: 49cc 89be 703f 9abe 48cc 25bf 6fc2 52be
000000c0: c374 5cbe 12e9 4fbe e765 56be 25a9 3cbe
000000d0: dff4 dfbe 992c 60be 3543 38be b106 3ebe
000000e0: 1ba8 94be 25ce 2cbe 5816 3cbf 50ab 05bf
000000f0: c4f6 80be ac7a 53be 3a61 46be cf7d 37be
00000100: 54ef bfbd 928d f0be e0fc 62be aaaa b9bd
00000110: d20b 5dbe 496e aabe e137 25be 4812 0fbf
00000120: 7f64 d7be 8b5e eebe 633c a4bf 05df b1be
00000130: 8285 4abf 525b 413d 33e8 78bf cae3 84be
00000140: ba18 dabe 1c7e e1be e568 6ebd 339f 7dbc
00000150: 47ba 7fbe fe8c f4be 61dc f7be 8a99 9dbc
00000160: 15ce 54be ee88 88be d487 08bf 6318 76be
00000170: ed54 94be a8c5 5dbf 7772 93be 6f22 36be
00000180: 7bbf e0be 663d b4be 7f71 debe daed 41be
00000190: bc80 f9be bc71 39be 60b9 a7be d353 1cbe
000001a0: b92b a3be 8cd9 01be 1579 03bf 9d52 c6be
000001b0: 3ea4 0ebf d301 fcbe b160 51bd 5123 55be
000001c0: 3ef7 f8be bf78 81be d25a b6be e4ca 0dbf
000001d0: 5726 57be 7d2b 4ebf 8f51 5ebf eb21 b1be
000001e0: 3df4 8fbe 0a17 9ebe 621b 1fbf 60cc 96be
000001f0: b254 47be 7771 45be 9223 03be 636c 34be

fc2.weight f4 [64, 128]
0.14265744 0.05757267 0.19154003 0.0853233 0.13299328 0.2936854 0.10059315 0.0371255
0.19754113 0.28308204 0.25702775 0.23246412 -0.07480618 0.19651699 0.0028473954 0.22454855
0.11794795 0.29826403 0.0278568 0.23363362 0.11811003 0.13346651 0.117214546 0.5718925
0.18525513 0.002026265 0.35727 0.317833 0.089878105 0.07062698 -0.044946425 0.41802555
0.014925558 0.25747612 0.036386047 0.25942263 0.27907297 0.04093395 0.015722826 0.003911836
0.21083951 0.18968886 0.12558694 0.17957164 0.13359548 0.065271124 0.09888386 0.12288203
0.18095353 0.35300502 0.13141327 0.31172493 0.0038130444 0.19134307 0.27180767 0.3570095
0.16446936 0.2300718 0.004450504 -0.0006040362 0.11669097 -0.017516995 0.28939795 0.15722916
0.22583681 0.18696208 0.36232087 0.16268204 0.129879 0.11811571 0.16253337 0.07497026
0.06888249 0.16836388 0.0037106518 0.14823353 0.09459781 0.20917942 0.10298347 0.15288867
0.09608009 0.031404324 0.36457974 0.13216576 0.15449627 0.19568416 0.13949603 0.07598363
0.08168148 0.2323642 0.1879675 0.09049821 0.21124235 -0.015934153 0.17933688 0.16137025
0.116321266 0.17225052 0.07411135 0.17779538 0.049974598 0.2334412 0.1128673 0.1303706
0.10798062 0.29775345 0.054184318 0.18149869 0.10618274 0.014789549 0.26058304 0.32168224
0.062013883 0.2903942 0.26508597 0.009148891 0.18323328 0.10249054 0.10439273 0.22513959
0.26035225 0.2694287 0.062331505 0.0954749 0.29978865 0.055189285 0.1846094 0.21098642
0.17368439 0.17573132 0.17755222 0.010655955 0.2359187 0.15880735 0.045289822 -0.017280132
0.1454793 0.18637072 0.1744957 0.18574782 0.07071494 0.11933313 0.06301713 0.113839686
0.1952176 0.26888344 0.11482531 0.3238822 0.049405705 0.15309249 0.091453865 0.48313987
0.15775345 0.08884889 0.3230582 0.2616779 0.221594 0.080187574 0.08384476 0.34164497
0.07697309 0.2258274 0.061111487 0.29565465 0.24265307 0.025491962 -0.022541525 0.034491025
0.22762524 0.21514837 -0.013936081 0.28601673 0.14660355 0.085533634 0.044470754 0.10644624
0.19564328 0.24521312 -0.0058893496 0.38230693 0.037754606 0.22532769 0.34448755 0.20198984
0.30503404 0.043320756 0.06545385 0.069292545 0.12152651 -0.027034892 0.2217758 0.20340441
0.31552315 0.23547904 0.20162585 0.17709957 0.17295492 0.16632634 0.14905585 0.17036597
0.090077475 0.159326 -0.089512736 0.28865352 -0.075100735 0.07085538 -0.062886335 0.30502576
0.05416644 -0.015049555 0.3717443 0.19236852 0.21910392 0.1551303 0.12879053 0.16920754
0.07068492 0.14971381 0.11558096 0.21198928 0.20388052 0.014920651 0.271276 0.15591455
0.019957626 0.11191167 0.03755853 0.040648382 0.113966174 0.21961208 0.020456135 0.17449686
0.15065414 0.20280178 0.0043918313 0.047488622 0.08447708 0.058361787 0.28446293 0.24598917
0.05724877 0.32814786 0.3369618 0.006584061 0.11466894 -0.05187812 -0.028138349 0.33420852
0.13031426 0.4120618 -0.06747982 0.059879217 0.23401713 0.07561564 0.28732088 0.06889499
00000000: cb14 123e 52d1 6b3d 1223 443e fbbd ae3d
00000010: 642f 083e ef5d 963e c803 ce3d e910 183d
00000020: 3948 4a3e 21f0 903e 2499 833e 130b 6e3e
00000030: fc33 99bd c03b 493e 5e9b 3a3b 0ef0 653e
00000040: b28e f13d 10b6 983e f233 e43c a73d 6f3e
00000050: ace3 f13d 72ab 083e 2e0e f03d 8c67 123f
00000060: 85b3 3d3e 16cb 043b 18ec b63e 02bb a23e
00000070: 0312 b83d e1a4 903d be19 38bd 7207 d63e
00000080: 548a 743c e9d3 833e 8909 153d 0bd3 843e
00000090: a7e2 8e3e 5caa 273d 28cd 803c dc2e 803b
000000a0: 50e6 573e cc3d 423e dd99 003e a1e1 373e
000000b0: 41cd 083e deac 853d 9f83 ca3d 93a9 fb3d
000000c0: e24b 393e 13bd b43e 3391 063e 699a 9f3e
000000d0: 45e4 793b 70ef 433e 602a 8b3e f3c9 b63e
000000e0: a86a 283e f197 6b3e 89d5 913b 2f58 1eba
000000f0: adfb ee3d cd7f 8fbc f82b 943e ae00 213e
00000100: c441 673e fd72 3f3e 1f82 b93e 1f96 263e
00000110: 00ff 043e a6e6 f13d 266f 263e 028a 993d
00000120: 4312 8d3d 9567 2c3e 682e 733b 88ca 173e
00000130: 7fbc c13d 2133 563e ffe8 d23d d98e 1c3e
00000140: a3c5 c43d d2a1 003d 32aa ba3e 7656 073e
00000150: 4534 1e3e 6e61 483e 0cd8 0e3e 4e9d 9b3d
00000160: 9f48 a73d e1f0 6d3e 8d7a 403e 2057 b93d
00000170: ea4f 583e 5788 82bc 16a4 373e 3e3e 253e
00000180: d839 ee3d 7162 303e b1c7 973d fe0f 363e
00000190: 2ab2 4c3d 360b 6f3e f926 e73d df7f 053e
000001a0: f124 dd3d 2473 983e 60f0 5d3d cbda 393e
000001b0: 5676 d93d dd4f 723c 246b 853e 89b3 a43e
000001c0: 4502 7e3d 8cae 943e 59b9 873e 3be5 153c
000001d0: 81a1 3b3e 8fe6 d13d dbcb d53d fe8a 663e
000001e0: e44c 853e 8ff2 893e 524f 7f3d 5888 c33d
000001f0: e67d 993e 290e 623d 3f0a 3d3e d30c 583e
00000200: 52da 313e e9f2 333e 40d0 353e 5196 2e3c
00000210: ac94 713e 659e 223e d281 393d 108f 8dbc
00000220: 87f8 143e f7d7 3e3e 00af 323e ad34 3e3e
00000230: ffd2 903d ee64 f43d 200f 813d c824 e93d
00000240: 1fe7 473e 17ab 893e 8829 eb3d e3d3 a53e
00000250: a35d 4a3d 47c4 1c3e 2a4c bb3d 1c5e f73e
00000260: 1f8a 213e 68f6 b53d e267 a53e a5fa 853e
00000270: 8ae9 623e 6239 a43d cdb6 ab3d 17ec ae3e
00000280: 11a4 9d3d 4c3f 673e 0a50 7a3d 0c60 973e
00000290: 0c7a 783e 85d4 d03c 01a9 b8bc 7646 0d3d
000002a0: 9716 693e db4f 5c3e 2954 64bc c970 923e
000002b0: 3e1f 163e 422c af3d f726 363d 7c00 da3d
000002c0: b656 483e 2619 7b3e 72fb c0bb bcbd c33e
000002d0: 93a4 1a3d 4dbc 663e ac60 b03e 6dd6 4e3e
000002e0: 6c2d 9c3e 1b71 313d ab0c 863d 40e9 8d3d
000002f0: e4e2 f83d 4778 ddbc 3219 633e 3f49 503e
00000300: 408c a13e 6b21 713e 0277 4e3e 9759 353e
00000310: 181b 313e 7451 2a3e 19a2 183e 6b74 2e3e
00000320: 8a7a b83d 5b26 233e 7452 b7bd 65ca 933e
00000330: 6ace 99bd a01c 913d 8dca 80bd 562c 9c3e
00000340: a1dd 5d3d 6992 76bc 4555 be3e 41fc 443e
00000350: c75c 603e 7ada 1e3e aae1 033e be44 2d3e
00000360: 41c3 903d 944e 193e b6b5 ec3d b813 593e
00000370: 0ec6 503e bf75 743c b0e4 8a3e 10a8 1f3e
00000380: 2d7e a33c f231 e53d f9d6 193d eb7e 263d
00000390: 1967 e93d fde1 603e a093 a73c 4eaf 323e
000003a0: 1445 1a3e 45ab 4f3e 5ae9 8f3b 6e83 423d
000003b0: 5202 ad3d c50c 6f3d 20a5 913e 96e4 7b3e
000003c0: b07d 6a3d ff02 a83e 4286 ac3e 1bbf d73b
000003d0: 8dd7 ea3d 277e 54bd 6582 e6bc 611d ab3e
000003e0: 1a71 053e c4f9 d23e dc32 8abd e943 753d
000003f0: 30a2 6f3e 5fdc 9a3d b91b 933e d118 8d3d

fc2.bias f4 [64]
0.1351586 -0.13727556 0.25378168 -0.18690464 0.08794291 0.24969406 0.09138213 0.1610698
0.082005024 0.086235695 0.15213545 0.11646037 0.08332054 0.6825442 0.16138288 0.029257668
0.29138288 0.31858283 0.054485146 0.55403054 0.38902238 0.1166911 0.4125459 0.028243013
0.4854449 0.048657194 0.062220175 0.099564545 -0.10918219 0.077772856 0.18885373 0.41858545
-0.112045005 0.04070418 -0.062861465 0.12890394 0.06717664 -0.12589934 0.37382984 0.06690274
0.070061035 0.24132323 0.18022777 -0.052232057 0.012758562 0.13970873 0.14576203 0.09636469
0.034089528 0.17750204 0.13981909 0.11164828 0.03352591 0.17780745 0.069363154 0.3662138
0.1876458 0.11991462 0.3791111 -0.006083771 0.45594347 0.5060705 0.05432402 -0.08871849
00000000: 0467 0a3e f791 0cbe acef 813e ee63 3fbe
00000010: 6a1b b43d cdaf 7f3e 8e26 bb3d 7bef 243e
00000020: 40f2 a73d 579c b03d 65c9 1b3e c682 ee3d
00000030: f6a3 aa3d 37bb 2e3f 8e41 253e c7ad ef3c
00000040: 2330 953e 4a1d a33e d12b 5f3d f2d4 0d3f
00000050: f12d c73e befb ee3d 3739 d33e e45d e73c
00000060: 3c8c f83e c44c 473d 95da 7e3d 7fe8 cb3d
00000070: e99a dfbd 6047 9f3d df62 413e d550 d63e
00000080: da77 e5bd 6db9 263d 83bd 80bd 65ff 033e
00000090: e893 893d c2eb 00be a066 bf3e 4e04 893d
000000a0: 297c 8f3d 701d 773e a18d 383e 48f1 55bd
000000b0: 4a09 513c ce0f 0f3e a442 153e da5a c53d
000000c0: 76a1 0b3d 18c3 353e bc2c 0f3e daa7 e43d
000000d0: 7752 093d 2813 363e 450e 8e3d 6080 bb3e
000000e0: 3826 403e cc95 f53d da1a c23e 5f5a c7bb
000000f0: 6c71 e93e d68d 013f dd82 5e3d 0ab2 b5bd

fc3.weight f4 [1, 64]
0.20040108 0.17577201 -0.64305526 -0.44773653 0.20566358 -0.6113335 0.23106317 0.22070286
0.22970842 0.21165238 0.2480052 0.18906856 0.17447451 -0.6996946 0.1965666 0.1810154
-0.7548186 -0.7603344 0.2161167 -1.1741725 -0.92998797 0.17352834 -0.7736728 0.17810789
-0.66980374 0.17626202 0.17784391 0.21140791 -0.051176127 0.17175542 0.23388538 -0.6946829
0.17082095 0.22422579 0.18207271 0.2516905 0.22199304 0.023257961 -0.6866681 0.25568932
0.23140793 -0.8649839 0.234768 -0.010173777 0.18551001 0.2299765 -0.91572374 0.23224021
-0.056830946 0.20903839 0.17942315 0.2455622 0.16528389 0.20544098 0.24103498 -0.735833
-0.68589634 0.19943477 -0.74672484 0.16909888 -0.9445339 -0.6126947 0.1750294 -1.1719828
00000000: f135 4d3e 94fd 333e 459f 24bf b93d e5be
00000010: 7999 523e 5a80 1cbf d39b 6c3e eeff 613e
00000020: af38 6b3e 67bb 583e 13f5 7d3e 309b 413e
00000030: 72a9 323e 2f1f 33bf c148 493e 1a5c 393e
00000040: cb3b 41bf 46a5 42bf b24d 5d3e 494b 96bf
00000050: b113 6ebf 6ab1 313e 6c0f 46bf ea61 363e
00000060: 4278 2bbf 087e 343e b71c 363e 517b 583e
00000070: 0f9e 51bd a7e0 2f3e a67f 6f3e bdd6 31bf
00000080: b0eb 2e3e 729b 653e 4571 3a3e 94dd 803e
00000090: 2552 633e 7b87 be3c 7bc9 2fbf b6e9 823e
000000a0: 33f6 6c3e 966f 5dbf 0667 703e eaaf 26bc
000000b0: 56f6 3d3e f67e 6b3e df6c 6abf 61d0 6d3e
000000c0: 91c7 68bd 290e 563e b4ba 373e a874 7b3e
000000d0: 2e40 293e 1f5f 523e e0d1 763e 8d5f 3cbf
000000e0: e796 2fbf a138 4c3e 5c29 3fbf 4228 2d3e
000000f0: f9cc 71bf 8fd9 1cbf e83a 333e 8803 96bf
