Radiomics_local_global_framework/model_og/models/lasso_feature_selection/Neural_Network/global_flair_t1ce___local_t2/model.pt (torch, 510004 bytes, 5 tensors)

fc1.weight f4 [200, 583]
0	0x3c0e226b	0.008675198
1	0x3d148678	0.036261052
2	0x3d0361ac	0.03207557
3	0x3c0c3d35	0.008559515
4	0xbc927a2c	-0.017880522
5	0x3d5aea31	0.053446
6	0x3cac64d6	0.021044176
7	0x3c9bfddb	0.019041946
8	0xbd0f52c1	-0.03499103
9	0xbda6bd79	-0.08141608
10	0x3d56ca6f	0.05243915
11	0x3dac47ea	0.08412154
12	0xbcd75e4c	-0.026290081
13	0xbd0fe490	-0.035130084
14	0xbcb683c4	-0.022279628
15	0xbc60b7ba	-0.013715679
16	0xbd557a7d	-0.052118767
17	0x3d36ec4c	0.044658944
18	0xbcbc2a24	-0.022969313
19	0x3d8234de	0.0635774
20	0x3d033553	0.032033276
21	0x3c719233	0.014744329
22	0x3c2428d0	0.010019496
23	0x3d1d1f1d	0.03835975
24	0xb99c15a9	-0.00029770777
25	0x3d016f0c	0.031600043
26	0xbd32f789	-0.0436931
27	0xbd222ad6	-0.039591633
28	0xbc9fc227	-0.019501759
29	0x3d09c281	0.03363276
30	0xbda647e7	-0.08119183
31	0x3caf9543	0.021433478
32	0x3b8dae3d	0.0043237493
33	0x3c92bd32	0.017912481
34	0x3d8f5ad7	0.06999748
35	0x3ced39c7	0.028958214
36	0x3c16ec1f	0.009211569
37	0xbe2d4aca	-0.16923061
38	0x3d63c9ca	0.055612363
39	0xbd3a8735	-0.0455391
40	0x3db81f2a	0.08990319
41	0xbe3049fa	-0.1721572
42	0x3d0ccd8f	0.034375723
43	0xbd63bcff	-0.055600163
44	0xbbdf9db6	-0.0068242205
45	0x3cccd9ee	0.02500626
46	0xbd257c28	-0.040401608
47	0x3c74c15e	0.01493868
48	0x3cb96341	0.022630336
49	0xbd03676e	-0.03208106
50	0xbcfe8c67	-0.031072808
51	0xbad8f6e4	-0.0016553071
52	0x3d87cbd1	0.06630672
53	0xbdbc528b	-0.09195431
54	0x3cac4c60	0.021032512
55	0x3cdd329d	0.027001673
56	0xbccff6d6	-0.025386255
57	0xbd05c007	-0.032653835
58	0xbc41d242	-0.0118299145
59	0x3d5046d1	0.050848786
60	0x3c1b7e38	0.009490542
61	0x3b831c6b	0.0040011904
62	0xbc481f95	-0.012214561
63	0xbd4da386	-0.050204776
64	0x3ddf656b	0.10908016
65	0xbd88e6f0	-0.06684673
66	0xbc64c588	-0.013963111
67	0xbd4b3e0d	-0.049619723
68	0xbd9e7b42	-0.07738353
69	0xbd156279	-0.036470864
70	0xbd6ede5a	-0.05831752
71	0xbd553726	-0.052054547
72	0x3de7c7df	0.11317419
73	0x3ccc8611	0.024966272
74	0x3dbebab2	0.09312953
75	0xbc8f8095	-0.017517367
76	0x3aa5f6b3	0.0012662023
77	0xbd0d0fcd	-0.034438897
78	0xbcd0d8e1	-0.02549404
79	0x3d594182	0.05304099
80	0x3d8461ea	0.06463988
81	0x3de05477	0.109536104
82	0xbcf9a3f2	-0.030473683
83	0xbd9546d2	-0.072888985
84	0x3c3a6528	0.011376657
85	0xbc55721d	-0.013027695
86	0x3b533ad3	0.0032231107
87	0xbda72994	-0.08162227
88	0x3d80b420	0.06284356
89	0xbd532636	-0.051550113
90	0xbde8ab3b	-0.113607846
91	0x3b3c5d7c	0.0028742244
92	0xbda3d34b	-0.07999285
93	0x3e5e8179	0.21729077
94	0xba12c6c7	-0.0005599078
95	0x3cad5acb	0.021161458
96	0xbcdc8cc3	-0.02692259
97	0xbd231d0b	-0.03982262
98	0x3d1577bd	0.036491144
99	0x3d8e4003	0.06945803
100	0x3cb45998	0.022015378
101	0x3daffc7f	0.08593082
102	0xbdbc7d86	-0.09203629
103	0xbb76ca51	-0.003765721
104	0x3d31a11e	0.043366544
105	0xbdb91b2f	-0.09038388
106	0xbcf4a197	-0.029862208
107	0xbb791762	-0.0038008322
108	0x3d13e503	0.036107074
109	0xbcda6cec	-0.026663266
110	0x3da9b1d7	0.082858734
111	0x3d3e68bf	0.046486612
112	0xbdc60ea2	-0.0967076
113	0x3b2742d7	0.0025522017
114	0xbb954bd6	-0.0045561595
115	0x3e1d25f1	0.15346505
116	0x3e4b5e61	0.19860221
117	0xbc4092ce	-0.011753751
118	0xbbebabee	-0.0071921265
119	0x3d0f7bab	0.03503005
120	0xbd422993	-0.04740293
121	0xbcbd935a	-0.023141552
122	0x3cf29b20	0.029614985
123	0x3e4c95fb	0.19979088
124	0xbd06bd3e	-0.03289532
125	0x3dcbeda8	0.09957439
126	0xbd459881	-0.048241142
127	0xbca025f1	-0.019549342
128	0xbc6c3ece	-0.014419271
129	0x3d266b34	0.04062958
130	0xbe0b4702	-0.13601306
131	0xbbb04796	-0.0053796275
132	0x3d09b133	0.033616256
133	0xbd8dd2cd	-0.06924973
134	0xbd1cfdf8	-0.03832814
135	0x3cc857da	0.024455953
136	0x3c798f31	0.015231893
137	0xbd071507	-0.032979038
138	0xbdd2854a	-0.10279329
139	0x3d2afcac	0.041744873
140	0x3d08d96d	0.03341048
141	0xbd612a5e	-0.054972045
142	0xbe10ef51	-0.14153792
143	0xbcbddf14	-0.023177661
144	0x3d9f6100	0.07782173
145	0xbd745971	-0.05965561
146	0xbd757a4c	-0.059931085
147	0x3e461535	0.19344027
148	0x3e04bfea	0.12963834
149	0xbcf9d8dd	-0.030498916
150	0x3e1defa3	0.15423445
151	0xbd26c4ea	-0.040715136
152	0xbd0fdc45	-0.035122175
153	0xbd5afce0	-0.053463817
154	0x3c7faf77	0.015605799
155	0xbd058523	-0.032597672
156	0x3cbb431c	0.022859149
157	0x3b4e3a18	0.0031467732
158	0x3d4ba15f	0.049714442
159	0xba82e9fd	-0.0009987947
160	0x3aefd507	0.001829774
161	0xbc17857d	-0.009248135
162	0x3d11a10e	0.035553984
163	0xbcd42fd0	-0.025901705
164	0x3cb66dc2	0.022269133
165	0xbcd95893	-0.026531493
166	0x3df9d53d	0.12198875
167	0x3d68e224	0.05685629
168	0x3c59cafb	0.013293023
169	0x3d957978	0.07298559
170	0xbcceac99	-0.025228785
171	0x3d4df01c	0.050277814
172	0xbe205c3f	-0.15660189
173	0xbde09315	-0.10965554
174	0xbea4166f	-0.32048365
175	0xbd4e8c0e	-0.050426535
176	0x3d172d73	0.036908578
177	0x3c719990	0.014746085
178	0xbc9c6825	-0.019092629
179	0x3df68297	0.12036627
180	0x3dc379f6	0.095447466
181	0xbd039244	-0.03212191
182	0x3d72f28a	0.059313335
183	0xbc7c4506	-0.015397316
184	0xbbbe3973	-0.0058051883
185	0xbe2d43aa	-0.16920343
186	0xbc0b59e0	-0.008505315
187	0x3ba691ac	0.0050832834
188	0x3cc815d8	0.024424478
189	0xbc0a1493	-0.008427757
190	0xbd27ffeb	-0.041015547
191	0x3da18325	0.07886342
192	0x3cd5a666	0.026080322
193	0xbdc51fdb	-0.096252166
194	0x3de96c1a	0.11397572
195	0x3cd58e85	0.026068935
196	0x3d76d489	0.060261283
197	0xbab49194	-0.0013776296
198	0x3cbfae2d	0.023398483
199	0x3d5bc04a	0.053650178
200	0xbab5e58d	-0.0013877616
201	0xbd9f423b	-0.07776304
202	0x3c7b9e81	0.0153576145
203	0x3d03f8cf	0.032219704
204	0xbcbc4d46	-0.022986066
205	0xbc7f6909	-0.015589007
206	0x3d9d00ac	0.07666144
207	0xb947ca22	-0.00019053419
208	0x3cea4e75	0.028601864
209	0xba849f32	-0.0010118245
210	0x3c7cf565	0.015439366
211	0xbc901204	-0.017586716
212	0xbd1dffb3	-0.038573932
213	0xbd7febbf	-0.062480684
214	0xbc072f52	-0.008251028
215	0x3cf824d1	0.030290993
216	0x3d9a47fc	0.07533261
217	0x3db736e8	0.089460194
218	0xbd0860e6	-0.033295535
219	0xbdeab433	-0.114601515
220	0xbc9e414a	-0.019318242
221	0xbd7d7c28	-0.061885983
222	0xbe2e1fe6	-0.17004356
223	0x3deb05e2	0.114757314
224	0x3dd48431	0.10376776
225	0x3e2337e1	0.15939285
226	0x3e35efd8	0.17767274
227	0x3e3d3ed6	0.18481001
228	0x3d962220	0.073307276
229	0x3e0b5883	0.13607983
230	0x3e169975	0.14706977
231	0x3daef549	0.08542878
232	0x3e23ea52	0.16007355
233	0xbcb1d284	-0.021706827
234	0x3c9fe08f	0.019516258
235	0x3e2528ac	0.16128796
236	0x3d74134d	0.05958872
237	0x3e1240a3	0.1428247
238	0x3e86ed31	0.26352838
239	0xbd8ff6f9	-0.07029528
240	0xbe7b7e1d	-0.24559827
241	0x3d20ec20	0.039287686
242	0x3e19fff6	0.15039048
243	0x3dc51bc2	0.09624435
244	0x3cf276a2	0.029597584
245	0x3d3f6dc1	0.04673553
246	0x3eebdc29	0.46066406
247	0xbc816ff0	-0.015800446
248	0x3e3f1a26	0.18662319
249	0x3e5ea7e2	0.2174373
250	0xbeba1811	-0.36346486
251	0x3dae0c7a	0.084984735
252	0xbf7acf72	-0.97972786
253	0x3f0a54c7	0.5403561
254	0x3e2f901f	0.17144822
255	0x3c60d63e	0.013722954

fc1.bias f4 [200]
0	0xbeefdca6	-0.4684803
1	0xbea58424	-0.32327378
2	0xbf09ae1b	-0.5378129
3	0xbe83541e	-0.25650114
4	0xbd9f8080	-0.07788181
5	0xbecce772	-0.4002033
6	0xbe01b8ac	-0.12668103
7	0xbe421e0f	-0.18956779
8	0xbf3bd0c9	-0.73365456
9	0xbe245bd8	-0.1605066
10	0xbf4405a3	-0.765711
11	0xbe6e86f5	-0.2329367
12	0xbde4f638	-0.11179775
13	0xbe89ffed	-0.26953068
14	0xbef3e667	-0.4763672
15	0xbe5db8e7	-0.21652566
16	0xbe10fc91	-0.14158846
17	0xbe81e3e5	-0.25369182
18	0xbe9394d7	-0.28824493
19	0xbf4cf3e3	-0.8005964
20	0xbd8b9737	-0.06815951
21	0xbeb676b1	-0.3563743
22	0xbf9e9f58	-1.2392378
23	0xbe5cb077	-0.21551691
24	0xbe98a3ba	-0.29812413
25	0xbeb81815	-0.35955873
26	0xbf1f0ac4	-0.621258
27	0xbf286b84	-0.65789056
28	0xbfb5edb0	-1.4213161
29	0xbea658f5	-0.32489744
30	0xbf0a400c	-0.5400398
31	0xbf01dd6d	-0.50728494
32	0xbe52796f	-0.20554136
33	0xbe950dbd	-0.29112044
34	0xbfb83c6b	-1.4393438
35	0xbeb06664	-0.34453118
36	0xbe3a22e9	-0.1817738
37	0xbefa9a74	-0.48945963
38	0xbeb5cc84	-0.35507596
39	0xbe7229be	-0.23648736
40	0xbebfd923	-0.3747035
41	0xbe702652	-0.23452118
42	0xbf53f376	-0.82793367
43	0xbe98fc2f	-0.298799
44	0xbe990772	-0.29888493
45	0xbeb9c689	-0.36284283
46	0xbec916ff	-0.39275357
47	0xbe1c473b	-0.15261547
48	0xbead6abc	-0.33870494
49	0xbed7ec2f	-0.4217238
50	0xbfc82b6f	-1.5638255
51	0xbeaeda44	-0.34150898
52	0xbe51eda9	-0.20500816
53	0xbe749efd	-0.23888774
54	0xbf0eca38	-0.5577731
55	0xbf797fe8	-0.97460794
56	0xbf16be77	-0.58884376
57	0xbe740dd2	-0.23833397
58	0xbede7c8f	-0.43454406
59	0xbe532815	-0.20620759
60	0xbe6c2620	-0.23061419
61	0xbf8a0f8b	-1.0785993
62	0xbe9a7f39	-0.30175188
63	0xbe802a7a	-0.25032407
64	0xbf2d23ad	-0.6763256
65	0xbebb6d4c	-0.36606824
66	0xbe6408f0	-0.22269034
67	0xbeab48bb	-0.33453926
68	0xbec97f58	-0.39354968
69	0xbefebde5	-0.49754253
70	0xbe4da032	-0.20080641
71	0xbe72f2cb	-0.2372543
72	0xbed49769	-0.41521767
73	0xbeaacbd6	-0.3335864
74	0xbec2336f	-0.37929866
75	0xbea09c13	-0.31369075
76	0xbecf00ac	-0.404302
77	0xbea7480e	-0.3267216
78	0xbec79240	-0.38978767
79	0xbe912179	-0.2834585
80	0xbf02ce82	-0.51096356
81	0xbdab1850	-0.083542466
82	0xc0053c6c	-2.0818129
83	0xbe83a1d6	-0.2570941
84	0xbea3fa5d	-0.3202695
85	0xbee3e657	-0.44511673
86	0xbf547360	-0.8298855
87	0xbd5e78b4	-0.05431433
88	0xbe8396fa	-0.25701123
89	0xbf9f2dfa	-1.2435906
90	0xbeb5c573	-0.35502204
91	0xbe2f9b5b	-0.17149107
92	0xbea2d2a4	-0.3180133
93	0xbee57b23	-0.44820508
94	0xbe3b2fff	-0.18280028
95	0xbecf3786	-0.4047205
96	0xbe4191af	-0.1890323
97	0xbf6516cc	-0.8948791
98	0xbe4a9e84	-0.19787031
99	0xbe53b2f8	-0.2067374
100	0xbee2da74	-0.44307292
101	0xbf72bc37	-0.94818443
102	0xbfeda5a9	-1.856618
103	0xbe3d03bb	-0.18458454
104	0xbe3cc1ca	-0.184333
105	0xbea1ed68	-0.3162644
106	0xbfad1cab	-1.3524374
107	0xbf419903	-0.756241
108	0xbec6f4f9	-0.38858774
109	0xbf0a3fe9	-0.5400377
110	0xbe826279	-0.25465754
111	0xbf824a8c	-1.0179
112	0xbe383227	-0.17987882
113	0xbee4ee22	-0.4471293
114	0xbea497bb	-0.3214701
115	0xbe9fa4ff	-0.3118057
116	0xbf2735f2	-0.6531669
117	0xbeaa7bfb	-0.33297715
118	0xbdfa221c	-0.12213537
119	0xbe83a148	-0.25708985
120	0xbe9012f3	-0.28139457
121	0xbedf5fc2	-0.43627745
122	0xbefa36b8	-0.48869872
123	0xbec5fab6	-0.3866784
124	0xbe9c74e3	-0.30557927
125	0xbdc1be64	-0.09460142
126	0xbe1ecd2d	-0.15507956
127	0xbda284e5	-0.07935504
128	0xbeb40e69	-0.35167244
129	0xbeee7890	-0.46576357
130	0xbe5465ac	-0.2074191
131	0xbe41e733	-0.18935852
132	0xbe4dae28	-0.20085967
133	0xbe79e39c	-0.24403232
134	0xbf0c40e9	-0.54786545
135	0xbecbd26e	-0.39808983
136	0xbf055fde	-0.52099407
137	0xbe66f893	-0.22555761
138	0xbf4fc1b1	-0.81154925
139	0xbe9882a4	-0.2978717
140	0xbf125b34	-0.57170415
141	0xbe0f08fe	-0.13968274
142	0xbf48be36	-0.7841524
143	0xbec03781	-0.37542346
144	0xbe06045a	-0.13087597
145	0xbf1d4f5d	-0.61449224
146	0xbedb9845	-0.4288961
147	0xbf627e32	-0.8847381
148	0xbe927a3f	-0.2860889
149	0xbe1ca4bd	-0.15297218
150	0xbea2adbd	-0.31773177
151	0xbe81277f	-0.25225446
152	0xbe6550ef	-0.22394155
153	0xbeda75d5	-0.42668024
154	0xbed54a0b	-0.41658053
155	0xbf373518	-0.7156539
156	0xbe8a6154	-0.2702738
157	0xbe97ce20	-0.29649448
158	0xbe7e7f5c	-0.24853271
159	0xbecf2d10	-0.40464067
160	0xbee113cf	-0.43960425
161	0xbe8ffc66	-0.28122252
162	0xbe6114b9	-0.21980561
163	0xbebdb4e0	-0.3705206
164	0xbe93aec6	-0.2884428
165	0xbf5229b0	-0.8209486
166	0xbe946570	-0.2898364
167	0xbe76d455	-0.24104436
168	0xbd8aae33	-0.06771507
169	0xbe3d487a	-0.18484679
170	0xbed021db	-0.4065083
171	0xbee84a4d	-0.45369187
172	0xbf16764c	-0.58774257
173	0xbe7bf8e5	-0.24606664
174	0xbe6f11ee	-0.23346683
175	0xbf214b13	-0.6300518
176	0xbfc13788	-1.5095072
177	0xbe96b793	-0.2943693
178	0xbec1c7c0	-0.3784771
179	0xbea3a90e	-0.31964916
180	0xbef20303	-0.47267923
181	0xbec5b25c	-0.3861264
182	0xbec40b85	-0.3829004
183	0xbf4074a8	-0.75178003
184	0xbea43056	-0.32068127
185	0xbed96ca5	-0.42465702
186	0xbe16abba	-0.14713946
187	0xbe424be6	-0.18974265
188	0xbf0a0d45	-0.539265
189	0xbebc7306	-0.36806506
190	0xbe91486d	-0.2837557
191	0xbd9d0469	-0.07666857
192	0xbeb39f4d	-0.35082474
193	0xbef3eb82	-0.47640616
194	0xbf69e720	-0.91368294
195	0xbe626ca9	-0.22111763
196	0xbe5d3bd9	-0.21604861
197	0xbe0ba194	-0.13635856
198	0xbe38c6a6	-0.18044528
199	0xbec5b596	-0.38615102

fc2.weight f4 [50, 200]
0	0xbe91475f	-0.28374764
1	0x3e841b7b	0.25802216
2	0x3d87e78b	0.0663596
3	0xbd8e5270	-0.069493175
4	0x3eaaf6f9	0.3339155
5	0xbdcf634d	-0.10126362
6	0xbe3a73df	-0.18208264
7	0x3e6048d5	0.21902783
8	0x3e7c2d42	0.2462664
9	0x3e055fa5	0.13024767
10	0xbbe7ba54	-0.0070717726
11	0xbf18bd33	-0.59663695
12	0x3e825ed8	0.25462985
13	0xbeebea10	-0.46077013
14	0x3e10ee98	0.14153516
15	0x3e71cb59	0.23612727
16	0x3e4a9389	0.19782843
17	0xbc326171	-0.01088749
18	0x3e748fef	0.23883031
19	0xbc02be83	-0.007979992
20	0x3ee3fa7a	0.44527036
21	0x3dac0191	0.08398736
22	0xbc9bfa8d	-0.01904037
23	0xbeb09a62	-0.34492785
24	0xbe601cf3	-0.21886043
25	0xbd70ef24	-0.058821812
26	0xbd5130b9	-0.051071856
27	0x3e05525d	0.130197
28	0xbb12eab8	-0.0022417735
29	0xbe9a4bac	-0.30135858
30	0xbddef095	-0.10885731
31	0xbe513074	-0.2042864
32	0xbed62897	-0.41827843
33	0x3c7bb730	0.0153634995
34	0x3d463d87	0.04839852
35	0xbbb6f77e	-0.0055837026
36	0x3d502b8b	0.050822776
37	0xbb5a74c0	-0.0033333749
38	0x3dec193c	0.115282506
39	0x3e1bf3ae	0.15229675
40	0x3be5531d	0.0069984333
41	0xbcb6cea3	-0.022315329
42	0xbcf146bd	-0.029452676
43	0xbe76365b	-0.24044172
44	0x3ec67d92	0.38767678
45	0x3d199d8f	0.037503775
46	0x3dfcff28	0.12353355
47	0xbf0859a4	-0.5326178
48	0xbe2658fa	-0.1624488
49	0xbd7d2807	-0.06180575
50	0x3c11ee55	0.00890692
51	0xbc30a9ae	-0.010782642
52	0x3e8f69b3	0.2801033
53	0xbe79ff8f	-0.24413894
54	0xbc4301d9	-0.011902296
55	0xbdc75018	-0.097320735
56	0xbd27d467	-0.040974047
57	0x3e087e5a	0.1332945
58	0xbd63c586	-0.055608295
59	0x3df38ac4	0.11891702
60	0xbdd1b775	-0.1024007
61	0x3d83c21e	0.06433509
62	0x3ee87550	0.45402002
63	0xbd2136c6	-0.039358877
64	0x3e07a48e	0.13246366
65	0x3d394b76	0.04523798
66	0x3ef940c4	0.48682225
67	0x3d52c526	0.051457547
68	0x3cd7f13d	0.026360149
69	0x3e4a9d45	0.19786556
70	0x3d826b7d	0.06368158
71	0xbd91eaff	-0.071249
72	0xbd84f943	-0.064928554
73	0xbe04b0b3	-0.1295803
74	0xbc9e2f3d	-0.019309634
75	0x3e2450ac	0.16046399
76	0xbf1e1843	-0.6175577
77	0x3de5f95b	0.112292014
78	0x3cbd1ea5	0.023085902
79	0xbed0b3e0	-0.40762234
80	0x3e0e79fe	0.13913724
81	0xbea601ea	-0.32423335
82	0xbc2a381c	-0.010389354
83	0xbf601967	-0.8753876
84	0x3e0bf404	0.13667303
85	0xbd6dcdfb	-0.058057766
86	0xbe0a04f1	-0.13478447
87	0x3f06c284	0.5264056
88	0xbe47e838	-0.19522178
89	0x3d5a979d	0.053367246
90	0xbe97e1c3	-0.2966443
91	0x3cebbe49	0.028777258
92	0xbddda142	-0.10821773
93	0x3e52d959	0.20590724
94	0x3e2f435f	0.17115544
95	0xbe00ed2e	-0.12590477
96	0x3e5bf7e8	0.21481287
97	0x3d6c3ba0	0.05767405
98	0xbeafb0f3	-0.3431469
99	0xbeea7679	-0.45793512
100	0xbeeba34f	-0.46023032
101	0xbeadadc5	-0.33921638
102	0xbe3af4af	-0.18257402
103	0xbce00f60	-0.027351081
104	0x3b58e808	0.0033097286
105	0xbea2fd8a	-0.3183406
106	0xbd08be84	-0.033384815
107	0xbd8c4b78	-0.06850332
108	0x3d10ec0a	0.035381354
109	0xbcd6f433	-0.02623949
110	0xbe19a22f	-0.15003274
111	0xbc2e300c	-0.010631572
112	0x3ea7da64	0.32783806
113	0x3e5a7486	0.21333513
114	0xbf258898	-0.6466155
115	0x3d4481d6	0.047975384
116	0xbdf10371	-0.117682345
117	0x3d808ad0	0.062764764
118	0x3e3a49e3	0.18192248
119	0x3e77306b	0.24139564
120	0xbc27e845	-0.010248248
121	0x3d8f62f5	0.070012964
122	0xbe42a216	-0.19007143
123	0xbe071849	-0.13192858
124	0x3be75a37	0.007060315
125	0xbf4c4862	-0.7979795
126	0xbea581bf	-0.3232555
127	0x3e2130e0	0.157413
128	0xbedb677b	-0.42852387
129	0xbdb41ab1	-0.087941535
130	0xbea9d8a9	-0.3317311
131	0x3c3aaed7	0.011394224
132	0x3e071a0a	0.13193527
133	0x3e28113a	0.16412821
134	0x3d28837c	0.04114102
135	0x3dfa828c	0.12231931
136	0x3e10fada	0.14158192
137	0x3e284721	0.16433384
138	0xbeff5d95	-0.49876085
139	0xbefbfce7	-0.49216387
140	0xbd00919a	-0.031388856
141	0x3eb8b39a	0.36074525
142	0x3d81eb33	0.06343689
143	0x3e454d8e	0.19267866
144	0xbd467edf	-0.048460837
145	0xbdb8a2db	-0.09015437
146	0xbf317088	-0.69312334
147	0x3dd49eda	0.10381861
148	0xbe40cbe6	-0.18827781
149	0x3e493fd6	0.19653258
150	0xbed0c486	-0.40774935
151	0xbf3b3dd6	-0.7314123
152	0xbf0243fa	-0.50884974
153	0x3e8e0539	0.2773836
154	0xbeb40888	-0.3516276
155	0xbc803fd4	-0.015655436
156	0x3db152a4	0.086583406
157	0x3ea710b6	0.32629937
158	0xbf5575cc	-0.8338287
159	0xbe2150c8	-0.15753472
160	0x3e06f39f	0.13178872
161	0x3bc087c2	0.0058755586
162	0x3de0f2c2	0.109838024
163	0xbd850ad9	-0.0649621
164	0xbe3d68da	-0.18497029
165	0xbe57d523	-0.21077399
166	0xbed2ba39	-0.41157702
167	0x3e54280a	0.20718399
168	0x3d79bfea	0.06097404
169	0xbe1fc027	-0.15600644
170	0x3e92d397	0.28677055
171	0xbd96878a	-0.07350071
172	0x3e4e3f6b	0.2014138
173	0xbe9c6660	-0.30546856
174	0xbd986582	-0.07441236
175	0x3cf947bb	0.030429712
176	0x3c03e5bf	0.008050381
177	0xbdd8eb3c	-0.105917424
178	0x3d7976f8	0.060904473
179	0xbd68c4cb	-0.0568283
180	0x3d276687	0.040869262
181	0x3eaa5839	0.33270434
182	0xbebe4f1e	-0.37169737
183	0x3cb847d5	0.02249519
184	0xbe6587f0	-0.22415137
185	0xbda11d37	-0.078669004
186	0xbebc5680	-0.36784744
187	0xbe6786db	-0.22610037
188	0x3d12efcc	0.03587322
189	0xbd82ead7	-0.063924484
190	0xbee740f7	-0.45166752
191	0xbce4c498	-0.027925774
192	0xbe86a4ff	-0.26297757
193	0x3d48bc81	0.049007896
194	0x3d39961c	0.04530917
195	0x3df10e93	0.11770358
196	0xbeb625a3	-0.3557559
197	0x3ec6b03f	0.3880634
198	0xbe88f4a5	-0.2674915
199	0xbeb513e2	-0.35366732
200	0x3cc90d75	0.02454255
201	0xbd1622a8	-0.036654145
202	0xbd037038	-0.032089442
203	0xbd875b3f	-0.06609201
204	0xbd699176	-0.057023488
205	0xbd913780	-0.07090664
206	0x3ccbcf6d	0.024879182
207	0xbd15243f	-0.03641152
208	0x3d43fd1d	0.04784881
209	0xbd8ad529	-0.06778938
210	0x3d59d413	0.053180765
211	0xbd306d5c	-0.043073043
212	0xbcebfb8d	-0.028806472
213	0x3cc2c8e9	0.023777442
214	0xbd301e6d	-0.042997766
215	0x3cc0e15a	0.023544956
216	0xbc52f19f	-0.01287499
217	0x3d4e3bac	0.050349876
218	0xbc08ac67	-0.008341885
219	0xbd7a8132	-0.061158367
220	0xbd13c84a	-0.036079682
221	0xbc94ab92	-0.018148217
222	0xbb472b0d	-0.003039065
223	0xbd8de032	-0.069275275
224	0x3d68b198	0.05680999
225	0x3d4a4433	0.049381446
226	0x3d42aed0	0.047529995
227	0x3d5b37f9	0.053520177
228	0xbd342a3b	-0.043985587
229	0x3c02636f	0.007958277
230	0x3c8a20dd	0.016861374
231	0x3ccfc3d9	0.025361942
232	0xbd6fc329	-0.05853573
233	0x3d5e0991	0.054208342
234	0xbd3e6d36	-0.04649087
235	0xbaa4ce8e	-0.0012573765
236	0xbd5f2682	-0.054480083
237	0x3c69bcf3	0.01426624
238	0x3d1fef1d	0.039046396
239	0xbd207e5a	-0.039183
240	0x3caa2392	0.020768914
241	0x3d654756	0.055976234
242	0xbd8fa3a4	-0.07013634
243	0xbd5f5694	-0.054525927
244	0xbc4b3ada	-0.012404168
245	0xbcb8707c	-0.022514574
246	0x3cfda181	0.0309608
247	0x3c864348	0.016389504
248	0xbc2f28ce	-0.010690881
249	0xbd626194	-0.05526884
250	0x3d4a504e	0.04939299
251	0x3d041ca6	0.032253884
252	0x3c957ca4	0.01824791
253	0xbc49c303	-0.012314561
254	0xbc8b1a25	-0.01698024
255	0x3ba72645	0.0051009976

fc2.bias f4 [50]
0	0x3eeb8989	0.46003368
1	0x3b6c00ff	0.0036011336
2	0x3d3f5bb8	0.04671833
3	0x3cf98c12	0.030462299
4	0x3d9cb151	0.07651008
5	0x3ccac827	0.024753643
6	0x3da9b858	0.08287114
7	0xbc11ee8e	-0.0089069735
8	0x3df1eddb	0.118129455
9	0x3ea5a60e	0.32353252
10	0x3de7132f	0.11282956
11	0x3f2095c1	0.62728506
12	0x3cf73908	0.030178562
13	0x3db206ee	0.08692728
14	0x3e989eda	0.29808694
15	0x3e34b94c	0.1764881
16	0xb9fa72c4	-0.00047769223
17	0x3cb9865a	0.022647072
18	0x3ea0e466	0.31424254
19	0x3cb17a91	0.02166489
20	0x3e819e0f	0.25315902
21	0x3ee95719	0.45574263
22	0x3e4f26a9	0.20229591
23	0xbc8e33f6	-0.017358761
24	0x3e47a131	0.19495083
25	0x3eb819c4	0.35957158
26	0x3ba50e3c	0.0050370973
27	0x3e940ac9	0.28914478
28	0x3df9b4f3	0.121927164
29	0x3ecfe476	0.4060399
30	0x3e05641f	0.13026474
31	0x3e9da5a4	0.30790436
32	0x3bd2ae37	0.0064294594
33	0x3da36749	0.079786845
34	0x3dc0a476	0.094063684
35	0x3d2c6ae5	0.04209413
36	0x3dbc138d	0.091834165
37	0x3e0ffb1a	0.14060631
38	0xbe432721	-0.19057895
39	0x3f05e80b	0.52307194
40	0xbea55ab3	-0.3229576
41	0x3d7ea4cc	0.06216888
42	0xbd33b8a9	-0.043877278
43	0x3ea6c574	0.3257252
44	0x3eb85887	0.3600504
45	0x3e1cdab0	0.15317798
46	0x3d6e0d58	0.058118194
47	0x3e1df2ef	0.15424703
48	0x3f0238a8	0.508677
49	0x3de0b18b	0.10971364

fc3.weight f4 [1, 50]
0	0xbf636774	-0.8882973
1	0xbdccd834	-0.10002175
2	0x3e4b1715	0.19833024
3	0x3e6914ad	0.22761793
4	0x3e43ed58	0.19133508
5	0x3e544fa3	0.20733504
6	0x3e649df8	0.22325885
7	0x3b2bcf65	0.0026216146
8	0x3e9541fe	0.2915191
9	0xbe983703	-0.2972947
10	0x3e82fd53	0.25583896
11	0xbf7cfa43	-0.9881937
12	0xbdb126ca	-0.086499766
13	0x3e845780	0.25848007
14	0xbf00ddaa	-0.5033823
15	0xbf55828e	-0.83402336
16	0x3e35b75f	0.17745732
17	0xbd9bcc7f	-0.07607364
18	0xbf086333	-0.53276366
19	0x3e4514fa	0.19246283
20	0xbf20521d	-0.62625295
21	0xbf21859b	-0.6309449
22	0xbf055768	-0.52086496
23	0x3e38a728	0.18032515
24	0x3e94304d	0.289431
25	0xbf1629ca	-0.58657515
26	0x3e3941cb	0.18091504
27	0xbf242036	-0.6411165
28	0x3e718a70	0.23587966
29	0xbf4b6e75	-0.7946542
30	0xbef1f11d	-0.47254267
31	0xbf52de51	-0.8237048
32	0xbd876b6e	-0.066122875
33	0x3e3dda33	0.18540268
34	0x3e9408e8	0.28913045
35	0xbc55b944	-0.013044659
36	0x3e83b7e8	0.25726247
37	0x3e879e55	0.26487985
38	0xbf00c34b	-0.50297993
39	0xbf11dced	-0.5697773
40	0xbe1dbfb0	-0.15405154
41	0x3e3efdf7	0.18651567
42	0xbd7a18e3	-0.06105889
43	0xbf0d183d	-0.5511511
44	0x3f1413c3	0.57842654
45	0xbef35549	-0.47526005
46	0x3e5bfad9	0.2148241
47	0x3e888fd0	0.2667222
48	0xbf2f7c8a	-0.68549407
49	0x3e6e2c85	0.2325917
